Lab5/model_25_0.001.pth (torch, 378966 bytes, 54 tensors)

layer1.0.weight f4 [16, 3, 3, 3]
-0.036081675 0.20500828 0.16387491 0.024377016 0.20307983 -0.080769785 -0.11912674 0.25603732
0.20742199 -0.0463259 -0.088833354 0.088714205 0.009849281 0.18514891 0.100821644 0.06775252
-0.15702707 -0.0987726 -0.02773847 -0.15781176 0.16087605 0.04183643 -0.054201987 0.009639919
0.11151572 -0.14171486 -0.07732776 -0.06530351 -0.13112186 -0.010844275 0.06917246 0.032711416
0.0839653 -0.044739123 0.04402824 -0.047619097 -0.18512918 -0.013267112 -0.031163033 0.104403734
0.11194886 -0.049816348 -0.11432547 0.1463828 0.16498423 0.109483555 0.05850846 0.09631191
-0.20778205 -0.20745558 -0.2101913 0.16732268 -0.0019845203 -0.009121509 0.09793947 -0.22250454
-0.21722011 0.04511125 -0.021772968 0.14679258 -0.019576157 0.0810611 0.1835139 0.03601732
0.14742258 -0.08787801 0.10967425 -0.109466806 -0.063806064 -0.18518133 -0.1342326 0.04666916
-0.121913314 -0.03287777 -0.030251985 0.19199334 0.07285848 -0.14107479 0.007080718 -0.049708277
0.14021328 0.056335837 -0.18946384 0.10949076 -0.05545619 -0.13927743 -0.18758242 -0.041714873
-0.14146636 -0.16971102 -0.041605018 0.037224885 -0.11470714 -0.08230113 -0.12599207 0.058810018
0.08439543 0.10395849 -0.07850255 -0.1504611 0.06409735 0.027469331 0.108871706 0.13897714
0.08358804 -0.040377755 0.02146156 0.023841424 0.08298137 -0.14358433 -0.11812535 0.14838286
0.16419612 0.19746245 -0.12134393 0.14800519 0.14227763 0.11041885 0.001918251 0.0814234
-0.12432252 -0.19002984 -0.02669749 -0.08693451 -0.12158412 -0.11805741 0.08235342 0.044512447
0.05770389 0.023371808 0.08783215 0.007836985 0.10657924 0.01319002 0.073969826 -0.030439518
-0.070988834 0.0041853203 0.17930031 0.14978509 -0.060031347 0.023812214 -0.018961534 -0.16184339
-0.017366095 0.070869915 0.16881411 -0.05339871 -0.13037373 -0.15079859 0.06083183 0.01316317
0.17804565 -0.16691884 -0.1839969 -0.20616902 -0.11565789 0.09423511 0.03435855 -0.20281753
-0.11701794 0.038371176 -0.10944228 0.14411557 -0.112454504 -0.13976514 -0.0077223466 0.070069425
-0.106183395 0.1844967 -0.119515724 -0.11770815 -0.031224666 -0.23907213 0.07104539 -0.034633342
0.011760101 -0.11433824 -0.19377144 -0.08138629 0.041337572 -0.16109446 0.031727172 0.027221965
0.15924715 -0.06900785 -0.012205549 -0.062235523 -0.03188161 0.10988738 0.17404379 -0.095650695
-0.10227835 -0.061262924 -0.009376428 -0.15669918 0.17542538 0.0080932705 -0.15408996 -0.10888195
0.13021462 0.12092782 -0.110522255 -0.12640803 -0.019597365 -0.10471168 -0.07394882 0.08527578
0.19726434 -0.05250109 0.05170671 0.18072224 0.10499517 0.08829975 0.15802635 0.09858625
0.0772457 -0.12662385 -0.07918083 0.0034095722 -0.14759947 0.037406515 0.10206467 -0.10281855
0.007107095 0.05112481 -0.12794752 -0.16997384 0.146476 0.11830026 -0.13337035 -0.022262134
0.05014815 0.1266769 -0.18144241 -0.086548865 -0.14822048 -0.17896329 0.059887394 -0.1920249
-0.10898443 -0.24278423 -0.2362721 0.06915657 0.22359557 0.20660658 -0.16901843 -0.10773342
0.15087712 0.16042706 -0.08040021 0.083741136 -0.04325247 -0.12382623 0.14869376 0.08726521
00000000: 61ca 13bd b1ed 513e d3ce 273e 4fb2 c73c
00000010: 29f4 4f3e a16a a5bd b8f8 f3bd 5317 833e
00000020: 6e66 543e 3ac0 3dbd 43ee b5bd cbaf b53d
00000030: e15e 213c ad97 3d3e 947b ce3d d5c1 8a3d
00000040: b4cb 20be 4a49 cabd ca3b e3bc 6899 21be
00000050: b1bc 243e ad5c 2b3d e702 5ebd c0f0 1d3c
00000060: 5b62 e43d b31d 11be 045e 9ebd d9bd 85bd
00000070: cf44 06be 30ac 31bc 4aaa 8d3d 68fc 053d
00000080: 00f6 ab3d 5f40 37bd f556 343d 3e0c 43bd
00000090: 8192 3dbe 4d5e 59bc 9e49 ffbc a0d1 d53d
000000a0: 7245 e53d 3a0c 4cbd 7923 eabd 5fe5 153e
000000b0: a0f1 283e ea38 e03d 91a6 6f3d 2e3f c53d
000000c0: d1c4 54be 3c6f 54be 633c 57be a356 2b3e
000000d0: ba0e 02bb 6272 15bc 7d94 c83d 3bd8 63be
000000e0: f36e 5ebe 93c6 383d 395d b2bc cb50 163e
000000f0: 2d5e a0bc 5d03 a63d 11eb 3b3e e686 133d
00000100: f2f5 163e 63f9 b3bd e59c e03d 2230 e0bd
00000110: c1ac 82bd 2da0 3dbe 4574 09be 2928 3f3d
00000120: b0ad f9bd d7aa 06bd 03d3 f7bc e799 443e
00000130: d436 953d e975 10be 5e05 e83b e89a 4bbd
00000140: 1294 0f3e 68c0 663d cf02 42be b13c e03d
00000150: 0826 63bd be9e 0ebe 9b15 40be 37dd 2abd
00000160: 8fdc 10be bac8 2dbe 066a 2abd 1f79 183d
00000170: 94eb eabd 7f8d a8bd 1104 01be c6e2 703d
00000180: 83d7 ac3d 30e8 d43d f2c5 a0bd 7912 1abe
00000190: 7945 833d 5d07 e13c 21f8 de3d 0650 0e3e
000001a0: 3530 ab3d 2563 25bd 27d0 af3c 174f c33c
000001b0: 23f2 a93d c507 13be b4eb f1bd adf1 173e
000001c0: 0723 283e 9933 4a3e 2b83 f8bd ac8e 173e
000001d0: 3ab1 113e 4723 e23d d36d fb3a 50c1 a63d
000001e0: ce9c febd 2f97 42be b2b4 dabc b80a b2bd
000001f0: 1801 f9bd 15c8 f1bd e9a8 a83d af52 363d
00000200: ea5a 6c3d 3c76 bf3c 58e1 b33d b366 003c
00000210: 3746 da3d f41a 583c 7e7d 973d 4c5c f9bc
00000220: 9862 91bd 0325 893b 809a 373e 4361 193e
00000230: 6ee3 75bd d511 c33c 3855 9bbc 46ba 25be
00000240: 5743 8ebc 3f24 913d 9bdd 2c3e 9bb8 5abd
00000250: b180 05be f26a 1abe cc2a 793d 56aa 573c
00000260: 9951 363e c6ec 2abe af69 3cbe f91d 53be
00000270: 0bde ecbd 56fe c03d 8dbb 0c3d 66af 4fbe
00000280: 1aa7 efbd 182b 1d3d 4623 e0bd 0893 133e
00000290: 8c4e e6bd 981e 0fbe bd0b fdbb 8f80 8f3d
000002a0: ae76 d9bd b4ec 3c3e a9c4 f4bd f810 f1bd
000002b0: dfca ffbc 53cf 74be 3f80 913d b1db 0dbd
000002c0: 70ad 403c 2b2a eabd 056c 46be dbad a6bd
000002d0: 9651 293d f2f5 24be 5af4 013d 9900 df3c
000002e0: af11 233e fd53 8dbd c8f9 47bc adea 7ebd
000002f0: 4b96 02bd a20c e13d 8938 323e 83e4 c3bd
00000300: 5077 d1bd d5ee 7abd 979f 19bc c075 20be
00000310: b6a2 333e a399 043c c2c9 1dbe 80fd debd
00000320: fb56 053e 01a9 f73d 7e59 e2bd 1b71 01be
00000330: a78a a0bc 1473 d6bd 7b72 97bd 11a5 ae3d
00000340: aaff 493e 620b 57bd 6aca 533d 400f 393e
00000350: b507 d73d 80d6 b43d a9d1 213e 96e7 c93d
00000360: fe32 9e3d afa9 01be 8f29 a2bd 2173 5f3b
00000370: 5124 17be 9337 193d 4807 d13d 8892 d2bd
00000380: a2e2 e83b 4068 513d ad04 03be 9f0d 2ebe
00000390: cefd 153e 6847 f23d 3d92 08be 145f b6bc
000003a0: 2668 4d3d 97b7 013e 0acc 39be 8840 b1bd
000003b0: 1cc7 17be 2742 37be 7c4c 753d 2da2 44be
000003c0: 3b33 dfbd 6e9c 78be 50f1 71be f6a1 8d3d
000003d0: 3df6 643e ad90 533e 2b13 2dbe 57a3 dcbd
000003e0: 887f 1a3e fe46 243e dea8 a4bd 7980 ab3d
000003f0: 8129 31bd 9b98 fdbd 2d43 183e 1ab8 b23d

layer1.0.bias f4 [16]
0.07623159 0.08037776 0.027255023 0.11230319 0.18122542 0.056434594 0.156804 -0.111912385
0.023894088 -0.026934661 -0.14130354 -0.17794864 -0.046503082 -0.20481274 -0.11230522 0.066712976
00000000: 4f1f 9c3d 189d a43d ed45 df3c 37ff e53d
00000010: 2893 393e f627 673d 3a91 203e 5232 e5bd
00000020: 89bd c33c 14a6 dcbc e0b1 10be 2b38 36be
00000030: 047a 3ebd 6eba 51be 4700 e6bd d0a0 883d

layer1.1.weight f4 [16]
0.9493588 0.9961787 1.0272152 1.0397857 1.0300194 0.9998723 1.0298495 0.9640652
0.9975678 0.94581914 1.0671346 0.917243 0.9963291 1.0240314 0.98210335 0.9919569
00000000: 2e09 733f 9105 7f3f ca7b 833f b317 853f
00000010: add7 833f a2f7 7f3f 1cd2 833f facc 763f
00000020: 9a60 7f3f 3421 723f de97 883f 70d0 6a3f
00000030: 6d0f 7f3f 7613 833f 206b 7b3f e3f0 7d3f

layer1.1.bias f4 [16]
-0.044075944 0.038760792 0.07153589 -0.012189696 0.06490863 0.026980396 -0.062032282 0.057973918
-0.006981287 -0.012939368 -0.006939875 -0.05508415 0.0041001868 0.0012074913 -0.06539188 0.017676147
00000000: fa88 34bd a3c3 1e3d 6981 923d 4ab7 47bc
00000010: d1ee 843d fe05 dd3c 9015 7ebd 0f76 6d3d
00000020: 48c3 e4bb a5ff 53bc e467 e3bb eb9f 61bd
00000030: dc5a 863b af44 9e3a 2eec 85bd 91cd 903c

layer1.1.running_mean f4 [16]
0.49512208 0.029497908 -0.039885916 -0.2829645 0.40007576 -0.17157032 -0.3377647 0.051709305
-0.5922299 0.46571377 -0.3394921 -0.17062189 0.24084102 0.00678345 0.048443962 0.3443177
00000000: a480 fd3e 99a5 f13c 6a5f 23bd b9e0 90be
00000010: bbd6 cc3e 21b0 2fbe 7fef acbe 23cd 533d
00000020: 619c 17bf 0972 ee3e e9d1 adbe 81b7 2ebe
00000030: 079f 763e b447 de3b 2d6d 463d 694a b03e

layer1.1.running_var f4 [16]
0.03948934 0.001924955 0.0016439323 0.034142837 0.01889667 0.032057345 0.059035014 0.02691872
0.15060349 0.05858885 0.010725007 0.0065902034 0.019984387 0.017954085 0.011437536 0.019471329
00000000: 93bf 213d c64e fc3a 3779 d73a 5cd9 0b3d
00000010: 30cd 9a3c 904e 033d b3ce 713d a684 dc3c
00000020: cd37 1a3e ddfa 6f3d f1b7 2f3c a2f2 d73b
00000030: 4cb6 a33c 7214 933c 8164 3b3c 5682 9f3c

layer2.0.weight f4 [32, 16, 3, 3]
0.008152957 -0.034977913 0.022941062 -0.09699563 -0.07244741 -0.08093808 0.011449343 -0.077457316
-0.013003561 -0.052576 -0.032335572 -0.018068172 -0.013007433 0.06329332 0.041344605 0.08115981
-0.010036507 -0.00039906957 -0.036395106 0.048621397 0.0018074035 0.113611445 0.075807676 0.04485064
0.030566897 -0.0764206 -0.07901871 0.009014459 0.07404283 0.10990082 0.0658808 -0.026322812
0.006026675 0.036519792 0.05805908 -0.04662756 0.065251574 -0.06418122 -0.11181219 -0.017309349
-0.022407973 0.01699349 0.031169554 0.06188426 -0.036003683 0.0050399657 0.004094045 0.026061937
0.004143472 -0.092770904 -0.014254162 -0.016945727 -0.011289906 -0.06039654 -0.08219163 0.05697725
0.039845176 0.031174013 -0.081379496 -0.033861127 0.06970695 -0.06410269 -0.019905698 -0.08077805
-0.09961894 -0.008560306 -0.046355043 0.0054265107 0.018731533 -0.0718746 0.02292517 0.019576624
-0.039329436 0.015568005 0.058285248 -0.043758426 -0.029256374 -0.036926866 0.08009597 -0.027632464
0.0271649 -0.06563218 0.02361397 -0.020088442 -0.053018827 0.035984535 -0.010136072 0.007840573
-0.052197166 0.018205749 -0.061214823 0.039435733 0.031925038 -0.042770192 -0.04498833 -0.075887024
0.033674523 0.047191244 -0.13029969 0.062798485 0.076627366 0.005202197 -0.033878982 -0.011359337
-0.05901995 0.032951947 -0.012791322 -0.060591556 -0.021122385 -0.01668948 -0.02262682 0.026694551
-0.08392279 0.06261692 -0.014942419 0.010843112 0.00016182096 -0.038247164 -0.02614976 0.064389706
-0.014652593 -0.085386805 -0.015888674 0.0057066185 -0.06704655 -0.049246583 -0.08464511 -0.08910887
-0.10677312 -0.037294626 0.025218623 -0.08528103 -0.0060539865 0.052600008 0.072951496 0.023936266
0.059353754 -0.0057702623 0.01778228 0.018818326 -0.07331357 -0.06404301 -0.064620845 0.08505604
0.026322149 -0.01585277 0.011653032 -0.029676579 0.0053810487 -0.006047571 -0.045894645 -0.063525245
0.005173505 -0.10825936 0.018029083 -0.080630794 -0.10701429 0.044211943 0.03515742 0.0580851
0.024352789 -0.05481768 -0.032422744 -0.021228127 0.013055377 -0.020043973 -0.037791982 -0.056146953
0.10351208 0.04584695 0.09552917 0.055005267 0.034972414 0.016268328 -0.0979573 -0.033749502
0.100340255 0.045708053 -0.044334386 -0.053061914 0.11626641 0.022657206 0.08895839 0.055670254
0.026507096 0.056563728 0.047283135 -0.016736353 0.030910129 0.0093093505 -0.06993955 -0.12452344
-0.12250402 0.047535453 0.027457204 -0.10963567 -0.020038458 -0.06852042 0.022578593 -0.09828506
-0.009814293 -0.08755096 -0.012256648 -0.01133988 0.022249717 -0.07632052 0.024172857 0.08081829
0.099740215 0.06190982 0.0588619 0.06614244 0.02994412 0.07823903 -0.03230526 0.07034618
-0.112738 -0.0629047 -0.07849328 -0.04961897 0.073107205 0.014455547 -0.08200634 0.07424176
0.018914653 -0.02630266 0.028199755 -0.07145164 -0.039636884 0.009880439 0.05623469 -0.04758711
-0.018786278 -0.056154158 0.05298013 -0.028348649 -0.06535781 0.008612227 0.05842633 -0.016213149
-0.04167327 0.040788762 0.02590071 -0.10472534 -0.10132443 -0.04747119 0.036997207 -0.038839746
-0.025918834 -0.023069257 -0.07874713 -0.014985439 -0.056070868 0.082600586 0.06913859 -0.035666723
00000000: fb93 053c 0045 0fbd e5ee bb3c a5a5 c6bd
00000010: 4f5f 94bd ddc2 a5bd 0696 3b3c f1a1 9ebd
00000020: e30c 55bc ef59 57bd 4e72 04bd b403 94bc
00000030: 211d 55bc ee9f 813d f658 293d 1d37 a63d
00000040: 2970 24bc 363a d1b9 0913 15bd 3b27 473d
00000050: 66e6 ec3a 1ead e83d 0e41 9b3d 4eb5 373d
00000060: 6e67 fa3c 6782 9cbd 90d4 a1bd 62b1 133c
00000070: c4a3 973d ae13 e13d 83ec 863d f0a2 d7bc
00000080: 6a7b c53b c795 153d 5ccf 6d3d 8afc 3ebd
00000090: 9ea2 853d 7271 83bd cafd e4bd 56cc 8dbc
000000a0: ed90 b7bc ee35 8b3c 4b57 ff3c 5a7a 7d3d
000000b0: 9978 13bd 4c26 a53b 5727 863b d87f d53c
000000c0: f6c5 873b acfe bdbd 4a8a 69bc c4d1 8abc
000000d0: 4cf9 38bc 5d62 77bd 1654 a8bd fa60 693d
000000e0: b234 233d a560 ff3c 4baa a6bd f7b1 0abd
000000f0: 84c2 8e3d 4548 83bd 4611 a3bc f66e a5bd
00000100: 0405 ccbd 8740 0cbc c9de 3dbd dfd0 b13b
00000110: df72 993c fe32 93bd 91cd bb3c 285f a03c
00000120: e717 21bd f210 7f3c 83bc 6e3d 093c 33bd
00000130: 10ab efbc a040 17bd 5b09 a43d 7a5d e2bc
00000140: ed88 de3c 2a6a 86bd 1672 c13c 8490 a4bc
00000150: 452a 59bd 8564 133d c411 26bc bf75 003c
00000160: b2cc 55bd 3924 953c 65bc 7abd 5d87 213d
00000170: d4c3 023d cc2f 2fbd af45 38bd a86a 9bbd
00000180: 4cee 093d 9b4b 413d 486d 05be 7e9c 803d
00000190: cfee 9c3d 3177 aa3b b0c4 0abd 831c 3abc
000001a0: e7be 71bd 9ff8 063d b192 51bc da2e 78bd
000001b0: da08 adbc 60b8 88bc e15b b9bc 88ae da3c
000001c0: b6df abbd 4d3d 803d 0cd1 74bc 4fa7 313c
000001d0: 7cae 2939 0fa9 1cbd 0538 d6bc c0de 833d
000001e0: 6e11 70bc 47df aebd f728 82bc 96fe ba3b
000001f0: b44f 89bd c9b6 49bd 6a5a adbd b67e b6bd
00000200: deab dabd 40c2 18bd 4997 ce3c d2a7 aebd
00000210: 8560 c6bb 1b73 573d 9867 953d fd15 c43c
00000220: ec1c 733d 7814 bdbb 25ac 913c e428 9a3c
00000230: 6d25 96bd fb28 83bd ef57 84bd dc31 ae3d
00000240: 8ca1 d73c abdd 81bc 5cec 3e3c 4c1c f3bc
00000250: 8253 b03b b42a c6bb 06fc 3bbd 8619 82bd
00000260: 8186 a93b 15b7 ddbd bab1 933c c221 a5bd
00000270: 4f2a dbbd 9517 353d 3a01 103d a4ea 6d3d
00000280: 807f c73c 8188 60bd b6cd 04bd 9ce6 adbc
00000290: 38e6 553c 4233 a4bc c4cb 1abd 59fa 65bd
000002a0: 24fe d33d 03ca 3b3d cca4 c33d 344d 613d
000002b0: 3c3f 0f3d 2845 853c d69d c8bd eb3c 0abd
000002c0: 317f cd3d 5e38 3b3d f997 35bd 7357 59bd
000002d0: 151d ee3d 9b9b b93c d12f b63d 7e06 643d
000002e0: 6925 d93c 5eaf 673d f6ab 413d ad1a 89bc
000002f0: 3d37 fd3c 3f86 183c 773c 8fbd 2506 ffbd
00000300: 63e3 fabd 89b4 423d eeed e03c ab88 e0bd
00000310: b127 a4bc 6f54 8cbd bef6 b83c ad49 c9bd
00000320: 21cc 20bc eb4d b3bd 1cd0 48bc e7ca 39bc
00000330: 0a45 b63c ef4d 9cbd 2806 c63c 0f84 a53d
00000340: 9944 cc3d 2795 7d3d 2d19 713d b075 873d
00000350: 5f4d f53c c93b a03d 8552 04bd a811 903d
00000360: 2ee3 e6bd 2ed4 80bd 16c1 a0bd 433d 4bbd
00000370: 3bb9 953d f5d6 6c3c f1f2 a7bd 100c 983d
00000380: e7f2 9a3c ad78 d7bc 2c03 e73c 3d55 92bd
00000390: 495a 22bd 91e1 213c 5956 663d b4ea 42bd
000003a0: aee5 99bc e701 66bd b101 593d 6d3b e8bc
000003b0: 51da 85bd 4c1a 0d3c 7350 6f3d 70d1 84bc
000003c0: 97b1 2abd 1e12 273d ba2d d43c 3d7a d6bd
000003d0: 2f83 cfbd 2771 42bd 628a 173d 6d16 1fbd
000003e0: bc53 d4bc bdfb bcbc 2d46 a1bd 7d85 75bc
000003f0: 91aa 65bd 7f2a a93d 8898 8d3d 4517 12bd

layer2.0.bias f4 [32]
-0.015113001 -0.012021886 0.00027460867 -0.060618274 0.014294007 0.074574105 0.0013859379 0.03360211
0.027907345 -0.059047867 -0.05123265 -0.019695638 -0.0143316835 0.0019338152 0.027037129 0.011247753
0.06341995 -0.061853353 0.0046409275 0.07084661 0.021066485 -0.064423904 -0.07493145 0.02759711
-0.06728056 -0.047968443 -0.0743808 -0.060228914 0.026225077 0.043058034 0.028369458 0.06769105
00000000: 859c 77bc 72f7 44bc 5af9 8f39 de4a 78bd
00000010: 6931 6a3c 4fba 983d 5ca8 b53a 5ea2 093d
00000020: f29d e43c 2ddc 71bd 54d9 51bd bf58 a1bc
00000030: 70cf 6abc 1278 fd3a f87c dd3c 7f48 383c
00000040: 52e2 813d f159 7dbd ec12 983b 0718 913d
00000050: 9f93 ac3c aef0 83bd a975 99bd 5613 e23c
00000060: 64ca 89bd 8f7a 44bd f654 98bd 98b2 76bd
00000070: f9d5 d63c 9f5d 303d 1167 e83c 9ba1 8a3d

layer2.1.weight f4 [32]
0.9718322 1.0095513 0.9834423 0.98597145 0.9474239 1.0686443 1.0127479 1.0218161
0.9584986 1.0360566 0.9853191 1.0224257 1.0207757 0.97866476 0.9552761 0.98032963
0.9739631 1.008265 1.0261732 1.0106602 1.0084237 1.0129585 0.9784207 0.98024017
0.9862779 0.99164206 0.9680173 1.0604249 0.9678496 1.0206039 0.9692846 0.9769839
00000000: ffc9 783f fa38 813f e0c2 7b3f a068 7c3f
00000010: 5f8a 723f 56c9 883f b9a1 813f dfca 823f
00000020: 2a60 753f 819d 843f df3d 7c3f d8de 823f
00000030: c7a8 823f c689 7a3f f98c 743f e2f6 7a3f
00000040: a555 793f d40e 813f a559 833f 505d 813f
00000050: 0714 813f a0a8 813f c779 7a3f 05f1 7a3f
00000060: b57c 7c3f 41dc 7d3f fbcf 773f 01bc 873f
00000070: fec4 773f 26a3 823f 0923 783f 9e1b 7a3f

layer2.1.bias f4 [32]
-0.03796311 0.00810859 -0.027398974 -0.04440701 -0.07367819 -0.10073988 -0.13312155 -0.049666133
-0.01996855 -0.031831097 -0.039700046 -0.003710357 -0.05034658 -0.0046568094 -0.04958264 -0.04401581
0.0056792344 0.03641152 -0.032187793 -0.02136363 0.028324109 0.003223562 -0.011405114 -0.022036789
-0.033742305 -0.0009221713 -0.033768963 -0.018414427 -0.045309156 -0.083445 -0.029316436 -0.014248177
00000000: 357f 1bbd e4d9 043c d073 e0bc 20e4 35bd
00000010: 97e4 96bd b650 cebd 0451 08be b76e 4bbd
00000020: 1695 a3bc 5361 02bd 849c 22bd 7629 73bb
00000030: 3738 4ebd 2698 98bb 2b17 4bbd ec49 34bd
00000040: df18 ba3b 3f24 153d 59d7 03bd c802 afbc
00000050: f607 e83c 6542 533b 84dc 3abc 7f86 b4bc
00000060: 5f35 0abd debd 71ba 5351 0abd dad9 96bc
00000070: 1896 39bd 36e5 aabd 0629 f0bc 3071 69bc

layer2.1.running_mean f4 [32]
-0.5704688 -0.39233616 1.3572698 -0.03417494 0.34512103 0.71302366 0.87216306 0.060295757
-0.62963825 -0.04779452 -0.2691817 -1.4147913 0.8235173 -0.5057907 -1.0498247 -0.19006057
-0.6623912 -0.5525367 -0.6914017 -0.3768963 0.029933836 0.65084434 -1.3410608 -1.0295715
-1.018193 -0.76988995 -0.3951759 0.107708886 0.3138629 0.84016174 -0.6028692 -0.47325408
00000000: 3e0a 12bf 49e0 c8be 04bb ad3f 06fb 0bbd
00000010: b4b3 b03e b888 363f 1446 5f3f aff8 763d
00000020: f92f 21bf 30c4 43bd 2fd2 89be e217 b5bf
00000030: 08d2 523f 807b 01bf a860 86bf 3d9f 42be
00000040: 7892 29bf 0c73 0dbf b4ff 30bf 8df8 c0be
00000050: ce37 f53c bc9d 263f e1a7 abbf 00c9 83bf
00000060: 2654 82bf 8217 45bf 7f54 cabe 7a96 dc3d
00000070: a3b2 a03e d714 573f a355 1abf 5c4e f2be

layer2.1.running_var f4 [32]
0.50752556 0.66373026 0.39304557 0.35306317 0.3327086 0.64529413 0.7283693 0.45385417
0.45884028 0.19890507 0.5638617 0.7863994 0.67577523 0.22505742 4.3430767 0.4852061
0.3028795 0.5702641 0.39992476 0.3746623 1.9912238 0.30760986 1.7586247 1.2272847
0.46125832 0.34381467 0.30791277 0.12814042 0.9531925 0.7135981 0.3582414 0.95948976
00000000: 32ed 013f 3aea 293f 453d c93e b2c4 b43e
00000010: c858 aa3e ff31 253f 6976 3a3f 935f e83e
00000020: 1ded ea3e c5ad 4b3e 3e59 103f 7951 493f
00000030: 9bff 2c3f 7475 663e 7cfa 8a40 ef6c f83e
00000040: 0613 9b3e d4fc 113f f0c2 cc3e bdd3 bf3e
00000050: 6ce0 fe3f 0a7f 9d3e 9d1a e13f aa17 9d3f
00000060: 0d2a ec3e 7a08 b03e bea6 9d3e 3e37 033e
00000070: 6c04 743f 5dae 363f 6b6b b73e 1fa1 753f

layer3.0.weight f4 [64, 32, 3, 3]
0.018227147 -0.0003035547 0.07105837 0.012144871 0.0036459167 0.02945656 -0.010629837 0.030859029
-0.026295612 0.051407732 0.03692761 -0.006530314 -0.0058902022 -0.014626141 -0.06775201 -0.104060926
-0.077830985 -0.017468907 -0.104793146 -0.0010768408 -0.04159444 -0.025377698 0.0038902329 0.030389922
0.051012218 -0.06163502 -0.04665084 0.003260194 0.020605799 -0.018050624 -0.031554237 -0.0015207323
-0.046319142 -0.053571455 -0.022027742 0.048802853 -0.028117083 -0.016035365 -0.020208322 0.025425447
-0.05681471 0.026855001 0.04123109 0.06940576 0.052004773 0.03460351 -0.011744594 0.04416282
-0.017457502 -0.05130633 0.031141326 -0.001965584 -0.073884085 -0.070930384 -0.054853383 0.023348175
-0.011590875 0.03601521 0.035815187 -0.009037879 -0.013441407 0.016105361 -0.07519371 0.0055241967
-0.01606203 -0.03331119 -0.066571675 0.029339578 -0.060058266 -0.07362987 0.0002978102 -0.07512738
-0.04975541 -0.07020119 -0.017990606 0.01580434 0.02198394 0.039774366 -0.008561709 -0.027746713
0.03274828 0.0009964599 0.0059650075 -0.04607573 -0.038546234 -0.027549978 -0.0061899265 -0.0036961765
0.02380219 -0.078430034 0.033200316 -0.036190517 0.0093621425 -0.06443417 0.030867392 0.033760265
-0.054516494 0.008599268 0.005359316 -0.0010318647 -0.0103679085 0.0054392577 -0.0030825478 0.0104561215
-0.030053863 0.02674301 0.07889034 0.05936567 0.055933908 -0.0112875085 0.03935424 -0.00209529
0.05146792 -0.036027156 -0.025642129 -0.050805014 -0.08296181 -0.004672275 0.018562583 -0.018487277
-0.0038468144 -0.09490445 0.020378426 -0.07839447 0.024535522 -0.07241095 -0.02474762 -0.0055498746
0.054026928 0.039912894 -0.015920838 -0.013982565 -0.0019774993 0.021789618 -0.06204261 -0.003647617
0.05542265 0.0032890807 0.019222027 -0.051906165 -0.05226693 -0.06444569 -0.013949082 0.009222076
-0.030716315 0.0034757406 0.048344426 -0.015108833 0.0023268047 -0.0048238304 0.018677175 0.03038681
-0.02219166 -0.061563898 -0.02970009 -0.05873636 0.050449673 0.030464288 0.044397555 0.08095649
0.004260788 0.01915229 -0.01626391 -0.023931159 0.017176114 -0.017132869 -0.07225512 -0.067592576
-0.03294059 0.013767723 0.024948748 0.072762266 0.03835305 0.08998355 0.036020957 0.032233533
0.011892774 0.07538253 0.07500959 0.04636159 -0.010998605 0.022645783 -0.043452308 0.018792491
0.017107027 -0.069487184 0.034008533 -0.034632593 0.036453683 0.00912453 0.048120756 -0.036615353
-0.0014992873 0.018721856 0.0009015502 0.042067025 -0.052081134 0.023446912 0.0046396577 0.041192457
0.049146675 -0.0035228613 0.044678207 0.053674046 0.05093299 -0.01932499 -0.02956945 -0.043270554
-0.013694735 -0.026353229 -0.021388693 -0.0219331 -0.038874235 -0.010004683 0.010543359 0.02064431
0.06190434 0.06971733 0.033787712 0.009828878 0.032789946 0.013508853 0.009000107 0.01755167
0.008411095 -0.02754895 0.018614957 0.035442594 0.034183584 0.012801106 -0.100075945 -0.074334875
-0.029339163 -0.09335062 0.04266786 0.037902754 0.0644848 -0.019996326 0.06782982 -0.0106828995
-0.06433631 0.006955698 0.027853487 -0.023061655 -0.002728802 -0.020672595 -0.006694837 -0.014537462
-0.022614252 -0.020544345 0.023812698 -0.0083929505 -0.02578259 -0.04681749 -0.04378366 -0.046452727
00000000: 1951 953c 6c26 9fb9 0d87 913d 48fb 463c
00000010: 55f0 6e3b e24e f13c c528 2ebc 13cc fc3c
00000020: e569 d7bc ea90 523d 6841 173d 3ffc d5bb
00000030: 9902 c1bb 7ba2 6fbc 91c1 8abd e51d d5bd
00000040: da65 9fbd f41a 8fbc ca9d d6bd c824 8dba
00000050: ee5e 2abd e4e4 cfbc 47f3 7e3b 49f4 f83c
00000060: 30f2 503d 0175 7cbd f414 3fbd fba8 553b
00000070: 7ecd a83c e7de 93bc 043f 01bd 4f53 c7ba
00000080: 24b9 3dbd be6d 5bbd 8673 b4bc 80e5 473d
00000090: cc55 e6bc 995c 83bc ec8b a5bc 0749 d03c
000000a0: 8bb6 68bd 05ff db3c eee1 283d 9b24 8e3d
000000b0: f502 553d 69bc 0d3d 666c 40bc 13e4 343d
000000c0: 0903 8fbc 9626 52bd 181c ff3c 07d1 00bb
000000d0: 8a50 97bd f343 91bd f1ad 60bd ac44 bf3c
000000e0: a7e7 3dbc af84 133d f2b2 123d 9d13 14bc
000000f0: 5939 5cbc 64ef 833c 29ff 99bd 5204 b53b
00000100: 8594 83bc 5071 08bd bb56 88bd 8e59 f03c
00000110: a8ff 75bd 42cb 96bd 6923 9c39 62dc 99bd
00000120: 54cc 4bbd a4c5 8fbd 0961 93bc 1a78 813c
00000130: aa17 b43c 72ea 223d 6946 0cbc 134d e3bc
00000140: 0f23 063d a59b 823a 1c76 c33b e8b9 3cbd
00000150: a8e2 1dbd 7eb0 e1bc ded4 cabb 8d3b 72bb
00000160: cffc c23c ed9f a0bd 0efd 073d 823c 14bd
00000170: ac63 193c 10f6 83bd 9ddd fc3c 3448 0a3d
00000180: b04c 5fbd f2e3 0c3c 339d af3b a23f 87ba
00000190: 29de 29bc cd3b b23b 9204 4abb 2750 2b3c
000001a0: 8533 f6bc 2814 db3c 4291 a13d 6b29 733d
000001b0: f41a 653d 3eef 38bc e931 213d 2251 09bb
000001c0: 07d0 523d 3691 13bd 710f d2bc eb18 50bd
000001d0: e2e7 a9bd e219 99bb 8f10 983c a172 97bc
000001e0: d61a 7cbb 445d c2bd a8f0 a63c 488d a0bd
000001f0: b8fe c83c 314c 94bd 85bb cabc b9db b5bb
00000200: 574b 5d3d b47b 233d 6b6c 82bc 2117 65bc
00000210: ef98 01bb 2480 b23c 6420 7ebd dc0c 6fbb
00000220: dc02 633d 9e8d 573b 8377 9d3c 8f9b 54bd
00000230: d915 56bd 1afc 83bd b18a 64bc 3118 173c
00000240: c8a0 fbbc 40c9 633b ce04 463d 0a8b 77bc
00000250: 4e7d 183b 3911 9ebb e000 993c c2ed f83c
00000260: 49cb b5bc 6d2a 7cbd 9a4d f3bc 8a95 70bd
00000270: 51a4 4e3d 3e90 f93c 36da 353d 84cc a53d
00000280: 159e 8b3b 43e5 9c3c e43b 85bc 470b c4bc
00000290: ecb4 8c3c 3b5a 8cbc 7efa 93bd fa6d 8abd
000002a0: b6ec 06bd 0492 613c 5161 cc3c 6204 953d
000002b0: 1618 1d3d 4c49 b83d b68a 133d 4f07 043d
000002c0: e9d9 423c 2862 9a3d a19e 993d a7e5 3d3d
000002d0: 7e33 34bc a683 b93c 0cfb 31bd b6f2 993c
000002e0: 0924 8c3c 4c4f 8ebd 884c 0b3d e8da 0dbd
000002f0: 7550 153d 0d7f 153c 451a 453d fbf9 15bd
00000300: bc83 c4ba 945e 993c 0256 6c3a 794e 2c3d
00000310: 0753 55bd bd13 c03c 4508 983b 6cb9 283d
00000320: 064e 493d cedf 66bb 7f00 373d 51d9 5b3d
00000330: 1c9f 503d 714f 9ebc a23b f2bc 773c 31bd
00000340: e25f 60bc bae2 d7bc 5737 afbc 0bad b3bc
00000350: 973a 1fbd afea 23bc 0ebe 2c3c 421e a93c
00000360: 688f 7d3d f6c7 8e3d fc64 0a3d 4d09 213c
00000370: c04e 063d 3c54 5d3c 2f75 133c 85c8 8f3c
00000380: b0ce 093c 56ae e1bc 657e 983c 412c 113d
00000390: 1604 0c3d bbbb 513c 9ef4 ccbd e23c 98bd
000003a0: af58 f0bc 9c2e bfbd 7ec4 2e3d eb3f 1b3d
000003b0: 9b10 843d 56cf a3bc 5cea 8a3d 5407 2fbc
000003c0: c1c2 83bd a0ec e33b ff2c e43c cceb bcbc
000003d0: b3d5 32bb 9359 a9bc 5d60 dbbb 892e 6ebc
000003e0: 8641 b9bc 9d4c a8bc d912 c33c 9682 09bc
000003f0: 0336 d3bc b2c3 3fbd 7f56 33bd 3745 3ebd

layer3.0.bias f4 [64]
-0.012963697 0.02780763 -0.051892772 0.0065928716 0.0033613965 0.039344836 -0.020830898 -0.02691764
-0.04768552 0.033595018 0.039430145 -0.058928262 -0.028642282 -0.015478319 -0.049065676 0.054395523
-0.031632904 -0.034011755 -0.036716666 -0.036197655 -0.055554375 -0.04956837 -0.04873028 -0.037025146
-0.042948507 0.0010867608 0.010975625 0.017628346 -0.032806717 0.04803066 0.03488108 0.024406323
-0.04361612 0.027127221 0.054399967 -0.037051324 0.019787116 0.033367306 0.040347915 0.044586707
0.0054633417 0.04513686 -0.05812188 0.057063926 -0.048809495 0.02922626 -0.05637789 -0.019795006
0.008796773 0.043902587 -0.014235705 -0.010973361 -0.03902161 -0.019323356 0.035022806 0.036996774
0.05319508 -0.0022197 -0.014589421 -0.0071854214 0.0006970476 0.002933998 -0.038311634 -0.022461625
00000000: b065 54bc d4cc e33c 848d 54bd 0409 d83b
00000010: e04a 5c3b 0d28 213d 8fa5 aabc 6282 dcbc
00000020: e451 43bd ee9a 093d 8181 213d c35e 71bd
00000030: 38a3 eabc c698 7dbc 17f9 48bd d7cd 5e3d
00000040: 8191 01bd e94f 0bbd 3764 16bd fe43 14bd
00000050: fc8c 63bd 3408 4bbd 6799 47bd aea7 17bd
00000060: c6ea 2fbd a471 8e3a 1cd3 333c 5269 903c
00000070: 5660 06bd ccbb 443d 77df 0e3d c5ef c73c
00000080: d1a6 32bd e839 de3c 80d2 5e3d 21c3 17bd
00000090: 9718 a23c 28ac 083d db43 253d 8da0 363d
000000a0: d505 b33b 6ee1 383d 3511 6ebd ddbb 693d
000000b0: 77ec 47bd e96b ef3c 81ec 66bd 2329 a2bc
000000c0: 5720 103c 33d3 333d e03c 69bc 9dc9 33bc
000000d0: 20d5 1fbd 044c 9ebc 1374 0f3d ee89 173d
000000e0: 16e3 593d 6378 11bb 7808 6fbc af73 ebbb
000000f0: 13ba 363a 5148 403b a9ec 1cbd 7101 b8bc

layer3.1.weight f4 [64]
0.9594327 0.9831087 1.0122203 1.0242012 1.0138066 1.0137309 0.97075933 1.0092623
1.0271032 1.0191529 1.003566 0.9894116 0.97544926 0.99022794 1.0278811 1.0359433
0.9887761 1.0318253 1.0432928 1.0155718 1.000142 0.99900687 1.0023272 0.955136
1.0218202 1.0040109 1.010679 0.9901145 0.9529532 0.979706 1.0053757 1.0029297
0.974509 1.0060953 1.0172967 0.99549854 0.98990726 1.0183028 0.94201857 1.0093311
1.0068071 0.9780814 1.007251 0.98735726 1.0254843 1.0040724 0.9989981 1.025529
1.0273647 0.9407726 1.0157005 1.02267 1.0358169 0.98518425 1.0049043 1.0271131
0.9699389 0.9649329 0.9840692 1.0068554 1.0238981 1.0134251 0.938919 0.9762265
00000000: 629d 753f 03ad 7b3f 6f90 813f 0619 833f
00000010: 6ac4 813f efc1 813f af83 783f 822f 813f
00000020: 1e78 833f 9a73 823f da74 803f 144a 7d3f
00000030: 0bb7 793f 947f 7d3f 9c91 833f ca99 843f
00000040: 6e20 7d3f da12 843f 9e8a 853f 42fe 813f
00000050: a704 803f eabe 7f3f 424c 803f cb83 743f
00000060: 01cb 823f 6e83 803f ee5d 813f 2578 7d3f
00000070: bef4 733f 03ce 7a3f 27b0 803f 0060 803f
00000080: 6c79 793f bbc7 803f c736 823f fed8 7e3f
00000090: 906a 7d3f bf57 823f 2128 713f c331 813f
000000a0: 0edf 803f 8b63 7a3f 9aed 803f 72c3 7c3f
000000b0: 1243 833f 7285 803f 57be 7f3f 8944 833f
000000c0: b080 833f 79d6 703f 7902 823f dae6 823f
000000d0: a695 843f 0935 7c3f b4a0 803f 7178 833f
000000e0: ea4d 783f d805 773f f6eb 7b3f a3e0 803f
000000f0: 180f 833f eab7 813f ff5c 703f fbe9 793f

layer3.1.bias f4 [64]
-0.06096651 -0.035877667 -0.016971517 -0.026720053 -0.045772325 -0.031421483 -0.04070956 -0.054454416
0.008481022 -0.020303933 -0.037826076 -0.029124638 0.0082775215 -0.04549432 -0.024115406 0.015918456
-0.06404373 -0.0035672488 -0.012389193 0.0086445995 -0.024633788 -0.037448425 -0.0335138 -0.062220853
-0.012329559 -0.061738316 -0.002719894 0.0012747918 -0.039969977 -0.02029149 -0.055330086 -0.032926872
-0.031354133 -0.022456644 -0.011382169 -0.016393263 -0.06920159 -0.040482603 -0.03433133 -0.022646992
0.015199316 -0.048694167 -0.027517013 -0.034595713 -0.005725046 0.0024574501 -0.029004084 -0.032702662
-0.026249913 -0.06096101 -0.022528458 0.0058473377 -0.034045976 -0.03138375 -0.0329429 -0.008680067
-0.02967869 -0.0505468 -0.029200947 -0.06209901 0.005245115 -0.06520546 -0.07671553 -0.04076487
00000000: 05b8 79bd 76f4 12bd da07 8bbc 03e4 dabc
00000010: c37b 3bbd d0b3 00bd 11bf 26bd 980b 5fbd
00000020: fcf3 0a3c 6f54 a6bc 84ef 1abd cb96 eebc
00000030: 719e 073c 4158 3abd ac8d c5bc 6c67 823c
00000040: 5c29 83bd 81c8 69bb 0bfc 4abc 14a2 0d3c
00000050: cccc c9bc 8563 19bd c445 09bd 4bdb 7ebd
00000060: eb01 4abc 51e1 7cbd 4040 32bb ea16 a73a
00000070: 8fb7 23bd 573a a6bc cda1 62bd 54de 06bd
00000080: 316d 00bd fff6 b7bc 477c 3abc 2a4b 86bc
00000090: 90b9 8dbd 16d1 25bd 029f 0cbd 2f86 b9bc
000000a0: 8d06 793c 8973 47bd 5c6b e1bc 3cb4 0dbd
000000b0: 2b99 bbbb 2c0d 213b f999 edbc 3af3 05bd
000000c0: 0f0a d7bc 41b2 79bd 9a8d b8bc 069b bf3b
000000d0: cb73 0bbd 3f8c 00bd 22ef 06bd d736 0ebc
000000e0: b920 f3bc 290a 4fbd d336 efbc 885b 7ebd
000000f0: 37df ab3b 718a 85bd 081d 9dbd 10f9 26bd

layer3.1.running_mean f4 [64]
-0.4085485 -0.33039993 0.75888145 1.01234 0.23729257 -0.87959456 -0.34305465 0.20228273
-0.22215708 0.46117857 -0.645585 0.47694457 -0.7885993 -0.1971723 0.58987236 0.3927651
0.71454126 0.045544017 0.6624382 0.7793548 -0.15072596 -0.73160285 0.025275126 0.21377054
-1.0674713 1.1471322 1.7807807 -0.39560106 -1.0865254 -0.66137546 -0.9673704 -1.7891245
-0.94797087 -0.8004477 -1.245565 -1.9929973 1.060594 -0.68362486 -0.33746293 -0.564107
-0.02047953 -0.50537395 -0.68467635 -0.53721726 0.73949015 0.6952449 -1.2486064 0.69026023
0.21782142 0.55642694 1.0806867 -1.3029486 0.601245 -0.20697868 -1.1404217 1.1010633
0.25311258 1.1118134 0.792096 0.74570835 0.7588951 0.40946046 0.2868565 -1.4909929
00000000: 452d d1be 2e2a a9be 0e46 423f 5b94 813f
00000010: d3fc 723e 1c2d 61bf dca4 afbe 3423 4f3e
00000020: 257d 63be 991f ec3e 0f45 25bf 1432 f43e
00000030: a5e1 49bf 89e7 49be e001 173f 8218 c93e
00000040: 2dec 363f 5d8c 3a3d 8d95 293f cc83 473f
00000050: e857 1abe 534a 3bbf c80d cf3c aae6 5a3e
00000060: e6a2 88bf 3ad5 923f 9ff0 e33f 398c cabe
00000070: 4413 8bbf e74f 29bf 96a5 77bf 0802 e5bf
00000080: 38ae 72bf 24ea 4cbf ad6e 9fbf 891a ffbf
00000090: 8bc1 873f 0a02 2fbf f1c7 acbe 5169 10bf
000000a0: b0c4 a7bc 3060 01bf f346 2fbf 1287 09bf
000000b0: 3a4f 3d3f 92fb 313f 56d2 9fbf e5b4 303f
000000c0: 940c 5f3e ff71 0e3f f153 8a3f 05c7 a6bf
000000d0: 31eb 193f 38f2 53be 57f9 91bf a4ef 8c3f
000000e0: f997 813e e74f 8e3f cec6 4a3f bee6 3e3f
000000f0: f346 423f cda4 d13e dbde 923e dbd8 bebf

layer3.1.running_var f4 [64]
0.6968739 0.68838155 0.5398256 0.58706343 0.65885824 1.2627279 1.1568521 0.343871
1.7531688 1.0031825 0.9162668 1.0475628 0.7333307 0.5286215 1.1769004 0.46894082
0.85584575 1.1398981 1.2740893 1.6811388 0.95066977 1.5856498 1.2342376 0.69009894
1.6457022 0.8217765 1.2078539 1.3118304 0.904038 1.1358145 0.577507 1.3651133
0.63540393 1.0999892 1.0273292 0.9980778 0.50402105 0.90179694 1.0117878 0.87823683
1.5462663 1.0635489 0.8650744 0.7074908 1.4602981 0.90155923 1.9414065 0.6223237
0.977269 1.1715695 0.83040273 0.6721125 0.5896131 0.5945063 0.65002835 1.30534
0.86376154 0.37107253 0.6030847 0.55013776 0.95969117 0.555637 0.46619868 1.4533361
00000000: 5466 323f c639 303f 0332 0a3f ca49 163f
00000010: efaa 283f 11a1 a13f bb13 943f dc0f b03e
00000020: d667 e03f 4968 803f 7690 6a3f 8a16 863f
00000030: 90bb 3b3f bd53 073f aca4 963f 0319 f03e
00000040: b518 5b3f 2ee8 913f 5c15 a33f 8e2f d73f
00000050: 185f 733f 93f6 ca3f 7ffb 9d3f 53aa 303f
00000060: 5fa6 d23f f25f 523f f59a 9a3f 0fea a73f
00000070: 096f 673f 5f62 913f 80d7 133f 08bc ae3f
00000080: d5a9 223f 72cc 8c3f 867f 833f 0782 7f3f
00000090: 8607 013f 2adc 663f 4382 813f 21d4 603f
000000a0: 0eec c53f 5f22 883f 8475 5d3f 1e1e 353f
000000b0: 0ceb ba3f 96cc 663f 0280 f83f 9b50 1f3f
000000c0: 4d2e 7a3f fdf5 953f 4695 543f 910f 2c3f
000000d0: e2f0 163f 9131 183f 4268 263f 6215 a73f
000000e0: 7a1f 5d3f 38fd bd3e c263 1a3f d4d5 0c3f
000000f0: 52ae 753f 3a3e 0e3f 98b1 ee3e eb06 ba3f

fc1.weight f4 [10, 576]
0.0107334815 0.043199673 -0.033174437 -0.015381503 -0.03287218 -0.012682824 0.026102055 0.048499066
0.034945175 0.06095563 -0.035485324 0.02369808 0.0042245346 0.003332902 0.013428913 0.025867796
-0.021270301 -0.042293567 -0.037627347 -0.035445645 0.035150446 0.030803466 -0.005630719 0.01893384
-0.032796618 0.024106514 -0.004179232 0.028519087 -0.04402457 0.0055554584 -0.035692357 -0.011706494
0.032704342 -0.025270963 0.038908858 0.052685395 0.014942802 -0.004943062 0.018767146 -0.04450557
-0.043141905 -0.013362726 -0.00048783253 -0.012275878 -0.0028439306 0.06977359 -0.013001581 0.054089222
0.0050377115 -0.017050892 0.0078861695 0.022600116 0.0053323526 -0.0038664564 -0.007841916 -0.015496883
0.03388309 0.022483284 0.008296231 0.0069941524 0.020491196 0.054180756 0.009614628 -0.032709837
-0.0049051195 0.028717777 0.0052831196 -0.02086698 0.00057174935 0.029909544 0.01928182 0.02229171
0.028470123 0.06956803 0.060986597 -0.010306592 0.021146035 0.029496644 0.0056530815 0.04948578
0.07056245 -0.02552402 0.02944979 0.0043409974 0.029514428 0.067267604 0.016398067 -0.020916877
0.0040587354 0.027751561 -0.02637429 -0.004112981 -0.032096222 -0.053821728 -0.057845436 -0.07678702
-0.0081220465 -0.009585935 -0.0517547 0.03561118 -0.010939807 -0.0046888655 0.018237673 0.018282533
0.026725251 -0.020170776 -0.008399308 -0.022023223 -0.01015552 -0.006391976 0.038918775 0.005180304
-0.022097467 0.011950449 0.04826879 0.030459998 0.021459231 0.042186208 -0.012613942 -0.017525656
-0.008130309 -0.013058599 -0.029884534 0.021193536 -0.028025817 -0.037940815 0.050142217 0.029085452
0.06048878 -0.010843488 0.055567876 0.07783431 -0.02862213 -0.017161392 0.065846115 0.03552356
-0.015150785 0.029659841 0.017945813 0.004799052 -0.036127917 0.049582858 -0.04589886 -0.019850818
-0.024519145 -0.049926076 0.025293661 0.041625798 0.006846449 -0.01631362 0.030606616 -0.032602817
-0.056190252 0.058424123 0.09812332 0.015261725 0.044810742 0.06110355 0.09001625 0.03403241
0.0034055721 0.0195704 0.062774405 0.021713221 0.04738039 0.015371524 0.06874093 0.099643946
-0.062201552 -0.027530856 0.047656458 0.041432485 0.00705397 0.024982296 0.041873395 -0.01713565
0.039985225 0.023742756 -0.004440952 0.044701613 0.044848703 0.0144495545 0.01045466 0.015654514
0.03842178 -0.009246438 0.024938697 0.006558319 -0.018087389 7.7777804e-05 0.029536845 -0.04503387
-0.0100036375 -0.008703721 -0.029466394 -0.025727903 0.0062988936 -0.03560559 0.020566327 0.045549836
0.039086435 0.009008793 -0.010458237 -0.026107842 0.018487647 0.044541363 0.0030478206 0.06558406
-0.013465257 -0.028965445 0.02702672 -0.019981403 0.018766386 -0.028755937 -0.005025478 -0.06505429
-0.0026956927 -0.018946476 -0.022230687 0.024116617 -0.02212978 -0.057087634 -0.028981049 -0.027921995
-0.040337857 0.0013365455 0.036421157 0.023302412 0.0064341333 -0.030625032 0.0368075 0.02058878
-0.009951618 -0.014948073 0.040880803 -0.012903229 0.057622965 0.0139687015 -0.047594726 0.06315277
0.025593622 0.0030907295 0.00680323 0.019330285 0.03624909 0.028739046 0.03805259 0.040786207
0.03972226 0.06967981 0.054003213 0.041298833 0.057767466 -0.04706346 0.0066709914 0.017629053
00000000: 7cdb 2f3c 24f2 303d ebe1 07bd b302 7cbc
00000010: fba4 06bd 9fcb 4fbc fad3 d53c f5a6 463d
00000020: ac22 0f3d 9cac 793d 0f59 11bd 7a22 c23c
00000030: f76d 8a3b d16c 5a3b f204 5c3c b3e8 d33c
00000040: 0e3f aebc 053c 2dbd 221f 1abd 742f 11bd
00000050: eaf9 0f3d 8d57 fc3c e581 b8bb 241b 9b3c
00000060: bf55 06bd 067b c53c f0f1 88bb dca0 e93c
00000070: 1c53 34bd 900a b63b 2632 12bd 98cc 3fbc
00000080: fdf4 053d 0d05 cfbc e55e 1f3d a4cc 573d
00000090: a7d2 743c 69f9 a1bb 8fbd 993c 794b 36bd
000000a0: 91b5 30bd 56ef 5abc c6c3 ffb9 c420 49bc
000000b0: 3d61 3abb 75e5 8e3d 9504 55bc a98c 5d3d
000000c0: 6313 a53b 50ae 8bbc fe34 013c e123 b93c
000000d0: 04bb ae3b 6064 7dbb 617b 00bc a3e6 7dbc
000000e0: ffc8 0a3d dd2e b83c eaec 073c 342f e53b
000000f0: 27dd a73c a4ec 5d3d ac86 1d3c c0fa 05bd
00000100: 20bb a0bb 8b41 eb3c 051e ad3b 3bf1 aabc
00000110: 73e1 153a dc04 f53c e8f4 9d3c 1b9d b63c
00000120: 2d3a e93c af79 8e3d 15cd 793d fbdc 28bc
00000130: 733a ad3c f2a2 f13c 7c3d b93b 9ab1 4a3d
00000140: 0c83 903d c017 d1bc b040 f13c ed3e 8e3b
00000150: 3ec8 f13c 99c3 893d 3d55 863c df59 abbc
00000160: 24ff 843b 3e57 e33c e50e d8bc 2fc6 86bb
00000170: 5477 03bd 2c74 5cbd 56ef 6cbd 8342 9dbd
00000180: 5512 05bc 530e 1dbc bcfc 53bd 07dd 113d
00000190: e03c 33bc 0ea5 99bb 2c67 953c 40c5 953c
000001a0: eaee da3c 2f3d a5bc 409d 09bc 0c6a b4bc
000001b0: 5763 26bc c873 d1bb 4b69 1f3d 8abf a93b
000001c0: bf05 b5bc d1cb 433c 7fb5 453d 3f87 f93c
000001d0: 45cb af3c 72cb 2c3d b5aa 4ebc f791 8fbc
000001e0: fd34 05bc bcf3 55bc 69d0 f4bc 119e ad3c
000001f0: 6696 e5bc d467 1bbd ed61 4d3d 9d44 ee3c
00000200: 15c3 773d e3a8 31bc 249b 633d 9867 9f3d
00000210: f578 eabc 0c96 8cbc 54da 863d 2781 113d
00000220: 003b 78bc 32f9 f23c 1903 933c 5e41 9d3b
00000230: defa 13bd 6517 4b3d 7100 3cbd 2f9e a2bc
00000240: 60dc c8bc 497f 4cbd a734 cf3c d07f 2a3d
00000250: 2d58 e03b 24a4 85bc baba fa3c 888a 05bd
00000260: c027 66bd 224e 6f3d e1f4 c83d 500c 7a3c
00000270: 788b 373d b747 7a3d 715a b83d 9165 0b3d
00000280: 0530 5f3b 1a52 a03c de8f 803d eddf b13c
00000290: f111 423d d8d8 7b3c 0bc8 8c3d 2012 cc3d
000002a0: 0ec7 7ebd 6488 e1bc 6b33 433d 1cb5 293d
000002b0: fd24 e73b aca7 cc3c 7083 2b3d 1060 8cbc
000002c0: 8cc7 233d 2b80 c23c 6885 91bb 0a19 373d
000002d0: 46b3 373d d3bd 6c3c 064a 2b3c e53d 803c
000002e0: 2860 1d3d 5f7e 17bc 3d4c cc3c 2be7 d63b
000002f0: 012c 94bc a41c a338 41f7 f13c 6f75 38bd
00000300: 4ce6 23bc 0d9a 0ebc 8263 f1bc 53c3 d2bc
00000310: f366 ce3b 2bd7 11bd b77a a83c 7792 3a3d
00000320: 1919 203d 9e99 133c 0659 2bbc 1de0 d5bc
00000330: 6873 973c 0171 363d f2bd 473b f050 863d
00000340: 629d 5cbc f148 edbc 2467 dd3c 0ab0 a3bc
00000350: f7bb 993c 9291 ebbc c4ac a4bb 2f3b 85bd
00000360: 38aa 30bb a435 9bbc 211d b6bc 3690 c53c
00000370: 8349 b5bc b9d4 69bd aa69 edbc abbc e4bc
00000380: 4f39 25bd 062f af3a 5a2e 153d b3e4 be3c
00000390: 6cd5 d23b 59e1 fabc 76c3 163d cda9 a83c
000003a0: 1c0c 23bc c3e8 74bc a172 273d 1168 53bc
000003b0: 0f06 6c3d fbdc 643c b0f2 42bd 3d56 813d
000003c0: b7a9 d13c d68d 4a3b a1ed de3b 8c5a 9e3c
000003d0: ed79 143d 266e eb3c 08dd 1b3d 700f 273d
000003e0: cfb3 223d 4ab4 8e3d 7932 5d3d f728 293d
000003f0: 949d 6c3d 9dc5 40bd 5598 da3b ce6a 903c

fc1.bias f4 [10]
0.044674598 0.003144363 0.013754625 -0.00481264 -0.002534021 0.014897687 0.0046163686 -0.029613499
0.025242478 0.02621875
00000000: b6fc 363d a811 4e3b 145b 613c 5ab3 9dbb
00000010: d111 26bb 6e15 743c e844 973b 0298 f2bc
00000020: 50c9 ce3c b4c8 d63c

fc2.weight f4 [2, 10]
0.082844526 0.19456096 0.28251493 0.19745994 -0.0778783 -0.1605893 0.11349429 0.25649154
0.14092849 0.043567926 -0.1316602 -0.10522162 -0.121356055 0.09326699 -0.14281406 -0.18517828
-0.1311411 -0.0481677 -0.20070584 0.28136665
00000000: 64aa a93d fd3a 473e cca5 903e f032 4a3e
00000010: a87e 9fbd 8571 24be b26f e83d dc52 833e
00000020: 8f4f 103e 4874 323d eed1 06be 6f7e d7bd
00000030: 8689 f8bd c302 bf3d d93d 12be 609f 3dbe
00000040: da49 06be 7f4b 45bd d585 4dbe 4a0f 903e

fc2.bias f4 [2]
0.13091399 -0.13847335
00000000: 510e 063e f5cb 0dbe

exp_avg f4 [16, 3, 3, 3]
-0.0005049383 -0.00018468103 -0.0003987897 -0.0005729374 -0.0001707719 -0.00034802203 -0.0006882997 -0.00039900737
-0.00062581693 -0.0017429204 -0.0014048221 -0.0017087555 -0.0017988591 -0.0013380045 -0.0016035752 -0.0019847264
-0.0016156218 -0.0018870074 -0.00285 -0.0025106075 -0.0028319177 -0.0028479248 -0.0023480395 -0.0026133293
-0.0030288496 -0.0026207557 -0.0028405013 0.013729536 0.016514996 0.013777215 0.00952345 0.013884868
0.011681165 0.0022558698 0.007127296 0.0074395896 0.005572901 0.007830953 0.003510411 0.00035450753
0.0041013374 0.00063485187 -0.008902651 -0.004610915 -0.005054189 0.012461952 0.0136363655 0.00930401
0.0058085537 0.008229619 0.0046801427 -0.003888389 -0.0011952664 -0.0020675848 -0.12315761 -0.10988662
-0.10157381 -0.12084517 -0.113228284 -0.10758384 -0.118183285 -0.118802585 -0.118584305 -0.056575265
-0.041232157 -0.033016358 -0.05468866 -0.045417428 -0.040034495 -0.05281143 -0.052482586 -0.052676752
-0.055023465 -0.041000582 -0.033985447 -0.052467167 -0.04446134 -0.040446475 -0.04965848 -0.050322972
-0.051741082 -0.0029781004 -0.004004767 -0.0046418617 -0.0022434453 -0.0032358547 -0.0037293786 -0.0020707168
-0.003363037 -0.0034044853 -0.0041086082 -0.005083303 -0.0057200952 -0.003602479 -0.0046314755 -0.0051289285
-0.0036387024 -0.004883089 -0.005029129 -0.012314313 -0.013711977 -0.014261356 -0.012060113 -0.013482185
-0.013952206 -0.0122547215 -0.013896572 -0.014019648 -0.0019214174 -0.002057214 -0.0019959754 -0.0028859447
-0.002269968 -0.0017990511 -0.003840741 -0.0028526068 -0.0020753613 -0.00032437564 -0.0004184963 -0.00045488033
-0.0011150399 -0.00038686453 1.01907035e-05 -0.0019781496 -0.0008338796 -3.975155e-05 7.494433e-05 0.00014478914
0.00029756472 -0.0006816456 0.00020017166 0.0007260663 -0.0014533161 -0.00025187188 0.0006445924 0.026740136
0.026436042 0.026641704 0.02733362 0.027064076 0.02711042 0.0273324 0.027298164 0.02732494
0.014424261 0.013914203 0.013902079 0.015014729 0.014527642 0.014369781 0.015015118 0.014722845
0.014546938 0.0045049298 0.0039651925 0.0039093764 0.004734471 0.0042052045 0.0039456375 0.004492754
0.004123914 0.0037589099 0.007389987 0.0069675185 0.0064009577 0.0074534984 0.007048325 0.0067618284
0.007874443 0.007626285 0.0075805145 -0.00025982235 -0.0009918723 -0.001782673 -0.00038551528 -0.0012100216
-0.0017249235 -1.8522816e-05 -0.00072709325 -0.0010590946 -0.004881031 -0.0059939395 -0.0069782618 -0.005074489
-0.006319979 -0.007042068 -0.004707721 -0.0058895345 -0.0064670267 -0.0011705506 -0.0007383187 -0.000423544
-0.0019615635 -0.0017593682 -0.0016012011 -0.002331587 -0.0027028217 -0.0029669926 0.00039889652 0.00080798636
0.0010036017 -0.00027887867 -0.00011752028 -3.978841e-05 -0.0005921148 -0.0009645206 -0.0013129808 0.00032166776
0.00075767055 0.001021866 -0.00032622225 -0.00011432324 -1.47231285e-05 -0.0006250241 -0.0008838431 -0.00117892
0.0058318437 0.0056977514 0.0055228914 0.0062162653 0.006267104 0.0060599768 0.0065258346 0.0065711667
0.006292302 0.0017376853 0.001455179 0.0011841893 0.002020214 0.0019004414 0.0015899735 0.0022385824
0.0021059355 0.0016761004 -0.000530565 -0.00097435573 -0.0012957169 -0.00035371666 -0.00061743835 -0.00097060524
-0.00023958896 -0.00046850336 -0.0009234573 -0.00028899786 -0.00045656713 -0.00033800202 6.0145747e-05 -0.0001515315
-0.0001621966 0.00019905425 -1.1777186e-05 -0.00012273951 5.8596423e-05 -9.035657e-05 -7.671738e-06 0.00046701514
00000000: d65d 04ba f0a6 41b9 a614 d1b9 2e31 16ba
00000010: 3c11 33b9 ba76 b6b9 036f 34ba dd31 d1b9
00000020: dd0d 24ba b472 e4ba 0222 b8ba 52f8 dfba
00000030: b2c7 ebba fb5f afba 0e2f d2ba 2f12 02bb
00000040: 46c3 d3ba 7655 f7ba 11c7 3abb 0189 24bb
00000050: b297 39bb 40a4 3abb 91e1 19bb 6444 2bbb
00000060: aa7f 46bb fcc0 2bbb b427 3abb d9f1 603c
00000070: 754a 873c d4b9 613c 3f08 1c3c 5b7d 633c
00000080: 5b62 3f3c 37d7 133b 188c e93b cdc7 f33b
00000090: e29c b63b 664d 003c ec0e 663b 32dd b939
000000a0: 8364 863b 306c 263a 6ddc 11bc 2917 97bb
000000b0: 9c9d a5bb 372d 4c3c 106b 5f3c d96f 183c
000000c0: ae55 be3b 86d5 063c e25b 993b 58d4 7ebb
000000d0: 7caa 9cba 5180 07bb 0f3a fcbd 3c0c e1bd
000000e0: ee05 d0bd ac7d f7bd 3be4 e7bd eb54 dcbd
000000f0: 140a f2bd c54e f3bd 54dc f2bd 77bb 67bd
00000100: 0de3 28bd 293c 07bd 3701 60bd a007 3abd
00000110: 36fb 23bd cc50 58bd fbf7 56bd 94c3 57bd
00000120: 4960 61bd 3af0 27bd 5334 0bbd d0e7 56bd
00000130: 181d 36bd 34ab 25bd b166 4bbd 761f 4ebd
00000140: 75ee 53bd 3c2c 43bb 6c3a 83bb c21a 98bb
00000150: c406 13bb a210 54bb 9768 74bb ddb4 07bb
00000160: 6666 5cbb c91d 5fbb 81a1 86bb d691 a6bb
00000170: a36f bbbb 9117 6cbb a2c3 97bb 9210 a8bb
00000180: 4c77 6ebb 5202 a0bb 64cb a4bb f9c1 49bc
00000190: 33a8 60bc 76a8 69bc c897 45bc 62e4 5cbc
000001a0: cb97 64bc 07c8 48bc 73ae 63bc aab2 65bc
000001b0: 12d8 fbba 53d2 06bb e9ce 02bb 1e22 3dbb
000001c0: bec3 14bb 23ce ebba f1b4 7bbb cdf2 3abb
000001d0: c902 08bb f610 aab9 9f69 dbb9 017d eeb9
000001e0: 8826 92ba 14d4 cab9 bdf8 2a37 d8a3 01bb
000001f0: b698 5aba e7ba 26b8 6e2b 9d38 8ad2 1739
00000200: 7602 9c39 76b0 32ba 2ce5 5139 7c55 3e3a
00000210: 327d beba ac0d 84b9 ddf9 283a 210e db3c
00000220: 6690 d83c b43f da3c c1ea df3c 7bb5 dd3c
00000230: ac16 de3c 33e8 df3c 66a0 df3c 8dd8 df3c
00000240: bc53 6c3c 66f8 633c 8cc5 633c 5700 763c
00000250: 5905 6e3c 3b6f 6b3c f801 763c 1638 713c
00000260: 4856 6e3c 179e 933b 72ee 813b 3a1a 803b
00000270: 9f23 9b3b d0cb 893b 684a 813b f437 933b
00000280: e621 873b 0b58 763b b427 f23b c84f e43b
00000290: 20bf d13b 7a3c f43b a3f5 e63b 5492 dd3b
000002a0: cf03 013c eae5 f93b f765 f83b c438 88b9
000002b0: b601 82ba 94a8 e9ba fc1e cab9 9699 9eba
000002c0: d416 e2ba 7261 9bb7 679a 3eba 51d1 8aba
000002d0: 0ef1 9fbb cf68 c4bb e7a9 e4bb e647 a6bb
000002e0: d417 cfbb 26c1 e6bb 3a43 9abb fffc c0bb
000002f0: 5ae9 d3bb 296d 99ba bb8b 41ba 1d0f deb9
00000300: 938d 00bb 9a9a e6ba 65df d1ba 8acd 18bb
00000310: d321 31bb e071 42bb fc22 d139 0ccf 533a
00000320: 498b 833a 7636 92b9 3875 f6b8 7be2 26b8
00000330: 2738 1bba e2d7 7cba 5318 acba 84a5 a839
00000340: 699e 463a 22f0 853a cf08 abb9 d2c0 efb8
00000350: 5b03 77b7 a8d8 23ba b5b1 67ba fe85 9aba
00000360: 0d19 bf3b 34b4 ba3b 5ff9 b43b d0b1 cb3b
00000370: 475c cd3b c592 c63b abd6 d53b f152 d73b
00000380: a82f ce3b 0bc3 e33a b4bb be3a cd36 9b3a
00000390: 9165 043b 3b18 f93a a866 d03a 2eb5 123b
000003a0: bc03 0a3b 99b0 db3a 9d15 0bba e86b 7fba
000003b0: 0bd5 a9ba 0c73 b9b9 96db 21ba 3770 7eba
000003c0: 2c3a 7bb9 75a1 f5b9 2c14 72ba a384 97b9
000003d0: 675f efb9 dd35 b1b9 0145 7c38 6de4 1eb9
000003e0: 5113 2ab9 38b9 5039 a196 45b7 a3b3 00b9
000003f0: 6ec5 7538 d07d bdb8 ddb5 00b7 b6d9 f439
