Lab5/model_25_0.001.pth (torch, 378966 bytes, 54 tensors)

layer1.0.weight f4 [16, 3, 3, 3]
-0.058878027 -0.13780433 -0.17987588 -0.075486906 0.1505991 -0.16871665 0.118305504 -0.17857967
0.04486297 -0.0386792 -0.0023843937 0.019759854 -0.036927067 -0.061797317 0.018258473 -0.10313613
-0.11706376 0.0914663 -0.01953159 0.15998082 -0.094726294 0.13226865 0.04299368 0.13405608
0.12564485 -0.14120993 -0.07054879 -0.0007145368 0.13349462 0.13154784 -0.17085476 0.10680215
-0.020783689 0.12530093 -0.04035788 0.119887374 0.09979633 -0.19336605 -0.16823107 -0.12419646
-0.04279766 0.07125285 0.10433452 -0.037131246 -0.16181864 -0.16417785 -0.030312886 0.20024274
-0.06464184 0.019981038 0.18700308 0.007024634 -0.036611836 0.21256076 0.13404553 -0.026966183
-0.016368788 0.17222397 -0.06176874 0.17371388 -0.17530383 0.1668223 0.17717768 0.04768439
0.24077667 -0.04494948 0.13925049 0.15485574 0.103861265 0.10666121 0.10511975 0.079099
0.14864933 -0.0809622 -0.115069255 0.17944553 0.120679684 -0.089131065 0.1965944 -0.029966997
-0.058191136 0.01702323 0.13255021 -0.1324891 0.08520562 -0.15193483 0.06991554 -0.21299893
0.0980731 -0.15929177 0.010186739 -0.09164933 0.0590919 -0.08485558 0.20376596 -0.137568
-0.024372865 0.07116769 -0.1921533 -0.14351925 0.019596696 -0.17783666 -0.16162021 -0.001698489
-0.076506205 -0.17707047 0.16948281 0.024957677 -0.13136747 0.1362424 0.040603228 0.17163332
0.007066999 0.2148296 0.18816148 -0.071811445 -0.034231093 0.12403031 0.10946327 -0.0784718
0.15193309 -0.030758746 0.06579459 -0.1307967 0.0055076345 0.123823725 -0.12386416 -0.17405628
0.059670094 0.03143185 0.16028708 -0.13959824 0.109606385 0.1535116 -0.026666317 -0.17839545
-0.1372008 0.083449624 -0.11364338 0.17109333 -0.03931864 0.14369898 0.1448624 0.08724224
0.1258333 -0.0818296 -0.18282206 0.10429162 0.1264264 -0.1500017 -0.2237485 -0.080375135
-0.12265719 0.017195009 -0.16353266 -0.07135925 -0.009855794 0.07926899 0.086401045 0.055225912
-0.0020162119 0.12508366 0.19412418 0.01536775 -0.14622545 0.17965657 -0.14777534 -0.14736073
0.0024115813 0.11098988 -0.066210166 -0.15826233 0.018055584 -0.20656799 0.1236102 0.1360119
-0.0789014 0.11738311 0.08578996 0.057760496 -0.18491977 0.06963416 -0.10435821 -0.03704279
0.11587286 0.03563897 -0.13360593 0.11553504 0.09209681 0.10631286 0.13965392 0.056021377
0.096259214 -0.045795273 -0.0919231 -0.053631146 -0.10669427 -0.104664534 -0.12621914 0.0487533
0.21237858 -0.13360189 0.02811424 -0.03997482 -0.18746285 -0.01532216 0.13126221 0.12645991
0.17211963 0.038928848 0.062039975 -0.102730535 -0.044490274 -0.16304658 0.102624014 -0.10581136
-0.1661112 -0.19673614 0.10342768 -0.07435914 -0.110715576 0.0062096403 0.035346374 0.11646753
-0.07196145 0.06551343 0.14717242 0.07659156 -0.13113408 0.18611392 0.15981431 0.07354407
-0.11937239 0.0491989 -0.1891771 0.015706599 0.036405995 -0.15399866 0.1493103 0.023076953
-0.06401247 0.11559531 -0.03471897 -0.0806456 -0.034013998 -0.17941442 -0.0441693 -0.1615534
-0.15804544 0.1001606 -0.08414261 -0.0042183725 0.011672366 -0.046171013 0.16512346 0.087605186
00000000: 162a 71bd 941c 0dbe 6231 38be e198 9abd
00000010: a736 1a3e 0fc4 2cbe 284a f23d 97dd 36be
00000020: 3cc2 373d 156e 1ebd 7d43 1cbb 6bdf a13c
00000030: d640 17bd 2f1f 7dbd cb92 953c 0939 d3bd
00000040: 20bf efbd af52 bb3d b700 a0bc 03d2 233e
00000050: dcff c1bd 6f71 073e 241a 303d ff45 093e
00000060: 0ba9 003e 5699 10be e27b 90bd c14f 3bba
00000070: d0b2 083e 7ab4 063e 8df4 2ebe 16bb da3d
00000080: 8e42 aabc e34e 003e 4e4e 25bd 8387 f53d
00000090: 0562 cc3d c001 46be c444 2cbe b75a febd
000000a0: 994c 2fbd 04ed 913d 56ad d53d ef16 18bd
000000b0: c9b3 25be 3d1e 28be bb52 f8bc 6f0c 4d3e
000000c0: f162 84bd 46af a33c bc7d 3f3e e72e e63b
000000d0: 4bf6 15bd 87a9 593e 3b43 093e 2fe8 dcbc
000000e0: d617 86bc 7b5b 303e 3801 7dbd 0de2 313e
000000f0: d982 33be 77d3 2a3e 116e 353e b550 433d
00000100: 298e 763e f21c 38bd ae97 0e3e 8192 1e3e
00000110: 37b5 d43d 3171 da3d 0649 d73d a8fe a13d
00000120: 8837 183e 83cf a5bd 6ea9 ebbd 92c0 373e
00000130: e926 f73d 598a b6bd 0b50 493e 597d f5bc
00000140: d459 6ebd 4d74 8b3c 3ebb 073e 39ab 07be
00000150: 4980 ae3d ce94 1bbe e12f 8f3d 641c 5abe
00000160: 8dda c83d 621d 23be 48e6 263c a5b2 bbbd
00000170: 590a 723d c3c8 adbd 06a8 503e a0de 0cbe
00000180: 9aa9 c7bc 5ec0 913d d6c3 44be b6f6 12be
00000190: 4089 a03c d01a 36be c57f 25be d59f deba
000001a0: 49af 9cbd f651 35be e78c 2d3e 0b74 cc3c
000001b0: 3285 06be 2183 0b3e 924f 263d a5c0 2f3e
000001c0: 4992 e73b 4afc 5b3e 67ad 403e e111 93bd
000001d0: e735 0cbd 9a03 fe3d 472e e03d d3b5 a0bd
000001e0: 5994 1b3e c4f9 fbbc 50bf 863d 92ef 05be
000001f0: 6379 b43b 4b97 fd3d 7eac fdbd cf3b 32be
00000200: a168 743d afbe 003d 4c22 243e d7f2 0ebe
00000210: 5079 e03d 2532 1d3e 5273 dabc 4cad 36be
00000220: 5e7e 0cbe a3e7 aa3d dcbd e8bd 1733 2f3e
00000230: 950c 21bd d325 133e cf56 143e 0fac b23d
00000240: 72da 003e 4796 a7bd b535 3bbe d896 d53d
00000250: ec75 013e 0c9a 19be 541e 65be b89b a4bd
00000260: b133 fbbd 8cdc 8c3c 1b75 27be cc24 92bd
00000270: 327a 21bc c857 a23d 08f3 b03d 9134 623d
00000280: 6c22 04bb ee15 003e 7dc8 463e 04c9 7b3c
00000290: 20bc 15be e4f7 373e 6b52 17be bbe5 16be
000002a0: 9f0b 1e3b aa4e e33d 3299 87bd 850f 22be
000002b0: 4ee9 933c 8f86 53be 5827 fd3d b446 0b3e
000002c0: 0f97 a1bd 8e66 f03d a6b2 af3d 4596 6c3d
000002d0: 9c5b 3dbe 5b9c 8e3d c2b9 d5bd 2eba 17bd
000002e0: c04e ed3d 2bfa 113d fecf 08be a39d ec3d
000002f0: 419d bc3d 8fba d93d 7001 0f3e ac76 653d
00000300: 8d23 c53d d393 3bbd 2e42 bcbd 55ac 5bbd
00000310: 8782 dabd 5c5a d6bd 973f 01be 8ab1 473d
00000320: c579 593e efce 08be d64f e63c a3bc 23bd
00000330: 43f6 3fbe cc09 7bbc 9a69 063e b57e 013e
00000340: 2140 303e db73 1f3d a11d 7e3d 6364 d2bd
00000350: 6f3b 36bd aff5 26be 8a2c d23d a0b3 d8bd
00000360: 0e19 2abe 3375 49be e4d1 d33d 9b49 98bd
00000370: d9be e2bd 3d7a cb3b 5cc7 103d 8786 ee3d
00000380: 8660 93bd e82b 863d 5eb4 163e 09dc 9c3d
00000390: 0348 06be a694 3e3e 5da6 233e 469e 963d
000003a0: 8379 f4bd c984 493d a4b7 41be 20ab 803c
000003b0: 741e 153d d3b1 1dbe cde4 183e e10b bd3c
000003c0: f818 83bd 3cbd ec3d 7b35 0ebd 8529 a5bd
000003d0: 4352 0bbd 6ab8 37be deea 34bd 416e 25be
000003e0: aad6 21be 0021 cd3d f652 acbd 463a 8abb
000003f0: 743d 3f3c d11d 3dbd 2016 293e 596a b33d

layer1.0.bias f4 [16]
-0.07219744 0.066861115 0.04637536 0.18321633 0.0651731 0.2142077 -0.06178976 -0.20866075
-0.1712666 -0.15365611 0.008066847 0.14747174 -0.1305616 0.20210145 0.03255712 0.08158424
00000000: 40dc 93bd 7bee 883d 17f4 3d3d 109d 3b3e
00000010: 7979 853d 4359 5b3e 4217 7dbd 2aab 55be
00000020: 8360 2fbe 0758 1dbe cf2a 043c d502 173e
00000030: f1b1 05be aff3 4e3e 9d5a 053d a315 a73d

layer1.1.weight f4 [16]
0.9801633 1.0354809 0.9626764 0.980282 0.88094527 0.9447091 1.0477241 1.0716122
0.97570205 0.99526536 0.9592615 0.94291943 0.9829219 0.9442099 0.95018077 1.0080969
00000000: fbeb 7a3f a38a 843f f671 763f c3f3 7a3f
00000010: a185 613f 75d8 713f d31b 863f 972a 893f
00000020: 9cc7 793f b6c9 7e3f 2992 753f 2b63 713f
00000030: c5a0 7b3f bdb7 713f 0c3f 733f 5209 813f

layer1.1.bias f4 [16]
-0.027549973 -0.042034447 -0.054492384 -0.067349374 -0.08480474 -0.01920567 0.08360378 -0.089783676
-0.03672147 -0.053121667 -0.029649755 -0.124508314 -0.028388068 -0.04167099 -0.052877076 -0.033558812
00000000: 7bb0 e1bc 502c 2cbd 6833 5fbd 78ee 89bd
00000010: 1cae adbd 3655 9dbc 7538 ab3d 81e0 b7bd
00000020: 4169 16bd 1b96 59bd 0be4 f2bc 37fe febd
00000030: 188e e8bc 33af 2abd a295 58bd f774 09bd

layer1.1.running_mean f4 [16]
-0.34174845 0.16815794 0.9000397 -0.24815618 0.53203285 0.100554936 -0.030699013 -0.22364482
-0.14676194 -0.5158505 0.17612179 -0.42673618 0.0699991 0.5412179 -0.34077612 0.026153486
00000000: a7f9 aebe 9831 2c3e 0069 663f a71c 7ebe
00000010: 4e33 083f bfef cd3d 7f7c fbbc 2603 65be
00000020: c348 16be c70e 04bf 4559 343e 2a7d dabe
00000030: b05b 8f3d 428d 0a3f 357a aebe d63f d63c

layer1.1.running_var f4 [16]
0.01594906 0.006356616 0.1838121 0.056495193 0.05173821 0.00415922 0.0013368562 0.0012471351
0.002939136 0.04113347 0.007879632 0.07629521 0.03526586 0.029761365 0.042282794 0.0061324267
00000000: 9aa7 823c 294b d03b 3d39 3c3e 8167 673d
00000010: 72eb 533d 114a 883b 7339 af3a e976 a33a
00000020: 859e 403b 927b 283d 9219 013c aa40 9c3d
00000030: ef72 103d 1bce f33c b930 2d3d 86f2 c83b

layer2.0.weight f4 [32, 16, 3, 3]
-0.084978394 0.001281277 -0.05843359 -0.019973062 -0.029033978 -0.030144585 -0.07461875 -0.04030683
-0.014622475 -0.054008048 0.0656285 0.055529416 -0.078778006 -0.07181451 -0.030785631 -0.030162623
-0.09434598 -0.093448065 0.003968148 0.06249674 0.06162731 -0.06380664 -0.046550903 0.08361905
-0.06955221 -0.05281356 -0.09153173 0.04342587 -0.033089563 -0.03173956 0.062965654 0.022000473
0.041501764 0.099423006 -0.05009842 -0.029927114 0.03722581 -0.028616559 -0.04785571 0.028097115
0.033951 0.018858671 0.032075096 0.029369127 -0.039894216 -0.011929793 0.0024468254 -0.035690717
-0.05939981 0.061270736 0.04607695 -0.04371538 0.053214785 -0.098586105 0.05023888 -0.06782154
0.013727693 -0.06906008 -0.09719358 -0.027477432 0.06253191 -0.048683632 -0.045812026 -0.01619376
0.0022882146 -0.08963162 -0.07911714 -0.075028375 -0.07874517 -0.003568452 -0.025359275 -0.062637396
0.065549284 -0.028417638 -0.030765502 -0.018173615 0.0012832877 -0.020741094 0.07927874 0.060978107
0.07623282 0.046139583 -0.06470225 0.050742816 0.017835438 0.047145993 0.023991793 -0.00048160247
0.05854122 0.0199258 0.0057589835 -0.055532705 -0.0068376623 0.046719946 -0.05770292 0.036149528
0.053621564 -0.06507784 0.019824065 0.051909734 -0.07000376 -0.08021817 0.017723998 0.017782846
-0.017181117 0.051651534 -0.004259838 -0.013649858 -0.129626 -0.11584623 -0.11215645 -0.056150027
-0.121165626 -0.12571204 -0.039566167 -0.05722555 -0.038545582 0.042849477 0.018729784 0.035537843
0.021570321 0.013304195 -0.06654602 -0.021298636 0.06120713 -0.011139097 0.09873565 -0.019135287
-0.030053435 -0.06352804 -0.04281711 0.06572348 -0.03205146 -0.044290654 0.049694948 -0.10051745
-0.12555449 -0.06862812 -0.11855877 -0.03435124 -0.10290445 0.030264625 -0.0038173913 -0.064932376
0.040721763 -0.03176185 -0.07837033 0.037977934 -0.025269847 -0.028706474 0.051981743 -0.01614333
-0.025090953 0.03618023 0.092672035 -0.020728452 -0.07240685 0.023610687 0.04602057 -0.022496797
0.031212216 0.041635126 0.094729796 0.08502996 0.1142403 -0.01858221 0.102753304 -0.043461114
0.07504934 0.03984067 0.0759007 -0.00992142 -0.02285574 0.06123143 0.029034775 -0.040772084
-0.03776241 -0.008966816 0.104968995 0.02914266 0.0015892681 0.0536141 0.091940954 0.018688397
-0.04874824 0.06367432 0.079071164 0.070136 0.0714901 -0.0038008457 0.049811583 0.056528002
0.020330738 -0.043619487 -0.013410297 -0.07991853 0.012865753 -0.089715734 0.051704586 -0.064245865
0.083347626 0.04945972 0.02416862 0.0050011533 -0.068362996 -0.053019565 0.03607424 0.03647028
0.07434115 0.041083973 0.027165681 0.07076384 0.053129226 0.06630915 0.13699682 0.083776265
0.00061457086 -0.0379493 -0.0154930195 0.040787164 -0.02678073 -0.07588313 -0.059580714 -0.09218357
0.027284274 -0.032749332 0.049179293 -0.025605917 0.004787273 0.032658055 -0.0038566405 0.05170387
0.024834871 0.105895415 0.014102077 -0.013298303 -0.006007086 -0.047361866 0.07605082 0.10581962
-0.013644736 -0.05641856 -0.010953429 -0.08670583 -0.050917663 0.01648092 -0.06177941 1.3864657e-05
0.00055207225 0.07262347 0.06671611 -0.029493928 0.03945855 0.027830893 -0.016407888 0.0009470851
00000000: 2709 aebd 86f0 a73a 0f58 6fbd 8c9e a3bc
00000010: aad8 edbc c7f1 f6bc b7d1 98bd c618 25bd
00000020: 1b93 6fbc 8b37 5dbd 3c68 863d d072 633d
00000030: 5d56 a1bd 7c13 93bd 2632 fcbc 9b17 f7bc
00000040: 7738 c1bd b361 bfbd 3d07 823b 95fc 7f3d
00000050: eb6c 7c3d 0ead 82bd 29ac 3ebd 7740 ab3d
00000060: 6471 8ebd 0853 58bd fd74 bbbd 53df 313d
00000070: ec88 07bd 5701 02bd 23f4 803d 563a b43c
00000080: c1fd 293d 4a9e cb3d 0034 4dbd b529 f5bc
00000090: 177a 183d 466d eabc 5904 44bd ec2b e63c
000000a0: 3410 0b3d 807d 9a3c 2d61 033d 8697 f03c
000000b0: 1e68 23bd 2e75 43bc eb5a 203b 6e30 12bd
000000c0: 374d 73bd 06f7 7a3d 2fbb 3c3d e60e 33bd
000000d0: bff7 593d 83e7 c9bd 49c7 4d3d 05e6 8abd
000000e0: 1eea 603c 5f6f 8dbd 6d0d c7bd 5a18 e1bc
000000f0: bb10 803d 7d68 47bd 64a5 3bbd c7a8 84bc
00000100: dff5 153b c890 b7bd 2b08 a2bd 7aa8 99bd
00000110: 2645 a1bd b1dc 69bb 41be cfbc 0948 80bd
00000120: b43e 863d 1bcc e8bc ef07 fcbc d5e0 94bc
00000130: fd33 a83a 3ae9 a9bc e45c a23d 2ec4 793d
00000140: f41f 9c3d dcfc 3c3d 9d82 84bd b3d7 4f3d
00000150: a01b 923c 281c 413d 708a c43c 977f fcb9
00000160: ebc8 6f3d 6e3b a33c dbb5 bc3b 4376 63bd
00000170: 780e e0bb 6a5d 3f3d e659 6cbd 8711 143d
00000180: 49a2 5b3d 8847 85bd 1466 a23c 4d9f 543d
00000190: 225e 8fbd 6d49 a4bd eb31 913c 55ad 913c
000001a0: 6abf 8cbc 8f90 533d 1c96 8bbb a7a3 5fbc
000001b0: aebc 04be ca40 edbd 48b2 e5bd 92fd 65bd
000001c0: af25 f8bd a8ba 00be 2210 22bd 5765 6abd
000001d0: f9e1 1dbd ef82 2f3d 346f 993c 2190 113d
000001e0: 3eb4 b03c d7f9 593c 4849 88bd 7a7a aebc
000001f0: 54b4 7a3d c280 36bc eb35 ca3d 9bc1 9cbc
00000200: 9f32 f6bc fd1a 82bd fe60 2fbd 089a 863d
00000210: 6448 03bd 1e6a 35bd ee8c 4b3d 18dc cdbd
00000220: 5b91 00be e68c 8cbd f1ce f2bd e3b3 0cbd
00000230: 91bf d2bd 85ed f73c 332d 7abb 44fb 84bd
00000240: ddcb 263d b718 02bd a080 a0bd c08e 1b3d
00000250: b602 cfbc d729 ebbc cfea 543d 043f 84bc
00000260: 8b8b cdbc b931 143d d6ca bd3d b7ce a9bc
00000270: 0b4a 94bd 336b c13c 1180 3c3d 344b b8bc
00000280: c3b0 ff3c 9889 2a3d b201 c23d 3024 ae3d
00000290: d2f6 e93d b839 98bc 5370 d23d 4804 32bd
000002a0: 78b3 993d f82f 233d d471 9b3d 748d 22bc
000002b0: f63b bbbc cfcd 7a3d 56da ed3c a100 27bd
000002c0: c2ac 1abd 8de9 12bc fcf9 d63d 96bc ee3c
000002d0: fd4e d03a 759a 5b3d 8a4b bc3d 6918 993c
000002e0: 3cac 47bd af67 823d 10f0 a13d 77a3 8f3d
000002f0: 6769 923d 9c17 79bb 3b07 4c3d e889 673d
00000300: a68c a63c 59aa 32bd ddb6 5bbc 54ac a3bd
00000310: e1ca 523c e2bc b7bd 30c8 533d 5693 83bd
00000320: 29b2 aa3d 4696 4a3d 45fd c53c b7e0 a33b
00000330: e601 8cbd 0b2b 59bd 95c2 133d dc61 153d
00000340: 2c40 983d ab47 283d 908a de3c a2ec 903d
00000350: 089e 593d 17cd 873d e548 0c3e e492 ab3d
00000360: 271b 213a ba70 1bbd 6fd6 7dbc 7110 273d
00000370: 4363 dbbc 9d68 9bbd e80a 74bd bdca bcbd
00000380: 4583 df3c 2a24 06bd 3a70 493d 80c3 d1bc
00000390: 8ede 9c3b 74c4 053d b1bf 7cbb 70c7 533d
000003a0: 8072 cb3c b2df d83d 660c 673c 20e1 59bc
000003b0: 17d7 c4bb 84fe 41bd 88c0 9b3d f5b7 d83d
000003c0: 2c8e 5fbc 2617 67bd 0376 33bc d492 b1bd
000003d0: 0a8f 50bd ff02 873c 680c 7dbd 409c 6837
000003e0: f1b8 103a 9dbb 943d 75a2 883d 409d f1bc
000003f0: 4a9f 213d 9dfd e33c d669 86bc ce45 783a

layer2.0.bias f4 [32]
0.008462298 -0.015192413 0.036282673 0.061979875 0.069851026 -0.060034495 0.07092975 -0.028824251
0.04251487 -0.031553157 0.06448082 -0.006198512 -0.020164583 0.06438887 0.030615356 0.07597392
0.08188892 -0.064336486 0.005170221 0.01743189 0.08001378 -0.04236992 -0.051166154 -0.038934726
0.025863342 -0.0697787 0.037094507 0.0022110709 0.04408485 0.04824502 0.0028978216 0.03857387
00000000: 73a5 0a3c 99e9 78bc 249d 143d 9cde 7d3d
00000010: 0e0e 8f3d bbe6 75bd 9e43 913d d620 ecbc
00000020: 1324 2e3d e23d 01bd 850e 843d e31c cbbb
00000030: 3230 a5bc 50de 833d 0ecd fa3c 3798 9b3d
00000040: 61b5 a73d d9c2 83bd f56a a93b 53cd 8e3c
00000050: 44de a33d 158c 2dbd 9a93 51bd 057a 1fbd
00000060: 5cdf d33c 23e8 8ebd 69f0 173d 9de7 103b
00000070: 5192 343d 929c 453d 61e9 3d3b a2ff 1d3d

layer2.1.weight f4 [32]
0.9670322 0.9771859 0.96812093 0.9426106 1.0119401 1.0276269 0.97245485 1.056577
0.9480444 1.0524077 0.94723314 1.0727158 0.94584775 0.95702887 0.943233 1.0427245
0.9988232 0.9589452 0.9556576 0.9870044 0.95504606 1.0404375 1.0660543 0.9547572
0.90285957 0.9938431 1.0325749 1.0497856 0.97838795 0.9571797 1.0491878 1.0005382
00000000: 6c8f 773f db28 7a3f c6d6 773f ee4e 713f
00000010: 4187 813f 4789 833f cdf2 783f ea3d 873f
00000020: 0ab3 723f 4cb5 863f df7d 723f c04e 893f
00000030: 1423 723f d8ff 743f b877 713f ff77 853f
00000040: e1b2 7f3f 6f7d 753f faa5 743f 52ac 7c3f
00000050: e67d 743f 0e2d 853f 7874 883f f86a 743f
00000060: ce21 673f 806c 7e3f 6a2b 843f 605f 863f
00000070: a277 7a3f bb09 753f c94b 863f a311 803f

layer2.1.bias f4 [32]
-0.05267805 -0.13153356 -0.10701931 -0.025788195 0.028892359 0.0060478444 -0.097106904 0.0011894719
-0.075905405 0.032144275 -0.041444737 0.027936194 -0.06602783 -0.038284387 -0.0043623177 0.001965346
-0.022902638 -0.06228478 -0.07546682 -0.06957018 -0.027175069 -0.05041184 0.016766937 -0.07774387
-0.09528791 0.020081704 -0.041207973 -0.004415211 -0.045644846 -0.068216085 -0.055864166 0.0036317806
00000000: f0c4 57bd bcb0 06be f12c dbbd c441 d3bc
00000010: abaf ec3c ff2c c63b fcdf c6bd 0ee8 9b3a
00000020: 4b74 9bbd b7a9 033d f5c1 29bd 72da e43c
00000030: 9939 87bd 17d0 1cbd c6f1 8ebb 09cd 003b
00000040: 509e bbbc 531e 7fbd 598e 9abd cf7a 8ebd
00000050: 409e debc a57c 4ebd d15a 893c 2e38 9fbd
00000060: 4f26 c3bd 6382 a43c b1c9 28bd 79ad 90bb
00000070: 17f6 3abd e0b4 8bbd d3d1 64bd 2b03 6e3b

layer2.1.running_mean f4 [32]
-1.153012 1.0224746 0.44302475 -0.9774781 -1.1293887 0.07626399 0.6945335 -0.5549882
-0.21130098 -1.3043594 -0.5922023 -1.3200154 -0.013754648 -0.5140347 -0.5418726 -0.3746427
-0.863743 -0.019511983 0.6904809 0.48803166 -1.2091922 -0.42184475 -0.4781118 0.77685577
0.37401134 -0.75823766 -0.51871675 -0.50998074 0.16947004 0.7133491 0.5868046 -0.7147554
00000000: e695 93bf 73e0 823f 24d4 e23e 013c 7abf
00000010: cf8f 90bf 4b30 9c3d f3cc 313f b513 0ebf
00000020: 495f 58be 40f5 a6bf 929a 17bf 44f6 a8bf
00000030: 2d5b 61bc c797 03bf 2ab8 0abf 2bd1 bfbe
00000040: 431e 5dbf 98d7 9fbc 5bc3 303f 49df f93e
00000050: cfc6 9abf 09fc d7be 12cb f4be 05e0 463f
00000060: 6a7e bf3e dd1b 42bf 9fca 04bf 198e 02bf
00000070: 8e89 2d3e 0c9e 363f d438 163f 36fa 36bf

layer2.1.running_var f4 [32]
0.9505359 0.6293358 0.36105454 0.36108857 0.8601185 0.51830083 0.45031253 0.2046401
0.5510042 0.5978478 1.2042156 0.60276765 0.32043365 0.29232666 0.5396377 0.1802703
0.41610208 0.20254454 0.9002587 0.5031119 0.9172792 0.2109261 0.33693135 0.8489794
0.24245018 0.5498954 0.39639178 0.2729261 0.69952923 0.43172055 0.648437 0.6611762
00000000: 5256 733f 271c 213f 24dc b83e 9ae0 b83e
00000010: ba30 5c3f 5daf 043f 5d8f e63e 2d8d 513e
00000020: 9c0e 0d3f 8e0c 193f bd23 9a3f fb4e 1a3f
00000030: e10f a43e d7ab 953e b225 0a3f c798 383e
00000040: 550b d53e d667 4f3e 5b77 663f f1cb 003f
00000050: cfd2 6a3f 03fd 573e 4482 ac3e b756 593f
00000060: dc44 783e f2c5 0c3f ddf3 ca3e f8bc 8b3e
00000070: 5914 333f 7a0a dd3e f8ff 253f d842 293f

layer3.0.weight f4 [64, 32, 3, 3]
0.02464574 0.06252907 -0.034151614 0.06091178 0.018801667 -0.04522019 0.048509717 0.020497976
-0.017330475 -0.05680871 -0.029174259 -0.051696133 -0.026891727 -0.007683721 -0.04863831 0.041883662
-0.026545327 -0.023081072 -0.056391925 -0.07834251 -0.10425216 0.009558149 -0.04900412 -0.047347665
0.052815706 -0.00022593893 -0.014280053 -0.034283794 -0.052223988 -0.04762229 -0.094569355 -0.082394406
-0.060663737 -0.043885153 -0.024199128 -0.02454667 -0.0016136448 0.041241318 0.04404187 -0.03723854
0.030610831 0.022707012 -0.021902846 -0.08299838 0.02193307 0.04721479 0.008996218 -0.02580867
-0.019030532 -0.112750314 0.005533424 -0.0007090683 -0.108170375 -0.077131756 -0.01166741 -0.0016350894
0.008606789 -0.015717538 -0.009189471 -0.003292477 0.047915857 -0.00498726 0.033140562 -0.04041453
0.041302197 -0.045251165 0.05951012 -0.010033994 0.07053935 0.1130729 -0.00021941164 0.01722738
-0.00653403 0.0089180255 -0.031462613 0.011857703 0.0027835388 -0.0064126356 -0.041937694 -0.048343476
-0.025443833 0.004104705 0.012743837 -0.009192803 -0.0068747867 0.020860575 -0.0058397735 0.021029243
0.055580717 -0.049558066 0.004760002 0.015595295 0.013628073 -0.03362623 0.02470328 -0.048983242
0.007462965 0.012980964 0.012843736 -0.029112529 -0.04275224 0.04517972 -0.07731759 0.05657545
-0.0038070423 -0.09000658 -0.0011730938 -0.050554227 -0.0011958163 0.0026413132 0.045837954 0.020555316
-0.008585593 0.022382922 0.010511299 -0.030499728 -0.013953625 0.025551422 -0.009290977 0.050754588
-0.0379745 -0.019752206 0.08165402 -0.02012226 0.020722447 0.020205386 0.0375718 0.0025254402
-0.009202548 0.004259891 -0.014889236 0.085961804 0.072772495 0.004867012 -0.008196809 0.011054196
-0.09504574 -0.07621028 -0.03154443 -0.016779229 -0.014637117 0.015644081 -0.01127144 0.07274867
-0.037544545 0.10374884 -0.0076981178 0.068245195 0.06917322 0.038923696 0.0060826745 0.0015793262
0.06598481 -0.09639484 0.06252654 0.046792187 -0.010647967 -0.04338055 0.055673923 0.007855114
0.06470462 0.043810997 -0.022778763 -0.040927287 -0.024234388 -0.005573978 0.039058287 -0.00595631
-0.035885263 -0.03802046 0.04495797 0.0061824718 -0.035608657 -0.010867561 -0.0090930015 -0.049669504
0.0234185 0.0051796306 0.0525441 0.07653085 0.026896726 0.044290986 -0.022157876 0.014419439
-0.032313216 -0.035942376 -0.029541165 -0.0073562264 -0.04568711 -0.013216069 -0.07893317 0.003075763
0.016381245 -0.06414451 -0.033127427 0.02244613 -0.059531406 0.026869357 0.0057726377 0.024841893
0.065266676 0.054291517 0.067071006 0.11852437 0.054784767 0.092032954 0.008003239 -0.030217897
-0.014073104 0.034179393 -0.010602223 -0.015004324 -0.013625712 -0.018821808 -0.0072583575 0.030313885
-0.04758548 -0.08556102 -0.071182735 0.013951286 -0.03811091 -0.06848323 0.017197883 -0.03553568
-0.04298319 -0.020414548 -0.040886335 -0.042154666 -0.007645589 0.041596074 0.018378299 0.04268315
0.015190886 -0.0459011 0.03959042 -0.018706912 -0.032501608 0.039871544 -0.026437104 0.0022549974
-0.018435374 -0.0018797761 -0.034579977 -0.015142944 0.022507105 -0.0037820172 0.05163585 0.03558767
-0.00028229182 -0.011562539 0.004387016 0.05495154 0.03669125 0.04702402 0.02860688 0.049669664
00000000: dde5 c93c 3e0f 803d 90e2 0bbd a17e 793d
00000010: f405 9a3c ce38 39bd 20b2 463d 5feb a73c
00000020: a4f8 8dbc 40b0 68bd dbfe eebc 53bf 53bd
00000030: 0a4c dcbc b9c7 fbbb f738 47bd 348e 2b3d
00000040: 9675 d9bc 8414 bdbc 38fb 66bd 0a72 a0bd
00000050: 2882 d5bd c899 1c3c 8bb8 48bd a0ef 41bd
00000060: 4855 583d 05ea 6cb9 e2f6 69bc 2a6d 0cbd
00000070: d2e8 55bd 970f 43bd 94ad c1bd 66be a8bd
00000080: 8a7a 78bd ebc0 33bd 403d c6bc 1916 c9bc
00000090: ef80 d3ba a8ec 283d 3f65 343d 7087 18bd
000000a0: 91c3 fa3c 0e04 ba3c 996d b3bc 0efb a9bd
000000b0: fbac b33c 4c64 413d e064 133c b46c d3bc
000000c0: ebe5 9bbc a3e9 e6bd ba51 b53b c5e0 39ba
000000d0: 6e88 ddbd 41f7 9dbd aa28 3fbc 7f50 d6ba
000000e0: 7d03 0d3c 11c2 80bc 6f8f 16bc 99c6 57bb
000000f0: 6b43 443d 2b6c a3bb 66be 073d b589 25bd
00000100: 7e2c 293d 4959 39bd e2c0 733d 9f65 24bc
00000110: ef76 903d c492 e73d dd11 66b9 6f20 8d3c
00000120: 6b1b d6bb e91c 123c f1de 00bd d046 423c
00000130: 086c 363b 1621 d2bb dcc6 2bbd cf03 46bd
00000140: 966f d0bc c380 863b 87cb 503c 699d 16bc
00000150: e445 e1bb cce3 aa3c 925b bfbb 8545 ac3c
00000160: 9ba8 633d 66fd 4abd caf9 9b3b 6883 7f3c
00000170: 4848 5f3c a8bb 09bd 885e ca3c a7a2 48bd
00000180: e38b f43b 1cae 543c 896e 523c 667d eebc
00000190: f91c 2fbd 5f0e 393d af58 9ebd a9bb 673d
000001a0: 927f 79bb 5f55 b8bd 7fc2 99ba f311 4fbd
000001b0: f0bc 9cba e219 2d3b 94c0 3b3d 9f63 a83c
000001c0: 96aa 0cbc 645c b73c 9537 2c3c 91da f9bc
000001d0: bf9d 64bc 3751 d13c 2f39 18bc 0be4 4f3d
000001e0: 268b 1bbd 61cf a1bc 393a a73d 70d7 a4bc
000001f0: 1fc2 a93c c485 a53c e3e4 193d db81 253b
00000200: 49c6 16bc 8e96 8b3b fbf1 73bc be0c b03d
00000210: bf09 953d 757b 9f3b e94b 06bc a91c 353c
00000220: 57a7 c2bd 2314 9cbd bb34 01bd 9874 89bc
00000230: 85d0 6fbc 0428 803c d9ab 38bc 41fd 943d
00000240: 4fc8 19bd 467a d43d 7e40 fcbb 23c4 8b3d
00000250: b0aa 8d3d 746e 1f3d 2c51 c73b 6501 cf3a
00000260: 0b23 873d a86a c5bd ea0d 803d 2aa9 3f3d
00000270: d074 2ebc ceaf 31bd 570a 643d bcb2 003c
00000280: db83 843d 2973 333d 879a babc 5fa3 27bd
00000290: 3287 c6bc eba5 b6bb 95fb 1f3d 262d c3bb
000002a0: 6dfc 12bd 58bb 1bbd d925 383d 5596 ca3b
000002b0: 62da 11bd db0d 32bc d0fa 14bc 4072 4bbd
000002c0: 27d8 bf3c e4b9 a93b 7b38 573d 35bc 9c3d
000002d0: 8656 dc3c 776a 353d 6f84 b5bc 833f 6c3c
000002e0: dd5a 04bd 5038 13bd 5000 f2bc 800c f1bb
000002f0: 6822 3bbd 3688 58bc b7a7 a1bd bd92 493b
00000300: f631 863c 325e 83bd a0b0 07bd f2e0 b73c
00000310: 34d7 73bd 201d dc3c 6528 bd3b 3a81 cb3c
00000320: 89aa 853d c860 5e3d 865c 893d e8bc f23d
00000330: fe65 603d c67b bc3d 0420 033c 868b f7bc
00000340: e092 66bc b1ff 0b3d f2b4 2dbc b2d4 75bc
00000350: 613e 5fbc 3130 9abc 84d7 edbb d354 f83c
00000360: fee8 42bd 9e3a afbd 41c8 91bd ef93 643c
00000370: 301a 1cbd f040 8cbd 93e2 8c3c dc8d 11bd
00000380: 240f 30bd 693c a7bc 6e78 27bd 5faa 2cbd
00000390: d987 fabb a560 2a3d 168e 963c 87d4 2e3d
000003a0: 32e3 783c cb02 3cbd 9029 223d 3d3f 99bc
000003b0: 6820 05bd 5850 233d a092 d8bc 94c8 133b
000003c0: c805 97bc d262 f6ba bca3 0dbd 1c1a 78bc
000003d0: d260 b83c b8db 77bb 1d80 533d 60c4 113d
000003e0: 9100 94b9 ce70 3dbc f5c0 8f3b de14 613d
000003f0: 9049 163d 429c 403d fa58 ea3c 6b72 4b3d

layer3.0.bias f4 [64]
-0.027331704 0.039563484 -0.021027865 0.011543384 0.04552261 0.012140311 0.013867586 -0.041568477
-0.05557988 -0.0016049676 0.025460185 0.058956984 0.010969594 -0.044815354 -0.01635258 -0.040351193
-0.04594005 -0.0031814163 0.00963857 -0.052277654 -0.052814502 0.03151486 -0.046035893 0.029936511
-0.040814348 -0.038598325 0.01740285 0.052313052 0.050396312 -0.050779555 -0.039010998 0.04257839
-0.020512156 -0.021070857 -0.048450544 -0.019329572 -0.003632708 -0.039439224 -0.01897082 0.033432513
0.0392635 -0.02601566 0.04104554 -0.051102284 -0.05640582 0.0022689796 -0.0371087 0.056535337
-0.016849378 -0.044148073 0.050619148 -0.026260424 0.05926111 0.00476113 -0.031902757 -0.0016489867
-0.006428391 0.024158863 -0.045263175 0.0260385 0.06297128 -0.05191344 0.0037933015 0.058857616
00000000: bde6 dfbc 520d 223d a142 acbc 7620 3d3c
00000010: eb75 3a3d 28e8 463c df34 633c b543 2abd
00000020: baa7 63bd c75d d2ba e191 d03c e17c 713d
00000030: d0b9 333c 4e90 37bd d9f5 85bc 4b47 25bd
00000040: a22b 3cbd 4f7f 50bb 18eb 1d3c 1821 56bd
00000050: 0554 58bd ba15 013d 2290 3cbd 6a3d f53c
00000060: f22c 27bd 4719 1ebd 6c90 8e3c 3646 563d
00000070: 5d6c 4e3d 39fe 4fbd ffc9 1fbd ae66 2e3d
00000080: 1c09 a8bc ca9c acbc 1474 46bd 0d59 9ebc
00000090: ba12 6ebb 068b 21bd b168 9bbc 88f0 083d
000000a0: c4d2 203d cb1e d5bc 5e1f 283d a150 51bd
000000b0: ca09 67bd 29b3 143b 4bff 17bd 9991 673d
000000c0: b507 8abc 9cd4 34bd 0656 4f3d 1a20 d7bc
000000d0: c7bb 723d 4103 9c3b 77ac 02bd d022 d8ba
000000e0: 41a5 d2bb cfe8 c53c e165 39bd b14e d53c
000000f0: 16f7 803d 30a3 54bd 0a99 783b af14 713d

layer3.1.weight f4 [64]
0.98794985 0.9652335 1.0653043 1.0270668 1.0077438 1.039388 0.9879986 1.0232434
0.98307246 0.9826736 1.0283813 1.0144012 1.0069602 0.98775625 0.94358194 1.0049081
1.0005401 1.0084288 0.9952273 0.9667382 1.0007062 0.95025283 1.0224726 0.98700094
0.9919102 0.98649806 1.0332962 0.9990526 1.0053427 0.9765683 1.0445492 0.9490183
1.0382205 1.0360985 1.0417439 0.98459953 1.0314512 1.0133115 1.0153222 1.015955
1.0079141 0.97703403 0.95084506 1.0021795 1.0269508 0.9848751 0.980519 1.0311862
0.9606148 0.99574673 1.0408736 0.992296 1.0294406 1.0495445 0.9833159 1.0168557
0.9760914 0.99326545 1.009578 1.0124036 1.0176928 0.9748443 0.986622 1.0284303
00000000: 48ea 7c3f 8b19 773f e45b 883f ed76 833f
00000010: c0fd 803f aa0a 853f 7aed 7c3f a4f9 823f
00000020: a3aa 7b3f 7f90 7b3f 00a2 833f e6d7 813f
00000030: 12e4 803f 98dd 7c3f 968e 713f d4a0 803f
00000040: b311 803f 3214 813f 37c7 7e3f 287c 773f
00000050: 2417 803f c543 733f 62e0 823f 18ac 7c3f
00000060: d4ed 7d3f 238b 7c3f 0d43 843f e9c1 7f3f
00000070: 12af 803f 6100 7a3f cab3 853f ddf2 723f
00000080: 69e4 843f e09e 843f dd57 853f b70e 7c3f
00000090: 9806 843f 31b4 813f 14f6 813f d00a 823f
000000a0: 5403 813f e71e 7a3f 956a 733f 6b47 803f
000000b0: 2073 833f c620 7c3f 4b03 7b3f e9fd 833f
000000c0: daea 753f 42e9 7e3f 593b 853f 1c07 7e3f
000000d0: b6c4 833f 7957 863f 97ba 7b3f 5428 823f
000000e0: 20e1 793f a546 7e3f da39 813f 7196 813f
000000f0: c243 823f 658f 793f 4293 7c3f 9ba3 833f

layer3.1.bias f4 [64]
-0.035426505 -0.061393052 0.012169184 -0.009426487 -0.03521917 0.0049682353 -0.035218835 0.0029737593
-0.040185064 -0.050939254 -0.040399373 -0.01296439 0.004356521 -0.02566358 -0.06919399 -0.05608968
-0.04549548 -0.024952233 -0.02923979 -0.052183803 -0.021671189 -0.05422079 -0.0034819306 -0.0461953
-0.032599952 -0.011048649 -0.021941716 -0.039369132 -0.0130796265 -0.040072676 -0.0031108742 -0.0648454
0.009661583 -0.035051093 -0.011930436 -0.011173742 0.00010862527 -0.024862675 -0.0063315504 -0.0024826257
-0.013114345 -0.024788102 -0.07631133 -0.0031146656 -0.025100997 -0.0028772077 -0.030148441 -0.010972079
-0.016515816 -0.008867958 -0.035500165 -0.05055789 -0.012773801 0.037988678 -0.019775186 -0.059031602
-0.038665682 -0.0203862 0.007207202 0.0007031503 0.00033609127 -0.03435219 -0.017287588 -0.004774469
00000000: 621b 11bd 4877 7bbd 4261 473c 8d71 1abc
00000010: fa41 10bd 94cc a23b a041 10bd 67e3 423b
00000020: 1899 24bd aea5 50bd d079 25bd 9868 54bc
00000030: 26c1 8e3b 6e3c d2bc 94b5 8dbd 4bbe 65bd
00000040: 7859 3abd a068 ccbc 4988 efbc afbe 55bd
00000050: c787 b1bc 9e16 5ebd 1a31 64bb 4837 3dbd
00000060: 8787 05bd 6505 35bc 1dbf b3bc 8741 21bd
00000070: ee4b 56bc 3f23 24bd cfdf 4bbb aacd 84bd
00000080: 9e4b 1e3c bc91 0fbd e077 43bc 1212 37bc
00000090: bfcd e338 cfac cbbc e578 cfbb 8cb3 22bb
000000a0: 8ddd 56bc 6b10 cbbc 1d49 9cbd 6b1f 4cbb
000000b0: 9ba0 cdbc 898f 3cbb ddf9 f6bc 3cc4 33bc
000000c0: 2d4c 87bc e94a 11bc 9f68 11bd ca15 4fbd
000000d0: 3449 51bc 049a 1b3d 92ff a1bc 1fcb 71bd
000000e0: e85f 1ebd f600 a7bc 642a ec3b 9e53 383a
000000f0: 6835 b039 e2b4 0cbd b39e 8dbc 2673 9cbb

layer3.1.running_mean f4 [64]
-0.23224697 0.7974639 0.068306714 0.47892112 2.2641168 -1.319313 0.691871 -1.027141
0.48852247 -0.47401142 2.0758483 -0.07151773 0.08933355 1.039426 -0.010829025 1.9244609
0.2745093 2.6857445 0.9323747 2.81166 -0.25534457 0.9592946 0.08230553 2.5531507
0.12117834 -1.044524 2.447097 2.678139 0.31451854 -0.1678748 -0.1433999 -0.4502341
-1.1441007 0.49094018 -0.16027746 -1.3325511 -0.07007638 0.70064193 -1.1333452 -1.0580109
2.038108 -0.6400312 -0.5498085 -1.2159966 -0.58420086 -1.1743833 2.1909633 1.3047094
0.99091285 -0.6381391 1.2006433 1.721995 -0.67705363 -0.20445286 -1.3804227 -0.24938115
0.78733206 1.188685 -1.1777474 -0.9394415 -1.0889865 -0.112440385 1.1192919 -0.8175077
00000000: 26d2 6dbe 9826 4c3f 64e4 8b3d 2635 f53e
00000010: 4ae7 1040 40df a8bf 751e 313f 5b79 83bf
00000020: 9e1f fa3e a0b1 f2be b3da 0440 e377 92bd
00000030: 82f4 b63d e90b 853f 396c 31bc bc54 f63f
00000040: 7c8c 8c3e 3de3 2b40 1cb0 6e3f 3df2 3340
00000050: 86bc 82be 5594 753f cd8f a83d d266 2340
00000060: 592c f83d f6b2 85bf 3d9d 1c40 a166 2b40
00000070: 9308 a13e 5fe7 2bbe 6cd7 12be 1585 e6be
00000080: e471 92bf 835c fb3e c61f 24be 0991 aabf
00000090: 3584 8fbd 455d 333f 7511 91bf e76c 87bf
000000a0: 5d70 0240 16d9 23bf 40c0 0cbf c7a5 9bbf
000000b0: 308e 15bf 3152 96bf be38 0c40 b800 a73f
000000c0: 77ac 7d3f 165d 23bf aeae 993f 556a dc3f
000000d0: 6353 2dbf 175c 51be b1b1 b0bf c65d 7fbe
000000e0: 988e 493f d526 983f 6dc0 96bf 3d7f 70bf
000000f0: e963 8bbf 2547 e6bd f544 8f3f 2f48 51bf

layer3.1.running_var f4 [64]
0.6761965 0.574213 0.90203744 0.64434487 0.7199207 0.6903052 1.3909695 0.9974951
0.5327039 1.1073829 0.63140434 1.0773082 2.064176 0.6598724 0.98951143 0.64357996
0.84771657 0.99431485 0.540193 0.97413635 1.5854135 1.0710254 1.5875201 0.43863964
1.248752 1.8971587 0.6307088 0.61113536 0.43377984 1.1379681 1.472436 0.9868342
0.9699691 0.5129127 1.1076665 1.2741327 0.9807237 1.031973 0.59421784 1.1248608
1.0700074 0.7634547 0.33980492 1.7967502 0.51511246 0.9915351 0.6104104 0.60620886
1.1754751 1.049015 0.7190335 0.8390285 1.5339717 0.97896993 1.0336764 0.574134
0.7881867 0.8060964 2.0671813 1.279976 0.9252158 0.4654945 0.48409194 1.0514381
00000000: 371b 2d3f a0ff 123f edeb 663f c9f3 243f
00000010: b94c 383f d7b7 303f 4a0b b23f d75b 7f3f
00000020: 485f 083f b9be 8d3f b7a3 213f 3ce5 893f
00000030: 761b 0440 66ed 283f 9f50 7d3f a8c1 243f
00000040: f403 593f 6b8b 7e3f 174a 0a3f 0061 793f
00000050: d4ee ca3f 5c17 893f dc33 cb3f 6095 e03e
00000060: 1bd7 9f3f 19d6 f23f 2276 213f 5e73 1c3f
00000070: 6418 de3e f0a8 913f c878 bc3f 2ba1 7c3f
00000080: e54f 783f 3f4e 033f 04c8 8d3f c816 a33f
00000090: b510 7b3f b117 843f a91e 183f 70fb 8f3f
000000a0: 01f6 883f c471 433f e9fa ad3e e9fb e53f
000000b0: 69de 033f 3fd5 7d3f db43 1c3f 8130 1b3f
000000c0: f875 963f 2046 863f 9412 383f 92ca 563f
000000d0: 2f59 c43f c69d 7a3f 824f 843f 72fa 123f
000000e0: 9bc6 493f 555c 4e3f b34c 0440 41d6 a33f
000000f0: f1da 6c3f 4c55 ee3e e6da f73e 8695 863f

fc1.weight f4 [10, 576]
0.013734632 0.0036648202 -0.0092341835 0.031063467 0.02988006 -0.03566954 0.03708536 0.013647071
0.025749179 0.026197998 0.011778991 -0.022768857 -0.033150975 0.010558083 -0.00038998044 -0.018110832
0.012506162 -0.017673947 0.013453309 0.030753743 -0.045043427 -0.028192181 0.0029123006 -0.044864282
0.007790458 -0.0051915105 0.029650629 -0.048041835 -0.0030862384 0.01797159 0.0042679124 0.01876751
-0.0066706524 -0.016215777 0.030292124 -0.03212257 -0.037579782 0.014018024 -0.046799112 -0.0032656768
-0.037951786 -0.005593192 -0.031716876 -0.0021927406 -0.029574046 -0.0144938845 0.0133334175 0.0011290894
0.023896951 -0.041642565 0.01663787 -0.011635619 -0.008981669 -0.048142463 0.008255485 0.004759282
0.021185618 -0.011876948 0.033080116 -0.023921723 -0.0061940695 -0.037957676 0.022778919 0.0023771592
0.04120709 -0.03734806 -0.011935583 0.016222294 -0.03209122 -0.045608625 0.024721019 0.002316763
-0.038147755 -0.038519606 -0.023894608 0.037497744 0.017681172 0.020712044 -0.0015108592 0.0360481
0.017232457 -0.024267258 -0.012350091 -0.0046672462 0.023360873 0.00666361 0.030023819 0.038424965
-0.032685142 0.026706064 -0.040510327 0.0032442666 -0.044102475 0.02892795 -0.038793694 -0.042377744
0.007104098 0.013411362 -0.039275944 0.021269327 -0.0042104414 -0.007901658 -0.0012892113 -0.0049493806
-0.030839171 0.009982368 -0.047359064 0.02988613 0.023253785 0.014888553 -0.0027182864 -0.043503944
-0.00558441 -0.0047996305 0.03943762 0.02483999 0.010786595 -0.01496367 0.035417758 -0.0074886717
-0.04267597 0.0077188695 -0.050961528 -0.040276445 0.02741892 -0.049246684 0.045857996 -0.016247073
-0.017731111 0.021408295 -0.0070307506 0.038259536 0.025327802 -0.010969633 0.005492755 0.017358586
0.02959799 -0.00787051 -0.04973794 0.020372145 -0.042163648 0.02479705 0.021331253 -0.018247146
0.007428519 -0.005392698 0.003747638 -0.034027386 -0.034326702 -0.021584738 -0.04584701 -0.014541981
-0.009881027 0.027849058 -0.05090753 -0.024705071 -0.024434894 -0.00984134 0.022492843 -0.022972662
-0.04880463 -0.0254725 -0.034410108 -0.02268536 0.033393484 -0.03257362 0.024996279 0.039529487
-0.039249264 -0.008128359 0.0019108623 -0.040010642 -0.04015824 -0.029402006 0.025675043 -0.04367534
-0.0198959 -0.0515185 0.019063927 0.01929604 0.004492573 -0.017440146 -0.014993009 0.011179918
-0.01747641 0.0052417433 -0.019304344 -0.023166658 0.021920735 0.0265939 -0.032826733 0.026017204
0.035528947 -0.03146043 -0.017011384 -0.03728272 0.018760175 0.028640034 -0.025274597 -0.017898265
0.009408971 -0.014167014 0.02212785 -0.028899157 0.01448326 -0.038545243 -0.03072424 -0.0033755617
-0.039628714 -0.055084895 -0.03625325 -0.01514563 -0.017524768 -0.02848374 0.009728356 -0.012158444
-0.0043996884 -0.034511324 0.014683893 -0.024995212 -0.023843288 0.026379677 -0.01508754 0.010181888
0.00748757 0.018117866 0.010896416 0.008693957 0.027971262 0.0146654975 -0.029599516 0.0132233035
0.006767593 -0.041822728 0.024478253 -0.00955052 -0.0134143345 -0.010147055 -0.038417988 -0.047333833
-0.012450862 0.0035260257 0.0148593 0.031760003 0.010096789 0.0012532616 -0.022926327 0.031339355
-0.024283718 0.025017854 -0.034205087 0.035750527 -0.021172764 0.005767049 -0.015365875 0.039005786
00000000: 3907 613c 7b2d 703b f94a 17bc d078 fe3c
00000010: 07c7 f43c 391a 12bd d2e6 173d f797 5f3c
00000020: f1ef d23c 2f9d d63c abfc 403c c185 babc
00000030: 51c9 07bd cffb 2c3c 4a76 ccb9 2b5d 94bc
00000040: a5e6 4c3c f4c8 90bc 456b 5c3c 46ef fb3c
00000050: 757f 38bd 4af3 e6bc 4cdc 3e3b 9cc3 37bd
00000060: 1947 ff3b 8c1d aabb e0e5 f23c 84c7 44bd
00000070: 7d42 4abb 2839 933c d8d9 8b3b 52be 993c
00000080: 7d95 dabb f3d6 84bc 3027 f83c f592 03bd
00000090: 42ed 19bd dbab 653c 6db0 3fbd f704 56bb
000000a0: 5573 1bbd 1847 b7bb 8ee9 01bd 15b4 0fbb
000000b0: 4545 f2bc c277 6dbc 6874 5a3c f4fd 933a
000000c0: 8ac3 c33c 6591 2abd 244c 883c 53a3 3ebc
000000d0: da27 13bc 0831 45bd 0442 073c c0f3 9b3b
000000e0: 768d ad3c 8897 42bc 047f 073d 7df7 c3bc
000000f0: 9ff7 cabb 8279 1bbd db9a ba3c 1dca 1b3b
00000100: c4c8 283d 48fa 18bd 778d 43bc 9ee4 843c
00000110: 1572 03bd 1cd0 3abd bc83 ca3c d5d4 173b
00000120: d240 1cbd bcc6 1dbd a0be c3bc 3c97 193d
00000130: 1bd8 903c 4eac a93c 0608 c6ba 2ca7 133d
00000140: 152b 8d3c 21cc c6bc 0958 4abc b3ef 98bb
00000150: 4d5f bf3c 6a5a da3b 83f4 f53c 7f63 1d3d
00000160: dbe0 05bd adc6 da3c 28ee 25bd c39d 543b
00000170: cca4 34bd 4ffa ec3c 23e6 1ebd 4994 2dbd
00000180: 7ec9 e83b 54bb 5b3c d0df 20bd 033d ae3c
00000190: bef7 89bb f575 01bc c1fa a8ba 6a2e a2bb
000001a0: 6ea2 fcbc 168d 233c 94fb 41bd c2d3 f43c
000001b0: b97e be3c 1eef 733c 4725 32bb 3131 32bd
000001c0: 6dfd b6bb 3846 9dbb 5889 213d 3c7d cb3c
000001d0: 42ba 303c 2e2a 75bc 3612 113d 8863 f5bb
000001e0: ffcc 2ebd 92ee fc3b 09bd 50bd eaf8 24bd
000001f0: a59d e03c e4b6 49bd 98d5 3b3d 9518 85bc
00000200: d640 91bc 7360 af3c 3662 e6bb 08b6 1c3d
00000210: 407c cf3c fab9 33bc 92fc b33b 9833 8e3c
00000220: 7c77 f23c 50f3 00bc 03ba 4bbd 7ce3 a63c
00000230: cab3 2cbd 2f23 cb3c e1be ae3c 0a7b 95bc
00000240: ef6a f33b 3bb5 b0bb ef9a 753b 4d60 0bbd
00000250: 289a 0cbd 7ad2 b0bc 13ca 3bbd 7d41 6ebc
00000260: 08e4 21bc b523 e43c 6a84 50bd 4a62 cabc
00000270: b02b c8bc 923d 21bc e942 b83c 2a31 bcbc
00000280: 5de7 47bd b4ab d0bc 9df1 0cbd a6d6 b9bc
00000290: 9bc7 083d eb6b 05bd ffc4 cc3c ace9 213d
000002a0: d6c3 20bd cf2c 05bc e675 fa3a 33e2 23bd
000002b0: f77c 24bd 7adc f0bc 7854 d23c eae4 32bd
000002c0: bafc a2bc 1005 53bd f42b 9c3c bb12 9e3c
000002d0: 6f36 933b a3de 8ebc 3da5 75bc fa2b 373c
000002e0: b02a 8fbc eec2 ab3b 2524 9ebc 01c8 bdbc
000002f0: 1d93 b33c 73db d93c 5375 06bd 0822 d53c
00000300: cd86 113d a7dc 00bd 755b 8bbc c4b5 18bd
00000310: f0ae 993c 819e ea3c ac0c cfbc 629f 92bc
00000320: 1628 1a3c c31c 68bc 7745 b53c edbd ecbc
00000330: 324b 6d3c 9ee1 1dbd 67b1 fbbc 8738 5dbb
00000340: b851 22bd b3a0 61bd 4a7e 14bd 6025 78bc
00000350: 1a90 8fbc bb56 e9bc af63 1f3c 3634 47bc
00000360: 432b 90bb bf5b 0dbd b694 703c c2c2 ccbc
00000370: 0053 c3bc 311a d83c bb31 77bc efd1 263c
00000380: 4a5a f53b eb6b 943c e286 323c 1971 0e3c
00000390: fd23 e53c 8e47 703c af7a f2bc 8ea6 583c
000003a0: afc2 dd3b 4f4e 2bbd 9e86 c83c c979 1cbc
000003b0: ccc7 5bbc d53f 26bc 2e5c 1dbd 1fe1 41bd
000003c0: b3fe 4bbc e514 673b 6c74 733c c716 023d
000003d0: 016d 253c 7b44 a43a fecf bbbc b25d 003d
000003e0: a6ee c6bc 3ef2 cc3c a21a 0cbd 256f 123d
000003f0: 8172 adbc 83f9 bc3b 27c1 7bbc 88c4 1f3d

fc1.bias f4 [10]
0.0072818077 0.037965953 0.004710975 -0.03592517 0.032157414 -0.0068864683 0.05102588 0.046010338
-0.0001664994 0.0288953
00000000: 3b9c ee3b 3082 1b3d 865e 9a3b 4526 13bd
00000010: 7eb7 033d e2a7 e1bb 8300 513d 5675 3c3d
00000020: 5896 2eb9 d6b5 ec3c

fc2.weight f4 [2, 10]
-0.2784645 0.15702213 -0.05570567 -0.08981768 -0.14425355 -0.21736443 0.19405857 0.32819447
0.106638655 0.013539249 -0.15710442 -0.2987493 0.26451668 -0.15738058 -0.14712216 -0.20616975
-0.14414291 0.11237859 0.116355725 0.23062676
00000000: e692 8ebe 69ca 203e a12b 64bd 55f2 b7bd
00000010: 34b7 13be c894 5ebe 4ab7 463e 1b09 a83e
00000020: 5e65 da3d bad3 5d3c fbdf 20be abf5 98be
00000030: bb6e 873e 6028 21be 31a7 16be 2a1e 53be
00000040: 339a 13be bf26 e63d e94b ee3d 6c29 6c3e

fc2.bias f4 [2]
-0.39919162 0.39437336
00000000: d862 ccbe 4eeb c93e

exp_avg f4 [16, 3, 3, 3]
-0.0010544473 -0.0006536533 3.274833e-05 -0.00079067965 -0.00070853025 -0.00015213963 -0.00049928075 -0.0005721996
-0.000105944484 -0.0020231644 -0.0017173861 -0.0011251997 -0.0018389624 -0.0018509848 -0.001396559 -0.0015536267
-0.0017582296 -0.0014257306 -0.0027254992 -0.0023939558 -0.0018954747 -0.0024453455 -0.0024146799 -0.0019782202
-0.0021703287 -0.0021976645 -0.0019375414 -0.008389227 -0.010052617 -0.0103281345 -0.0067758495 -0.009203067
-0.008516028 -0.0026816214 -0.006583197 -0.0064341296 -0.0104603795 -0.011016782 -0.010469206 -0.008639579
-0.010023329 -0.008328829 -0.0045633526 -0.007265369 -0.006249353 -0.01137584 -0.011827225 -0.011149339
-0.009362046 -0.010642482 -0.009083956 -0.00492784 -0.007844735 -0.0070865927 2.9316008e-05 0.00012876844
0.00030490398 0.00022286721 0.00029550112 0.00038649398 0.00022676046 0.00029539212 0.00040183312 -0.00038196048
-0.00030802126 -0.00022950611 -0.00016257339 -0.00010390557 -9.9084886e-05 -0.0001591294 -0.00011387884 -8.670747e-05
-0.00026142033 -0.00018243334 -7.611166e-05 -5.7331326e-05 -5.5220394e-06 1.4329352e-05 -6.097451e-05 -2.2451335e-05
8.8333e-07 -0.0011386698 -0.00053732464 -0.0002805894 -0.0014078412 -0.00083774235 -0.00047221602 -0.0010503582
-0.00055137044 -0.00027058375 -0.0005057152 3.86401e-05 0.00025017562 -0.00084038504 -0.00035175675 -1.6712716e-05
-0.0005495313 -0.00016098985 9.184022e-05 0.00038697617 0.00085758563 0.000914062 -2.550275e-05 0.00041629636
0.0006787335 4.7045847e-05 0.0004916336 0.00074168865 -0.00052711274 -0.00044644726 -0.00038710548 -0.00031288242
-0.00029652004 -0.00029630293 -0.000290363 -0.00029244635 -0.00031299333 -0.0002787095 -0.000183724 -0.00020133518
-7.275173e-05 -1.0857111e-05 -8.4141546e-05 -6.660622e-05 -3.5560675e-05 -0.00013252482 0.0013785025 0.0014401063
0.0013860923 0.0016265708 0.0016300528 0.0015284652 0.0016453794 0.0016504042 0.0015044963 -0.011348429
-0.012785643 -0.01388677 -0.011355577 -0.013003221 -0.014022587 -0.010919107 -0.012936917 -0.014079842
-0.0049473955 -0.006153397 -0.0072054146 -0.004650672 -0.0060690106 -0.0070066205 -0.0039143646 -0.0057073855
-0.0068278383 -0.008352219 -0.009321704 -0.01019265 -0.007952486 -0.009129297 -0.010012349 -0.0074371896
-0.009106245 -0.010058295 0.029966732 0.030096184 0.029440863 0.027994916 0.026439141 0.025521705
0.027153492 0.024724554 0.024087757 -0.0036576346 -0.0029026933 -0.003728745 -0.0063159354 -0.0071585067
-0.00807926 -0.008031941 -0.009793169 -0.010572849 -0.018755618 -0.016265558 -0.015476135 -0.020938883
-0.020129316 -0.019809702 -0.022245657 -0.02268318 -0.022621272 -0.07741965 -0.07467585 -0.06820296
-0.07021397 -0.06840928 -0.0639319 -0.066892914 -0.06486855 -0.060693014 -0.069194324 -0.065668516
-0.05906335 -0.060776856 -0.05834095 -0.053770214 -0.056494407 -0.054347772 -0.049863834 -0.07495867
-0.06884319 -0.058888867 -0.06909353 -0.06420302 -0.055745844 -0.06649271 -0.061578218 -0.053629823
-1.5012283e-05 -0.0019737636 -0.003402547 -0.0002173706 -0.0020536399 -0.0029989702 -0.00026134544 -0.0018103556
-0.0024784706 0.0030923416 0.0013043153 -6.222134e-05 0.002644838 0.00094764034 0.00011296822 0.0025227813
0.0012055757 0.0006115876 0.008842704 0.0075892415 0.007039831 0.008811468 0.0076751797 0.0076320977
0.009005216 0.008132893 0.008314392 -0.0015091739 -0.0010077832 0.00041449608 -0.0011609625 -0.0010900049
7.354794e-05 -0.00067601894 -0.000762937 6.158721e-05 -0.0028347666 -0.0024985964 -0.0011475203 -0.0025143363
00000000: 6135 8aba ee59 2bba 405b 0938 9d45 4fba
00000010: a9bc 39ba ac87 1fb9 2ae2 02ba aaff 15ba
00000020: 832e deb8 1197 04bb ea19 e1ba 707b 93ba
00000030: 5709 f1ba be9c f2ba be0c b7ba 10a3 cbba
00000040: 6574 e6ba 95df baba 4a9e 32bb eae3 1cbb
00000050: 9471 f8ba 1742 20bb 9b3f 1ebb 07a5 01bb
00000060: 133c 0ebb b106 10bb 1af5 fdba f872 09bc
00000070: bbb3 24bc 5637 29bc f207 debb 76c8 16bc
00000080: cf86 0bbc 24be 2fbb dcb7 d7bb 64d5 d2bb
00000090: 0362 2bbc bc7f 34bc 0887 2bbc 058d 0dbc
000000a0: e438 24bc a475 08bc 2d88 95bb 5512 eebb
000000b0: 5fc7 ccbb bb61 3abc fac6 41bc b8ab 36bc
000000c0: 4463 19bc ce5d 2ebc dfd4 14bc b879 a1bb
000000d0: 3487 00bc a636 e8bb a6eb f537 0406 0739
000000e0: 85db 9f39 76b1 6939 7ded 9a39 58a2 ca39
000000f0: 8cc6 6d39 dcde 9a39 21ad d239 de41 c8b9
00000100: ea7d a1b9 94a7 70b9 7678 2ab9 e1e7 d9b8
00000110: cbcb cfb8 f9db 26b9 3dd2 eeb8 b8d6 b5b8
00000120: 3e0f 89b9 944b 3fb9 239e 9fb8 0b77 70b8
00000130: f549 b9b6 1968 7037 e2be 7fb8 e055 bcb7
00000140: fa1d 6d35 6b3f 95ba 3fdb 0cba 121c 93b9
00000150: 5087 b8ba f09b 5bba c393 f7b9 2cac 89ba
00000160: d889 10ba 23dd 8db9 f991 04ba 7e11 2238
00000170: 012a 8339 494d 5cba fe6b b8b9 4932 8cb7
00000180: 6c0e 10ba 62cf 28b9 589a c038 10e3 ca39
00000190: 99cf 603a aa9d 6f3a bdee d5b7 5a42 da39
000001a0: 09ed 313a 1853 4538 f9e0 003a e26d 423a
000001b0: f02d 0aba 2311 eab9 6bf4 cab9 5e0a a4b9
000001c0: 3f76 9bb9 1b59 9bb9 dd3b 98b9 7c53 99b9
000001d0: 4119 a4b9 c21f 92b9 09a6 40b9 801d 53b9
000001e0: 4a92 98b8 f026 36b7 2675 b0b8 f1ae 8bb8
000001f0: fc26 15b8 5cf6 0ab9 deae b43a f3c1 bc3a
00000200: 8aad b53a a932 d53a 7fa7 d53a c856 c83a
00000210: c5a9 d73a 6052 d83a 8532 c53a c3ee 39bc
00000220: e07a 51bc 5685 63bc be0c 3abc 760b 55bc
00000230: febe 65bc 0ee6 32bc 5df5 53bc 23af 66bc
00000240: c31d a2bb 6fa2 c9bb 661b ecbb aa64 98bb
00000250: 8dde c6bb cb97 e5bb 1244 80bb 0505 bbbb
00000260: 0fbc dfbb bfd7 08bc 0fba 18bc 13ff 26bc
00000270: 254b 02bc 0c93 15bc d60a 24bc abb3 f3bb
00000280: 5c32 15bc 8ccb 24bc cb7c f53c 468c f63c
00000290: f72d f13c 9855 e53c e696 d83c e512 d13c
000002a0: 0071 de3c 268b ca3c b053 c53c edb4 6fbb
000002b0: 1d3b 3ebb f65d 74bb e8f5 cebb e891 eabb
000002c0: df5e 04bc 6798 03bc 8773 20bc be39 2dbc
000002d0: 62a5 99bc 593f 85bc 9d8f 7dbc 0588 abbc
000002e0: 3ce6 a4bc f547 a2bc 863c b6bc 14d2 b9bc
000002f0: 3f50 b9bc 328e 9ebd a7ef 98bd fead 8bbd
00000300: 58cc 8fbd 2a1a 8cbd baee 82bd 27ff 88bd
00000310: cdd9 84bd 3d99 78bd c1b5 8dbd 377d 86bd
00000320: 69ec 71bd 27f1 78bd ecf6 6ebd 283e 5cbd
00000330: ae66 67bd c59b 5ebd 053e 4cbd ee83 99bd
00000340: a9fd 8cbd 7435 71bd e980 8dbd df7c 83bd
00000350: c155 64bd 542d 88bd 7139 7cbd f2aa 5bbd
00000360: 44dd 7bb7 425a 01bb 44fd 5ebb faed 63b9
00000370: 5c96 06bb 5f8a 44bb 3105 89b9 7449 edba
00000380: d66d 22bb e2a8 4a3b 8ff5 aa3a d47c 82b8
00000390: 0555 2d3b 116b 783a 5ae9 ec38 3f55 253b
000003a0: 6804 9e3a f352 203a fde0 103c 2caf f83b
000003b0: 62ae e63b fa5d 103c 1380 fb3b ad16 fa3b
000003c0: 9d8a 133c d33f 053c 1639 083c 79cf c5ba
000003d0: 9817 84ba b950 d939 702b 98ba 7fde 8eba
000003e0: c03d 9a38 dd36 31ba d6ff 47ba 6228 8138
000003f0: 7ec7 39bb 7ebf 23bb 6468 96ba 90c7 24bb
