Lab5/model_25_1e-05.pth (torch, 378966 bytes, 54 tensors)

layer1.0.weight f4 [16, 3, 3, 3]
00000000: b40d 3ebe 1510 bdbd 2b68 fbbd 8622 1bbe
00000010: d3a2 013e e625 ea3b c09c 343e c365 03be
00000020: b790 f33d 38d1 2b3d 0793 c9bd 117b 0f3e
00000030: fab5 fdbd 4e2c 203e b041 9a3c 8042 223e
00000040: 7af6 dcbc c0ef 0e3e 90b9 f3bd c4c1 07be
00000050: 7f2e a7bd 689f e3bd 36a9 363e 2871 0bbe
00000060: db25 18be 30c6 e9bd 42f6 c63c daba edbd
00000070: 7982 cebc 62a8 2e3e ea98 ae3b ce64 b13d
00000080: ca25 babd 3a44 28be 475d 433e 757f 21be
00000090: cfb7 47bc 1c27 b53d e8cc 3dbd 6c94 fc3d
000000a0: 51ef 8a3c e80c 3f3e 5163 f93d 0db7 a03d
000000b0: 8132 3fbe a0ac 3dbc 82d3 03bc a3c3 7c3d
000000c0: 2dd3 38be 4876 a3bc 4adb b73d dba1 12be
000000d0: 3a44 55bc 7df9 e6bd 7dce dfbd a91a 543d
000000e0: c628 d7bd 0ec7 1b3e ded9 1b3e 4330 a4bd
000000f0: 769a 4b3c 8ac5 9fbd c551 27be 48e1 27be
00000100: 8f9f 8bbc 4df3 c43d e5d9 01be d259 f83d
00000110: 02ae 343c 3550 373e 5542 22be eb5a 2ebe
00000120: 9d9a 0ebe 87ac 433e b126 863d 6090 3d3e
00000130: 9ece 103e 4562 10bc d78c 8bbd cf5e d4bd
00000140: 008a f5bd 5086 27be baf2 153e 5b10 29be
00000150: a518 ee3d 025e 14bd 1f92 2cbe b41f 4e3d
00000160: 63eb 2a3e a581 a4bd 9a13 51bd 9c49 453e
00000170: 0b06 d13d 6ff7 263d 3ab4 73bd 82be aabd
00000180: 0dad 1f3e 7f7c 303e 447e 903d 35a4 a5bd
00000190: 8ba0 cb3d fb9d abbd 48a5 c8bc b0d7 c73d
000001a0: 057a 403e 1982 053d 44c9 083c ce56 8fbd
000001b0: 8383 a83d 2121 15be 5246 f8bd 5e86 d2bd
000001c0: cde2 823d 5d94 0d3e b81a 0ebc 1bda 8cbd
000001d0: 0a27 103d 6668 453e 1d9d 05be dd3f 393e
000001e0: 4432 3cbc 2315 163e 30f0 2bbe c807 983d
000001f0: 0f87 033e d0fb c63c c22b 103d dd39 53bd
00000200: 6bc6 313e bb25 10be 049e 03bd a8a2 143e
00000210: 6af4 0f3e 5ecd a5bc 39fb edbd dcba f2bc
00000220: c667 9fbb d1aa 343e 7d6c 50bd ca42 64bb
00000230: 98d7 41be 1783 40bd d4e7 04be f6fb 10bc
00000240: 7969 663d 2618 08be a094 f7bd 6724 87bd
00000250: fa27 193e 8c1c b73c da77 263d 1f3e 0d3e
00000260: 6e0a 11be ad81 89bd cfc7 d6bd 76c3 39be
00000270: 8e4a 1a3e 5310 fa3d 1b98 253e f8be 193e
00000280: 61cc 88bd b428 1cbd ed5d 11be 30d3 183c
00000290: 7734 05be 3bf5 35be 1d5e ec3d 859f 3b3d
000002a0: 8b7d 283e 5d7b 5abc 6f28 62bd bd40 df3d
000002b0: c9aa 2dbe 2cc3 d03d 89ff 31be 7629 283d
000002c0: 8c4a c1bc 3eb0 dbbd bd15 2abe 1955 ab3d
000002d0: d409 af3d adc4 16bd af47 20be 7c4c c3bc
000002e0: e671 0d3e dfa3 673d f169 ef3c af92 fb3d
000002f0: 65b1 17bb 4d45 073e 4c56 99bd 56ea 43bd
00000300: 2311 47bd 49eb 8a3d 16b6 f63d 3ea7 f5bc
00000310: 063a fc3d 21d0 0e3d 919b e13c ff94 74bd
00000320: 773b 893d a863 16bd ccad 173e 301f 363c
00000330: 7434 26be fb33 eb3b 7d77 ed3d 53b5 1fbe
00000340: 8b67 8e3d 4113 45bd dc78 ddbd 0535 1bbe
00000350: 1c54 ea3d 870f b8bd 5483 0cbe 6d5e 063e
00000360: 8bd3 823d bc3f 773d 40df 3f3e a93e 37be
00000370: b853 413d 3f26 423e 15cc 783d be1d f0bd
00000380: 908d 00bb 9d12 01bc 48dc ef3d 3184 443d
00000390: e582 0d3d a2ef e03d 7fd9 d8bd 3e9e 2fbe
000003a0: d00f c33c 9bb1 33be 9264 35be 5207 273e
000003b0: c4d5 953d 7bce 3c3e 3988 a5bd 6c56 8e3d
000003c0: df05 f6bd 2125 2d3e 1ea6 0ebe 195a c5bd
000003d0: 8d64 c23d f215 24bd 4b55 2c3d 3804 01be
000003e0: a99d b43d 2521 75bd fe07 b93d 0d43 87bd
000003f0: 4da4 1a3e 2bfa ddbd 8999 29be c016 953d
-0.18559915 -0.09231583 -0.12275728 -0.15149888 0.12659769 0.007145631 0.1763792 -0.12831788
0.118928365 0.041947573 -0.09842496 0.1401179 -0.12388225 0.15641901 0.01883015 0.1584568
-0.026972998 0.13958645 -0.119006276 -0.1325751 -0.08163165 -0.11114389 0.17837986 -0.13617384
-0.1485819 -0.114147544 0.024287347 -0.11607905 -0.025208699 0.1705642 0.0053282874 0.08661805
-0.09089239 -0.16432276 0.19078551 -0.15771277 -0.0121898195 0.0884535 -0.046337992 0.12332997
0.016959818 0.18657267 0.12177146 0.07847414 -0.1867161 -0.011576802 -0.008046033 0.06171001
-0.18049307 -0.019953862 0.08977373 -0.14319555 -0.013016755 -0.11278055 -0.109280564 0.051783238
-0.10505824 0.15212652 0.15219828 -0.08017018 0.012426963 -0.078013495 -0.16339786 -0.16394532
-0.017043857 0.096167184 -0.12680776 0.12126507 0.011027815 0.1790169 -0.15845616 -0.1702687
-0.13926168 0.19108783 0.065503486 0.18512106 0.14141318 -0.008812492 -0.068139724 -0.10369646
-0.11989212 -0.1635983 0.14643374 -0.16510145 0.11625794 -0.036222465 -0.16852616 0.050323203
0.16691355 -0.0803254 -0.051044084 0.19266361 0.10206231 0.040763315 -0.05949805 -0.08337118
0.15593357 0.17234991 0.07055333 -0.08087961 0.099427305 -0.08379742 -0.024492875 0.09757936
0.18796547 0.032594774 0.008348767 -0.069989786 0.08228209 -0.14563419 -0.121227875 -0.10279535
0.06390915 0.13826127 -0.008673362 -0.06877538 0.03519348 0.19278106 -0.13048215 0.18090768
-0.011486594 0.146565 -0.16790843 0.07423359 0.1284449 0.024289995 0.03519798 -0.051568855
0.17360847 -0.14076893 -0.032133117 0.14515173 0.1405808 -0.020239528 -0.116201825 -0.029630117
-0.0048646657 0.17643286 -0.050884712 -0.0034829848 -0.18929899 -0.047000017 -0.1297906 -0.008849135
0.05625293 -0.13290462 -0.12088895 -0.0659874 0.14956656 0.02235248 0.040641643 0.13793229
-0.14164135 -0.06714187 -0.10487329 -0.18140969 0.15067503 0.12210145 0.16171305 0.15014255
-0.06679607 -0.038124755 -0.14195986 0.009327695 -0.13008295 -0.17769329 0.11541388 0.045806427
0.16454141 -0.013335076 -0.05521434 0.1090102 -0.1695968 0.10193476 -0.17382635 0.041055165
-0.023595117 -0.10726975 -0.16609855 0.083658405 0.085467964 -0.03680866 -0.15652345 -0.023840182
0.1381298 0.056552764 0.029225321 0.12283837 -0.0023146507 0.1321003 -0.07487163 -0.047830902
-0.048600327 0.06783158 0.12046449 -0.029986974 0.123157546 0.034866456 0.02754 -0.059712406
0.06700795 -0.036716133 0.14812392 0.011115834 -0.16230947 0.0071778274 0.11595056 -0.15596513
0.06953343 -0.048114065 -0.10814068 -0.15156944 0.11441824 -0.089873366 -0.13721973 0.13121958
0.06388005 0.060363516 0.18737507 -0.17894997 0.04719898 0.18959902 0.060741503 -0.11724423
-0.0019615628 -0.007877973 0.11711937 0.04797763 0.03454866 0.10983206 -0.10588359 -0.17150208
0.02381125 -0.1754822 -0.17714146 0.16311386 0.07316163 0.18438141 -0.08082623 0.069500774
-0.120128386 0.16908695 -0.13930556 -0.096363254 0.09491835 -0.04005999 0.04207353 -0.12599266
0.08819134 -0.059846062 0.090347275 -0.06604586 0.15101738 -0.108387314 -0.16562475 0.0727973

layer1.0.bias f4 [16]
00000000: 29be 28be 6683 2fbe 1e4d d3bc f0aa 1fbe
00000010: f2ef b7bd 7aed 163e 6dc0 f93b 39e1 60bc
00000020: ec52 09bd 1748 3f3e d016 41be 56c8 2a3e
00000030: 5bab 023e c39f 02be 30c6 763c 0bf0 413e
-0.1647879 -0.17139968 -0.025793608 -0.15592551 -0.08981313 0.14739028 0.007621816 -0.013725572
-0.033526346 0.18679844 -0.18856359 0.16677985 0.1276068 -0.12756257 0.0150619 0.18939225

layer1.1.weight f4 [16]
00000000: 2608 803f 773d 803f 72dc 7f3f 4be4 7f3f
00000010: 7317 803f cbfd 7f3f 53b3 7f3f 3bcd 7f3f
00000020: f10e 803f 77d9 7f3f cdef 7f3f 7b09 803f
00000030: c315 803f 86f5 7f3f f6eb 7f3f 2cdc 7f3f
1.0002487 1.0018758 0.9994575 0.9995772 1.0007156 0.9999663 0.99883 0.9992253
1.000456 0.999412 0.9997528 1.0002893 1.0006641 0.99984014 0.9996942 0.9994533

layer1.1.bias f4 [16]
00000000: f02f 903a 5c3f 1e3b 024f d2b9 6dd9 23b9
00000010: 1bad 1239 f52e 32ba 0a21 0bba 1e2b 79ba
00000020: bd9a 503a e380 9fb9 c05d 89b8 c9e9 df3a
00000030: 9831 ac3a af8a 6cba 747e c5b9 f70a 94b9
0.0011000615 0.0024146652 -0.00040113187 -0.00015625889 0.00013988132 -0.0006797158 -0.00053073524 -0.0009505021
0.0007957628 -0.0003042287 -6.5501314e-05 0.0017083223 0.0013137339 -0.0009023351 -0.00037668983 -0.0002823693

layer1.1.running_mean f4 [16]
00000000: a42e b6be 0f18 34be 8608 34be 09e8 e03d
00000010: 3a0b ea3d 7850 483c 3676 25be f7d6 423d
00000020: e3cf 053e 3907 5b3e 3b0b 84be deea a8bd
00000030: bf29 603e 19c6 303e 6fb9 d4bd 139a d53e
-0.3558246 -0.17587303 -0.17581376 0.10981757 0.114279225 0.0122262165 -0.16158375 0.047568288
0.13067584 0.21389474 -0.25789818 -0.08247922 0.21890925 0.17263068 -0.10386931 0.41719112

layer1.1.running_var f4 [16]
00000000: 15ce a03c 873d 183b ecfc a33b c281 ae3c
00000010: b617 4c3c 6b2d 893b 8af0 c63b 7f36 8c3b
00000020: 631b 033c 6304 b53a ce28 643b 4915 593c
00000030: 5d27 513b aa66 ce3c 7eb1 b23b 53f6 673c
0.019629518 0.0023230033 0.005004516 0.021302108 0.012456825 0.0041863224 0.006071155 0.0042789574
0.008002135 0.0013810511 0.003481436 0.013249704 0.0031914331 0.025195438 0.0054532876 0.014157849

layer2.0.weight f4 [32, 16, 3, 3]
00000000: 9fc5 a03d f229 6bbd 2840 9a3c 9d3b 263d
00000010: 260b 593d cfa8 27bd 06fc 11bc 450f c63c
00000020: 37e3 693b c03c a03b 12a5 9f3d 2672 983c
00000030: 5435 43bd c845 5dbc 91c5 84bd c5cd dcbc
00000040: bbf1 ae3c c185 0fbb 2776 66bd a9ba e0bc
00000050: cedb 2fbc 0d12 1a3d a699 953d dc02 64bc
00000060: c4f2 363d 6d40 973c 4196 503d cb1f 3fbd
00000070: 06ab 88bd 167a 57bd 1319 a8bd 13f8 a43d
00000080: 87a5 9c3d 246c c9bb 953c a6bd 02e4 0cbd
00000090: 1b37 853d 2036 99bd d32f a13c 2a41 92bd
000000a0: 3a1d 8a3c 93e6 45bc cea9 b53c fe16 b83c
000000b0: 2e97 81bd b9a0 b93c 8c3f 7abd 258f eb3b
000000c0: 3bb3 043d 463e 8fbd 01b0 f1bc 7ad8 623b
000000d0: da3f 0c3b b88b 853c abcc 953d 4da6 773d
000000e0: 3eb6 96bd c242 96bd 38f6 603d ad3e 623d
000000f0: 466d 9a3d 903c 38bd c950 93bd ad9a b7bc
00000100: 0fe0 90bd ce88 843d 0051 773d dc25 cfbb
00000110: af9d c53c 06f7 803c e35e d13c 0441 173c
00000120: f627 a43d 292b d23c e71c f0bc c514 3b3c
00000130: 2a22 6ebd 4b9d a4bd 08f5 8fbd 505c adbb
00000140: 5566 a63c 3273 783d f7cf 1dbd 938a 80bc
00000150: 541d 5fbd d715 2ebd fe3f 5fbd db75 3abd
00000160: a2f7 743d 6b80 223d 433c 6a3d a2b6 933d
00000170: 1ace 96bd fb78 3fbd df3c 51bd a741 df3c
00000180: cae5 6e3d d9d7 453d 2539 edbc 6c84 423d
00000190: e24d 33bd ef08 ad3c 4db1 99bd 8798 af3c
000001a0: 305f 163d f4b8 6ebc 8838 9b3c 8c15 083d
000001b0: de20 813b 835c 353d e855 4b3d 20cd 0fbd
000001c0: 886d cabc c336 5abd 2b34 8e3d b36b 103d
000001d0: f553 893d a04f 52bd 0fb9 1abc 3aaf 80bd
000001e0: 653c 83bd 0d36 2b3d be74 3bbd 8ab4 e837
000001f0: 5f6e 1ebb 00d0 22bd 933e 763d b094 263b
00000200: b1db 32bd 6e39 18bd 925f 803d 7667 a13d
00000210: 8b2a 68bd 8d72 f9bb 267d 8bbd d8e2 c9bc
00000220: 658a 863d fb95 be3b 7990 a83b 7856 673d
00000230: d5af 383d 5b92 3dbb 5e06 8abd a5bc 2dbd
00000240: 4aef 973d 34a8 833d 05c3 c5bc f7c7 983d
00000250: 1609 dcbc 2dac b83a a785 733d 4ab5 8c3d
00000260: 68e5 013d bbaa 843c e706 973d b842 a53d
00000270: 781c ef3c a425 54bd cb92 5dbc e1db 79bd
00000280: 8845 203d 13ca 4c3d fd60 2e3c 6722 683d
00000290: e605 5abd 71b7 cbbc 8411 a23d a55d 6f3c
000002a0: 4eab d33c a92f 3dbd d636 513d 66c0 3c3b
000002b0: 9715 71bd 9062 223d 7c45 93bd 772c 993d
000002c0: c245 9b3d 1187 2d3b 21cf 8dbc db73 d0bb
000002d0: 2586 1cbd 0c60 9bbd cff8 b63c 9ff4 4e3d
000002e0: a70b 10bd 17d3 8bbd 4025 31bd 5b5b 86bd
000002f0: d3a6 37bd 25a0 343c d796 7ebd 1ec0 18bc
00000300: ec8b 653d 339e 933d 6a1d 3b3d c15d 2cba
00000310: 1dfb 3fbd 3d1b 9ebd eb6f 133c 2094 9abd
00000320: 71dd f33b f2ba a53d 8a8a 50bd ab0d 01bd
00000330: 5513 2ebd 650f 443d c0c2 47b9 0ce1 013c
00000340: a1be 933d a9b4 a7bd 3fa8 4bbd 8814 88bd
00000350: b42e e8bc 8c66 93bc b5d5 8bbd 8cf5 813d
00000360: 942b a4bd cf80 b4bc f894 4fbd e79d 90bc
00000370: bb90 5fbd b59e fc3b cd0e 03bd 2e3d 53bc
00000380: a467 0b3d 16e2 b4bc 21ba 4c3d 52e4 a33d
00000390: 482f 12bd eac4 e93c d2ee f03c 4461 453b
000003a0: 5f86 8bbd c600 7dbd e7e9 f33b bcd1 0bbc
000003b0: a140 8bbc afc0 9a3d 2cb8 0fbd 847a c1bb
000003c0: 6cb1 7b3d 860e e0bc 1a44 c3bc 6a90 cdbb
000003d0: 63e1 b6ba 6a64 633d a7b3 253d 6e67 a2bd
000003e0: d7bd 5e3d 4325 2a3d e448 12bd 40b7 1f3d
000003f0: b0cc acba 5d71 503d 339d a0bd 90da 553d
0.07850193 -0.05741305 0.01882942 0.040584195 0.052989148 -0.040932473 -0.008910185 0.024177203
0.003568841 0.0048900545 0.077951565 0.018609118 -0.04765828 -0.013505407 -0.06482995 -0.026953587
0.0213555 -0.0021899792 -0.056265023 -0.027432756 -0.010733558 0.03761487 0.07304697 -0.013916697
0.044665113 0.018463338 0.050924543 -0.04666118 -0.06673245 -0.052606665 -0.082079075 0.08055129
0.07648759 -0.0061469246 -0.08117024 -0.034397133 0.06504651 -0.07481027 0.019676125 -0.07141335
0.01685964 -0.012078899 0.022175696 0.022471901 -0.06327663 0.022659646 -0.06109576 0.007188695
0.03239749 -0.069942996 -0.02950287 0.0034613893 0.0021400363 0.016301975 0.07314428 0.06046133
-0.07358979 -0.07336952 0.054922312 0.055235554 0.075403735 -0.044979632 -0.07193143 -0.022412622
-0.07073986 0.06471406 0.060379982 -0.006321652 0.024123041 0.01574279 0.02555794 0.0092318095
0.080154344 0.025655346 -0.029310657 0.011418526 -0.05813805 -0.08037814 -0.07029158 -0.0052905455
0.020312468 0.060656734 -0.03852841 -0.015691077 -0.05447133 -0.042501297 -0.054504387 -0.045522552
0.059806474 0.03967325 0.057186376 0.07212569 -0.073635295 -0.046746235 -0.05108344 0.027252985
0.058324613 0.04830155 -0.028957913 0.04748957 -0.043775447 0.021122424 -0.075045206 0.021435035
0.03671187 -0.014570463 0.018947855 0.033223674 0.0039406857 0.04427768 0.049642473 -0.03510773
-0.024710432 -0.05327488 0.06943544 0.03525896 0.06705467 -0.051345468 -0.0094435355 -0.06283422
-0.06408004 0.041799594 -0.04576563 2.7740625e-05 -0.0024174673 -0.039749146 0.06011827 0.0025418214
-0.043666545 -0.037164144 0.062682286 0.07881062 -0.056681197 -0.0076125325 -0.068109795 -0.0246443
0.065693654 0.005816219 0.0051441756 0.056478947 0.04508956 -0.0028926346 -0.06739496 -0.042416234
0.07418688 0.064285666 -0.024140844 0.07460015 -0.026859801 0.0014089398 0.059453633 0.06870516
0.03171292 0.016194692 0.073743634 0.08069366 0.02918838 -0.05179371 -0.013523768 -0.06100071
0.03912881 0.0499974 0.010643241 0.056673434 -0.05322828 -0.024867745 0.07913497 0.014609729
0.02583852 -0.04618803 0.051077686 0.0028801202 -0.05885848 0.039644778 -0.071909875 0.07479184
0.075816646 0.002647821 -0.01731068 -0.0063614673 -0.038213868 -0.07586679 0.022335438 0.050526258
-0.035167363 -0.068273716 -0.043248415 -0.065603934 -0.04483683 0.01102451 -0.06215557 -0.009323148
0.056041643 0.072079085 0.04568235 -0.000657525 -0.04687034 -0.07720039 0.008998851 -0.07547784
0.0074421694 0.080922976 -0.05091337 -0.031507175 -0.042498905 0.047866244 -0.00019050669 0.0079271905
0.07214094 -0.08188755 -0.049721 -0.06644541 -0.028342582 -0.017993234 -0.06827871 0.063456625
-0.08016124 -0.022034077 -0.050679177 -0.017653419 -0.054581385 0.007709349 -0.031996537 -0.012893004
0.034034386 -0.022080462 0.049982194 0.08002533 -0.035689622 0.028536279 0.029410753 0.003011779
-0.068127386 -0.061768316 0.007443655 -0.008533891 -0.01699859 0.07556283 -0.03508775 -0.0059044976
0.0614485 -0.027350675 -0.023836184 -0.006273319 -0.0013952669 0.055515684 0.040454533 -0.07929884
0.054380264 0.04153944 -0.035714045 0.03899312 -0.001318356 0.05088936 -0.07842483 0.05221039

layer2.0.bias f4 [32]
00000000: ffc3 203d 1137 0cbd bf17 27bd 87cd 98bd
00000010: 7e14 cb3c 243e 98bd e1c8 173b 73a4 0b3d
00000020: fed4 7ebd 85e3 98bd 6af5 b0bb f79f 8ebd
00000030: 7f2b 0cbd f5c6 713d e324 f8bc 530a cebc
00000040: 0ea5 97bd 8772 9f3d ff14 7c3d faf5 98bd
00000050: eadd 9c3d bab9 f03c f73d b9bc b67e 54bd
00000060: 3f84 0c3d 3a8e 5dbd 381d 6d3d 38f4 413c
00000070: 87f3 963d 1f08 5cbd 8d0a 963d c3db 29bc
0.039249416 -0.034232203 -0.04079413 -0.07461076 0.024790045 -0.074337274 0.0023160505 0.034092378
-0.062214844 -0.07465271 -0.0054003494 -0.069641046 -0.03422117 0.05902763 -0.030291026 -0.025151407
-0.074045286 0.07785516 0.06154346 -0.07468791 0.07659514 0.029385436 -0.022612555 -0.051878653
0.034305807 -0.054090716 0.057889193 0.011838011 0.07370668 -0.053718682 0.07326231 -0.010367337

layer2.1.weight f4 [32]
00000000: a4fa 7f3f eec3 7f3f d206 803f 46cf 7f3f
00000010: 073d 803f 31b2 7f3f b322 803f 1af1 7f3f
00000020: 27dc 7f3f 34dc 7f3f d40b 803f d3eb 7f3f
00000030: d21c 803f 27f3 7f3f cc0f 803f 01e0 7f3f
00000040: 1302 803f 9df8 7f3f 0816 803f 8b12 803f
00000050: 63ce 7f3f 9daf 7f3f dde6 7f3f 37f7 7f3f
00000060: b108 803f e8d4 7f3f b644 803f 03e7 7f3f
00000070: c404 803f befa 7f3f b1f1 7f3f a503 803f
0.9999182 0.9990834 1.0002081 0.9992565 1.0018624 0.99881274 1.0010589 0.99977267
0.999453 0.9994538 1.000361 0.99969214 1.0008795 0.99980396 1.0004821 0.9995118
1.0000633 0.9998873 1.0006723 1.0005659 0.99924296 0.9987734 0.99961644 0.99986595
1.0002652 0.99934244 1.0020969 0.9996187 1.0001454 0.9999198 0.99978167 1.0001112

layer2.1.bias f4 [32]
00000000: 3802 a738 7ff6 27ba 1f0b b539 f616 e339
00000010: cf46 3c39 fff7 6237 51db 3e3a 5e7e 71b8
00000020: 0eb0 ad38 2f0c 9237 0536 673a 80fc 52b9
00000030: 081d da3a 4921 adb9 9817 b838 60e5 abb9
00000040: 5ffd 263a 61ae 7f3a e211 1539 a4cf 5d3a
00000050: f8a8 79b9 6fef 0c3a 4af2 5b39 9b35 9939
00000060: 0852 273a 7888 23b9 f061 693a 965a c239
00000070: 7cbb 8d3a 2831 51b8 e9a4 a7b9 cb4b 033a
7.963594e-05 -0.0006407275 0.00034531296 0.0004331392 0.00017955455 1.3528391e-05 0.00072806055 -5.7576566e-05
8.2820756e-05 1.741023e-05 0.000882 -0.00020121224 0.0016640732 -0.0003302193 8.7781984e-05 -0.0003278656
0.00063701527 0.00097534625 0.00014216409 0.0008461422 -0.00023809436 0.00053762546 0.00020975727 0.00029222373
0.0006382768 -0.0001559573 0.00089028385 0.00037070055 0.0010813321 -4.9875263e-05 -0.0003197559 0.00050085475

layer2.1.running_mean f4 [32]
00000000: ff98 e4bc 53f9 f53d cc0e 283e dbc9 a8bb
00000010: 4288 d8be 24d5 61bf 7d41 84be b506 6a3e
00000020: c7ac 7dbd 41ab a9bd c416 393e a2c7 91be
00000030: 0c76 303f 1827 e53e c45f 313e 809e 17be
00000040: 4d04 b83e a653 243e 6fcd b3bd 5ca1 da3b
00000050: f90d b43c de7a 4d3e f447 2bbf b20b 3bbe
00000060: e7d0 363e 11b4 db3e 171a 2bbe c8bb 033f
00000070: b544 20be d1be 4f3d b291 ae3e 9709 8cbd
-0.027904985 0.120104454 0.16411895 -0.005151016 -0.42291456 -0.8821585 -0.25831214 0.22854121
-0.06193235 -0.08284617 0.1807509 -0.2847262 0.68930125 0.4475639 0.17321688 -0.14806557
0.3594078 0.16047534 -0.08779418 0.0066720676 0.021979319 0.20066401 -0.66906667 -0.1826618
0.17853127 0.42910817 -0.16709171 0.51458406 -0.1565121 0.050719086 0.34095532 -0.068377666

layer2.1.running_var f4 [32]
00000000: fc83 1f3e 5879 4d3e b60d d03d 0aaf 523e
00000010: 8b62 2f3e 39c0 a83e 6a6b 1f3d 6623 aa3d
00000020: 3697 ad3d dc0b 933d ebab 043e f667 053d
00000030: 88a2 6e3e 2159 ac3d bac7 6c3d 5ff6 813e
00000040: 314c c43d ddf4 8c3d c169 933e 47e2 ff3d
00000050: b92a 313d 7aed b03d 4f57 353e 4c4b 0e3e
00000060: 64b1 d03d efde 4c3d 2770 483d a402 943e
00000070: c1e0 bf3d 99e0 9a3d 85e9 733e 7a38 a13d
0.15577692 0.2006582 0.10158865 0.20574585 0.17127435 0.32959154 0.038920797 0.08307533
0.08476107 0.07179996 0.12956207 0.032569848 0.23304188 0.084154375 0.05780766 0.2538328
0.09584845 0.068826415 0.2879162 0.12494331 0.043253634 0.08639045 0.17709087 0.13895911
0.101900846 0.050017294 0.04893508 0.28908265 0.0936904 0.0756237 0.2381955 0.078721

layer3.0.weight f4 [64, 32, 3, 3]
00000000: 5acc 34bc 4a82 3cbd 02db 1b3c 696e b13c
00000010: d90e 1cbd 5ec9 5dbb f996 283d 2b2e 0a3d
00000020: 82d6 0ebd d8f3 edbb f1db 0abd d2a5 b1bc
00000030: 064d 1dbd 6879 3ebd 471d 4a3d 6023 1a3c
00000040: c433 9f3c 2bd5 04bd d3b8 47bd 9619 2cbd
00000050: 9ee0 00bd f79b 18bb d672 d7bc 2fd2 3b3d
00000060: 894b 6a3d 5bec 313d fd3d f6bc be83 debc
00000070: 7d6b 8e3c 05c3 a7bc e053 703d 0da1 9f3c
00000080: f195 d63c 2c2d dc3c 73ba 493d 5bd7 32bd
00000090: e16e bc3c b918 043d c58c 013b 2176 a2bc
000000a0: 8837 243d 2b3f 59bd 57fb 193d ffa7 aabc
000000b0: d139 1fbd 05fe 0abd e172 033d 4e60 2e3c
000000c0: 8dd1 5fbd 9a8a 573d 97cd 8bbc 0402 b43c
000000d0: 9506 853c 912e 4f3c e818 d6bc caae 133d
000000e0: 6596 cb3c dbb2 1f3c 9fe6 453d 1666 fb3c
000000f0: 4908 013d 2ba9 e3bc 94e1 213d 4745 ed3c
00000100: f04f 78bc 1830 e3bc 4871 5dbd 6987 d63c
00000110: ce1d 7e3b b7d5 373d 6bc1 66bd 95d0 6e3d
00000120: c5ce b03b 0340 c43c 2fc8 09bc 02cd 3cbd
00000130: a64d 4b3b 90f8 2a3d ba98 51bd a3fd 81bc
00000140: 9225 17bc 40c5 633d 004c c6bc f5f4 89bc
00000150: 99b1 08bd 7e59 d8bb 9d43 153d d0f8 473d
00000160: 142a 57bd 56d8 5dbd 4f80 04bd 1128 843b
00000170: 3466 28bd dc33 08bd 4c00 49bd ffba b8bc
00000180: 69ea c03c 32ab 35bc 635f a7ba f9f7 603c
00000190: afc7 123d a5ac 7abc eb70 18bd 0f4d 05bd
000001a0: d662 61bc 0d18 19bd bf02 633d f674 693c
000001b0: 114a 1f3d dd1c 493a fcef a53c f555 23bd
000001c0: 8ac3 0c3d 1f87 633c 5e50 0abd a305 273d
000001d0: 3c7c 4dbc d51d b23c 3143 343d f0d3 7e3c
000001e0: ac0d adbc f834 1b3d aa3f 5f3c 839d 6cbd
000001f0: b87f abbc 74bf 8e3c 0204 43bd 1f66 023d
00000200: 6402 b43a 8fe4 d1bc 90c8 36bd 6398 443d
00000210: 6a87 2fbd 74c0 d4bc 28d8 63bd 4821 44bd
00000220: 526b 0a3d ed86 11bd 9bc0 38bd 43ac 9a3c
00000230: f9bc bcbc 485f 02bd 79d2 71bd 9d27 a03c
00000240: 03c5 b9bc f445 143d 5091 d7bc 3d64 45bd
00000250: 8d10 5ebc ba5c 4ebd 9e1c 3a3c bcf0 2e3d
00000260: 39bf 9cbc 6c8d 3abb 4b1e 633d f883 e33c
00000270: 0e7f 6fbd 8cc1 6d3d d2c8 80bb 7ab4 f8bb
00000280: d6fc 523d ba88 793c 080e aabc d9d7 49bd
00000290: f892 59bd 69f8 42bd fd9f f73c 428d 2d3c
000002a0: fd97 60bd fc8f b53c 1237 b63c 164f 5a3c
000002b0: 0722 4bbd 0c21 913c df2b 193d 37dc 2fbd
000002c0: b1ae 1d3c 9fb2 523d 2397 49bd 97ff 2c3d
000002d0: 1514 9c3c 6b47 43ba e9ac f93c d9d3 60bb
000002e0: 3a9e b53c 9656 4e3d 746f 273d a8d4 233d
000002f0: ec1f 553d 5747 843c ae47 5ebd 6f26 613c
00000300: 2d8a 103d 777b 3c3d 941a adbb 0d6c d0bb
00000310: 6410 e03c 8ed1 203c d5c0 053c 3c11 24bc
00000320: 533b 503d 6180 453d 7c55 103d 3f81 e73c
00000330: c62c e43c 2f84 cd3c c9ed 123d 7a90 983c
00000340: 7000 053c 2610 073d 980e a0bc 1540 45bd
00000350: 1168 043d e526 2e3d 5a87 463d 3232 41bd
00000360: 76df 9b3c 283b b0bc 1298 ed3b 097a 2cbd
00000370: e372 88bb 6c35 463d 1f36 72bc 2c0d 143d
00000380: 6273 733a 6b22 0cbd 99f5 0fbc 38ff 943c
00000390: 695e 263d 954f 69bb 64cf 9b3a 904e 2ebd
000003a0: 11bb 25bd 908d 9dbc f75c 373d 6290 f9bc
000003b0: 1ec9 023d c1ef 833c 1014 ebbc 0b9f 69bb
000003c0: 2a26 56bd 4311 153c 15c6 04bd f3e3 543d
000003d0: 6d3b 27bd 279f 523c 5d52 a7bc aa28 70bd
000003e0: 9a44 c5bc a65a e73c efd8 47bc 6cf0 ffbb
000003f0: aa0c b93c d8ef 0ebc b668 db3b cedc c23c
-0.011035049 -0.04602269 0.009512665 0.021659093 -0.038100097 -0.0033841948 0.041159604 0.033735435
-0.03487254 -0.0072617345 -0.03390116 -0.021685515 -0.038403533 -0.0465025 0.049344327 0.009407848
0.019433863 -0.032429855 -0.048760246 -0.04201659 -0.03146421 -0.0023286322 -0.026299875 0.045854744
0.057200942 0.043438297 -0.030058855 -0.027162429 0.017385239 -0.020478735 0.05867374 0.019485975
0.026194545 0.026877008 0.049250077 -0.04366241 0.02300209 0.03225014 0.0019767743 -0.019831719
0.04009202 -0.053038757 0.037593212 -0.02083206 -0.038873497 -0.03393366 0.03209198 0.010643078
-0.054643203 0.052622415 -0.017065806 0.021973617 0.01623849 0.01264538 -0.026134923 0.036055364
0.024851987 0.009747232 0.04831564 0.030688327 0.031502042 -0.027790627 0.03952177 0.028963698
-0.015155777 -0.027732894 -0.05406311 0.026187615 0.003877509 0.04488155 -0.0563368 0.058304388
0.0053957426 0.023956304 -0.008409544 -0.04609395 0.0031021624 0.041740954 -0.051171042 -0.015868014
-0.009225266 0.055608034 -0.024206161 -0.016840437 -0.033372495 -0.006602465 0.036441434 0.04882127
-0.052530363 -0.054161392 -0.032348927 0.0040330966 -0.041113093 -0.033252582 -0.04907255 -0.022550104
0.023549275 -0.011088179 -0.0012769516 0.013730996 0.035834964 -0.015299951 -0.037217062 -0.032544192
-0.0137564745 -0.037376452 0.05542254 0.014249077 0.038888995 0.00076718425 0.020256035 -0.039876897
0.034366168 0.013887196 -0.03376805 0.04077686 -0.012541827 0.02174274 0.04400939 0.0155534595
-0.021124683 0.03789231 0.013626019 -0.057767402 -0.020934924 0.017425276 -0.047611244 0.03183567
0.0013733623 -0.02562168 -0.044624865 0.04799689 -0.04285375 -0.025970675 -0.055626065 -0.047883302
0.033793755 -0.035529066 -0.045105558 0.018880969 -0.023039328 -0.03182915 -0.059038613 0.01955014
-0.02267695 0.036199525 -0.026314408 -0.048191298 -0.013553751 -0.0503814 0.011359362 0.04271005
-0.01913415 -0.0028465642 0.05544881 0.027772889 -0.05847078 0.05804591 -0.0039301896 -0.007589874
0.051510654 0.015230352 -0.020758644 -0.049278114 -0.053118676 -0.047600184 0.030227656 0.0105927605
-0.054832447 0.022163384 0.022243056 0.01332452 -0.049592998 0.017715953 0.037395354 -0.042934623
0.009624169 0.051439878 -0.0492164 0.042235937 0.019052545 -0.0007449302 0.030477958 -0.0034305959
0.022170175 0.050375544 0.040877774 0.039997727 0.052032396 0.016147299 -0.054267578 0.013742073
0.035288025 0.046016183 -0.0052827094 -0.006360537 0.027351566 0.009815587 0.0081636505 -0.010013875
0.050837826 0.048218135 0.035237774 0.028259872 0.02785338 0.025087444 0.0358713 0.01862358
0.00811778 0.032974385 -0.019538209 -0.048156817 0.032325808 0.04251756 0.048468925 -0.04716701
0.019027453 -0.021512583 0.007250794 -0.04210857 -0.004164086 0.04839079 -0.014783411 0.036145374
0.0009286908 -0.03421251 -0.008786582 0.018188104 0.04061738 -0.0035600413 0.0011887369 -0.04255539
-0.040461604 -0.019232541 0.044766393 -0.030464355 0.03193008 0.016105535 -0.02869609 -0.0035647776
-0.05228249 0.009098354 -0.03241547 0.0519752 -0.040828157 0.012855328 -0.020425016 -0.05863253
-0.024080563 0.028241467 -0.012197717 -0.007810643 0.022589047 -0.008724175 0.006695832 0.023786929

layer3.0.bias f4 [64]
00000000: a8d6 c33b 8f2f 6f3d 7ad7 0b3d 0dc2 5cbd
00000010: cc59 373d 98aa 09bd 8787 2f3c 1a25 8bbc
00000020: f56a 423d 4413 293c 4de0 3fbd e866 e63c
00000030: f088 413c 5c4d 8abc 7d3e 363c 8334 a93c
00000040: c9ab acbc 8855 25bd 273e 903b b03e c23c
00000050: f37f 683c 694d 3fbb 0f62 34bc c8c6 3a3d
00000060: 52eb 63bd 2c12 4f3c 92d9 483d 1425 0f3a
00000070: 7b2f 6a3d 1daf 1c3d 4ad1 e73c 29aa 8fbc
00000080: a022 63bb ad56 00bd 71aa 0ebc 8d83 98bc
00000090: 3a20 af3c 35a7 333d 7226 43bd f7a0 123d
000000a0: 97b8 7a3c 02e8 0c3d d9eb 113c 0d96 23bc
000000b0: cc15 0d3d 9d16 503d 8ce8 b23a 4da1 b33b
000000c0: 3096 80bb 9811 b1bc e64a 873c dfd8 babb
000000d0: 30e7 be3c ec90 28bc 8da6 23bd bcfb 8d3c
000000e0: 193a 243d abac 16bd 85fd 33bb 721e 5b3d
000000f0: a1c7 41bd 8d98 01bd 9b34 07ba 5d7a 173d
0.0059765168 0.058394965 0.03414104 -0.053896 0.04476337 -0.033609957 0.010713465 -0.016985465
0.047465283 0.010319535 -0.04684477 0.028125241 0.011812434 -0.016882591 0.011123297 0.020654922
-0.021078007 -0.040364772 0.0044019404 0.023711532 0.014190662 -0.0029190427 -0.011009707 0.04559973
-0.05564434 0.01263861 0.049035616 0.0005460542 0.057174187 0.03825294 0.028298039 -0.017537193
-0.003465809 -0.03133266 -0.008707629 -0.018617416 0.021377672 0.043860633 -0.047644086 0.03579804
0.015302799 0.034400947 0.008906328 -0.009984505 0.034444615 0.050802816 0.0013649627 0.005481875
-0.0039241537 -0.021614835 0.016515207 -0.0057021226 0.023303598 -0.010288458 -0.039953757 0.01733195
0.04009447 -0.036785763 -0.0027464342 0.05349583 -0.04730952 -0.031639624 -0.000515768 0.03698193

layer3.1.weight f4 [64]
00000000: 1e10 803f 9bdd 7f3f 86f0 7f3f adc1 7f3f
00000010: 7918 803f a517 803f 15f6 7f3f 3902 803f
00000020: daf3 7f3f f019 803f 3a17 803f af0a 803f
00000030: 93c5 7f3f 380a 803f f2e2 7f3f a70c 803f
00000040: 3d1a 803f 80ea 7f3f 100b 803f 19ec 7f3f
00000050: 54e9 7f3f d6f6 7f3f 7f1d 803f 57ea 7f3f
00000060: aaee 7f3f c1f0 7f3f cbd0 7f3f fa13 803f
00000070: b1ed 7f3f 20eb 7f3f 2a2b 803f 23e7 7f3f
00000080: d703 803f b6cf 7f3f a9f2 7f3f 9701 803f
00000090: 53d6 7f3f 36f4 7f3f 8c02 803f 4feb 7f3f
000000a0: e113 803f dac7 7f3f 11f1 7f3f d6f2 7f3f
000000b0: 690d 803f d8c6 7f3f dfdb 7f3f dde5 7f3f
000000c0: b111 803f c4ed 7f3f 42ed 7f3f 6d06 803f
000000d0: 51d4 7f3f 08d4 7f3f 8f02 803f 8a00 803f
000000e0: e9e1 7f3f b089 7f3f c516 803f d306 803f
000000f0: 8e0d 803f 5bec 7f3f f32e 803f ebf0 7f3f
1.0004919 0.9994752 0.99976385 0.999049 1.0007468 1.0007216 0.99984866 1.0000678
0.9998146 1.0007915 1.0007088 1.000326 0.9991085 1.0003119 0.99955666 1.0003861
1.0008007 0.99967194 1.0003376 0.9996963 0.99965405 0.99986017 1.0009001 0.9996695
0.9997355 0.99976736 0.9992797 1.0006096 0.99972063 0.9996815 1.0013173 0.9996206
1.0001172 0.99926317 0.99979645 1.0000485 0.9993641 0.9998201 1.0000777 0.9996843
1.0006067 0.99914324 0.99977213 0.99979913 1.0004092 0.99912786 0.9994487 0.9996012
1.0005399 0.99972177 0.999714 1.0001961 0.99933344 0.9993291 1.0000781 1.0000165
0.99954087 0.9981947 1.0006949 1.0002083 1.0004137 0.99970025 1.0014328 0.99976987

layer3.1.bias f4 [64]
00000000: 3908 9a39 3cec c1b9 e2f4 80b9 4f9a d6b9
00000010: dd70 433a 680b 8339 7be3 93b8 0d46 463a
00000020: b800 9337 9aac 273a fa48 3b39 d140 50b9
00000030: 8013 6bb8 e76f 4839 9e66 6eb8 4133 ec39
00000040: 9212 143a 77c5 88b9 f55c 6539 ef9f 1839
00000050: b53f 95b9 4bae ea37 0e4d 8939 38fa 1339
00000060: c259 f2b8 2e6c 9837 fe98 a1b9 f46a 9339
00000070: 4268 2836 b978 1eb8 cc02 2f3a 9a3e 02ba
00000080: 28be f639 6338 f3b9 654b bd39 cd42 1eba
00000090: b76f e6b8 ed0f d3b9 8af2 4c39 6378 48b9
000000a0: aa71 c838 5bb9 a0b9 a4b3 c138 5c5d 4cb8
000000b0: bb53 053a 57a7 17ba 6a68 e7b9 5e4b f437
000000c0: f053 0e39 d4af 8338 4308 e138 f705 8c39
000000d0: 3a1a 2bba df0f 97b9 f828 b538 a6f3 3e37
000000e0: 8cbd 9137 584b 98ba c84e 3539 ed37 8539
000000f0: ab39 56b9 0e4b 87b9 d28a 5e3a a320 acb9
0.00029379295 -0.00036987837 -0.00024596514 -0.0004093223 0.00074554776 0.00024994765 -7.051878e-05 0.0007563539
1.75241e-05 0.0006396264 0.00017860896 -0.00019860572 -5.6046527e-05 0.00019115173 -5.683919e-05 0.00045051615
0.0005648519 -0.00026087064 0.00021873771 0.0001455543 -0.0002846696 2.7976135e-05 0.00026188086 0.00014112226
-0.00011556178 1.8170187e-05 -0.000308223 0.0002811771 2.5094637e-06 -3.7782567e-05 0.0006676137 -0.0004968435
0.00047062454 -0.00046390583 0.00036105062 -0.0006037176 -0.00010988063 -0.00040256922 0.00019545309 -0.00019118334
9.557915e-05 -0.0003065568 9.236418e-05 -4.8724338e-05 0.0005086024 -0.00057851285 -0.00044137548 2.9122162e-05
0.00013573444 6.279317e-05 0.00010730375 0.00026707325 -0.00065270404 -0.0002881279 8.6383836e-05 1.1381611e-05
1.7373612e-05 -0.0011619134 0.00017290853 0.00025409405 -0.00020430113 -0.00025805127 0.0008489314 -0.00032830713

layer3.1.running_mean f4 [64]
00000000: 1fe2 6a3d 6fe7 a43e 93f2 2ebf 018d 983e
00000010: c9d6 e73e 42bf 3bbd 4b90 fabb bf21 1f3f
00000020: 369e 3dbd 1fc3 89be 75f3 7dbd 8c8f ffbd
00000030: 9fd1 7dbf 1073 1cbd 8793 c83d da45 3dbe
00000040: 73ca da3e 32ed 103f 55f0 38be fcaf 04bf
00000050: 1ebb 33be 7e44 b5be b0ca 89be 9110 21bf
00000060: c73f 393f 054f 82be eed7 c1bd 016c 6fbe
00000070: 5744 9dbe 6370 5a3e a2bd 2b3e 7b21 8ebe
00000080: c33f 7fbe 9060 47be 14c0 aabd 1a99 19be
00000090: 6489 0d3f d49a 88bd 4b6a eabe 5906 87be
000000a0: 3336 a9be 1483 1d3d 0696 16bf b5a4 8b3e
000000b0: b823 893e d03e 83bd c0c9 49bc dae3 1c3e
000000c0: 3feb 7bbe 86d8 90be 602b 96be bb30 7f3f
000000d0: ad1c c5be 5719 8a3e 1636 563e 2a91 dbbc
000000e0: 9b2f c2be 2c91 6fbc c7e2 d53d f187 6e3e
000000f0: a6c6 d3be f2b7 48bd 47d8 69bd f8cb 1dbf
0.057344552 0.3220782 -0.6833889 0.29795077 0.45281056 -0.045836695 -0.0076465956 0.6216087
-0.04629346 -0.26906678 -0.061999757 -0.12478551 -0.9914798 -0.03819567 0.097937636 -0.18483678
0.42732581 0.5661193 -0.1806043 -0.5183103 -0.17551848 -0.35403818 -0.2691245 -0.62915903
0.7236294 -0.25450912 -0.094650134 -0.23381044 -0.30716202 0.21331935 0.16771558 -0.2775992
-0.24926667 -0.1947043 -0.08337417 -0.1499981 0.55287766 -0.06670156 -0.4578422 -0.2637203
-0.33049163 0.038455084 -0.5882267 0.272741 0.26785064 -0.06408465 -0.012316167 0.15321293
-0.24601458 -0.28290194 -0.29329967 0.9968373 -0.3849844 0.26972458 0.2091907 -0.026802618
-0.37926945 -0.014622014 0.10443645 0.23294045 -0.41362494 -0.04900355 -0.057091024 -0.61639357

layer3.1.running_var f4 [64]
00000000: ac7c 173e c643 6f3e d020 7e3e 21c5 7b3e
00000010: edd2 523e d5ac c53d b469 c23d 9987 d43d
00000020: f065 603e e261 883e e8ae ef3d fb9a c13d
00000030: 3f6e 8f3e 055d d43d 5f63 933d d12a 2a3e
00000040: 233a 313e c0e8 d23d 95c1 c03d cfc3 e53d
00000050: e860 0d3e b292 013e 667e f23d b4d5 723e
00000060: 471a cc3d 18f8 6f3e 73fa b53d 6f3f c83d
00000070: a979 a93d fcb0 0d3e df74 bc3d cda1 c73d
00000080: 59c1 e73d a5c5 353e 2210 003e 84c4 cb3d
00000090: 31ca 213e 5357 2b3e 0373 d03d e67a d53d
000000a0: 06de 013e 0f45 b63d 8e11 753e f083 153e
000000b0: 2baa 263e 8742 da3d 73b3 0e3e 667b e83d
000000c0: d480 003e dae5 0d3e 7359 2e3e 6074 2a3e
000000d0: b538 2a3e 288a df3d 5cd4 0a3e d39b 043e
000000e0: a127 6d3e 29c3 013e 6b24 443e 80c8 ac3e
000000f0: 1411 003e 328e 2c3e d5a1 4e3e db20 243e
0.14793652 0.23365697 0.24817204 0.24586917 0.20588274 0.09652106 0.094928175 0.10377426
0.21913886 0.2663718 0.117032826 0.09453388 0.280138 0.103693046 0.07196688 0.16617896
0.17307334 0.102983 0.09411923 0.11218988 0.13806498 0.12653616 0.11840515 0.23714334
0.099659495 0.23434484 0.0888566 0.09777724 0.08275158 0.13837045 0.09201979 0.09747658
0.11316175 0.17751177 0.12506154 0.09949592 0.15799786 0.1673253 0.10178187 0.10423832
0.12682351 0.08899891 0.23932478 0.14601111 0.16275851 0.1065722 0.13935642 0.113516614
0.12549144 0.13857213 0.1702631 0.16645956 0.16623195 0.10915023 0.13557571 0.12950067
0.23159648 0.12672104 0.19154517 0.3374672 0.12506515 0.16851118 0.20178922 0.16028158

fc1.weight f4 [10, 576]
00000000: 6ca1 c03c 9c5c 74bc 2f24 56b9 83e7 00bd
00000010: 4013 243c c457 003d c13a e03a 7a09 b53c
00000020: 4657 8b3c a5ce ce3c 97c8 b6bc 6655 173d
00000030: ca16 f1bc bfc7 003d 5c11 c93b c457 b4bc
00000040: c8df f8bc 9232 bebc 3bfa c5bc 5e69 26bd
00000050: 267b 243d ea39 a8b9 c71f 193d ab58 28bd
00000060: 5990 82bb e28f 003d 960a 20bc 492b f5bc
00000070: caaa ce3c f979 3c3c 28d4 b83c 6199 133d
00000080: 0a46 e53c 8ac9 0b3c 6b88 aebc bae6 ba3c
00000090: 5ddd d1bb 7e6d 123d deea fc3c 235f 23bb
000000a0: f7d6 adbc bc8b d83c 2fa6 d1bc 4131 f63c
000000b0: a3dc b23c aaab 6a3c c5f0 ab3b 8f0d 483c
000000c0: 3e3c 23bd e4c7 693b 15ce f5bc f42f 0f3c
000000d0: ca11 c43c f6be 91ba d43c cb3c fafd ed3b
000000e0: f4dc 453b 61c3 dcbc 0b7d e0bb 87c8 bdbb
000000f0: d969 463c 8734 73bc 7f82 8e3c 2681 9dbc
00000100: ec3b ef3c f59b 313c affd 223d 1d1e d43b
00000110: 3b62 a4bc e79d 1d3d 007e d83c fbe8 25bc
00000120: 6b4a e2bc ed7a 023d 6301 4f3c f6cd 00bc
00000130: 503e f7bc 4a03 433c 08d3 a5b9 1a2d 1cbd
00000140: 0f81 eebc fa0e 1abd 6900 4fbc 472e e5bc
00000150: 907f ab3c 3c22 babc 6d92 223d 5d2d 953c
00000160: b8e1 fbbc cce2 133b 3430 d7bc 1944 77bc
00000170: 3cf4 0e3d 78e8 0f3d cc7f 72bc 74bd 70bc
00000180: 897b 93bc 79d3 99bc 4096 d13c 491f 1fbd
00000190: 2a6e 783c 97bb 02bb 2dd8 403c f44a 0e3c
000001a0: 269a fb3c a016 1cbd 679b bb3c 76d5 7ebc
000001b0: 3ed9 1cbd 51d2 6dbb 4282 05bd 9fbc 613c
000001c0: 4a74 913b 12ac d7bb 4a05 52bc 954d 283d
000001d0: 6126 ef3c 6d35 d43c 9367 f7ba 1836 273d
000001e0: c8fb 873c 136c 1dbb 4550 5cbc 5dd3 0c3b
000001f0: 20bd aa3c 88e9 00bd df6e 043d 5b86 363a
00000200: 10c6 56bc cbde edbc 0762 d73c b076 ca3c
00000210: c99e 133d 6192 05bc 72e3 d73c 0b3a 12bd
00000220: ab43 2cbc 14fb c03c 7108 8dbc 19cd babc
00000230: 4f0d 24ba 0264 e6bc fff2 72bb f6de 9d3c
00000240: d1c2 f63c 6a57 6cbb 9c03 033d 345e b3bc
00000250: d2e3 99bc cf63 00bb 8f61 74bc 668e b43c
00000260: 31f3 0abc 6cca 89bc d9a8 383c 6fed ee3c
00000270: 9c8b 163c 001a c8ba 8d56 183d c30d 9ebc
00000280: c5b4 56bc 3493 71bc 1503 06bd ca82 55bc
00000290: 8bb9 f83c a73b 29bd 093e 87bc d46b 003d
000002a0: 38b4 1bbc 5e2c 153b 1fdc a93c ae7f 17bd
000002b0: b12d 0bbd 6815 be3b c160 cc3b b458 bd3b
000002c0: 1377 3bbc 3992 05bd d400 b43c 2b78 1cbd
000002d0: cb80 413c 1873 a3bc 02b7 0ebd af99 f23a
000002e0: 3bec 20bc 93fc 1dbd 3c72 0bbd 1f54 a23c
000002f0: a1a8 6c3c 0b00 0dbd 88ba b83c e9df 463b
00000300: 7668 103d ae71 28bc c96d 203d bb59 cbbc
00000310: c01c 6c3c f5bd bd3c a389 f93c b52d 90bb
00000320: 4cef c1bc 0e12 13bd 3ff9 afbc c74e 65bb
00000330: dda5 083c 396d f43c 17fc e2bc 8ac3 e13c
00000340: 3345 27bd a7a8 13bb 9c81 003c 64f9 133d
00000350: d762 0bbd 57b5 ecbc 9acc 9ebc fdbf 0cbd
00000360: db6a bc3c 7cfa 0f3d b64b 1b3d 0bea eb3c
00000370: f04f 77bc 2629 0abc cad5 f13c 586c 093c
00000380: 5963 ddbb 08e7 ea3b 3f30 903c 4b0e b1bc
00000390: fec4 20bc 3dc9 94bc 5fd0 eb3c 0915 713c
000003a0: 6e7d 4b3c 26fe f6bc 5678 913c 2801 b2bc
000003b0: ee60 aabc 7e0b 583c d71f 1b3d b957 243d
000003c0: ec9f 76bc 8fcb d6ba dce6 87bc 2d1d 03bd
000003d0: 8f70 bdbb 7765 173d 053b bd3c db8b 26bc
000003e0: f4cf 1d3d 0cc0 19bd 7dae b6bc 4214 65bb
000003f0: ff0f 0bbd c5d8 dabc 8036 9e3c 11ef e23c
0.023514472 -0.014914658 -0.0002042211 -0.031470787 0.010014355 0.0313337 0.0017107354 0.022099245
0.017009389 0.02524502 -0.022312446 0.036946677 -0.029429812 0.031440493 0.0061361026 -0.022014506
-0.030380145 -0.023217473 -0.02416717 -0.04062783 0.040156506 -0.00032086606 0.03738382 -0.041100185
-0.0039844927 0.031387217 -0.009768149 -0.029927867 0.025227923 0.01150369 0.022562101 0.036034945
0.027987499 0.008531937 -0.021305284 0.022815097 -0.0064045624 0.03574895 0.030873712 -0.0024928532
-0.021220667 0.026433818 -0.025591938 0.030052783 0.021833723 0.014323154 0.005247208 0.012210264
-0.039852373 0.0035672123 -0.030005494 0.00873946 0.023934264 -0.0011119533 0.024809279 0.0072629424
0.0030191513 -0.026948633 -0.006850844 -0.005791727 0.012110197 -0.014844066 0.01739621 -0.019226622
0.029203378 0.010840406 0.039792713 0.0064733163 -0.020066371 0.038480666 0.026427269 -0.010126348
-0.027623376 0.031855512 0.012634608 -0.007861605 -0.03018108 0.01190264 -0.00031628483 -0.03812895
-0.029114274 -0.03761194 -0.012634375 -0.027976168 0.02093485 -0.022721402 0.039690424 0.018210107
-0.03074728 0.0022565601 -0.026268102 -0.015091919 0.03490089 0.03513381 -0.014800977 -0.014693607
-0.018003242 -0.018777596 0.02558434 -0.038848195 0.015162984 -0.0019948238 0.01177029 0.008684862
0.030713152 -0.038107514 0.02290125 -0.015553823 -0.038293116 -0.0036288688 -0.032594927 0.013777881
0.0044389116 -0.0065817917 -0.012818644 0.041089613 0.029193105 0.025904382 -0.0018875472 0.040823072
0.01659955 -0.0024020716 -0.013446872 0.0021488287 0.020842135 -0.031472713 0.032332297 0.00069627695
-0.013108745 -0.0290369 0.02629186 0.024714798 0.0360401 -0.008152575 0.026353572 -0.035699885
-0.01051418 0.023557223 -0.01721594 -0.022802876 -0.00062580867 -0.02812386 -0.0037071106 0.019271355
0.030122193 -0.0036062845 0.031985864 -0.021895505 -0.018785391 -0.001959074 -0.014915838 0.022040557
-0.008480833 -0.016820155 0.011270725 0.029165952 0.009188559 -0.0015266538 0.037191916 -0.019293671
-0.013104622 -0.014744569 -0.032717783 -0.013031671 0.030361911 -0.041316655 -0.016509073 0.031352833
-0.009503417 0.002276204 0.020734845 -0.036987 -0.03397912 0.0058008917 0.00623712 0.0057783965
-0.011441964 -0.032610152 0.021973051 -0.03820054 0.011810492 -0.019952342 -0.0348425 0.0018508936
-0.009821947 -0.03857095 -0.03404449 0.019815503 0.014444501 -0.03442387 0.022549883 0.0030345863
0.03525587 -0.01028101 0.0391672 -0.02482306 0.014411151 0.023161868 0.030461138 -0.00439998
-0.023673676 -0.03590589 -0.021481154 -0.0034989582 0.008340326 0.029837238 -0.027708096 0.02755906
-0.040837478 -0.0022530945 0.007843401 0.03612651 -0.034029808 -0.028895063 -0.019384671 -0.03436278
0.023000171 0.03515099 0.037914 0.028798124 -0.015094742 -0.008432662 0.029520888 0.008387648
-0.006756228 0.0071686544 0.01760113 -0.02161326 -0.009812592 -0.018162364 0.028785883 0.014714488
0.0124200415 -0.030150484 0.017757576 -0.021729067 -0.020798173 0.013186334 0.03787216 0.04012272
-0.015052777 -0.001638757 -0.016589575 -0.032010246 -0.0057812403 0.036962 0.023099432 -0.01016518
0.038528398 -0.037536666 -0.0223 -0.0034954702 -0.033950802 -0.026714692 0.019313097 0.027701886

fc1.bias f4 [10]
00000000: 0899 7dbc 574a 0bbd 2cf8 133d f04c 2b3c
00000010: bbad 073d 67b5 14bd 3f4a f73c 20ab 13bc
00000020: bdfc ffbc c30b f33c
-0.01547838 -0.034006443 0.036125347 0.010455355 0.033124667 -0.03630581 0.03018677 -0.009012967
-0.031248445 0.029668694

fc2.weight f4 [2, 10]
00000000: 7aa1 03be 94ff 8dbe a872 96be bf04 963e
00000010: 7b63 973e 302f 96be 125a c7bd f043 263e
00000020: 591b c83d 3d6c 5d3d 3b31 acbd 546a 3ebd
00000030: 98d9 543e 5957 98be 776c 4cbe 0004 36be
00000040: e78a 9c3d 602c b83d 9572 2ebe 159f 85be
-0.12854567 -0.27734053 -0.2938435 0.29300496 0.29568085 -0.29332876 -0.097339764 0.16236854
0.09770841 0.054058302 -0.084078275 -0.04648812 0.2078613 -0.2975414 -0.19963251 -0.17774963
0.07643681 0.08992839 -0.17035897 -0.26097932

fc2.bias f4 [2]
00000000: 44a6 8abe ec26 1f3b
-0.27079976 0.0024284674

exp_avg f4 [16, 3, 3, 3]
00000000: 3d72 d83b 08ac f13b 6807 033c 9374 f23b
00000010: d217 193c f111 313c ae95 293c 7bb7 303c
00000020: 4ed7 393c 04af 833b 9525 a73b 53d8 c43b
00000030: 01e5 a93b b764 e93b 0df6 133c ab88 033c
00000040: f073 103c d631 1e3c 28f4 023b e10f 243b
00000050: 8316 533b 8b3b 433b 4f4d 8f3b 1473 c13b
00000060: 0bcc c13b e0c4 c13b 45e9 d23b c768 463d
00000070: b922 553d 7475 503d c8d5 673d a1f5 5d3d
00000080: 6605 393d 08dd 733d c8ee 423d 0824 063d
00000090: 9524 0e3d b3fa 1f3d efc4 233d 7df4 263d
000000a0: 4dde 1e3d f352 033d b8d1 2e3d 718f 023d
000000b0: 0ee8 973c 144c 213d aa07 393d b155 433d
000000c0: 1ea6 3b3d 9b47 383d ecde 243d 2ef0 433d
000000d0: 00dd 1c3d 3391 e33c 0dab b13c 0971 af3c
000000e0: ae8b 963c 4806 d73c fc47 b53c 4c6a 863c
000000f0: 8824 e13c 69b4 a73c 00c9 803c 0394 773c
00000100: ff22 763c 8403 493c 90b4 9e3c 07c4 803c
00000110: 93e1 293c 65fc a83c 6a0e 663c 2a1e 1d3c
00000120: 8ce7 6c3c 36bb 5f3c 0c05 363c c367 9b3c
00000130: ddfd 6d3c 67c3 1b3c e9a3 a33c 2bca 503c
00000140: 710d 093c 36be 86bb 6258 f5bb f8d2 04bc
00000150: 580b 8bbb 2beb f3bb 9a96 10bc 18ba 83bb
00000160: c2a7 ddbb 2630 19bc 96ea c7ba e47c a5bb
00000170: 8804 b9bb 9da8 ffba 99a0 a8bb a43d d4bb
00000180: e056 01bb ca5e 94bb ecde e6bb 062e 253c
00000190: 657c d33b d58f b33b 7539 1b3c 298a c63b
000001a0: 0ca1 933b 6c33 1b3c 0d56 d43b 3ca2 6a3b
000001b0: bb5c 12bb 0f74 c2ba 7d07 32bb 5dd1 a8ba
000001c0: 899f 9eba a77e 10bb a5a5 01bb a04e 13bb
000001d0: 0bd8 65bb f87f 92bb d8d9 81bb 323b c1bb
000001e0: e70b 81bb c1f1 86bb 3735 bdbb a8e4 a4bb
000001f0: 4a99 b9bb 5e8f eabb f0e2 a23c 45f2 a03c
00000200: bac5 883c f7f6 a63c ecc8 9f3c c00e 893c
00000210: bb8d 9e3c 2987 933c 0ec8 783c 48a6 723c
00000220: b584 233c f5a0 ae3b 6f0b 803c a7f9 243c
00000230: 79fd d43b 2ffd 6c3c 98b5 183c cd0e 9b3b
00000240: b61b d13c 8074 b43c f6a4 953c f5df d13c
00000250: bd00 ae3c dab9 9a3c 676e c43c 1ed1 a03c
00000260: 7015 863c 9d1f d43c 56eb b43c 301b 9a3c
00000270: 4eb6 d63c 50da b13c 3717 a03c 5e52 cb3c
00000280: ae79 a93c e66e 923c 08e4 2bbb 1fb1 81bb
00000290: 93ec aebb a785 a1ba 3871 69bb c543 80bb
000002a0: b0e2 1f3b ff91 51ba 0aaa 0abb 2fc0 6139
000002b0: 768a 01ba 3eec 85ba 05d4 1e3b 7766 503a
000002c0: 416d ce3a 3e5c ea3b 98ed 983b 2423 8b3b
000002d0: c250 20bb 2c41 3dbb 0cde 64bb 366f 08ba
000002e0: b4c3 e8ba 5845 97ba 6813 693b 33e6 b63a
000002f0: e6d0 8b3a d218 ca39 24d9 32bb 16f5 97bb
00000300: b770 d73a 4d5e 0db9 a641 b9ba b997 963b
00000310: 7671 453b 0bff 0d3a 20fd 77bb e192 c8bb
00000320: fbdc e6bb 2241 36bb 5bd4 6fbb 56b7 8bbb
00000330: 6109 9c38 0074 22ba 8738 1dbb b777 6fbb
00000340: 35d2 b4bb 5bcd b5bb ecaf e7ba 6acd faba
00000350: 257b c9ba c289 cd3a dc26 bd3a 6521 543a
00000360: e954 bc3b 92f5 453b 1bb3 583a 12a5 693b
00000370: 0ac5 163b 3c90 333b dfe3 6b3b f8b5 6c3b
00000380: be72 b03b f946 423c 3c77 0f3c 95ec c93b
00000390: 4e10 0f3c ea3d fb3b 4a41 fa3b cabc 043c
000003a0: 2bf4 083c 6533 233c 4cdc 6e3c 92d6 423c
000003b0: f4fd 313c 057e 363c 2f33 293c 1b97 3e3c
000003c0: bf7f 283c a088 323c 89b2 5d3c fc7e cebc
000003d0: 2100 bebc b620 99bc 70ef adbc 2d20 a5bc
000003e0: 8e13 82bc 4619 cdbb d760 16bc a6ff 31bc
000003f0: 1d14 f5bb e171 d9bb 8faf 54bb e40b 7bbb
0.006605415 0.007375244 0.007997371 0.0073991506 0.009344058 0.0108075 0.010350628 0.010785933
0.011342837 0.004018666 0.0051009157 0.006007233 0.00518477 0.007122602 0.009030831 0.00802819
0.008816704 0.0096554365 0.0019981954 0.0025033879 0.0032209463 0.002979013 0.0043732296 0.005903611
0.0059142164 0.005913362 0.0064364993 0.048439767 0.052035067 0.050893262 0.056600362 0.054189328
0.045171164 0.059536964 0.047591 0.032749206 0.034702856 0.039057445 0.039982732 0.040760506
0.03878622 0.03206153 0.042680472 0.031875078 0.01854327 0.039379194 0.045173325 0.047689144
0.04581272 0.044990163 0.040251657 0.047836475 0.0382967 0.027779197 0.021688009 0.021416204
0.018377151 0.026248112 0.022129051 0.016408108 0.02748324 0.020471768 0.015720844 0.015110972
0.015022992 0.012268905 0.019373208 0.015718473 0.0103687225 0.020628164 0.0140415225 0.009589711
0.014459502 0.013655474 0.011109602 0.018970376 0.014525858 0.009507037 0.01997562 0.012743513
0.008365021 -0.0041120304 -0.0074873427 -0.0081069395 -0.0042432956 -0.0074438057 -0.008824969 -0.004019987
-0.006764383 -0.009349858 -0.0015252407 -0.0050502885 -0.005646292 -0.0019505207 -0.005146098 -0.0064770747
-0.001973562 -0.0045279013 -0.0070456173 0.010081774 0.006454038 0.0054797926 0.009474148 0.0060589504
0.0045052823 0.009472709 0.0064799846 0.0035802266 -0.0022333104 -0.0014835614 -0.0027165108 -0.0012879778
-0.0012101989 -0.0022048147 -0.001978257 -0.0022477284 -0.0035071399 -0.0044708215 -0.0039627366 -0.005896949
-0.0039381864 -0.004118175 -0.005774166 -0.0050321408 -0.0056640254 -0.007158204 0.019883603 0.019646773
0.016695846 0.020381434 0.019504987 0.016730666 0.019354692 0.018008785 0.0151844155 0.014810152
0.00998037 0.005329246 0.015630452 0.010069287 0.006499943 0.014464661 0.009320639 0.004731989
0.025525909 0.022028208 0.018267136 0.025619486 0.021240586 0.018887449 0.023978425 0.019630965
0.016367644 0.02589398 0.022084873 0.018811792 0.026209977 0.021710545 0.01954232 0.02481955
0.020687904 0.017875146 -0.0026228447 -0.003957882 -0.0053382604 -0.0012323157 -0.0035620462 -0.0039143288
0.002439659 -0.00079944724 -0.002115848 0.00021529266 -0.0004941592 -0.00102175 0.002423526 0.0007949839
0.0015749113 0.0071521094 0.0046669953 0.0042461324 -0.0024462198 -0.0028877957 -0.003492239 -0.000520456
-0.0017758519 -0.0011541052 0.0035564546 0.0013954103 0.0010667115 0.00038546935 -0.002729007 -0.004637371
0.001643679 -0.00013481938 -0.0014133945 0.0045957235 0.0030127442 0.00054167275 -0.0037840083 -0.006121025
-0.007045386 -0.0027809818 -0.003659508 -0.0042637987 7.4404066e-05 -0.0006197095 -0.0023989992 -0.0036539861
-0.0055182227 -0.005548162 -0.001767633 -0.0019134704 -0.0015371783 0.0015681314 0.0014431137 0.00080921344
0.0057474268 0.0030206186 0.0008266435 0.0035651368 0.0023005628 0.0027399203 0.0035993976 0.0036119204
0.005384772 0.0118577415 0.008756455 0.006162236 0.008731915 0.007667293 0.0076371776 0.008101651
0.008358995 0.009960984 0.01457889 0.011891978 0.01086377 0.011138444 0.0103271445 0.011632706
0.010284363 0.010896832 0.013531336 -0.025207035 -0.02319342 -0.018692356 -0.021232337 -0.020156944
-0.015878465 -0.0062591163 -0.009178362 -0.010864174 -0.0074792043 -0.00663589 -0.0032453274 -0.0038306648
