Lab5/model_50_0.001.pth (torch, 378966 bytes, 54 tensors)

layer1.0.weight f4 [16, 3, 3, 3]
00000000: 9310 df3d 02da d8bd b8eb 4a3e a7da 243e
00000010: 4552 a8bd e0ad a93c 4435 b43c 152d 9cbc
00000020: 9f70 913d 6807 35be 208e 4ebd 6a82 0fbe
00000030: ccf5 0b3e 75ae 0dbe fba9 0dbe c8ff 8fbd
00000040: 01d2 ec3b 8baf fbbc d541 393c 881b 423d
00000050: bdb9 d13d 3623 fa3d e24f 273d 7126 9d3d
00000060: 59dc 9c3c e65d 3f3e 84ce 15be c08f eabd
00000070: a0b0 02be 4f44 01bd 8f8e f0bd 5930 50be
00000080: ca02 103e 1e50 81bd f97a 9e3d 14aa 0f3e
00000090: b9e7 f1bd 38f4 c3bd 9a20 24be 5583 763b
000000a0: 9bbd 02bd b3b5 7b3d e5c4 19be 14e5 ce3d
000000b0: 9eb6 bf3c 4d17 bebd 5943 8bbd daab a63d
000000c0: dbc0 c93d 4658 2c3e 3d02 3cbe 78a2 07bd
000000d0: d2b4 c5bd ff52 24be 573f b23d a1e6 473e
000000e0: a147 323e fcfa 20be ea67 7e3d 2851 3abe
000000f0: 3856 af3d 2188 e0bc 6a09 42be 339c 10bd
00000100: 8c6f ad3d d629 bd3d f1b2 fcbd 9010 82bd
00000110: 26d5 4d3e 471e e73c ac9e 81bd 9998 3fbe
00000120: e319 453e eac9 743d 2c12 cf3d 3986 20be
00000130: 3ee1 febd d33c e53d a1fa c0bd 3586 d7bc
00000140: 1bdf 1ebc fa54 48be a287 babd e384 b83d
00000150: 3a1b 0fbe e7a1 ea3d 06b8 9bbd 9e0d 5cbc
00000160: 2046 2abb e986 d03c 7a0d 31bd f3ab 283e
00000170: 321d 2b3e 8b52 203e c548 4e3d e631 7f3d
00000180: 6b67 723d 06d7 da3d 9424 2dbe c081 133c
00000190: 84cf dfbd 15d4 043a db4d d2bd 1c59 d33d
000001a0: d88f e4bd 9b3c 18bd 5c84 0a3e 58ac ac3c
000001b0: ef1d 023e 540d 363e df1d 203e df26 8d3d
000001c0: 2ced 313e 8b8e e2bd 082d 903d bd2d 493d
000001d0: 87b6 053e f875 0a3e cfd2 283e c650 ba3b
000001e0: 6bc4 873c c35d f43d 10c0 093e 8880 aa3d
000001f0: fc8e 223e ab82 dfbc 3504 8abc e472 10be
00000200: b55a f0bd c666 15be 5c11 0a3e 9ba8 ed3d
00000210: add4 11be d718 01be 8d48 0abd c7d6 d0bb
00000220: 31f7 003e 9a94 6cbc 27a6 f7bd 3986 43be
00000230: 16f3 48be 2bc9 6abc b438 a0bd 820e 35be
00000240: 2028 603d 9c51 dabd 4d6f 1bbe 941b 23be
00000250: 64f3 d33d 231a 513d 198f 00be b2cb 91bd
00000260: 1a64 24be 9e82 c23d 6602 47be 88ea 3c3e
00000270: 8fc2 adbd b8c3 863d 3c13 443d 2e73 2a3c
00000280: f932 eb3d 0cac 383e c6b9 73bd 13f1 543d
00000290: 025a 543d 1588 3bbd 5c00 0ebe e6f2 15ba
000002a0: 1c19 27bc f987 63bd a24e 07bd 37a9 8ebd
000002b0: c7f3 fabd 08b9 25be 68d8 3bbe 8298 2abc
000002c0: abac eabd bbc7 67bc 4e53 07bc d47b 443c
000002d0: 2394 adbd a870 b63d c3c8 e43c 759f 3a3e
000002e0: 7904 313e 260f 9a3d 0d17 c43d 0338 f53b
000002f0: 26c5 e3bc 77c3 f43d 2aee 85bc d6ff f73d
00000300: 3c21 2b3e be60 dc3d 9a6c e13d edea 48bc
00000310: a8e7 78bc 3073 b93c d96b e23d 7b80 09be
00000320: a6b4 073e dddc 1dbd 4389 3cbe 2d8d 0fbe
00000330: a532 2ebd 0980 0c3e a3ed 353d 6503 b9bd
00000340: 36f2 24be ff46 33bd fed0 ecbd 7295 1c3e
00000350: 2c61 423e d8d4 5bbd 6ae0 92bd ab11 81bc
00000360: 1236 f43d fba6 de3d f316 25be 35b5 963c
00000370: 99a5 943d 1e73 8abd 5587 1a3e 0ad4 e6bd
00000380: 02df 2a3c 3c36 45be 381b fabd 8c1b 1b3e
00000390: ca2d 1ebe ffc2 fc3d d35c c1bd d55f 523e
000003a0: ea74 8cbd b684 103e 6108 cfbd 8e2f 29bb
000003b0: 4fc3 10be 7039 36bd c436 96bd 4245 f73c
000003c0: 6f94 71bc c9ac f73c 436c 443e 4615 7dbd
000003d0: fbac 02be f068 753d 9b9e 92bd 4d11 523d
000003e0: e062 47be f242 a93d 7def cc3d fa43 94bc
000003f0: eee5 d0bc a7af 933d aa2c 3c3e 0914 36bb
0.10891833 -0.10588457 0.19816482 0.16099034 -0.08218817 0.020712793 0.021998055 -0.019064466
0.07101559 -0.17678607 -0.05042851 -0.14014593 0.13667983 -0.13836081 -0.13834374 -0.07031208
0.007227183 -0.030723354 0.0113071995 0.047389537 0.10240505 0.12213747 0.040847667 0.07673348
0.019148039 0.18688163 -0.1462956 -0.114531994 -0.1276269 -0.031559285 -0.11745941 -0.20330943
0.14063564 -0.06314109 0.07738299 0.14029723 -0.11811776 -0.095680654 -0.16028062 0.00376149
-0.031919103 0.06145258 -0.15016516 0.10102287 0.023402508 -0.09281788 -0.06799955 0.08138247
0.098512374 0.16830549 -0.18360229 -0.033113927 -0.09653629 -0.16047285 0.08703487 0.19521572
0.17410137 -0.15720743 0.06211082 -0.18195021 0.08561367 -0.027408661 -0.18948904 -0.035305213
0.084685415 0.09236495 -0.12338818 -0.06350815 0.20100841 0.02821268 -0.063290924 -0.18710555
0.19248156 0.059762873 0.10110888 -0.15676202 -0.12445305 0.11193242 -0.09422804 -0.026309112
-0.009696747 -0.19563666 -0.09107901 0.09009721 -0.1397523 0.11456662 -0.07603459 -0.013430981
-0.002598174 0.025454955 -0.043225743 0.16471843 0.16710356 0.15656488 0.050362367 0.062303446
0.05918066 0.10685544 -0.16908485 0.009003103 -0.10928252 0.0005067003 -0.10268756 0.10319731
-0.111602485 -0.037167173 0.13527054 0.021078274 0.12706731 0.17778522 0.15636395 0.0689218
0.1737563 -0.11062344 0.07039839 0.049115885 0.1305791 0.13521564 0.16486667 0.0056858985
0.016573152 0.11931946 0.13452172 0.08325297 0.15874857 -0.027283987 -0.01684771 -0.14106327
-0.11736051 -0.14589986 0.13483185 0.116044246 -0.14241286 -0.12607132 -0.033760596 -0.0063732597
0.12594296 -0.014439726 -0.12092238 -0.1909417 -0.1962398 -0.014330189 -0.07823315 -0.17681316
0.054725766 -0.10660097 -0.15179177 -0.15928489 0.103491575 0.051050317 -0.12554587 -0.0711893
-0.1605381 0.094975695 -0.19434509 0.18448842 -0.08484375 0.06580299 0.047869906 0.010403438
0.11484332 0.1803438 -0.05950334 0.05198772 0.05184365 -0.045784075 -0.13867325 -0.00057200936
-0.010198858 -0.055549596 -0.033033974 -0.06965869 -0.12253528 -0.16183865 -0.18344271 -0.010412337
-0.11458715 -0.014146741 -0.0082596075 0.011992414 -0.084755205 0.08908206 0.027927762 0.1822489
0.17286862 0.075224206 0.09574709 0.0074834838 -0.027803969 0.119513445 -0.016348917 0.12109344
0.16711897 0.107606396 0.11007042 -0.012263042 -0.01519195 0.022637933 0.110557266 -0.13427918
0.13252506 -0.03854071 -0.18411736 -0.14018698 -0.042528767 0.13720717 0.04441608 -0.090338506
-0.16108021 -0.04376888 -0.115632996 0.15291384 0.1898238 -0.05366978 -0.0717171 -0.015755495
0.119243756 0.10871693 -0.16122036 0.018396953 0.07258148 -0.06760238 0.15090688 -0.11270912
0.010429146 -0.1925897 -0.12212223 0.15147227 -0.15447155 0.1234188 -0.09441533 0.2054437
-0.06858237 0.14113125 -0.1010902 -0.0025815698 -0.14137004 -0.04448837 -0.073346645 0.030184392
-0.014744862 0.030233758 0.19181924 -0.061787866 -0.127613 0.05991453 -0.07159158 0.05128603
-0.19471312 0.08264722 0.10006616 -0.01809882 -0.025500264 0.072112374 0.18376413 -0.0027782938

layer1.0.bias f4 [16]
00000000: 4b17 35bd 5115 8f3d 1dd2 603d 4d48 9cbd
00000010: 429c 54be eb6b fc3d e84f 113e cd23 55bd
00000020: e384 f43d f74f 383e 3cac 4d3d c5da 25bd
00000030: e7dc 3c3e 6bfa abbc 2394 eabd dd4e 1a3e
-0.044211667 0.06986488 0.05488788 -0.07630978 -0.20762733 0.12325271 0.14190638 -0.052036095
0.11939409 0.17999254 0.050213084 -0.040491838 0.18443643 -0.020993432 -0.11454036 0.15069146

layer1.1.weight f4 [16]
00000000: 53c4 783f e497 7c3f b8ea 833f bf9f 7b3f
00000010: c526 793f cd4d 813f 65fe 803f cbc6 7f3f
00000020: 21d0 813f 87b0 7e3f cb50 793f 307c 803f
00000030: 8f83 6e3f 66ad 7e3f 0416 823f 6501 813f
0.97174567 0.98669267 1.0306005 0.9829063 0.9732478 1.0101868 1.0077635 0.9991271
1.0141641 0.9948811 0.97388905 1.0037899 0.9316949 0.99483335 1.0162969 1.007855

layer1.1.bias f4 [16]
00000000: 9ad3 8ebd ed97 1abd 7d72 59bd 3389 35bd
00000010: 186b 7fbc 9ecd b3bc a9fc a9bc fb0a 20bb
00000020: e39e 87bc 4695 f5bb 4a59 8c3b 3ef8 c1bc
00000030: ac4b 93bd 7f38 97bc 489f e83b 64c5 b53c
-0.069739535 -0.037742544 -0.0530877 -0.044320296 -0.015589498 -0.021948632 -0.02075036 -0.0024420607
-0.016555255 -0.0074946014 0.004283105 -0.023677941 -0.07192168 -0.018459557 0.007099066 0.02218885

layer1.1.running_mean f4 [16]
00000000: 5999 4f3d d11a c4be 8227 633d 3f99 d33c
00000010: f1d4 e73e 0849 b8be fc6b d9bd a2d3 113e
00000020: 45f8 033e 4331 be3d fccb c13e 590f 85be
00000030: d54c d1bd 7060 70be 2b4e 3739 0736 5c3e
0.050683353 -0.3830171 0.0554576 0.02582991 0.4527965 -0.35993218 -0.106162995 0.14240888
0.12887676 0.0928674 0.3785094 -0.25988272 -0.10219733 -0.23474288 0.0001748136 0.21504985

layer1.1.running_var f4 [16]
00000000: 03d1 023c 2062 5c3d 0447 bc3a 6ee2 983b
00000010: 5039 c03d 43e6 4e3d a640 7a3c c518 263c
00000020: 32d5 803a d9e2 2d3c 7000 033d 8a0e 503c
00000030: 5999 9e3c eed8 5d3c d1af d13c 9e75 713b
0.007984403 0.053804517 0.0014364426 0.0046656644 0.093859315 0.050512563 0.015274202 0.010137741
0.0009829162 0.010613167 0.03198284 0.012698779 0.019360231 0.01354049 0.025596531 0.0036843787

layer2.0.weight f4 [32, 16, 3, 3]
00000000: df5f 1e3d 2854 13bd 4ac6 70bc 92e3 30bd
00000010: 4273 a6bd 16b5 2abd f6d0 813d b933 ca3d
00000020: 6f47 693d da10 a3bd 4035 043d ad77 9d3d
00000030: 3581 873d 0e0e 01bd 9d76 76bd 484f 5b3d
00000040: e3dc 783c 4b21 043d 8a5b 9abc f3d5 ca3d
00000050: 56fb 52bc 5db3 c63d 5aa3 1dbd 7b45 d4bb
00000060: a226 0ebd 255d dabc 3fc3 86bd 91dc 063d
00000070: 3507 783d 1d0b 4fbd 1bec 09bd 2b9a 983d
00000080: 0e1f e0bb b54f c23b e9de 813d 1b2c 2ebd
00000090: d808 b13b 91e9 2abc 5fb9 77bd 7698 983d
000000a0: b133 663c 4551 8c3c b775 9fbc afa3 d83b
000000b0: ede2 de3b 0889 863d c141 ac3d 9786 84bc
000000c0: 607c 34bd f905 e13d ba46 c6bc 3ff6 a43c
000000d0: aa35 133d 6c1f fa3c dbd4 0ebd ea3f d13c
000000e0: d590 273d 5109 0dbc ab20 59bc 6484 e73d
000000f0: 071f f3bc 34fe ef3d c469 a93c e854 b63c
00000100: 0945 50bd 33b3 02bd 3271 b2bc 7efa 653d
00000110: 844d ab3d 4481 b43d c419 1dbd c7ff 21ba
00000120: 41ed e7bc 3fc9 38bd 3635 89bd f6bb 843d
00000130: 57d8 d8bc 7f96 b9bc 20e1 afbc 718d c5bc
00000140: e8f4 9d3c 8820 9bbb 8de7 89bd 51cd 82bd
00000150: 0850 5abd e9ae 91bd 3c28 3b3d 7212 2bbd
00000160: ffd6 983b 5d9f 79bc a3dc 26bd a01d 2a3d
00000170: 1ae5 3b3c 5e9d e83c 2680 be3c 8086 64bd
00000180: 24d3 873d 0954 933c 5e51 dfbc 2187 08bd
00000190: 35a5 c43d aded 4b3d eef9 763d 8788 8a3d
000001a0: f355 db3d d0bf 3b3c 6ec7 98bc dae9 823d
000001b0: 2e5c 923d 593a 22bd 0f3e 8e3d 3010 e33c
000001c0: 5c98 babc af91 a13d fae8 ae3c 498c 56bd
000001d0: 933f d93d 476e 24bd 5ee1 a63c ffe4 e2bc
000001e0: ea1d a9bd 6f0e 963c 77bb 643d 2b45 273d
000001f0: 0e72 753d 0136 dd3c 9784 653d 1dad 0bbd
00000200: 4a9c 3a3d 8832 173c cc1a 1dbd 79bf df3c
00000210: c6a7 0ebd ea96 1bbd 4ce7 a8bc add5 403d
00000220: 7871 eb3c cd6b 423c afd2 a43d 7bb4 583c
00000230: 1a46 6dbd 0647 82bc 1dcb b4bb 0cb9 a53b
00000240: 37a2 a53c 9ef8 6a3c e1f7 e3bc b7ed 013d
00000250: 456d d9bb 262c 223c 3b32 3a3d 5669 15bd
00000260: 1819 b5bd 1165 48bd 01ee 473d 33c7 cb3d
00000270: c0ea 893d 49d4 083d 587f 0d3d fdde 0dbc
00000280: fad3 413c e74f 12bd 54b0 4f3b 13c9 593d
00000290: 98e7 08bd ea46 d63d 9d94 f3bc 8f23 693c
000002a0: 501e 22bd 4719 d33d f9cd a63d 7785 bdbb
000002b0: 7b66 14bd 5290 12bd 095e 57bd 78c2 6abd
000002c0: 1836 29bd cc87 ce3d b38a 77bd 1465 20bd
000002d0: d648 aebd 847a 753c 76de f8bc b795 2fbd
000002e0: 8637 483d 51a1 0b3b 5639 853c c921 3b3d
000002f0: e52d 0cbd 41fe 543c 3268 9abc 52e8 153c
00000300: de4a 6c3d 53dc 59bd ee72 c73a 4047 a73d
00000310: 6e27 bebd 4880 313d 4316 a43d 9c40 853d
00000320: 7b45 45bd 4ff0 923c d8d6 0bbb 3588 3bbb
00000330: f311 73bd b083 98bd 7446 69bd ece7 5abd
00000340: 23ec c43c 4889 a3bc 4d83 e03c c32f 53bd
00000350: 6b3b 49bd 0bc7 1fbd 016f ffbc 2d3e cb3c
00000360: a18c 263c b609 ea3d 532b 92bc 64ea b7bc
00000370: e626 57bd b584 1dbc 51d6 a03c 66bb 973d
00000380: 081a b9bd 0a7a 8dbd 4da2 52bd a1f3 dd3c
00000390: 03c4 a1bd c964 7cbd 37e7 5ebd 10ea b9bd
000003a0: 95c8 61bd ae61 ccbd 084c dabd 06fb 23bd
000003b0: 1a1f a6bd ce5f c7bd e752 523d 3316 6d3d
000003c0: 4375 eabc e67e 993d 5e12 e6bc 7987 203d
000003d0: 3dea 913d 348a 823c 50e1 13bc 8bee f6bc
000003e0: fa2d 6e3d 61ac f2bc 34ea babc 9ff4 38bd
000003f0: 8f56 d4bc 6970 e6bb f768 a83d 7e2d 313d
0.03866565 -0.03596893 -0.014695713 -0.043185778 -0.081274524 -0.041676603 0.06338684 0.098731466
0.05695289 -0.079621986 0.032277346 0.07688842 0.06616441 -0.031507544 -0.060171712 0.053542405
0.015189382 0.032258313 -0.018842477 0.09904089 -0.012877306 0.097021796 -0.038485862 -0.0064780093
-0.034704812 -0.026655743 -0.06580209 0.032925192 0.06055375 -0.050547708 -0.033672433 0.0745128
-0.0068396395 0.005929912 0.06341345 -0.04252253 0.0054026656 -0.010431663 -0.060479518 0.074509546
0.01405041 0.017128596 -0.01946531 0.0066113095 0.006801954 0.065691054 0.08410979 -0.016177459
-0.044063926 0.10987467 -0.024203647 0.02013695 0.03593985 0.030532561 -0.034870964 0.025543172
0.040909607 -0.008608178 -0.013252418 0.113045484 -0.02967788 0.11718407 0.020680316 0.022257283
-0.050847087 -0.03190918 -0.021782491 0.05614709 0.08364394 0.08813718 -0.03835465 -0.00061797764
-0.028311374 -0.0451138 -0.06699602 0.06481163 -0.026470346 -0.02265477 -0.021469653 -0.024115296
0.01928182 -0.0047341026 -0.06733618 -0.06386817 -0.05329898 -0.071134396 0.045692667 -0.041765638
0.0046643014 -0.015235749 -0.04073776 0.04153216 0.011468196 0.028395351 0.023254465 -0.05579233
0.06632069 0.017984407 -0.027260479 -0.033331994 0.09601823 0.049787212 0.060296945 0.06764322
0.10709753 0.011459306 -0.018649783 0.0639226 0.07146488 -0.039606426 0.069454305 0.02771768
-0.022777729 0.07889115 0.021351326 -0.05237988 0.10607829 -0.04014423 0.020371135 -0.027697084
-0.08257659 0.01831743 0.055842843 0.040837448 0.059923224 0.02700329 0.05603465 -0.03410064
0.045559205 0.009228356 -0.038355634 0.027312981 -0.03482797 -0.03798572 -0.020618103 0.047078777
0.02874063 0.011866522 0.08047997 0.013226624 -0.057928182 -0.015903007 -0.005517377 0.0050574597
0.020218952 0.0143415015 -0.027828159 0.031720843 -0.0066353404 0.009898221 0.04545806 -0.03647741
-0.08842677 -0.04892451 0.048810963 0.099501036 0.06734228 0.033405576 0.034545273 -0.008659122
0.011830324 -0.035720732 0.0031690793 0.053170275 -0.03342399 0.104627445 -0.02973395 0.014229669
-0.03957969 0.10307556 0.08144755 -0.0057837325 -0.036230545 -0.035782166 -0.052579913 -0.057314366
-0.041311353 0.10084495 -0.06043501 -0.039158896 -0.08509986 0.014982823 -0.030379515 -0.04286739
0.048881076 0.002130587 0.016262691 0.045686517 -0.034223456 0.013000072 -0.018848512 0.009149628
0.057688586 -0.053188633 0.0015216747 0.08167887 -0.09284864 0.04333523 0.080120586 0.06506464
-0.048161965 0.017936854 -0.0021337774 -0.0028615121 -0.05934329 -0.074469924 -0.056951955 -0.053443834
0.02403838 -0.019962922 0.02740636 -0.05155922 -0.04912893 -0.03900818 -0.03118086 0.024809921
0.0101653645 0.114276335 -0.017842924 -0.022450633 -0.05252733 -0.009614159 0.019633444 0.0740879
-0.09038168 -0.06908043 -0.051424313 0.02709371 -0.078987144 -0.061619554 -0.054419722 -0.09077847
-0.05512293 -0.099795684 -0.10659033 -0.040034316 -0.08111401 -0.0973507 0.051348593 0.0578825
-0.028620368 0.07494907 -0.02808493 0.039191697 0.071247555 0.015935041 -0.009025887 -0.030143043
0.058149315 -0.029623212 -0.022816755 -0.045155164 -0.02592018 -0.0070324433 0.082231455 0.043256275

layer2.0.bias f4 [32]
00000000: 90e4 393d 1945 853d 10b9 21bd 6df5 003d
00000010: 39a4 28bd 8fa5 50bd 1363 6abd c1db 4ebc
00000020: 2582 eabc 817e 6bbd f120 5bbc 9b1f 553d
00000030: 73d9 883d fb25 d7bc 64b3 7f3d e99b 65bd
00000040: b305 babb 5f8d 99bd 5e48 a73d 4309 713d
00000050: 12fc 4a3d e5a2 a83c bda0 983d 40e8 c13c
00000060: dbe2 b0bc 0b1f 5b3d a606 933c ca6d 953d
00000070: 10da 37bd 1435 833d 7e17 c83c ba6a bf3d
0.04538399 0.0650732 -0.03948313 0.031484056 -0.04117224 -0.05093914 -0.05722339 -0.012625636
-0.02862651 -0.05749369 -0.013374553 0.052032094 0.066821 -0.026263228 0.06242694 -0.05605689
-0.005676949 -0.074976675 0.081681 0.058846723 0.0495568 0.020585487 0.074525334 0.023670316
-0.021592548 0.0534964 0.017947506 0.07296331 -0.044885695 0.06406608 0.024425264 0.09346528

layer2.1.weight f4 [32]
00000000: 5650 823f f994 823f 5c9f 7c3f c5d1 7a3f
00000010: 5ba3 7f3f 10c8 783f 8de7 7e3f b386 833f
00000020: d4db 823f 6be8 803f 7d83 7b3f e468 7c3f
00000030: 11d5 773f 9db0 823f 2d99 813f 3752 7e3f
00000040: bd18 7b3f 9678 833f 3605 7e3f 8c36 763f
00000050: fbb6 803f dd70 7e3f 0394 7f3f 2cfd 803f
00000060: e79b 7d3f e2d8 813f 9576 763f 0b05 7a3f
00000070: 3e53 803f 58d2 803f 75b3 7c3f 4fea 7e3f
1.0180767 1.0201713 0.98680663 0.9797633 0.99858636 0.9718027 0.9957207 1.0275482
1.0223336 1.0070928 0.9824751 0.9859755 0.9680949 1.0210148 1.012487 0.993442
0.9808462 1.0271175 0.992267 0.9617698 1.0055841 0.99390966 0.9983522 1.0077262
0.99066013 1.0144312 0.9627469 0.97663945 1.0025403 1.0064192 0.9871133 0.99576277

layer2.1.bias f4 [32]
00000000: 44e6 0fbd 0583 15bd ba8e c7bc 4b9c ddbc
00000010: 3f90 45bc acb0 0dbd 4f85 8bbd ca0c bdbb
00000020: 313d e43c a012 1ebc a1fa e2bc 5153 79bc
00000030: 5e6e eebc a08e 3abd e1a3 07bd 3b76 87bb
00000040: cf30 ddba 67c5 c6bd 4434 08bd d0f5 cbbc
00000050: 5252 74bd 3138 f4bc d723 5c3c 30db a3bd
00000060: 1869 26bd c9fa 643c 8115 41bd 049c 893c
00000070: 3091 01bd f351 8cbd fd9a 27bd 556e b4bc
-0.035131708 -0.036501903 -0.02436005 -0.027052065 -0.012058317 -0.034592316 -0.06812536 -0.005769347
0.02786121 -0.009647995 -0.0277074 -0.015217618 -0.029105362 -0.045546174 -0.03311527 -0.004133967
-0.0016875508 -0.0970562 -0.03325297 -0.024897486 -0.05964882 -0.02981195 0.013436279 -0.08000791
-0.04062757 0.013975807 -0.04713965 0.016798027 -0.031632602 -0.06851568 -0.040919293 -0.022025267

layer2.1.running_mean f4 [32]
00000000: 2a69 233f 1774 a5be 8577 883d 0355 97be
00000010: 14d5 3abf 6533 66bf 9cc8 2d3e ee9e abbf
00000020: 109b 02be 72af 11bf 5d3d 873e b7cf 07bf
00000030: 52af 39be cba1 c7be ae0c 2a3f 4f46 ccbc
00000040: 4ce2 30bf 4b1b 27bf 5c19 c63e 7a57 123f
00000050: 6133 623f 7d9f 75be 8590 52bf f3d0 d9be
00000060: beac 153f eba9 65bf bca9 21bf d6f4 f7be
00000070: 7d99 fd3d 20d5 7b3f c085 2bbf ea12 babd
0.6383234 -0.32315132 0.066634215 -0.29557046 -0.7298138 -0.8992217 0.16971058 -1.3407876
-0.12754464 -0.56908333 0.26414004 -0.5305132 -0.18133286 -0.38990626 0.664256 -0.02493587
-0.690953 -0.6527602 0.38691223 0.5716473 0.8835965 -0.23986621 -0.8225177 -0.42542228
0.5846671 -0.897124 -0.6314962 -0.48428982 0.12382791 0.9837208 -0.6700096 -0.09085639

layer2.1.running_var f4 [32]
00000000: 037e ca3e 6f18 b13e 71c6 c93e e710 dd3e
00000010: 455a 733e 86ea 203f 4b30 283e 56fe ca3e
00000020: 5247 1e3e 733b 7d3e 34d9 fb3e 4910 163e
00000030: ea49 fb3e 2d34 263e 154d 783e 286a 8c3e
00000040: b373 8e3e e368 453e 1c75 033f c1db 033f
00000050: 09e7 a53e eb25 523e d939 943e 7fcb 693e
00000060: 6740 253e c391 893e 2412 6c3f d088 d53e
00000070: ae1f 0a3f 512a 8a3e a34b 863e 52fa 163e
0.39549264 0.34588954 0.3940921 0.43176958 0.23764904 0.62857854 0.16424672 0.39647168
0.15456894 0.2472971 0.4918915 0.1465465 0.4907983 0.16230841 0.24248154 0.2742474
0.27822646 0.19278292 0.5135057 0.5150719 0.32402828 0.20522277 0.28950384 0.22831534
0.16137849 0.2686902 0.9221518 0.41705942 0.5395459 0.2698541 0.2622958 0.14743927

layer3.0.weight f4 [64, 32, 3, 3]
00000000: cd78 f7bc 057c 313d 1cbb 233d edab 86bd
00000010: 8c5a 303d ac1e a83a 1e42 0e3d 3076 bc3c
00000020: 99c5 4c3c 650a 993c fd58 a93c 2652 6d3d
00000030: 4fdb 7bbd 9c5e 003c 8ea8 59bd 86b3 143d
00000040: dd49 27bd da12 a3bc 7eec 253d 5f02 c03c
00000050: 7135 82bc 0e42 6bbd b34b 56bd 8e01 ff3c
00000060: 38ad a2bc a6bf 813c d722 13bd d0cc 5abd
00000070: 3a1d 063d 7d18 183d e13b c43c c23e 46bd
00000080: 2b9c f03b 3b9b 0cbc eb53 55bd 1933 cb3b
00000090: de86 d6bc 1f30 0b3d 050b b33c 2ed1 cabd
000000a0: 7c26 80bd fb5f be3b 542c 63bd 68fd 51bd
000000b0: 4a80 143d 988e 323d ec37 683d 3936 953d
000000c0: dd19 5a3a 66a7 04bd efa3 03bd 9c42 4e3c
000000d0: c38b 6c3c 05ee e2bc 9aa1 99bc bc00 6abc
000000e0: 0ce2 acbb e067 5abd 9a98 61bc e9c6 82bd
000000f0: 448e 3ebd cf38 8e3c 3a50 193d 92f8 483d
00000100: d049 8f3d a3e1 903d b6de b13d 604b 833d
00000110: 1352 1c3d 4f3e b33c e6ac b63d a6c6 163b
00000120: 59f0 873b 40e1 3f3d 231c 0f3b a88c 99bd
00000130: 32f5 ad3b 545d 20bd c842 2a3b 8447 64bd
00000140: 28ee 29bd 1546 f63c d625 76bc 5568 12bd
00000150: bf9a 87bb c17e 49bd 4287 ee3c 9b22 9a3c
00000160: cae2 023d 61d4 02bc 3f0f bd3c 1753 a4bc
00000170: 5a20 68ba cc3e 47bd 6f50 a43c ece2 453d
00000180: ab25 8f3b 4926 4bbc 9a8a 053c dbc0 213d
00000190: ae9f fdbc 72e9 c139 e4a8 98bc be2e bf3b
000001a0: 7576 5fba f8f2 913c b95d 503d f981 a93c
000001b0: 938e 4ebd d137 acbc 1275 d93c 49ca b0bd
000001c0: 6b67 9c3c c13e 25bd a9ac 62bd 48b6 53bd
000001d0: 0184 b03c b3ce b4bb 31e8 883c 828f 213d
000001e0: 40eb 413d b74a 2cbd d966 783d 90fd 1bbd
000001f0: 6ed0 41bc 88bc 7ebc 15df 263d d77d a23b
00000200: fe6b a93d 6721 c3bc 0555 62bd 2ec4 8fbc
00000210: d9ee 6fbd 0571 00bd 5cae 073c 9e56 a83c
00000220: 28c1 733d 1ee5 26bc b519 d0bc 48b5 423c
00000230: b367 61bd ecfb 82bc d606 31bd 1c39 4b3c
00000240: acd6 3ebd 61eb 5ebd e56a 8abd 8550 87bd
00000250: af56 8c3c c5bc 6a3d ea6b 1abd 30ac 18ba
00000260: d30d 2b3d 399d b43c 6053 fabc 13d3 fc3c
00000270: c04c 71bd 4f76 0fbd 3a67 7dbb 810d 0cbd
00000280: 8da4 a3bd 4e39 933c 2d99 523c 235c 96bd
00000290: 71b0 093d 5eea 843c fc72 da3b cce0 c43c
000002a0: 329a 333c 56cc 3b3c c909 8bbd ece7 69bd
000002b0: 3ef1 a23b 3ffe 003d c90c 3d3c 46f5 833c
000002c0: 70bf a43a 78a3 13bd f916 873c b084 07bc
000002d0: 6352 febc 7d53 023d cdb9 85bc c36b 24bd
000002e0: 521c 853c 33e9 e63c 1b90 24bd cd6e 3fbd
000002f0: 9e63 3e3d 4cd8 a6bc 57ae 993a 8968 9ebc
00000300: 11d7 fbbc 7bb0 283a d4ec 5a3b bfb2 a4bc
00000310: 9f5c 57bc 5ac2 743c c9e7 01bd c4e6 1bbd
00000320: 63e5 3a3d 4af1 03bc 7d73 4b3d 501b 633b
00000330: f2ae 9c3c 60c0 ca3c f4d7 c3bc f3b1 693d
00000340: fce9 d73c a075 1d3b be4a 283c 4efe 4cbd
00000350: 30f3 ee3c b799 0a3d 0446 b0bc c0c1 b23c
00000360: 9e23 8138 ffbc dabc dca0 af3d 1379 063c
00000370: 634d 12bd 14b1 843c 2cbd 0bbd 83cd 2abd
00000380: f5f4 84bc 8519 823d 0d73 4b3d 7d50 eb3c
00000390: aebe 50bc fb9a be3c 0ef6 913d 1ce3 f53c
000003a0: c365 b93c b6f0 0b3d 0c0e 6bbd 0949 01bd
000003b0: 6639 94bd d3f2 52bd bb1e 8ebd cf55 a8bd
000003c0: fc45 5cbd 348c 00bd c81c 3abd b8a3 0b3c
000003d0: e030 99bd 026a 163d 695f 1fbd 5f5f 4abc
000003e0: 4f81 24bc 11fc 4dbd 98af 95bc 62fb 253d
000003f0: 0a4b 483d 1660 02bd 6393 c43c d8d0 a0bc
-0.03020897 0.043331165 0.039973363 -0.06575761 0.043055102 0.0012826524 0.034731023 0.023005575
0.012498283 0.018681714 0.020672316 0.05793967 -0.061488446 0.007835057 -0.053139262 0.03630402
-0.040841926 -0.01990645 0.04050874 0.02343863 -0.015894623 -0.05743604 -0.052318286 0.031128671
-0.019857988 0.015838455 -0.035921898 -0.05341798 0.032742716 0.03713273 0.023954334 -0.048399694
0.0073428354 -0.008581932 -0.052081984 0.0062011597 -0.026187357 0.03398144 0.02185584 -0.09903179
-0.0625734 0.0058097816 -0.055462196 -0.051267058 0.03625516 0.04359302 0.056693956 0.07285733
0.0008319894 -0.032386206 -0.03213876 0.012589123 0.014437619 -0.027701387 -0.018753815 -0.014282402
-0.0052759703 -0.05332172 -0.013769293 -0.06385595 -0.046522394 0.017361073 0.037430026 0.04906518
0.069965005 0.07074287 0.08685057 0.06410861 0.03816421 0.021880297 0.089196965 0.0023006587
0.0041485247 0.046845675 0.002183684 -0.07497531 0.0053087706 -0.039151505 0.0025979746 -0.055732265
-0.04148689 0.030062715 -0.015023669 -0.03574403 -0.00413832 -0.049193148 0.02911723 0.01881533
0.031954564 -0.007985205 0.023078559 -0.020059152 -0.00088549184 -0.048643872 0.020057885 0.048312113
0.004368504 -0.012399265 0.008150721 0.039490562 -0.03095993 0.0003698576 -0.01863522 0.0058344295
-0.00085244264 0.017816052 0.05087063 0.020691859 -0.050428938 -0.02102271 0.026545081 -0.08632333
0.019092282 -0.04034305 -0.055340443 -0.05168751 0.02154732 -0.0055178045 0.01671228 0.0394435
0.047343493 -0.04206344 0.06064496 -0.038083613 -0.011829479 -0.015547879 0.04074009 0.004958849
0.08272551 -0.023819638 -0.055256862 -0.0175496 -0.058577392 -0.031357784 0.008281317 0.020549115
0.05951038 -0.010186462 -0.025402883 0.011884041 -0.055030536 -0.015989266 -0.04321941 0.012403753
-0.046591446 -0.054423694 -0.0675867 -0.06607155 0.017131178 0.05730893 -0.03770057 -0.0005823998
0.04176123 0.022047626 -0.030557334 0.030862367 -0.058911085 -0.035024937 -0.0038666264 -0.034192566
-0.0799037 0.017971661 0.012853903 -0.073417924 0.033615533 0.016225036 0.0066665392 0.024032973
0.010962056 0.011462292 -0.06788976 -0.057105944 0.004972606 0.031492468 0.011538693 0.016108166
0.001256926 -0.036044568 0.016490446 -0.008271381 -0.031045144 0.031817902 -0.016323948 -0.040141832
0.016248856 0.02818737 -0.040176492 -0.046736527 0.04648172 -0.02036681 0.0011724931 -0.019336956
-0.0307422 0.0006434989 0.003340532 -0.020104764 -0.013144641 0.014938915 -0.03171519 -0.038061872
0.045628916 -0.008053133 0.049670685 0.003465373 0.01912639 0.024749935 -0.023906685 0.05705447
0.02635669 0.0024026409 0.010271726 -0.05004721 0.029168695 0.033838 -0.021517761 0.021820903
6.1578336e-05 -0.026701448 0.08575603 0.008207577 -0.035718333 0.016197719 -0.034115955 -0.041699897
-0.016230086 0.06352524 0.049670268 0.028724903 -0.012740774 0.02326726 0.07127009 0.03001552
0.022631532 0.034165107 -0.057386443 -0.031563792 -0.072375104 -0.051501106 -0.06939455 -0.08219492
-0.05377768 -0.031383708 -0.045437604 0.00852292 -0.07480025 0.03672219 -0.03890935 -0.01235184
-0.010040595 -0.050289217 -0.018272206 0.04052294 0.048899688 -0.031829916 0.02399606 -0.019630834

layer3.0.bias f4 [64]
00000000: 5b3c 0bbd 065e f3bc 010f 443d aaa3 0e3c
00000010: 8ae5 0ebd 03c5 933c 8dc6 1fbd 745b 2aba
00000020: a9f5 05bc e5da 673c de67 2ebd 7010 34bd
00000030: 7161 4e3d d198 80bc 5bb1 7ebc eebc 42bc
00000040: 0dc3 60bd 699d 66bd 1a13 f6bb e34a 8f3c
00000050: e828 9b3b 4cde 743d a6ca 273c eb46 11bd
00000060: 6aab 4bbd 053b 1c3d f141 453d 521f 0cbd
00000070: 147b 9bb8 e216 ee3c 2a4d 0a3a cd2d 54bd
00000080: 4fbf 71bd 43cb e33c 0f2a 07bc 4b76 05bd
00000090: 74c7 c63c 8661 d13c b5de c13c 7821 003d
000000a0: 3682 26bd 5ff1 693d fa7c 4a3d 8e94 9e3a
000000b0: 2c41 85bc f4df e3bc 1fa4 50bd d678 253d
000000c0: 8f4d 553d 4a0a d4bc 8c84 adbc 6751 bdba
000000d0: b3c9 873c fdd5 8f3c 6881 313d ffa2 15bd
000000e0: 7b0b 82bc b14d df3b 3717 e3bc 37ed 1fbd
000000f0: 84a3 b53c 801d f1bc b0a4 213d 6fe4 123d
-0.033993106 -0.02970792 0.04786587 0.008706013 -0.034886874 0.018038278 -0.039007712 -0.0006498613
-0.008176246 0.01415131 -0.042579524 -0.04396099 0.050385896 -0.015697869 -0.0155452145 -0.011885865
-0.054873515 -0.05630246 -0.0075096013 0.017491763 0.004735101 0.05978231 0.010241186 -0.035468023
-0.04972402 0.038142223 0.04815859 -0.034209557 -7.413901e-05 0.029063646 0.00052757806 -0.05180149
-0.059020337 0.027806884 -0.008249774 -0.032583516 0.024265029 0.025559198 0.023665765 0.03128192
-0.040651523 0.057114955 0.049435593 0.0012098716 -0.016266428 -0.02781675 -0.050937768 0.04039844
0.05207592 -0.025883812 -0.021181367 -0.0014443815 0.01657567 0.017558092 0.043336302 -0.0365324
-0.015874615 0.0068146815 -0.02772103 -0.039044585 0.022172697 -0.029433012 0.0394637 0.035862383

layer3.1.weight f4 [64]
00000000: 3a0d 803f c59e 813f fa1b 823f 41b4 7f3f
00000010: cbd5 823f 34a4 7c3f 7ebd 7b3f 06bf 813f
00000020: 3230 7f3f e735 813f 6394 803f 8671 823f
00000030: a422 823f fb7f 7c3f 0907 823f 63c4 833f
00000040: f4a7 7d3f ec55 7d3f 0a3f 803f a422 803f
00000050: dc4d 833f db60 7f3f b527 7e3f 3ecc 813f
00000060: 4afa 803f 44a8 803f 1a83 803f 0b5a 763f
00000070: 58fb 803f ea53 813f 3fc2 813f f211 833f
00000080: bc10 823f 4cc6 813f f4f8 823f 6839 7a3f
00000090: ba83 833f 3483 833f 83fe 7e3f a2e9 7e3f
000000a0: d44b 803f 06a4 823f d313 853f 4bc6 823f
000000b0: 98c0 7d3f 4897 7c3f 464d 7f3f 6539 833f
000000c0: 7091 803f 6f87 813f b638 803f bd2c 7e3f
000000d0: fc68 803f ba06 803f b6ca 803f 6c26 793f
000000e0: a658 803f 8af6 813f 8df0 803f 5ad0 803f
000000f0: 9a50 7f3f 11aa 783f 6164 7e3f 852a 813f
1.0004036 1.0126578 1.0164788 0.9988442 1.0221494 0.98688054 0.9833602 1.0136421
0.99682915 1.0094575 1.0045284 1.0190895 1.0166821 0.9863278 1.0158397 1.0294307
0.990844 0.9895923 1.0019238 1.0010571 1.0258136 0.99757165 0.9927934 1.0140455
1.0076382 1.005135 1.0040009 0.96231145 1.0076704 1.0103734 1.0137404 1.0239851
1.0161357 1.013864 1.0232224 0.97743845 1.0274575 1.0274415 0.99607104 0.99575245
1.0023141 1.0206306 1.0396675 1.0216764 0.99122 0.98668337 0.99727285 1.025189
1.0044384 1.0119456 1.0017307 0.99287015 1.0032039 1.0002053 1.0061862 0.9732425
1.0027053 1.0153363 1.007341 1.0063584 0.99732363 0.971345 0.99371916 1.0091101

layer3.1.bias f4 [64]
00000000: dffd 12bc 9b3f 103b f993 823b 0959 efbb
00000010: 3123 4ebb 5940 0ebd ca64 46bc f449 22bd
00000020: fb6d 08bd 4e68 e7bc e050 9bbb d6e4 01bc
00000030: d7a2 a7bc b867 1dbd 1da6 18bc 8adc 2dbc
00000040: e457 a4bc d705 a3bc 4b7d 80bc 8a9e a9bc
00000050: e257 15bc 144e 95bc 42e6 49bd 2b8b 04bd
00000060: 5d99 1dbc 7f50 f43b 379c 07bc 8b6c f0bc
00000070: 5dca 6abc 4df7 8dbc 1b0b 9abc effb 84bb
00000080: 047a 5cbc 77fb e6bc a561 09bb 9904 5ebc
00000090: 3227 553b 576a abbc 2e5e 05bd b324 18bc
000000a0: 6101 3abd a0ac 95bb 1ea3 b1ba faf9 bcba
000000b0: 3f19 40bc b501 1fbd 0300 cabc 9ee1 55bb
000000c0: 8e00 f5bc 7a57 1dbc b969 0fbc 3d58 9abc
000000d0: 085f 38bd 598f fbbc 85fb 77bc 95b8 2dbd
000000e0: 29ac 14bd 8b77 48bc 0f95 92bc 7fa7 a1bc
000000f0: 9e5c cfbc 8686 0bbd 4591 f5bc 4ff8 26bc
-0.00897166 0.0022010568 0.003984925 -0.007304315 -0.0031454081 -0.034729335 -0.012108991 -0.03962131
-0.03330801 -0.028247979 -0.0047398657 -0.007928094 -0.02046339 -0.038428992 -0.009316948 -0.010611663
-0.02006144 -0.019900246 -0.015684744 -0.02070548 -0.009115191 -0.018225707 -0.049291857 -0.032359283
-0.009619084 0.007455885 -0.008276991 -0.029348632 -0.014330474 -0.017329836 -0.018804124 -0.004058353
-0.013456825 -0.02819608 -0.0020962742 -0.013550901 0.0032524583 -0.02092473 -0.03256052 -0.0092860935
-0.04541147 -0.0045676976 -0.0013552641 -0.001441776 -0.011724769 -0.038819987 -0.024658209 -0.00326357
-0.029907491 -0.009603376 -0.008753234 -0.018840903 -0.045012504 -0.030708002 -0.0151356505 -0.04241236
-0.036296997 -0.0122355325 -0.017893342 -0.019733189 -0.025312718 -0.03406384 -0.029976496 -0.010191037

layer3.1.running_mean f4 [64]
00000000: ce67 35bf f919 2dbf 45ba 13bf 0d97 56bf
00000010: 1bf7 063e 9ba3 93bf 1193 a9be 4b07 0b3f
00000020: 3e98 04be a26c 433f 4910 b4bf 8548 cfbe
00000030: a339 8a3f 03e3 f83f 0579 1b3e c8f9 a4be
00000040: d143 be3f 3241 3cbf 3055 09bf 52cb aa3f
00000050: 27a6 ef3d 3f0c f0bd 02ff 143f 07c5 a63f
00000060: 09a5 38bf 27be 38bf d7c2 0cbf 2e38 00be
00000070: 7638 9b3f 3814 1dbf 4ccb 6cbf da03 d5bd
00000080: d971 263f 4033 903f 1c20 d0be 358a 2abe
00000090: 97ac c13d 9130 973e 89a5 4b3f 7493 9abe
000000a0: bff5 033f 140a 99bd 6d08 ffbd bd2b c0bd
000000b0: 1d68 35bd ae3d ca3f 86fe 093f ae50 c53e
000000c0: f88b 1bbe 7d04 edbe 32ba 29bf 51a0 c8bf
000000d0: b265 07bf db4f 8a3f c93d e1be 7c8a 433e
000000e0: d679 853f f0a1 093f c27d aebe cca4 c93e
000000f0: 8937 813f 45d8 01bf 692e bb3e df28 a13e
-0.7086152 -0.67617756 -0.577061 -0.83824235 0.13180201 -1.1534303 -0.33120015 0.54308003
-0.12948701 0.76337636 -1.406747 -0.40485016 1.0798839 1.9444278 0.15182884 -0.32221818
1.4864446 -0.7353698 -0.5364561 1.3343298 0.11701613 -0.11721086 0.5820161 1.3028878
-0.72126824 -0.7216515 -0.549848 -0.12521431 1.2126606 -0.61358976 -0.92497706 -0.10401125
0.6501747 1.126564 -0.40649498 -0.16654284 0.09456747 0.2952924 0.7954946 -0.30190623
0.51546854 -0.074726254 -0.12452779 -0.093833424 -0.044288743 1.5800073 0.53903997 0.38538116
-0.15190113 -0.46292487 -0.66299736 -1.5673925 -0.5288955 1.080562 -0.4399245 0.19095796
1.0427806 0.5376272 -0.3408032 0.39383543 1.0095073 -0.50720626 0.36558846 0.31476495

layer3.1.running_var f4 [64]
00000000: 4515 5e3f 57b5 5b3f 97d3 a93e ccab 033f
00000010: 7125 163f f26a 4a3f 8dd4 463f e289 0b3f
00000020: 372d 023f 952f f23e 5ec2 773f 8dc4 a73e
00000030: a2cb 153f f94e 203f da7b 2c3f 1da1 3c3f
00000040: 1445 183f 551a 2f3f 9634 f43e de5e 053f
00000050: aed8 5d3f 5177 ce3e 6688 233f 7347 da3e
00000060: ee06 1a3f 5742 6c3f 09b0 353f ba43 843e
00000070: 612f 223f 58ff d53e 1219 233f 5ee8 623f
00000080: 229d be3e bc1d 9e3e 1fe7 363f 29ad d33e
00000090: 165e 673f 3eca b23e fde2 0d3f f334 2f3f
000000a0: 8375 e53e d72a 4a3f 57d9 493f 8ac6 343f
000000b0: 4c32 b53e ece9 263f b68e 093f 2741 493f
000000c0: a744 f53e 7ccb 453f 99ad 1b3f 5030 4c3f
000000d0: 1257 4e3f 6bd0 ed3e d15a 653f eb7f 203f
000000e0: a454 2f3f 6cbf 823f 562f 003f 6caf 8a3e
000000f0: 0af0 093f e266 cd3e 5ac5 e63e bfb4 da3e
0.86751205 0.8582358 0.33169243 0.51434016 0.5865088 0.79069436 0.77668077 0.5450727
0.5085024 0.47301927 0.96780956 0.32767144 0.58513844 0.626205 0.6737648 0.7368334
0.59480405 0.68399554 0.4769637 0.5209788 0.8665875 0.40325406 0.6388 0.42632636
0.60166824 0.92288727 0.70971733 0.2583292 0.63353544 0.41796374 0.6371013 0.88635814
0.37229258 0.3088206 0.7144641 0.41343048 0.9037794 0.34919924 0.5542448 0.6844017
0.44816217 0.7897162 0.7884726 0.70615447 0.35389936 0.65200686 0.53733385 0.7861504
0.4790394 0.7726362 0.60811764 0.7976122 0.8060161 0.46448073 0.895917 0.6269519
0.68488526 1.0214667 0.5007223 0.2708696 0.53881896 0.40117556 0.45072442 0.42716023

fc1.weight f4 [10, 576]
00000000: 2421 033d a046 1e3d 3bc2 e33c 7a89 1f3c
00000010: d924 b63c 1a1d a33c 5b70 a9bc 6e67 29bd
00000020: 70cc 053d c21b 34bd 8660 b6bc 1c82 963b
00000030: e9eb d2bc 309e cabc ede5 43bd 2fef f8bc
00000040: d827 94bc 4c3c b73c 80ed c1bc 3a68 033d
00000050: b058 583c 3ef3 b4bb 8a41 383d 8c1d e43c
00000060: 24de 4e3b 96cc 7fbd a1a5 1bbd 5c1a 48bc
00000070: c078 a9bc 5575 28bd e75e 25bd 3e76 aa3a
00000080: 915b 60bb aa63 94bc 35a8 a13b 69e8 b3bc
00000090: 2cab 973c 9c2a 293d 44bd 9f3c 3e53 7bbc
000000a0: 453e 643d 299b 003c 61fb 3fbc 0d13 c63c
000000b0: 9eeb 72bd 459d b3bc d990 7bbc 94df f3bb
000000c0: 6b9e 1dbd 5c4b abbc c737 003d ed6b fe38
000000d0: 3939 47bd 8e93 c2bc f906 7abc 7480 bcbb
000000e0: 85dd a7bb 2ec8 1f3d 4d6a 503c 02a9 b83c
000000f0: e27f 01bd ea6f 5b3c edb0 253d ae11 3c3d
00000100: 0fa2 afbc 2ad9 1cbd 853e 943b 65ba ce3c
00000110: 32b9 f43c 7b58 633c d66a 833d 9d8a 30bd
00000120: 1dd7 783b 89fb 363c 896c ebbc 2e7d b6bb
00000130: ae6f 8abc 0f86 803d cd9c 0f3c 6ece 17bd
00000140: a717 113d c71a 96bc a927 313d 0af5 283c
00000150: 3df6 32bb 316e 253d 6d14 5c3c 4484 edbc
00000160: 0f46 f0bb f54d 21bd 1150 4abd 23e1 563c
00000170: 2dae 5fbd 6c18 b9bc 40ae eebc 3b27 8fbc
00000180: 2d09 ceba 7c4d 86bc ace2 bdbc 3018 90bb
00000190: a20e 8cbc 65d3 15bd 3c6b c73c e245 afbc
000001a0: c691 b53c 41cb 003d ef6f 42bc 4c6a 8f3b
000001b0: dc47 3c3d 2901 6a3d 74e0 d3bc 2f0c b43b
000001c0: 28ec 973d 01c4 433c 40fd 813c 3964 0e3d
000001d0: a3e2 083c 7e08 a23c 9e12 a63c cab2 293d
000001e0: de21 223d ceeb c03c 6395 edbb a644 fdbc
000001f0: 17a3 713b 0b99 c83c 409c c13c 33f0 aabc
00000200: c691 d1bb 343b b1bc 14b2 b7bc 4da6 8ebb
00000210: 1ed0 d5bc a691 2e3c 48ec 3cbd ac47 8abb
00000220: d71f d1bc 2f1d b73b 9541 5ebc bda7 02bd
00000230: 2769 45bd 69ff 38bd 2132 16bd 6a72 13bd
00000240: f282 753c b829 023d b2e2 4b3d 540e cbbc
00000250: 69ad 453d 82d5 183d 19c6 de3c 1aed 4e3c
00000260: 0553 243d a542 0b3d cc44 03bd 7d0c 263d
00000270: 5db8 a1bc 181c 9cbc 6598 313d 1250 6dbb
00000280: 442f 0abd be3e 5d3d 6819 04bd 4a1c a13c
00000290: 5af7 5cbd d0bd 613c 2bb4 3a3d b71a 903a
000002a0: 6f05 12bd 19e7 25bc 73c2 3b39 d76d 883c
000002b0: 8241 853d 60ab 883d 0ea2 883d 08d7 ae3b
000002c0: 685d 243d 0743 583c 6e2f 0e3d d42f 413d
000002d0: b5f8 9cbb 5cec 52bd 0286 21bc 4359 0bbd
000002e0: f611 50bd 981c 64bb 25b7 d6bc 7884 28bd
000002f0: 4997 0ebd 5883 2b3c 5ead c4bc 6ee2 f53c
00000300: 6fe4 c9bc 5938 cc3b a5d3 d63c 1624 80bc
00000310: 781d 543a 26cb 513d c758 7ebb e8e4 893c
00000320: 8b63 9dbc 8e39 44bb 538d 863d db2a 3d3d
00000330: f00a 89bc 9876 2b3d 641b 2ebd 9b88 703d
00000340: 0fc1 6c3d c72c 573d ed29 a1bc 9ae5 413c
00000350: b90e 93bc e80a 2b3d eb39 483d 3fdf 04bd
00000360: 8773 9b3b 97c3 42bc e7d8 40bc 1862 5b3d
00000370: 724e 3b3d be16 8b3b 68c5 9c3b b1d2 e03c
00000380: 372c 363d ec9c 0c3d 1808 3dbd 8f9e a13b
00000390: beb0 d4bb f73b d3bc 07c9 0cbd 7369 013d
000003a0: 2d99 b23b e66f fdbc fe27 1f3d 6cbe 9038
000003b0: 83fe d33c fafd e13c b7e6 923c 4561 b7ba
000003c0: 8d10 e93c f04b ccbc 0593 5a3d d90f aebc
000003d0: bb2c be3c 302f febc e8af 33bc 90eb c53c
000003e0: b9c5 ee3c 395e 523b da82 e43b bbaa bfbb
000003f0: 6c0c 503d f938 913d f383 a0bc 930e 253d
0.032014027 0.038641572 0.027802577 0.009737367 0.022234367 0.019911338 -0.020683458 -0.041358404
0.03266567 -0.043971784 -0.022262823 0.004593147 -0.025747256 -0.024733633 -0.047826696 -0.03038749
-0.018085405 0.022367619 -0.02367282 0.03208182 0.0132047385 -0.005522161 0.044984378 0.02784612
0.0031565512 -0.062450968 -0.037999753 -0.012213316 -0.02068746 -0.04112752 -0.04037371 0.001300521
-0.0034234265 -0.01811393 0.004933382 -0.021961408 0.018514238 0.0413004 0.019499429 -0.015339671
0.055723447 0.007849493 -0.011717648 0.024179006 -0.059306733 -0.021925578 -0.015354359 -0.007442424
-0.038481157 -0.020909958 0.031303193 0.000121317666 -0.048638556 -0.023752 -0.0152604515 -0.0057526175
-0.0051228427 0.039009266 0.012720657 0.022541527 -0.0316161 0.013393382 0.040451933 0.0459153
-0.02143958 -0.03829304 0.0045240545 0.025235364 0.029873464 0.013876076 0.06416862 -0.043100942
0.0037970014 0.011168369 -0.028738277 -0.005569122 -0.016898956 0.0627557 0.008765412 -0.0370621
0.035422947 -0.018323315 0.043250713 0.010312328 -0.0027307414 0.04038829 0.013432604 -0.028993733
-0.0073325704 -0.039380986 -0.049392764 0.0131152 -0.054609466 -0.022594653 -0.029135823 -0.017474761
-0.0015719287 -0.01639437 -0.023179375 -0.0043974146 -0.017096821 -0.036578555 0.024343126 -0.021395627
0.022164237 0.031443838 -0.011867507 0.0043766852 0.045966968 0.057130013 -0.025863864 0.0054946165
0.0741809 0.011948586 0.01586783 0.03476355 0.008354816 0.01977944 0.02027255 0.041430272
0.03958308 0.02354994 -0.0072504743 -0.030916523 0.003687089 0.02448704 0.023634076 -0.020866489
-0.0063955514 -0.021634676 -0.022423781 -0.0043533207 -0.026100215 0.0106548425 -0.046123773 -0.0042199697
-0.025527878 0.0055881958 -0.013565441 -0.03189825 -0.048195984 -0.045165453 -0.0366689 -0.035997786
0.014984833 0.031778067 0.04977674 -0.024787106 0.04826108 0.037312992 0.02719407 0.012629772
0.040118236 0.033999104 -0.03204803 0.040539254 -0.019741232 -0.019056365 0.043358225 -0.0036211056
-0.033736482 0.054014914 -0.03225079 0.01966681 -0.05394683 0.013778165 0.045581978 0.001099429
-0.035649713 -0.010125899 0.00017906148 0.016653938 0.06506635 0.06673312 0.066715345 0.0053356923
0.04012814 0.013199574 0.0347132 0.047164753 -0.0047903904 -0.05149494 -0.00985861 -0.034020673
-0.05079838 -0.0034807082 -0.026210377 -0.041141957 -0.034812246 0.0104683265 -0.02400845 0.030015197
-0.024645058 0.006232303 0.026223967 -0.015642207 0.00080915494 0.051219128 -0.003881024 0.016832784
-0.019212505 -0.0029941532 0.06569924 0.04618345 -0.016728848 0.041861147 -0.04250659 0.058724027
0.057801303 0.052532937 -0.019673312 0.011834526 -0.017951356 0.041758448 0.04888336 -0.032439467
0.0047439965 -0.011887453 -0.011770464 0.053560346 0.04572911 0.0042446544 0.004784275 0.027444215
0.04447576 0.03432934 -0.046150297 0.0049322317 -0.006490796 -0.02578543 -0.034371402 0.031594705
0.005450389 -0.030937146 0.0388565 6.901924e-05 0.025878197 0.027586926 0.017932279 -0.001399078
0.028450275 -0.024938554 0.053362865 -0.021247791 0.023214689 -0.03102836 -0.010967232 0.024160177
0.029147016 0.0032099618 0.0069736065 -0.00584921 0.050793096 0.07090945 -0.019594168 0.040297102

fc1.bias f4 [10]
00000000: 89fc 03bd 5789 5c3d f2c8 fdbc 0110 913c
00000010: 489b 333a 806d e83c effd 11bd 9f59 d33b
00000020: 2716 89bc bbf9 ceb7
-0.03222326 0.053841915 -0.030979607 0.017707827 0.0006851447 0.028372526 -0.03564256 0.0064498927
-0.016734196 -2.4673403e-05

fc2.weight f4 [2, 10]
00000000: 01b5 abbd 8ee2 183e c718 2e3d b4c7 343e
00000010: c8e0 60be 50c4 a13d d817 763d 61cd c1bc
00000020: b824 b03d 4517 b83d 5c90 7a3e 64fa 20be
00000030: 26f0 363d 1422 40bd 5b2b 5abe b790 41be
00000040: 8fb5 593e 7bc6 8f3e ef65 1e3d 8ce9 513e
-0.08384133 0.14930174 0.0425041 0.17654306 -0.21960747 0.07898772 0.060081333 -0.023657503
0.086007535 0.08988813 0.24469131 -0.15720516 0.044662617 -0.0469075 -0.21305601 -0.1890286
0.21260665 0.28081116 0.03867143 0.20499247

fc2.bias f4 [2]
00000000: f490 adbd da89 a0bd
-0.08474913 -0.07838793

exp_avg f4 [16, 3, 3, 3]
00000000: eca7 ed3b d0cd d13b 0d68 933b f4d2 e53b
00000010: 7baa d03b 85d3 853b 64e7 ae3b dfbe b43b
00000020: 1ee7 853b 45f9 683c a706 593c 516e 393c
00000030: e858 5f3c eaac 523c d926 2d3c 526c 3d3c
00000040: 2c6a 3d3c 4732 253c 0436 463c e73b 383c
00000050: 7067 203c 3d62 363c 176a 2c3c 52aa 0d3c
00000060: 6a53 0d3c 7910 103c 6cd9 003c 914f 16ba
00000070: 6257 13ba da88 393a 61c2 5eb9 00e0 4cb9
00000080: 016b 403a c4f0 3a39 01f5 8439 26a7 3b3a
00000090: 133b e8ba 2f28 d9ba cb70 6bb9 47b7 baba
000000a0: ca58 a6ba d249 0ab9 625a 83ba be86 43ba
000000b0: 52f9 79b8 e695 ee3a 4ec3 013b c529 5f3b
000000c0: f659 143b 4a68 1e3b d806 643b 5576 323b
000000d0: 2b92 3f3b d4f7 673b b8d9 c43c 62e7 d73c
000000e0: c217 dd3c 2c9e b23c c8d0 d73c 5d2e e33c
000000f0: 84d0 d53c ff2d fd3c f4db fe3c 9829 69bd
00000100: 8fd6 62bd f5d9 60bd 2fa9 6fbd 347a 5dbd
00000110: 5860 58bd 44d5 54bd 706f 42bd de07 42bd
00000120: 70bf 1ebe 13bd 1fbe aa34 21be 5391 20be
00000130: c67e 1ebe d518 1ebe 3446 19be 06f2 16be
00000140: caa5 17be 9d59 323c 94a8 533c beb0 5c3c
00000150: 68c0 383c 1e7d 583c 109c 5c3c a959 2d3c
00000160: a40d 453c 8e01 433c a6fb af3b 7cca f73b
00000170: ae62 0e3c af51 c03b 0ef6 023c 8234 103c
00000180: 4e20 b63b f859 ec3b 77ad fd3b 2fd9 043d
00000190: b6f3 0e3d ee25 153d 5702 053d 49fa 0f3d
000001a0: 184e 153d 38d0 013d 83b2 0a3d 1324 0f3d
000001b0: 2068 9639 c54c ff39 38c0 5c3a c598 1f3a
000001c0: 30ed 493a 11e5 793a d0c3 4f3a 5c1e 733a
000001d0: 3e92 7f3a 5fa1 86ba 8662 5cba df80 00ba
000001e0: 2183 2eba a53f 0eba a9b6 c6b9 da6d ecb9
000001f0: 0d7e bbb9 31b9 afb9 c0f9 2db8 0a0d 0c39
00000200: 9317 063a b5e0 6039 55de a439 a899 063a
00000210: 2769 d039 08ac ed39 015c f139 d39b 533a
00000220: 4253 fc39 269c 613a 7540 6b39 e756 4bb9
00000230: 00e5 f539 f98e 9a38 ca86 5ab9 fb63 043a
00000240: 6357 5fba 7896 aaba 4352 85ba ff0b b1ba
00000250: c6c4 fbba e0eb b0ba 4947 b4ba 4d4c f0ba
00000260: eca7 9eba ba49 9aba db77 d3ba 0441 adba
00000270: 4237 deba c84c 12bb d359 d5ba 2450 ddba
00000280: 1438 09bb f829 b8ba 2e35 5abb 3386 1fbb
00000290: 2bab 153a ba2a 19bb ed39 e3ba b47b 9f3a
000002a0: 18e2 7dba 03c4 b4b9 cf98 163b 5b6f 8bbb
000002b0: 5577 69bb 01a3 16ba 9dbe 5abb bb36 42bb
000002c0: bbe7 a4b7 6504 06bb 860b d4ba 6d57 873a
000002d0: c5d2 b7bb c0e9 a2bb 1e1b 13bb 57ab 97bb
000002e0: 2c1b 8fbb 0ed5 d9ba cc2b 5cbb 76ee 4abb
000002f0: a759 2fba b2fc 233c db40 4f3c 3144 6c3c
00000300: 24a1 313c 375f 523c 5763 673c 7214 383c
00000310: c6b3 533c b320 633c c006 873c e7fc 9d3c
00000320: c5c0 ac3c a463 8b3c 0f79 9d3c ad0c a93c
00000330: a939 893c 5b60 983c 324e a13c 7c46 ef3c
00000340: ebb4 023d ffc5 093d 7c61 f23c 7ae0 013d
00000350: f252 073d f8e7 ed3c 7536 fd3c 5230 033d
00000360: 9cef 38bd 7e6d 24bd 6d2f 22bd fa68 3ebd
00000370: b4d2 32bd bf28 35bd b472 4fbd de87 49bd
00000380: 607e 43bd e47c 41bd c9ff 25bd 6665 1bbd
00000390: 754e 42bd 0769 30bd d0d8 2bbd d66b 4dbd
000003a0: a697 42bd b47e 37bd 9a0d f9bc 6cc2 c4bc
000003b0: 247f adbc c052 f4bc 1e2a cebc 0eec c3bc
000003c0: 6e8e 01bd e832 e6bc df38 cbbc 29ef c8bc
000003d0: 8dd6 d8bc e24a e8bc 686d d0bc a4f9 dbbc
000003e0: fe7c e8bc f0c7 d7bc 9e1a ddbc 5be2 e2bc
000003f0: f864 adbc 5583 bebc 1c11 cfbc 4f7e b5bc
0.007252684 0.0064027086 0.004498488 0.007013673 0.006367979 0.004084053 0.0053376425 0.0055159177
0.004086389 0.014219587 0.013246215 0.011317805 0.013632037 0.012858609 0.010568344 0.01156147
0.011560958 0.010082788 0.012097839 0.011244751 0.009790286 0.01113182 0.010523341 0.008646565
0.0086258445 0.00879299 0.007864337 -0.0005733902 -0.0005620626 0.00070775824 -0.00021243982 -0.00019538403
0.00073401636 0.00017828034 0.00025359544 0.0007158391 -0.0017717801 -0.0016567762 -0.00022453365 -0.0014245295
-0.0012691256 -0.00013188206 -0.0010021443 -0.0007458738 -5.9598424e-05 0.0018202632 0.0019800249 0.0034051996
0.0022636629 0.0024171048 0.0034794118 0.0027231176 0.002923141 0.003539552 0.024029598 0.02635545
0.026988868 0.021803938 0.026344672 0.027732069 0.026100405 0.030905722 0.031110741 -0.056924433
-0.0553804 -0.05489536 -0.058510955 -0.05407162 -0.052826256 -0.0519612 -0.047469556 -0.047370784
-0.15502715 -0.1559947 -0.15742746 -0.15680437 -0.15478048 -0.1543916 -0.14968187 -0.14740762
-0.14809337 0.010885623 0.01291861 0.013469873 0.011276342 0.013213424 0.013464943 0.010580459
0.012027178 0.011902226 0.005370575 0.00756198 0.008690519 0.0058691124 0.007993234 0.008801581
0.0055580502 0.0072128735 0.007741626 0.032433685 0.03490039 0.036413126 0.032472935 0.0351508
0.03645143 0.031692713 0.03386165 0.034946512 0.0002868781 0.00048694588 0.0008420977 0.0006088133
0.0007702885 0.000953273 0.00079256017 0.0009274238 0.000974927 -0.0010271481 -0.0008407015 -0.0004902016
-0.0006657113 -0.0005426354 -0.00037901595 -0.00045095274 -0.00035761335 -0.0003351658 -4.1479012e-05 0.00013356298
0.0005115207 0.00021446015 0.00031446168 0.0005134591 0.00039751196 0.00045332336 0.0004603565 0.0008072231
0.00048127217 0.0008606337 0.00022435359 -0.00019391962 0.0004690066 7.369923e-05 -0.00020840313 0.00050502986
-0.00085197965 -0.0013014814 -0.0010171611 -0.0013507603 -0.0019208423 -0.0013498031 -0.0013754155 -0.0018333286
-0.0012104488 -0.001177124 -0.0016133742 -0.0013218229 -0.0016953724 -0.0022323597 -0.001627738 -0.0016884846
-0.0020937966 -0.0014050594 -0.0033295858 -0.0024341464 0.0005709405 -0.0023371414 -0.0017335989 0.0012167604
-0.00096848747 -0.00034478316 0.0022979265 -0.004255218 -0.0035624106 -0.00057463354 -0.0033377775 -0.0029634673
-1.9658231e-05 -0.0020449397 -0.0016177751 0.0010325738 -0.0056098425 -0.004971713 -0.0022446583 -0.0046285796
-0.004367253 -0.0016619281 -0.003359544 -0.0030964888 -0.00066890795 0.010008978 0.01264974 0.014420555
0.010841642 0.012840084 0.014122806 0.011235343 0.012921279 0.013862777 0.01648271 0.019285632
0.021088013 0.017015286 0.019222764 0.020635927 0.016751127 0.018600633 0.019690607 0.029208414
0.031910818 0.03363609 0.0295875 0.03170822 0.033038087 0.029041275 0.030909756 0.032028504
-0.045150384 -0.040143482 -0.03959601 -0.046486832 -0.043657973 -0.04422831 -0.0506465 -0.04920184
-0.047727942 -0.047238246 -0.04052714 -0.037938498 -0.047438104 -0.043068912 -0.041954815 -0.05015167
-0.047507904 -0.044798568 -0.030401994 -0.024018489 -0.02117879 -0.029824615 -0.025166567 -0.02391627
-0.031629972 -0.028100446 -0.024807392 -0.024528103 -0.026469493 -0.02835602 -0.025442794 -0.026852436
-0.028379913 -0.026340455 -0.026990231 -0.027695825 -0.02116631 -0.023255983 -0.025276713 -0.022154955
