Lab5/model_50_0.001.pth (torch, 378966 bytes, 54 tensors)

layer1.0.weight f4 [16, 3, 3, 3]
000000 cf 5a e9 bc 5a 4e d0 bc fa b2 4f 3d a3 2b 01 3d
       -0.028485684 -0.025427986 0.050707795 0.031535756
000010 9c 53 ae 3d f3 f3 24 bd 4e 0e 82 3c 99 91 c0 3d
       0.08512041 -0.04027171 0.015875962 0.094027705
000020 68 f8 a0 3d d5 be e0 bd 5e 35 fc bc 64 84 28 be
       0.0785988 -0.10973898 -0.030787166 -0.16456753
000030 08 c5 28 be 69 2f 09 3e 36 6a 01 be f1 2b e0 bd
       -0.16481411 0.13396992 -0.12638173 -0.10945881
000040 76 fe 8a 3d 6b c0 13 be e2 8d f2 3d e7 00 81 bd
       0.06786816 -0.1442887 0.11843468 -0.06299
000050 ee c2 30 3d 27 fb f1 3d b0 6e 65 bc 69 e0 e6 3d
       0.04315465 0.11815482 -0.014003441 0.112732716
000060 ec 97 cc 3c 5d 9d ec 3c 98 a5 28 be de ac 25 be
       0.024974786 0.02888363 -0.16469419 -0.16179225
000070 89 94 11 be 3f 22 c0 bd 36 d4 00 be 8c c4 34 3e
       -0.14216818 -0.09381532 -0.12580952 0.17653102
000080 57 b6 cd bd fc cf 98 bd 27 c4 1e be 10 ee ab 3d
       -0.10044544 -0.07461545 -0.15504514 0.08395016
000090 f9 2b 3c 3e 58 7b 20 be 4e 69 87 bd 84 e4 08 bd
       0.18376149 -0.15672052 -0.06611882 -0.033421054
0000a0 8f 5b 85 bc 89 59 00 be e3 eb b5 3d 44 7f be 3d
       -0.01627901 -0.12534155 0.088828824 0.09301618
0000b0 d8 b1 07 be 58 aa 8f 3d f7 af 2e 3e 37 00 6e 3d
       -0.13251436 0.07014912 0.17059313 0.058105674
0000c0 6b 20 7b 3d b0 ff 53 3e ee 24 d9 3d 90 5c 26 be
       0.061310213 0.20703006 0.10602747 -0.16246247
0000d0 c5 9c a2 3d d7 fe 22 3e 96 f2 d7 bb 84 e7 3e bd
       0.07940058 0.15917526 -0.006590198 -0.04660751
0000e0 2a 73 a4 bc 58 b4 2a bd 59 e5 8f bd 2f c6 83 3d
       -0.020074446 -0.041675895 -0.070261665 0.06434285
0000f0 bb 0d 26 3e 1f 04 b3 bd 6f 3b df 3d c7 93 3e 3d
       0.16216175 -0.087410204 0.10900008 0.04652765
000100 a9 62 49 be 1f be c6 3c 35 4d 48 bd af bf 28 be
       -0.19666542 0.024260579 -0.048901755 -0.16479371
000110 f4 66 e8 bb 12 e3 e8 3d ed 15 ab bd 19 5a 12 3e
       -0.007092351 0.11371435 -0.083537914 0.14292182
000120 4d 8a 96 bd 69 18 5f be a8 d4 1d bd 4b 6c dd bd
       -0.073505975 -0.21786655 -0.038532883 -0.10811671
000130 28 d9 5a 3d c5 c7 c0 bc 3f cd 37 3e 60 58 1d 3e
       0.053429753 -0.023532758 0.17949389 0.15365744
000140 a1 f4 37 3e 8e f3 a6 3d 45 9c 76 bd 68 f7 d2 bd
       0.17964412 0.08151923 -0.060207624 -0.10301095
000150 73 65 a4 bc 3c 4a 2a 3d 44 44 37 3c 05 1d f4 3c
       -0.020067906 0.0415747 0.011185709 0.029798994
000160 3e 36 82 3d 5f e5 1f 3e 73 6c b4 3d ac 64 e8 3d
       0.06358002 0.15614842 0.088097475 0.11347327
000170 c5 24 ee 3c 12 f0 99 ba e8 00 22 3e b2 ac a4 3d
       0.029070267 -0.001174452 0.15820658 0.080407515
000180 59 f2 3a 3e 21 49 e7 3d 7c e0 12 3e a5 4b 19 3c
       0.18256511 0.11293245 0.14343446 0.009356414
000190 b1 c2 25 be da 46 34 3e ba 56 09 3e 3a b8 2e be
       -0.1618755 0.17605153 0.1341199 -0.17062464
0001a0 30 bf 8b 3d d3 5b 83 3d d5 53 9a bd f7 aa 01 be
       0.068235755 0.064139985 -0.07535521 -0.12662874
0001b0 25 aa 35 3d 02 bf 17 bd 36 e5 11 3e 60 7b 1e be
       0.044351716 -0.037047394 0.14247593 -0.15476751
0001c0 47 79 e1 3d 67 01 1f 3b 40 78 f5 bc c7 d7 f3 bd
       0.1100946 0.002426231 -0.029964566 -0.11906391
0001d0 4d 46 ed bd 8e 9c b6 3d 3b 72 a3 bd 04 2d 6f bd
       -0.115856744 0.08916579 -0.07980772 -0.05839254
0001e0 54 ed 4c 3e e0 6f 2b 3e d7 06 60 3d d5 05 f1 bd
       0.20012408 0.16741896 0.054694023 -0.117686905
0001f0 99 05 a3 3d 1d f3 17 3e ed e3 af bd 61 c1 7b 3d
       0.07960052 0.14838834 -0.08588395 0.061463717
000200 0e 10 38 3e 55 fa a2 bd 30 43 37 be ef 71 03 3c
       0.17974874 -0.07957903 -0.17896724 0.008022769
000210 8b df 97 bc f1 12 94 3d 38 bb d4 3d 99 d6 e3 3c
       -0.01853921 0.07230175 0.10387272 0.02781229
000220 15 23 90 bd 0f a4 d4 3b 55 96 fb 3d 40 17 00 be
       -0.07037941 0.006489284 0.12284533 -0.12508869
000230 8e ca 87 3d a8 b4 14 be ab 43 13 be 23 16 41 be
       0.06630431 -0.1452204 -0.14381282 -0.188561
000240 41 c1 09 3d 16 1a 42 be 38 d7 ea 3b f6 0e 50 bc
       0.033631567 -0.18955263 0.0071667694 -0.012698879
000250 2a 69 c7 bc f6 98 eb bd 81 d8 77 3d 6e 9b b0 3c
       -0.024342138 -0.11503784 0.06050921 0.02155849
000260 26 64 a8 3d 6f 33 5a 3d 56 74 b7 3d 54 cb 1e 3d
       0.08222227 0.053271707 0.08957736 0.038768128
000270 f9 a6 2f be 28 98 04 3e ce 57 cf bd b0 23 c5 bd
       -0.17153539 0.12948668 -0.10124169 -0.096259475
000280 cd 61 57 3d 55 0f 0d bd 13 c4 47 3e f7 22 b6 3d
       0.052583504 -0.03443845 0.1950839 0.08893388
000290 0b e1 7e bd 4b 62 28 3e 08 32 b8 bc e6 0d f4 3c
       -0.062226336 0.16443746 -0.022484794 0.029791784
0002a0 10 f9 7c bc 46 0f 0f 3e b9 59 64 bb 15 cb 5a 3e
       -0.0154402405 0.1397067 -0.0034843518 0.21366532
0002b0 b0 c9 a6 bd ce 9e c8 3d 14 e8 15 3e 9f 71 57 3e
       -0.081439376 0.097959146 0.14639312 0.21039437
0002c0 cf 64 9f 3d b3 e0 08 bc c2 44 79 bd 5b b6 cd bd
       0.077828996 -0.008354354 -0.06085659 -0.10044547
0002d0 26 76 95 bc af 33 eb 3c fb 00 7d bd 3e 91 2f be
       -0.018244814 0.028711168 -0.061768513 -0.17145249
0002e0 cc f6 29 be af eb 25 3e 6d fd d1 3d 9a 22 3b be
       -0.16598052 0.16203187 0.10253415 -0.18274918
0002f0 74 3a 51 3d 78 49 3f 3e b2 17 d0 3d 3b bb 8b bd
       0.051081136 0.1868037 0.101607695 -0.06822821
000300 7f 5f 0c 3e ad ac dc bd 26 8f 9d 3c 22 5e 11 3e
       0.13708304 -0.10775123 0.019233298 0.14196065
000310 bd e0 96 3d d1 bf 10 bd e6 91 f5 3c 5a 22 61 3d
       0.07367084 -0.03533918 0.029976796 0.0549644
000320 dd 2a 39 3d ec a7 25 be f1 c7 0d be 42 21 cf bd
       0.045206893 -0.16177338 -0.13845803 -0.10113765
000330 a8 4d 17 3d 39 b8 1d bd da 0c 89 3c 8d 2e 36 bc
       0.036939293 -0.038505767 0.01672976 -0.011119497
000340 e5 7d 01 be fb 2d 23 3e aa 9b 2c 3c 21 43 69 bd
       -0.12645681 0.15935509 0.01053516 -0.056948785
000350 69 37 ee bc 03 74 a9 3d 26 86 5e 3c 36 00 0e 3e
       -0.029079156 0.082740806 0.013581788 0.13867268
000360 e4 de 2b 3d e7 f3 8b bd 0d 3b 0a be f2 c8 19 3d
       0.041960612 -0.0683363 -0.13499089 0.037545152
000370 83 b9 13 be 8d 1a 18 be 46 08 21 be b0 3d 05 3e
       -0.14426236 -0.14853878 -0.15725812 0.13011813
000380 e1 91 93 bb 96 c0 bf bd fc d1 0c be 55 96 3c bb
       -0.004503474 -0.09362905 -0.13751978 -0.0028776128
000390 47 91 d1 bd 0f dc 44 3e 44 a2 01 be 41 f9 53 3d
       -0.102327876 0.1922457 -0.12659556 0.05175138
0003a0 b9 5e 28 be 91 c0 42 be 1d d4 48 3e 30 72 2e 3d
       -0.16442384 -0.19018771 0.19612165 0.042589366
0003b0 07 62 2e 3d a1 70 31 be 14 b3 16 bc a0 ea b3 3d
       0.042573955 -0.17328121 -0.009197969 0.087849855
0003c0 dc eb 12 3c 9a 20 2c 3e c5 c8 93 bd f0 22 c8 bd
       0.008967366 0.16809312 -0.07216028 -0.09772289
0003d0 eb 06 2f 3e 20 ee 13 bc fa cb bf 3d 36 6d 1c 3e
       0.17092483 -0.009028941 0.09365077 0.15276036
0003e0 e5 17 be bd 05 20 80 3d 49 ae 7e bc d4 5b d0 3d
       -0.09281901 0.06256107 -0.0155444825 0.10173765
0003f0 fe 1a 4a be 3c 7e 9f bb 63 e7 6e bc 86 ea 31 be
       -0.19736859 -0.004867343 -0.014581534 -0.1737462

layer1.0.bias f4 [16]
000000 d1 c2 8b bd ba 85 16 3e 3e 39 df 3c 71 de 39 3e
       -0.06824268 0.1469945 0.027248975 0.18151261
000010 c2 a8 fc 3d bb e2 8f 3d f9 14 38 3e 19 cf 00 be
       0.123368755 0.07025667 0.1797675 -0.12579001
000020 9e e6 87 3c 48 a2 38 3d e3 d0 de 3d 60 a4 be bd
       0.016589459 0.04507664 0.10879686 -0.09308696
000030 85 ff e5 bd d5 ca 2f be 4e db 7d 3d 07 77 cd 3d
       -0.11230377 -0.17167218 0.061976723 0.10032468

layer1.1.weight f4 [16]
000000 4c 31 7e 3f 18 b0 7d 3f 90 e0 86 3f 2f d7 73 3f
       0.9929397 0.9909682 1.0537281 0.9525022
000010 35 3c 82 3f 49 ca 83 3f 50 e5 75 3f de 29 7e 3f
       1.0174624 1.0296108 0.9605303 0.99282634
000020 de 7d 80 3f 16 de 78 3f 4a 62 7f 3f 14 3e 7a 3f
       1.0038412 0.97213876 0.9975935 0.97750974
000030 17 ab 81 3f f0 1f 7d 3f 41 bd 7d 3f 90 58 7f 3f
       1.0130337 0.9887686 0.99116904 0.9974451

layer1.1.bias f4 [16]
000000 96 56 13 bd 64 21 d4 3a e0 c7 f2 bb f0 f9 88 bd
       -0.035971247 0.0016184268 -0.007409081 -0.06688297
000010 78 7a 94 bc f1 c6 b9 3b e1 6f 6b bc f4 48 53 bc
       -0.018124804 0.0056694676 -0.014369936 -0.012895811
000020 78 e1 1f bd b7 eb ba ba 6d 6c 76 bc d0 81 44 bd
       -0.039033383 -0.0014260922 -0.015040499 -0.04797536
000030 72 2c 7a bc 46 5c 3a 3c 8c 57 b8 bc bd 42 c8 3c
       -0.015269386 0.011374539 -0.022502683 0.024445886

layer1.1.running_mean f4 [16]
000000 2b 22 3f be ad ca 3b 3d 30 84 a1 3c 57 8e 37 3f
       -0.18665378 0.045847584 0.019716352 0.7170157
000010 9b 79 9c 3e dd ea 84 be b4 07 1e 3f ec b3 bd 3d
       0.30561528 -0.25960436 0.61730504 0.09262833
000020 ca ef cd be 80 f8 55 be 8b 93 ee 3e e5 44 e2 be
       -0.40222007 -0.20895576 0.4659694 -0.44193187
000030 73 04 d6 be 94 dc 0f be a3 25 0e 3e 38 f9 d8 3d
       -0.4180027 -0.14048988 0.13881545 0.1059441

layer1.1.running_var f4 [16]
000000 ac f5 a2 3b ac 25 76 3c bc d4 c3 3a e5 f1 85 3d
       0.004973134 0.01502363 0.0014940719 0.06540278
000010 59 ac 2a 3c 94 07 c9 3c c0 cc 25 3d e3 bc 51 3c
       0.010417067 0.024539746 0.040478468 0.012801382
000020 28 c0 15 3d 13 17 d0 3c 8f a2 f9 3c 09 8f 0b 3d
       0.036560208 0.025401628 0.030473022 0.034071956
000030 ae d0 3a 3d ac 81 01 3c 9a b9 d8 3b 05 6e bc 3a
       0.04560917 0.007904451 0.0066139223 0.001437605

layer2.0.weight f4 [32, 16, 3, 3]
000000 27 a3 c8 bc 05 14 2b 3d 1e 32 3e 3d 23 a2 d3 3c
       -0.02449186 0.04176714 0.046434514 0.025834149
000010 7d d6 34 3c c1 b4 2f 3d 5a 03 6d bc 30 1f 75 bc
       0.011037466 0.04289699 -0.014466131 -0.014961049
000020 9a 87 3a 3d 94 55 09 3d 68 8f 33 3d 99 91 ec 3d
       0.045539476 0.03352888 0.043837935 0.11551208
000030 05 ef ed 3c d9 5b a9 bc a8 01 c1 3d 4c 09 65 bd
       0.029044637 -0.02067368 0.09424144 -0.05591707
000040 eb 52 2a bd a3 a0 21 bd 09 fc bb 3c 16 f2 64 bc
       -0.041582983 -0.039459836 0.022947328 -0.013973733
000050 87 8f 3d bd 0b 9c b9 3d 4d 7b 80 bd 6a a0 e5 3c
       -0.046279456 0.09062966 -0.06273518 0.028030593
000060 5c da 84 3d 82 5d 6f bd 84 1d 0c bd b6 a6 47 3c
       0.06486961 -0.058438785 -0.034207836 0.012185743
000070 4d e9 8b 3d 14 95 80 bd e8 bf 20 bd 48 16 9e bd
       0.06831608 -0.062784344 -0.039245516 -0.077190936
000080 de 3e e0 bb af f6 bf bc 57 21 95 bd be ad 16 3d
       -0.006843432 -0.023433058 -0.0728175 0.036786787
000090 8c 14 1e 3c e3 cb 01 3d 42 e3 47 bd b4 1f a9 bc
       0.009648453 0.031688582 -0.048800714 -0.020645
0000a0 47 13 99 bd ab 45 a2 3a 71 2a 28 3d 7d 81 82 3d
       -0.0747438 0.0012380382 0.0410561 0.06372354
0000b0 df fa 9e 3d 86 59 d9 bb dd 82 3d 3a 38 98 9d 3d
       0.077626936 -0.0066329865 0.0007229278 0.07695049
0000c0 ff 92 04 3d 66 be c7 3d cc 59 ec 3d 59 ad 9d bd
       0.03236675 0.097531125 0.11540565 -0.07699079
0000d0 77 d3 bf 3a c7 9c e3 3d 89 95 57 bd cf cf 7d 39
       0.0014635165 0.11113887 -0.052632842 0.00024205375
0000e0 3f 01 67 3d e6 28 3e bc ea b6 03 bd 77 8f 57 3b
       0.056397673 -0.011606431 -0.032156862 0.0032891908
0000f0 59 eb 6b 3d 07 45 9e bc e7 1f 08 bd bf cd de 3c
       0.057597492 -0.019320024 -0.03323355 0.027197717
000100 93 c0 94 3c f8 e1 4b bc 29 12 b7 3d d6 9c 7d 3c
       0.018158233 -0.012444012 0.08939011 0.015479287
000110 a7 9b 85 bd 0a 47 22 bd 32 3c 8d bb f6 b4 88 3d
       -0.06523829 -0.03961853 -0.0043101544 0.066751406
000120 13 64 cc 3b b8 d2 bf 3d 73 57 90 3d a8 a5 3d 3d
       0.0062375157 0.09366363 0.070479296 0.04630056
000130 b4 2d 25 bd 86 b5 3c bc 04 b9 3f 3d e9 b6 67 3c
       -0.04032679 -0.011517888 0.046807304 0.01414273
000140 b9 c1 45 3c 74 e6 91 bd eb 4e 85 bd 83 f4 9c bc
       0.012070113 -0.071240336 -0.06509193 -0.019159561
000150 ef 2f 1f 3c 8a c7 7f bd 6a f9 99 bc 13 ae 93 3d
       0.009716018 -0.062446155 -0.018795688 0.072109364
000160 75 0d 16 bd bf 68 05 bc c2 0b 32 bd 28 3a 95 3d
       -0.036633927 -0.008142649 -0.043468244 0.07286483
000170 e6 ca 52 3d e9 6f ae 3d b4 75 2f 3c de 71 16 bd
       0.05146303 0.08517439 0.010709215 -0.036729686
000180 78 5e 1d 3d e2 af 43 3d 90 de 86 bd 65 9c 5d bd
       0.03842017 0.047775157 -0.06585419 -0.054104228
000190 c2 6f 58 3d ef eb ec 3c 03 6e 08 bd b3 8d c9 3d
       0.052840956 0.028921096 -0.03330804 0.0984148
0001a0 fd 5b 5e bc 42 db 99 3d 29 17 87 bc 61 c2 b0 3b
       -0.013571736 0.07512523 -0.016490536 0.0053942655
0001b0 f1 3f b3 bc 53 82 b4 3d 58 8e e0 3c 35 9e 8d 3d
       -0.021881076 0.0881392 0.027411625 0.06914941
0001c0 ed 3e 38 3d 0f 41 f5 bc 3d b5 ba bd 50 50 76 bc
       0.044981886 -0.029938249 -0.091166 -0.015033796
0001d0 32 b4 b1 3d be e2 8f 3c 16 ea dd bb ab a7 8b bd
       0.08676948 0.017564174 -0.00677229 -0.068190895
0001e0 ef c7 8c 3d e9 da 28 3d dc 54 65 3d 2b b7 68 bd
       0.06874072 0.041224394 0.05598913 -0.056815308
0001f0 2b a5 6a 3b 7f e8 2b bd d7 61 3d 3d 29 9a 8f bd
       0.0035804014 -0.041969772 0.046235885 -0.070118256
000200 fb 3b 70 bd 3c 3a 95 3d ba 7a 94 bd 9e d3 25 bd
       -0.05865095 0.07286498 -0.07249971 -0.040485017
000210 b1 4d 88 3d f8 ed 72 3d a9 63 89 bb ae 6b 80 3d
       0.066554435 0.059308976 -0.0041927886 0.06270538
000220 ce d6 3b ba e8 72 23 3d 28 f5 13 3d f5 71 5b bd
       -0.0007165492 0.039904505 0.03612247 -0.053575475
000230 c5 9f 30 bd 34 3f 47 3c 28 e0 99 bd 65 72 d2 3c
       -0.043121118 0.012161065 -0.075134575 0.025689313
000240 58 1d d4 3b 30 e7 8c bd 6f a5 b6 3c 8b 86 6a 3c
       0.0064732246 -0.06880033 0.022295682 0.014314304
000250 db a1 e3 3c 01 57 9c bd f6 ff c9 3c 0b 2e 68 3c
       0.02778714 -0.07633782 0.024658184 0.014171134
000260 e5 be 40 bd 27 25 8d 3c 37 73 f9 bc 11 92 42 3d
       -0.04705705 0.01722963 -0.030450447 0.04750258
000270 8b fe b5 bd 12 26 09 bd be 31 a2 3d 9b 7c a6 bd
       -0.08886441 -0.033483572 0.07919644 -0.08129235
000280 39 4c 13 bd 4e 29 6a 3c 48 93 bc bd e5 58 41 bc
       -0.035961363 0.014292074 -0.09207779 -0.011800979
000290 b6 5b ee bc 2a f6 dc bd e8 14 f7 3b fd 57 0e be
       -0.029096466 -0.107891396 0.007540334 -0.13900752
0002a0 f7 2f cb bc eb 62 5b bd 0b 66 06 be f3 ab d6 bd
       -0.024803145 -0.053561132 -0.13124864 -0.104820155
0002b0 5b 5c 46 bc d4 2b fc 3c 69 c0 a6 bd 13 05 24 bd
       -0.01210698 0.030782618 -0.08142168 -0.0400439
0002c0 aa 43 54 3d 1e e4 8d 3c 47 50 21 bd 18 47 12 3b
       0.051822342 0.017320689 -0.0393832 0.0022320207
0002d0 db dd 1d bd db 40 d8 bd de 22 b5 bd 33 42 ce bd
       -0.038541656 -0.10559245 -0.08844541 -0.1007122
0002e0 b4 c8 81 bd ce a8 2b bb d4 20 d0 bc 74 af 15 bd
       -0.06337109 -0.0026193145 -0.025406279 -0.03654428
0002f0 0a 57 0c 3c 33 80 b1 bd 0a d3 bc 3c fa ba b0 bc
       0.008565674 -0.0866703 0.02304985 -0.021573532
000300 9f 12 fa 3c 78 61 9d 3d a1 3d 48 3d 1b e1 c0 bd
       0.030526457 0.07684606 0.0488869 -0.094179355
000310 70 96 a0 3d 5d 83 4f 3c a9 ea 51 bd 35 c0 0c 3d
       0.07841194 0.012665597 -0.05124918 0.03436299
000320 05 88 98 bc da 3c 93 3d 1a 51 07 bd 1b a9 30 3d
       -0.018619547 0.07189341 -0.03303633 0.04313002
000330 30 8d a3 3c 0a 4c 62 bd 22 d7 32 bd 08 c3 26 3c
       0.019964784 -0.055248298 -0.043662198 0.010178335
000340 c2 8b c0 3c 57 fe 95 bd 5c 15 71 3d f0 e6 82 bd
       0.023504142 -0.07323902 0.05885826 -0.06391704
000350 28 a5 d7 bd 5e 3b 35 bc b0 11 27 bd cc c0 38 3d
       -0.10529548 -0.0110615175 -0.040788352 0.04510574
000360 48 f2 b5 bd c3 53 68 bd 66 1f 7a 3d 35 21 a4 3c
       -0.08884102 -0.056720506 0.0610651 0.020035366
000370 09 2a bd bc 82 a6 67 3c 44 6c c0 bd 47 2c 4b 3c
       -0.023091333 0.01413882 -0.0939565 0.012400693
000380 cd f6 5f bd e4 8c 94 bd 17 79 4b 3d 6d 2b 62 3d
       -0.054678727 -0.07253435 0.049676027 0.055217195
000390 c3 92 96 3c 7f bb cd bd 26 8b 85 3d 9a e9 b4 3b
       0.018380528 -0.10045528 0.06520681 0.0055210115
0003a0 10 b5 09 bd 88 64 3a 3b f4 9b 80 bd 5e c4 87 bd
       -0.03361994 0.002844127 -0.06279746 -0.06629251
0003b0 95 0c f0 3c ab a3 38 3c 98 60 69 3d 1b 70 47 bd
       0.029302875 0.01126949 0.056976885 -0.048690896
0003c0 b7 75 ee 3c f4 1c 7c bd 6c a9 29 bd 19 13 97 bd
       0.029108865 -0.06155105 -0.04142134 -0.073766895
0003d0 6e 33 47 3c ef 8d b8 3c e2 46 c7 bd ed ed 2d bc
       0.012158258 0.022528617 -0.09730317 -0.010615808
0003e0 31 00 c8 3d 85 72 7c bd e0 18 8e 3d 1e 09 c5 3d
       0.097656615 -0.06163265 0.06938338 0.096208796
0003f0 73 2b 71 bc 41 34 d7 bc d1 8e 40 3d 1b 8f 0b bd
       -0.014719832 -0.026270034 0.0470112 -0.034072023

layer2.0.bias f4 [32]
000000 0b b2 ba 3c 31 61 6e 3b 13 ab 27 3d 49 4d b3 bd
       0.022789976 0.0036373849 0.040934633 -0.08754975
000010 59 91 f2 3c d2 93 45 3d a0 12 9e 3c 9d 2f 5c bd
       0.029610323 0.048236676 0.01929599 -0.053756345
000020 4e 92 26 bd 4d 02 17 3d d0 61 a2 3c 4d 35 a3 bc
       -0.04066687 0.03686743 0.019822031 -0.019922877
000030 25 33 ad ba 70 3b 90 3d b6 4e 0f bd af 8c 3c bd
       -0.0013214095 0.07042587 -0.034987174 -0.046032604
000040 c5 e3 9a 3d 55 43 f9 3b 43 dc 72 bd 55 5a 6b 3d
       0.07562975 0.0076069036 -0.05929209 0.057459194
000050 46 91 de bc d9 a2 38 3d 04 67 5c 3c e9 c0 e7 3b
       -0.027168881 0.04507718 0.013452295 0.007072557
000060 54 87 9f 3d cb 10 94 3d 1e 8f 50 bd 2a ea fd 3c
       0.07789484 0.072297655 -0.050917737 0.030995447
000070 fc 9a fd 3c 4a c2 5e bc dc ec 08 bd c0 19 5f 3b
       0.030957691 -0.013596127 -0.03342901 0.0034042448

layer2.1.weight f4 [32]
000000 aa 54 80 3f 42 57 81 3f 62 65 82 3f e2 96 81 3f
       1.0025837 1.0104754 1.018719 1.0124171
000010 80 97 80 3f e8 99 80 3f b0 23 7d 3f 67 75 78 3f
       1.0046234 1.0046968 0.9888258 0.9705414
000020 1c 79 7e 3f 8f 43 7b 3f 45 f2 7b 3f 78 97 7d 3f
       0.9940355 0.9814996 0.9841655 0.9905925
000030 d9 34 80 3f eb 8c 7a 3f c4 4d 82 3f b0 4e 79 3f
       1.0016128 0.97871274 1.0179982 0.9738569
000040 cb 43 80 3f a1 d7 78 3f 8b 5f 82 3f 34 9a 82 3f
       1.0020689 0.97204024 1.0185407 1.0203309
000050 9f f0 79 3f d8 8e 7c 3f 3d af 82 3f 73 18 7d 3f
       0.97632784 0.9865546 1.0209728 0.9886543
000060 b2 0a 81 3f 21 ec 80 3f 3c 93 81 3f e5 41 80 3f
       1.0081389 1.0072061 1.0123057 1.002011
000070 53 9c 81 3f 58 e4 7f 3f 7b 4c 80 3f 64 8d 82 3f
       1.0125831 0.999578 1.002334 1.0199399

layer2.1.bias f4 [32]
000000 ea c6 b6 bc 3f e5 0d bc ef 65 3f bd 03 00 55 bc
       -0.022311646 -0.008660614 -0.04672807 -0.013000491
000010 ba 19 56 3a 11 f6 49 3b 0a 99 c5 bb 62 3e 17 bd
       0.00081672857 0.0030816833 -0.0060302066 -0.036924727
000020 2c 63 9d 3c 4b b9 d5 3b 81 9c c1 bd f0 bc 73 3b
       0.019212328 0.006522333 -0.09453679 0.0037191473
000030 2b 9d d2 bd 88 9d 39 bd 63 9c c5 bc bf e6 30 bd
       -0.10283884 -0.04531625 -0.024122423 -0.043188807
000040 9f ad 31 bd d6 9e fe bc f3 14 ea 3b 9b 9a ec 37
       -0.04337847 -0.031081598 0.0071436106 2.8205386e-05
000050 06 6b 6e bd b2 50 91 bd 72 1d ba bc e4 52 1b bd
       -0.058207534 -0.070954695 -0.022719119 -0.037920848
000060 dc a1 98 3c 25 2b 1c bd 4b 37 15 3c 8e 76 3a bb
       0.018631868 -0.038127083 0.009107421 -0.0028452012
000070 c6 41 0c 3b 50 63 5c bd e1 8c 4f bb 74 48 90 3a
       0.0021401509 -0.05380565 -0.0031669664 0.0011007921

layer2.1.running_mean f4 [32]
000000 d6 0c 15 3f 6a 9a 7f bf 6a 87 06 3f 1d 1d 56 be
       0.5822271 -0.9984499 0.52550375 -0.20909543
000010 0d af 54 be bd ff 61 be da 21 85 bf e0 9c 1c be
       -0.20769902 -0.22070213 -1.0400956 -0.15294218
000020 e1 fa d8 be 69 20 d6 bd 7b 1e 16 3f c6 8c 26 bf
       -0.42378905 -0.104554005 0.5864026 -0.65058553
000030 02 d8 00 3f d0 fc c7 be a8 f7 05 bf 02 ed 34 bf
       0.503296 -0.39060068 -0.5233102 -0.70674145
000040 0a 5e db 3e 5b 2a da b9 1b b2 30 bf b5 db 11 3f
       0.42845184 -0.00041611757 -0.6902177 0.5697587
000050 8a a8 dd 3d e6 40 a0 3f 30 55 ab be 52 80 03 bf
       0.10823162 1.2519805 -0.3346343 -0.51367676
000060 d1 c8 8b be 98 2c 7d 3f c1 58 58 bf b2 9e cd 3d
       -0.27301648 0.9889617 -0.8451043 0.10040034
000070 be 70 5d bf 91 b5 11 3f 80 be cc be bc 35 fe be
       -0.86500156 0.56917673 -0.3998909 -0.4965037

layer2.1.running_var f4 [32]
000000 2d 83 78 3e 77 9c c5 3e c6 5c 41 3f 88 d6 57 3e
       0.2426879 0.38595936 0.75532186 0.21077931
000010 5d 7b 70 3e db 0a 9b 3e 2c e5 c0 3e e4 a8 8a 3e
       0.2348456 0.3028172 0.37674844 0.27081978
000020 bd a6 72 3e 1b 5f 67 3e 8a 3f 57 3e 48 e5 18 3f
       0.23696418 0.22594874 0.21020332 0.59724855
000030 0f 3e a4 3e 97 eb 64 3e 87 08 1f 3e fb 26 c9 3e
       0.32078597 0.22355495 0.15530597 0.39287552
000040 da 97 5c 3e 96 e6 7f 3e a6 c7 4a 3e 51 ca 2a 3e
       0.21542302 0.24990305 0.19802722 0.1667874
000050 07 bb b0 3e 45 98 c7 3e 55 c4 35 3e ec c4 a1 3e
       0.3451769 0.3898336 0.17750676 0.31595552
000060 06 1b aa 3e af d2 10 3f e3 c2 80 3e 0f 43 b9 3e
       0.33223742 0.5657148 0.25148687 0.36183974
000070 2a 7d c4 3e c7 db b6 3e 78 f8 af 3e 0e c7 64 3e
       0.38376743 0.35714552 0.34369254 0.22341558

layer3.0.weight f4 [64, 32, 3, 3]
000000 a9 9f a0 3d 13 eb 4d 3d 54 b7 97 3d d1 80 37 bc
       0.07842953 0.050273012 0.07408014 -0.011200146
000010 ff c0 94 3b 25 d0 ae bc bb e4 fc bc c9 8c 3d 3d
       0.0045396085 -0.021339485 -0.030870786 0.04627684
000020 c4 19 14 bb 5e 64 c1 3c 37 fd e2 bb 3f 8d 29 3c
       -0.0022598365 0.02360743 -0.006927158 0.010348617
000030 aa 85 31 3d a9 e1 26 3d 43 cd 24 bd 8b e2 4e 3d
       0.043340363 0.04074255 -0.040234815 0.050509017
000040 da ce 0a 3c cb b7 6c 3c 5e fe e4 bb 9a 71 b2 bc
       0.008472169 0.0144481165 -0.0069883307 -0.021782685
000050 b2 3a 89 3d d7 11 bc 3d cc e1 cf 3b f4 d8 3c bc
       0.06700648 0.0918309 0.0063440558 -0.011526335
000060 01 6b ad 3d 57 5e 0f 3d d7 7a 04 bd bf 29 09 bd
       0.08467675 0.03500208 -0.03234371 -0.033487078
000070 5c 9a 6c 3b e8 b6 17 bc e3 da 80 bd bd 1b 57 bd
       0.0036102748 -0.009259917 -0.06291749 -0.052516688
000080 ba 2c 98 bd 1a 49 38 bd ff f3 ee 3c 69 91 83 bb
       -0.07430406 -0.04499159 0.02916908 -0.004015137
000090 84 4a 7e 3c 86 c3 4e 3d 72 ab 5d 3d 2b 2d b3 3c
       0.015520696 0.050479434 0.05411858 0.021872124
0000a0 06 ea 23 bd c4 dc e6 3c 3a e8 85 bd e6 15 8e 3c
       -0.040018104 0.028181441 -0.06538434 0.017344426
0000b0 60 94 23 3d 46 63 a8 bd 60 74 64 bd cf 8c 98 b9
       0.039936423 -0.0822206 -0.055775046 -0.0002909661
0000c0 fb 2f 92 bd 17 cb be bc ae c5 5a bb 22 2c d4 bc
       -0.07138058 -0.0232902 -0.0033381986 -0.02589995
0000d0 4c 0a 51 bc 84 73 5c bd 77 05 df bc d9 0e b7 bc
       -0.012758803 -0.0538211 -0.027224286 -0.022345947
0000e0 31 68 a1 3d ee fa b7 bb b3 e4 3c bd c5 4f 83 3d
       0.07881201 -0.00561463 -0.046116542 0.06411699
0000f0 ba f7 39 3d 27 95 84 bc 36 9e 35 3d c5 c2 8b bd
       0.045402266 -0.016184403 0.044340335 -0.06824259
000100 48 95 e4 3c 1c b6 64 3d 19 00 8c bd 5d ce 50 3b
       0.027903214 0.055837736 -0.06835956 0.0031861283
000110 46 63 e8 3c 2d e0 14 bd 82 da 35 3d 37 cd 35 bd
       0.02836765 -0.036346603 0.04439784 -0.04438516
000120 eb ca 4c bd b0 da 95 3c 39 af 01 3d 11 75 22 bd
       -0.049998205 0.018292755 0.031661246 -0.039662424
000130 31 b9 4b bd 36 08 ff 3c b9 60 af 3d 0b b3 0e bc
       -0.04973716 0.031131845 0.0856337 -0.008709679
000140 9d 22 83 3c e9 41 52 bd f4 f7 19 ba e0 54 2d bd
       0.016007716 -0.051332388 -0.0005873435 -0.04231727
000150 26 b1 48 3c 98 bf 86 3c 81 5e 81 ba 52 bf ef bc
       0.012249267 0.01644878 -0.0009870083 -0.029266033
000160 5d e4 be 3c 74 59 00 bd a3 c3 19 bd 68 0a 0a 3d
       0.023302251 -0.03133531 -0.03754009 0.03370133
000170 ed 92 9c bc 44 8e c0 bb c1 63 a8 ba dc c4 37 3a
       -0.019113028 -0.0058763344 -0.0012847112 0.00070102303
000180 f5 08 95 bd c8 11 99 3d d6 21 f2 3c 06 98 15 bd
       -0.07277099 0.07474095 0.02955715 -0.036521934
000190 ed 79 3a 3d 8b 39 48 bd 97 b2 09 bb 50 15 0b 3d
       0.045526434 -0.048883002 -0.002101099 0.033955872
0001a0 73 ff db 3c 30 cf 46 3c 56 53 a5 bc ca df 76 bd
       0.026855206 0.012134358 -0.02018134 -0.060272016
0001b0 2d fa 8b bb fd 0d 8a 3d 12 51 26 bd 1f 71 94 bd
       -0.0042717666 0.06740949 -0.04060466 -0.07248139
0001c0 4e 6c 5d 3d bf 49 18 3d 1c ec 0d bd c3 bf 82 bc
       0.054058366 0.037179705 -0.034649 -0.01596058
0001d0 42 14 1b bb c5 42 91 bc e3 a7 09 bc fe f3 25 bc
       -0.0023663198 -0.017732034 -0.008401844 -0.010128973
0001e0 07 1a 40 bc 4b a5 21 bd 45 69 2a bc ec 0c d4 3c
       -0.011724955 -0.039464276 -0.010401075 0.025885068
0001f0 91 d5 8a 3b e8 9f f3 bc 9d 5b 9a 3c 65 57 2a bd
       0.004236885 -0.029739335 0.018842513 -0.041587252
000200 5c 4e a1 bd e6 ee 32 bc 3f ee 3e bb 2c bf f9 3c
       -0.07876274 -0.010921216 -0.0029133705 0.030486666
000210 bf 82 51 3d 18 ae e7 3b f6 e6 84 bd 3c 8e 04 bd
       0.05115008 0.007070314 -0.06489365 -0.032362208
000220 00 c9 02 3c c6 b3 d0 3c ca a6 10 3d a2 4f fe 3b
       0.007982492 0.025476348 0.035315312 0.007760958
000230 ca 13 a6 bc f0 85 99 bb 68 cd 60 bd c3 2d ac bc
       -0.020273108 -0.004685156 -0.05488339 -0.021017915
000240 61 06 08 bc 3c bc 68 bc c3 d0 61 3b 3d 6a 60 bd
       -0.008302302 -0.014205035 0.0034456707 -0.054788817
000250 c0 5f fd bb 16 df 81 bc a4 60 77 bd 93 e1 24 3b
       -0.0077323616 -0.015853446 -0.060394898 0.0025158867
000260 99 e4 37 3c 4e 0c 98 3b 50 cf 4f bd 7d a6 76 3d
       0.0112239355 0.0046401387 -0.050734818 0.06021737
000270 96 d2 c1 bc 86 e4 41 3d 2c 58 1f bd c3 49 3a 3a
       -0.023659986 0.047337078 -0.038902447 0.0007106328
000280 fd eb f8 bb 6b 80 ed 3c d2 83 ee bc 8b 14 12 3d
       -0.0075964914 0.028991899 -0.029115591 0.035664123
000290 6f 7a 80 bd ac 37 44 3c a0 f5 27 bd 2e c8 3c 3c
       -0.06273352 0.011976164 -0.04100573 0.011522336
0002a0 74 29 93 bc 09 35 ac bc d6 0e 5e bd 7f 70 af 3d
       -0.017964102 -0.021021383 -0.054213367 0.08566379
0002b0 57 19 94 3d e1 ac 27 bc 72 6b 9e 3d 4f 26 fd 3c
       0.07231396 -0.010234089 0.07735337 0.030902056
0002c0 32 c5 d9 bc 1d fe 52 3d bc 5c 19 bd ad 9b 56 3d
       -0.026583288 0.051511873 -0.037441954 0.052394558
0002d0 11 83 3e 3d 8c 87 f4 bc 79 d1 bb 3b 14 c1 33 bb
       0.046511713 -0.02984979 0.005731758 -0.0027428316
0002e0 2d 3b 30 3d 77 cb 28 bd d8 28 1c bd 72 4f bc bc
       0.043025184 -0.041209664 -0.03812489 -0.022987101
0002f0 8b a7 87 3c 02 ca 0d 3d e2 08 b0 3c fe 37 96 3d
       0.016559383 0.034616478 0.02148861 0.073348984
000300 0c 32 b9 3b 4a 0b 7e 3a e9 7c e7 bc 93 67 03 bd
       0.005651718 0.0009691013 -0.028257804 -0.032081198
000310 2d 7d ff 3c a9 4a fa 3a e9 8c fc bc d2 5e ce bc
       0.031187618 0.0019095737 -0.03082891 -0.025191698
000320 a3 78 5f bd 8d c9 27 bd 76 6b 65 bc 49 21 19 bd
       -0.054558408 -0.0409637 -0.014002671 -0.03738526
000330 40 f8 07 bc 79 73 85 3d 71 bc 05 3d dc 20 83 3d
       -0.0082989335 0.06516165 0.032650415 0.06402752
000340 91 61 30 3d 63 eb bb bc 89 c9 52 3d 95 08 b8 3c
       0.043061797 -0.02293939 0.05146173 0.02246503
000350 d6 6d 1d 3d 2a b8 5e bc 7f 0d 78 3d 29 94 35 bb
       0.038434826 -0.013593713 0.060559746 -0.0027706719
000360 27 2e 4a b9 aa 37 29 bd 9a 59 7b bb 05 8a 90 bd
       -0.00019281414 -0.04131285 -0.0038352967 -0.07057575
000370 56 41 84 3c e8 7f 06 bd bb 51 d1 bc 53 b2 47 bd
       0.016144436 -0.032836825 -0.025551667 -0.048754048
000380 90 89 54 3b 2e 1f d0 bc 16 75 a5 3c 94 bc 8f 3b
       0.0032430626 -0.025405493 0.020197432 0.004386494
000390 1d b3 04 bd 39 a7 f9 ba da 27 54 3d dd b9 45 3d
       -0.03239738 -0.0019047029 0.051795818 0.048272956
0003a0 4e de 0c 3d c1 dc 1d 3d c8 53 95 3c 3e 4b c8 3c
       0.034391694 0.038540605 0.018228427 0.02444994
0003b0 0c 75 0d bd 7d ef 60 bb 7f e4 01 3d 70 48 a1 bb
       -0.034535453 -0.0034322434 0.03171205 -0.0049219653
0003c0 a1 9d f9 3b af c3 13 3c ba 21 3a bd e4 b6 16 38
       0.007617668 0.009018823 -0.04544232 3.5933117e-05
0003d0 74 29 1a bd c8 52 2b bc 5f a2 32 3d 8b 24 0d 3d
       -0.03763719 -0.010456748 0.04361188 0.03445868
0003e0 fc 2b 32 bd 19 b9 28 bd 09 9e 15 3d 89 a8 44 3d
       -0.043498978 -0.041192148 0.036527667 0.04801229
0003f0 da e6 50 3c f8 00 25 bd eb e6 80 bd 14 be 93 3d
       0.012750352 -0.040284127 -0.06294044 0.07213989

layer3.0.bias f4 [64]
000000 31 57 9e 3b 21 26 2e bd 4a c4 41 3c aa 84 0e bd
       0.0048321714 -0.04251683 0.011826584 -0.034794487
000010 43 d3 3a ba 7d 54 51 bd c5 90 4e 3c 26 af 02 3d
       -0.00071268174 -0.051105965 0.012607758 0.031905316
000020 97 c3 29 bd dd 20 dc 3c 77 b4 ba 3c 10 9b 84 ba
       -0.041446295 0.02687114 0.02279113 -0.0010117013
000030 b1 f6 43 3b df 60 35 bd b9 f8 5f 3d fa 96 ed 3c
       0.0029901678 -0.044281837 0.05468056 0.029002655
000040 2b 78 23 bd 78 e8 79 bd 1d 15 52 3d 6d 7a d3 3b
       -0.039909523 -0.061012715 0.051289666 0.0064538033
000050 dd 86 61 bc 25 b2 2f bd 42 6e 31 bd dd 87 a1 bc
       -0.013765064 -0.0428945 -0.04331804 -0.019718105
000060 4d 51 14 3d fc 06 ac bb d2 89 ff bc b0 24 82 bc
       0.036210347 -0.005249856 -0.031193648 -0.015886635
000070 6b cf 29 bd 8b ed 68 3d d0 86 50 bd 0c 90 24 bd
       -0.041457575 0.056867164 -0.050909817 -0.040176436
000080 59 b4 0e 3d fa af 9f bc b6 5e 6f 3c 05 2f 6e 3d
       0.03483996 -0.019493092 0.014609983 0.05815031
000090 5d 4e 60 3d 18 44 04 3d 83 46 8c 3c 15 b8 32 3d
       0.054762233 0.0322915 0.017123466 0.043632586
0000a0 f7 b4 5b bd 1e bd ce 3c fa c5 ff bc 65 d0 54 bd
       -0.05363938 0.025236662 -0.031222332 -0.051956553
0000b0 a0 2f 0d 3d 86 b6 25 bc f3 2f ac bb 7a f8 65 3d
       0.034469247 -0.010114318 -0.0052547394 0.05614517
0000c0 e5 d4 18 3c 93 be 4a bd 75 b7 55 3c a3 96 08 3c
       0.009328102 -0.049498152 0.013044228 0.008336696
0000d0 fd 49 b2 3c c0 2f 02 3d 90 1f 0f bd 35 6f c8 3c
       0.021763796 0.03178382 -0.03494221 0.02446709
0000e0 55 dc 92 3c 3a dd 24 3d c9 60 89 3a c9 01 4a bd
       0.017927328 0.04025004 0.0010481115 -0.04931811
0000f0 91 84 f0 bc 5e 8c 25 38 6e 6e 0a 3c 8e fb d2 3c
       -0.029360088 3.9469793e-05 0.00844918 0.025754716

layer3.1.weight f4 [64]
000000 24 44 82 3f c1 ef 81 3f bc e5 82 3f 37 ad 79 3f
       1.0177045 1.0151292 1.0226359 0.9752993
000010 c2 ae 81 3f 4e 04 7c 3f 5a f9 80 3f 5d d8 7d 3f
       1.0131457 0.9844407 1.0076096 0.9915827
000020 6c fa 7d 3f d4 20 72 3f b3 19 85 3f 67 bb 7f 3f
       0.9921024 0.9458134 1.0398468 0.9989533
000030 ec 8f 7a 3f cf a3 7c 3f 23 fa 7e 3f b6 dd 7c 3f
       0.9787586 0.9868745 0.9960043 0.98775804
000040 13 c7 81 3f 1c 65 81 3f cc 37 7a 3f 72 80 82 3f
       1.0138878 1.0108981 0.9774139 1.0195448
000050 75 1e 83 3f b4 65 7d 3f 61 1d 81 3f f0 f7 81 3f
       1.024367 0.9898331 1.0087091 1.015379
000060 42 92 80 3f 4f 35 81 3f 03 4c 7f 3f 6c c1 7a 3f
       1.0044634 1.0094393 0.9972536 0.9795139
000070 3a 33 80 3f 79 c9 80 3f 8b 80 7f 3f b4 60 84 3f
       1.0015633 1.0061485 0.99805516 1.0342011
000080 43 95 7f 3f 14 f0 81 3f 09 4a 7f 3f 36 ab 80 3f
       0.9983713 1.0151391 0.99722344 1.005225
000090 54 71 81 3f d5 0b 82 3f 76 93 80 3f 1a 8a 7c 3f
       1.011271 1.0159861 1.0045002 0.98648226
0000a0 f2 f5 82 3f 22 bf 7f 3f 9e b7 80 3f 69 2e 84 3f
       1.0231307 0.9990102 1.0056036 1.0326663
0000b0 2b 8d 7a 3f 8c d7 78 3f e6 1f 80 3f c2 3f 82 3f
       0.97871655 0.972039 1.0009735 1.0175707
0000c0 93 08 82 3f 10 3a 75 3f 97 2d 81 3f ef 90 7d 3f
       1.0158867 0.9579172 1.0092038 0.99049276
0000d0 93 3a 7a 3f 93 8a 7c 3f 45 ad 80 3f 1b 1d 80 3f
       0.9774563 0.9864895 1.0052878 1.0008882
0000e0 c6 07 81 3f dd d3 81 3f df b0 81 3f 75 25 80 3f
       1.0080497 1.014278 1.0132102 1.0011431
0000f0 06 ef 82 3f ec a6 7f 3f 8c cf 82 3f f0 94 80 3f
       1.0229194 0.9986408 1.0219588 1.0045452

layer3.1.bias f4 [64]
000000 c5 2b 25 bc d6 94 f3 bb df 2d fe bc 83 9b cd bc
       -0.010081236 -0.007433514 -0.031027732 -0.025098568
000010 b4 c1 15 bc 5b 97 33 bd 29 3f 75 bc e4 eb c7 bc
       -0.009140421 -0.043845516 -0.014968672 -0.024404474
000020 e5 60 17 bd d9 2f 56 bd 98 3b 93 3b bc 8d b5 bc
       -0.03695764 -0.052291725 0.004493188 -0.02216231
000030 e7 c2 f9 bc 08 4d bb bc 68 15 0f bc bc 5e b8 bc
       -0.030488444 -0.02286388 -0.008733131 -0.02250611
000040 86 62 8a bc 8c 48 4c bb 3f c7 26 bd 15 b6 56 bb
       -0.016892683 -0.003117117 -0.04071736 -0.0032762338
000050 47 ae b9 bb a6 ba 1b bc 76 6c fa bc e0 5f 04 bd
       -0.0056665274 -0.00950495 -0.030569296 -0.032317996
000060 c7 8f 29 bc 75 a4 87 bc f3 b6 99 bc ec 90 0d bd
       -0.010349221 -0.016557911 -0.018763995 -0.034562036
000070 4c 83 de bc 22 c5 f9 bb e2 e4 00 bd 94 fe 76 bb
       -0.027162217 -0.007622377 -0.03146828 -0.0037688361
000080 11 18 3f bc 15 48 91 bc da 8e fe bb 63 d5 79 bc
       -0.011663453 -0.017734567 -0.007768494 -0.015248629
000090 02 4a 04 bd 46 d3 ff bb a7 24 8f bc d4 bc 9a bc
       -0.03229714 -0.007807168 -0.017473532 -0.018888868
0000a0 e6 7d 0e bb 38 8e 18 bc ee 01 52 bc 01 10 bc bc
       -0.0021742522 -0.009311251 -0.012817843 -0.02295685
0000b0 e0 ed bf bc 46 41 00 bd 76 85 83 bc db f3 ba bb
       -0.023428857 -0.03131225 -0.01605485 -0.0057053394
0000c0 a4 12 2d bc f4 7b 65 bd 17 04 96 3a 21 1a 2d 3a
       -0.010563526 -0.056026414 0.0011445311 0.000660332
0000d0 07 d4 0e bd 4f e7 85 bc 2e 8c f6 bb 43 a0 87 3b
       -0.034870174 -0.016345648 -0.007524035 0.0041389777
0000e0 26 17 ab bc 6c ba 2d bc dc bd 47 3c de cb 8d bc
       -0.020885061 -0.0106035285 0.012191262 -0.017309126
0000f0 05 48 2b bc 23 2d 3e bc ec d6 4d 3b 11 8d 1d bc
       -0.0104541825 -0.011607441 0.003140862 -0.009616152

layer3.1.running_mean f4 [64]
000000 96 ba 38 3e f0 3d 87 3d 4b af 9f 3f a2 da 12 3f
       0.18039927 0.066036105 1.247537 0.5736486
000010 82 29 3e 3e 6c 2b fa 3e dc 3f db 3f 3a e4 1e 3f
       0.18570521 0.48861253 1.7128863 0.62066996
000020 9b ec ee be fa 20 38 be ac 10 a0 be b8 92 73 bf
       -0.4666489 -0.1798133 -0.3126272 -0.9514575
000030 4b 04 70 3e 17 cd de bd 7f 63 bf 3d a9 d1 16 bf
       0.23439138 -0.108789615 0.09345149 -0.58913666
000040 36 f6 8e be 38 f6 a4 bf 0c f0 aa 3f c2 4b d2 bd
       -0.2792222 -1.288764 1.3354506 -0.10268356
000050 c0 0b 86 bf b4 05 2f bf d8 39 57 be 92 84 8c 3f
       -1.0472336 -0.6836808 -0.2101816 1.0977957
000060 d4 0f ee 3e 4f 02 25 3f d5 d4 69 bf 24 e0 b2 3e
       0.4649645 0.6445665 -0.9134038 0.3493663
000070 79 f0 f3 3e 6b 93 d4 bd e7 8b 1f 3f db bf 37 bf
       0.47644404 -0.1037968 0.6232285 -0.71777123
000080 b5 78 89 bf 03 b2 b2 bd 10 57 bb 3e ca 1b 59 3f
       -1.0739962 -0.08725359 0.3658986 0.8480803
000090 87 3e 11 3f 9a 0e d9 be 46 0d 34 3f 3c 04 5d bf
       0.56736034 -0.42393953 0.70332754 -0.86334586
0000a0 f7 e7 9e 3e 81 af 6e bf 7f 62 a0 be 44 ef f0 3e
       0.3103635 -0.9323655 -0.31325147 0.47057545
0000b0 f5 1a 73 be 37 b5 14 3f 36 00 85 3f 99 91 8a 3f
       -0.23740752 0.5808901 1.0390689 1.0825683
0000c0 31 2d da be 4a 61 f4 3f a4 41 df bb 0b 84 0a be
       -0.42612603 1.909219 -0.006813245 -0.13526933
0000d0 d7 6e a5 3e f0 05 0f bf 3a c4 ac 3f 51 43 15 bf
       0.32311127 -0.55868435 1.3497384 -0.5830584
0000e0 26 5f 95 3e d6 00 7d 3f 54 bd e0 be 5b a7 5a bf
       0.29174155 0.988294 -0.43894446 -0.85411614
0000f0 9e a6 97 3e 89 9f 37 bd 75 bb 75 bf 6b ea 83 bf
       0.29619306 -0.04482988 -0.9598916 -1.0305914

layer3.1.running_var f4 [64]
000000 63 e6 1c 3f 03 dd 22 3f f8 1a d6 3e 22 46 f0 3e
       0.6128904 0.6361849 0.4181745 0.46928507
000010 5e b8 21 3f b5 d0 24 3f 52 16 00 3f a8 fb 40 3f
       0.63171947 0.6438096 0.5003406 0.75383997
000020 2a c2 2d 3f 72 13 46 3f 9e 26 42 3f c0 91 04 3f
       0.67874396 0.7737342 0.75840175 0.51784897
000030 5a c9 ac 3e 43 4d dc 3e f3 dd 1c 3f 42 53 01 3f
       0.3374737 0.43027696 0.6127617 0.50517666
000040 e7 ae 4e 3f fb 04 68 3f af 21 cf 3e e0 de ce 3e
       0.8073563 0.906326 0.40455386 0.40404415
000050 7c 1f 62 3f 33 f6 6f 3f 95 2b 45 3f 6f e0 c7 3e
       0.8832929 0.93735045 0.77019626 0.39038417
000060 1d a5 06 3f b9 01 9e 3e 60 f5 4d 3f d4 bb 0b 3f
       0.5259569 0.3086069 0.8045254 0.5458348
000070 9c a4 c3 3e c7 c7 dc 3e 31 d9 9b 3e 94 36 3f 3f
       0.38211524 0.43121168 0.3043914 0.74692655
000080 79 6c 34 3f 32 11 cc 3e 07 44 0a 3f 58 6b 01 3f
       0.70478016 0.3985687 0.5401005 0.5055442
000090 f9 96 9e 3e e8 d9 c9 3e 94 a1 d9 3e b5 8f 3e 3f
       0.30974558 0.39424062 0.42506087 0.7443803
0000a0 4a bf 84 3f 81 ac 6f 3f 7a 64 d7 3e 1b 40 da 3e
       1.0370877 0.93622595 0.42068845 0.42627034
0000b0 42 69 00 3f b3 40 01 3f df 9a 85 3f 40 72 50 3f
       0.5016061 0.5048935 1.0437888 0.8142433
0000c0 4e 28 15 3f e2 1a 1d 3f 71 dc 1f 3f 4d b7 12 3f
       0.58264625 0.61369145 0.6244574 0.57310945
0000d0 67 0d 01 3f 11 ff be 3e 09 60 00 3f 11 52 ef 3e
       0.50411075 0.37303975 0.5014654 0.467423
0000e0 77 3c eb 3e 78 e5 80 3f 6e 47 ef 3e 8f 69 6a 3f
       0.4594457 1.0070028 0.46734184 0.9156732
0000f0 91 af 50 3f 7d 3b 3a 3f b1 b1 10 3f 6b 82 6f 3f
       0.81517893 0.7274702 0.56521136 0.9355838

fc1.weight f4 [10, 576]
000000 94 5c 1d 3c 71 27 fe 3c 7e fb 2a 3c 9f bf 13 bd
       0.009604592 0.031024667 0.010435937 -0.036071416
000010 58 ac 4a bd 13 05 7c 3c b8 43 e2 3b d9 38 70 3c
       -0.049480766 0.015382069 0.0069050454 0.014661991
000020 26 9f 53 3d 13 27 fe 3c db b5 89 3d 16 32 cb ba
       0.051665448 0.031024491 0.06724139 -0.0015502598
000030 a8 a3 88 3c 54 c8 62 3d f5 cd 91 3d 5f fc 4a 3d
       0.0166796 0.05536683 0.07119361 0.049557086
000040 3e ce 1f 3d 46 ee 67 3c 6c c4 c7 3b 65 ac 80 bc
       0.039015047 0.01415593 0.0060964134 -0.015707204
000050 5e fb bb bc ae 2b 96 3b b4 02 ca 3c ba 78 82 bc
       -0.02294701 0.0045828437 0.024659492 -0.015926708
000060 af 89 c3 bb bd 3c 96 38 57 bc 39 3d d7 97 37 bc
       -0.005967341 7.163871e-05 0.04534563 -0.011205635
000070 f9 d4 42 3d 88 bf 67 3d 09 3f 5a bc 5c 30 f8 3c
       0.047566388 0.056579143 -0.013320693 0.030296497
000080 4b 3d 4c bb 36 c2 40 3b 6c 4b 31 bc e1 05 7a 3d
       -0.0031164463 0.0029412634 -0.010821205 0.061040763
000090 09 68 07 bd db 63 ed bb 19 58 06 bd b6 bd f7 bc
       -0.0330582 -0.0072445697 -0.03279886 -0.030241828
0000a0 d5 80 33 bd bc bc 3a bd 7c 86 2f 3b c2 b8 9a 3b
       -0.043824036 -0.045590147 0.002678304 0.004721732
0000b0 aa b7 14 bd ba 9d 8d bb 32 85 f2 3c 8e 15 a9 bc
       -0.03630797 -0.004321781 0.029604528 -0.02064016
0000c0 98 90 1b bd 27 5c 0b bd 63 ed 2a bd 3d e5 0a 3d
       -0.037979692 -0.03402343 -0.041730296 0.033910025
0000d0 9f ef 9f 3c 2b 57 b5 3c c7 3f c9 3c 1f 23 92 3c
       0.01952344 0.022136291 0.024566544 0.017839013
0000e0 48 01 d5 3c 29 7e 0f bd 8a 57 17 bd 34 68 18 bd
       0.026001588 -0.035032425 -0.036948718 -0.03720875
0000f0 dc 79 fb 3c ef 0c 5d 3c 9d 6c 2e 3d 75 a0 90 bc
       0.030697756 0.013491853 0.04258405 -0.017654637
000100 b2 f9 a6 bc c9 2b 08 3d 71 e1 e5 3c 34 8d 00 bd
       -0.020382736 0.03324488 0.0280616 -0.03138466
000110 bd 15 73 3c 7c 9a 0f 3d f4 6e 44 bb fd 73 b1 3c
       0.014836726 0.035059437 -0.002997336 0.021661753
000120 46 58 51 bc a8 39 31 3d 89 f9 aa 3c ec be 9e 3b
       -0.012777394 0.043267876 0.02087094 0.004844537
000130 1a 6a 5d 3d c1 e8 3b 3d bc fd 00 3d 21 17 ed bb
       0.054056264 0.04587627 0.03149198 -0.007235423
000140 07 31 d3 3b 60 d6 b2 bb 20 95 2d bc 6b 7d ab 3c
       0.0064450535 -0.0054576844 -0.010594636 0.020933827
000150 a6 8d 07 3d ee 10 30 3c 7a e4 e9 bc b1 2b 86 bc
       0.03309407 0.010746224 -0.028551329 -0.016378256
000160 f4 72 81 bc 5c 92 93 bb 8b 1b 70 bd db ea 8a bc
       -0.015801884 -0.0045035314 -0.058620017 -0.016957691
000170 f8 69 10 bd b8 bd 48 bd 29 c1 69 bd 47 6c 8a bd
       -0.03525731 -0.049009055 -0.057068978 -0.067589335
000180 ef c5 1e bd 7b 5c 76 bd ad f3 42 bd 0c 6c d4 bc
       -0.038762983 -0.06014679 -0.04759567 -0.025930427
000190 b4 25 5b bd 53 b6 4d bc 48 2c 6b bd 6c 50 a4 bd
       -0.053502753 -0.0125556765 -0.057415277 -0.08023152
0001a0 c7 6d b2 bc a4 d2 6e bd 57 8e a9 bc 3c 57 63 3c
       -0.021780862 -0.05830635 -0.020697756 0.013875779
0001b0 19 d2 09 bd 72 d8 2a bd bb e0 9e bc ff e9 89 bc
       -0.03364763 -0.041710325 -0.01939427 -0.01683521
0001c0 93 49 3f 3c 5c 32 b8 bb 3a 0f af 3c 24 22 a4 3c
       0.011675256 -0.0056212377 0.021369565 0.02003581
0001d0 b7 2e 80 bc 3a 15 e1 bb b9 a6 e0 bc 2e 75 e3 bb
       -0.015647275 -0.0068689855 -0.02742325 -0.006941459
0001e0 0f 16 17 bd fc 1f 82 bd ed 4c 54 bc 6c 28 ad bc
       -0.03688627 -0.06353757 -0.012957794 -0.021137439
0001f0 48 a9 38 bc c0 a6 93 bd 95 01 ff bc bd 84 5c 3c
       -0.011270829 -0.072095394 -0.031128684 0.013459382
000200 da 64 ff bc 2b 1b 64 bb f4 ea 15 3c a9 74 de bc
       -0.03117602 -0.0034806232 0.0091502555 -0.027155237
000210 13 5e 55 bc 9c a1 2d 3d 95 f4 b6 bc 04 a2 1e bd
       -0.013022917 0.04239045 -0.022333423 -0.03872873
000220 b8 a1 bd bc 65 ed 61 3b 6f 89 b3 38 a1 91 97 bc
       -0.023148403 0.0034473774 8.560984e-05 -0.018502058
000230 23 b9 4e bd d7 6d c1 bc 0f f1 5d 3c 19 eb 31 bc
       -0.05046953 -0.023611946 0.013546242 -0.010859274
000240 39 87 65 3c f2 e9 b0 3b 7b ae 3a 3d ac 50 be bc
       0.01400929 0.005398982 0.045576554 -0.023231827
000250 20 25 ac bb d4 5d d2 bc 75 e8 d3 3c 17 2d b7 bc
       -0.005253449 -0.025679506 0.02586768 -0.022360368
000260 c9 6e f7 3b 65 ed 02 3d 78 34 91 3c 1a 91 33 bc
       0.0075510484 0.03196468 0.017725214 -0.010959888
000270 dc 28 41 bd 2a f1 39 3d 85 0e 06 3d c4 1b 14 bd
       -0.047158107 0.045396008 0.03272869 -0.036159292
000280 d5 f1 0b bd 90 d7 85 3c a9 ca 83 bc 1d b0 4a bb
       -0.034166176 0.01633814 -0.016087847 -0.0030927726
000290 3b 2e 92 bc ac fb 3e 3d 21 99 eb bc be bf 1e 3c
       -0.01784431 0.04662673 -0.028759541 0.00968927
0002a0 07 52 3f 3d 78 02 01 3d 34 28 08 3d 1a 75 96 bc
       0.046709087 0.031496495 0.033241466 -0.018366385
0002b0 87 7f 03 bd 94 03 15 3c 90 94 36 bd 64 de 70 bd
       -0.03210404 0.009095091 -0.044575274 -0.05880584
0002c0 91 bb f5 3c c0 22 51 bd 49 a2 59 bc 14 5b f4 bc
       0.029996665 -0.05105853 -0.013283321 -0.029828586
0002d0 56 7c b7 3b ed 0e 4a 3d 4a e3 a9 ba e8 c2 b1 bc
       0.005599539 0.04933064 -0.0012961414 -0.021699384
0002e0 8d 50 ac 3c 94 ed 3f bc fc 2b 3c bd 71 3c 47 3d
       0.021034503 -0.011714358 -0.045940384 0.048641626
0002f0 cd d0 cf bc ce 4f ac 3c 9f 6c 0a bd b7 d3 64 bd
       -0.025368119 0.021034148 -0.033794995 -0.05586597
000300 29 ec 2d bd 20 1c 1e bb fe 9a 29 bc ac f3 0c 3d
       -0.042461548 -0.002412565 -0.010351894 0.03441207
000310 0f c7 ed 3c 24 61 61 bd 1d 33 4e 3c 65 ac dc 3b
       0.029025583 -0.05502428 0.012585429 0.006734418
000320 54 b2 1d bc e1 8f dd 3c 40 8f cc 3c 5a 27 f5 3c
       -0.009625036 0.027046146 0.02497065 0.02992599
000330 c1 14 b1 3c 91 a9 fa bc 52 de a2 3c 70 8c d3 3c
       0.021616342 -0.030598434 0.019881401 0.025823802
000340 28 34 dc 3c 3c 07 54 3c 01 ec 53 bc a8 28 cb 39
       0.026880339 0.012941178 -0.012934686 0.00038749469
000350 37 22 41 3d 87 dc e6 3c 2c 3d e1 ba 8e c5 31 3d
       0.04715177 0.028181328 -0.0017184368 0.043401293
000360 a3 76 91 3d d2 82 9b 3c b6 c1 4b bc f4 f2 bf 3c
       0.07102706 0.018983278 -0.012436321 0.023431279
000370 87 cc 0f bd c1 36 9e 3b 37 fd ae 3c 03 f7 ab bc
       -0.03510716 0.0048283045 0.021360977 -0.020991808
000380 10 95 10 3c d1 5c 20 bd 7e f1 c4 bb 6a 47 4e bc
       0.008824602 -0.039151017 -0.0060102334 -0.012590269
000390 4b 69 d2 bc 42 54 45 bd 3d 3a 84 bc 54 41 8c 3c
       -0.025684973 -0.048176058 -0.016141051 0.017120995
0003a0 83 a0 c2 3c f8 8d 21 3c 3d f0 e6 3c f0 58 8d bd
       0.023758179 0.009860508 0.028190726 -0.06901729
0003b0 96 cc fd ba 7d 18 1f bb fc b5 6c bd b8 7f a2 bd
       -0.001936334 -0.002427607 -0.05779074 -0.07934517
0003c0 bc b0 a8 3b 6d ae 88 bd 69 30 1c bb 0f e0 0b bd
       0.0051480215 -0.06673894 -0.0023832566 -0.034149226
0003d0 f6 16 f3 3b 00 6d 3d 3c e3 67 85 bc 33 7a b6 3b
       0.0074185086 0.011561632 -0.016284889 0.0055687665
0003e0 ab 98 14 3a ad 9f 82 38 fd d6 84 3c 43 6d 94 bc
       0.0005668501 6.228625e-05 0.016215796 -0.018118506
0003f0 00 a9 6c 3d be 18 4a 3d 4f a5 0e 3c f7 fc 69 3d
       0.05777836 0.049340002 0.008706405 0.05712601

fc1.bias f4 [10]
000000 ba cc 86 3c 86 1f eb bb 41 0a 31 bd 76 f6 ad bc
       0.016455043 -0.0071753887 -0.04322267 -0.021235686
000010 da 98 47 3c f4 4b bb bc 90 ba 56 bc c4 8c 4e bb
       0.012182439 -0.022863366 -0.013106003 -0.0031517008
000020 12 25 10 3d 9b 53 32 3c
       0.035191603 0.010884191

fc2.weight f4 [2, 10]
000000 6c ab 3d bd 5a f5 13 3e e3 7e 20 be 4b be dd bd
       -0.04630606 0.14449063 -0.15673403 -0.10827311
000010 20 53 14 3e e6 ed 1d 3e 88 7b 20 3e 26 7c 80 bd
       0.14484835 0.15422782 0.15672123 -0.062736794
000020 c7 0e 12 be 7e b1 8d 3e 8b 19 97 be 33 57 3d 3e
       -0.1426345 0.27674478 -0.29511675 0.18490295
000030 ef 79 8f bc f2 8c 84 3e cb 59 23 be d4 d1 68 bd
       -0.017514197 0.25888783 -0.15952222 -0.056840733
000040 93 3e 87 be 4c 88 da 3c 9a 5e 80 be bf a7 87 be
       -0.26414928 0.02667632 -0.25072175 -0.26495168

fc2.bias f4 [2]
000000 67 76 92 3d 52 4e 30 3e
       0.0715149 0.17217377
