Lab5/model_10_0.0001.pth (torch, 379043 bytes, 54 tensors)

layer1.0.weight f4 [16, 3, 3, 3]
000000 e8 3c 14 bc be 88 1a 3e 3e 4a ec bc 48 83 2f be
       -0.009047724 0.15091226 -0.028843995 -0.17139924
000010 e8 11 fa 3c 5d 03 99 3d 32 4c 88 3d 83 9b ad 3c
       0.030526116 0.074713446 0.06655158 0.021192318
000020 a2 48 f5 3d 8d f3 47 3d 4f a1 dd 3d 18 5a 2a 3e
       0.11976744 0.048816252 0.10821783 0.1663593
000030 d5 0d 07 bd 6d c9 2b 3e f1 4c c7 bd a8 26 25 bc
       -0.032972176 0.16776057 -0.09731472 -0.010080017
000040 a3 93 06 3e 7b 04 c6 ba ec c2 be 3d 3d 2b b0 bd
       0.13142256 -0.0015107536 0.09314522 -0.08601997
000050 1e ce 48 3d bc b4 36 3d 5c ba 2e be bf 22 e4 3d
       0.049024694 0.044605955 -0.17063278 0.1113944
000060 a7 9a f6 bd 34 8f a5 bc 28 a9 e7 bd ee 5c 14 3d
       -0.12041216 -0.020209886 -0.11311561 0.036221437
000070 eb 31 37 be 84 9b 14 be ab 90 45 3e 61 b5 a3 3d
       -0.17890136 -0.1451245 0.19293468 0.0799358
000080 de 92 90 bd ed 52 07 3d 85 7d d5 3d e2 5b e0 bc
       -0.07059263 0.03303807 0.104243316 -0.027387563
000090 a6 2d 3d 3e 5f 0d 95 bb 49 b5 40 3e 04 1f 38 3e
       0.18474445 -0.004548713 0.18819155 0.17980582
0000a0 96 67 de 3d fe d0 09 be d9 a8 0a 3d 98 dd 5c 3d
       0.10859601 -0.1345863 0.033852432 0.053922266
0000b0 46 c2 33 3d 92 d2 9e 3d a7 9d d1 3c 48 52 b4 3d
       0.043886445 0.07755007 0.02558787 0.088047564
0000c0 82 0c c6 bc 24 75 f9 3d 3f 7e ef bd 85 45 23 be
       -0.024175886 0.12180546 -0.116940014 -0.15944488
0000d0 ae 07 93 bd c2 66 35 bd dd b5 8b bb 17 69 82 3d
       -0.07179199 -0.04428745 -0.004263623 0.063677005
0000e0 62 6b d9 bc 6b 24 2f 3e 2f 8d 27 be b4 a3 04 3e
       -0.026540462 0.17103736 -0.16362451 0.12953073
0000f0 32 4d 27 be c6 9b 09 3d 21 68 c8 3d 65 70 93 3a
       -0.16338041 0.033595823 0.09785486 0.0011248706
000100 3e d3 97 bd c0 8c d8 bd 89 23 b5 bd ad 71 13 3e
       -0.07413338 -0.10573721 -0.088446684 0.14398833
000110 09 ea d3 bd e0 6a 91 bd 0e 43 43 be d6 17 33 3e
       -0.10347373 -0.07100463 -0.19068548 0.17489561
000120 3c 8a 2a bd 82 bb 09 3e 88 db a7 3d 9f d4 11 be
       -0.041635737 0.13450435 0.08196169 -0.14241265
000130 a5 55 2e 3e e7 e2 2c be 88 3f 43 3e 8c 2f da 3d
       0.17024858 -0.16883431 0.19067204 0.106536
000140 53 82 26 be 91 4b aa 3b 32 db dd bd 16 2d db 3d
       -0.16260652 0.0051969965 -0.10832824 0.10701959
000150 21 00 af 3d 43 31 75 3d 10 c2 8c bd 92 17 74 3d
       0.085449465 0.059861433 -0.06872952 0.05959279
000160 8a de 09 3e ee 3a 36 3e 12 3b 7c bd 7d da 0b be
       0.13463798 0.17795917 -0.06157977 -0.13657565
000170 70 6a 05 3e 8e 19 a7 3d f7 ad d4 3d 1a 2b ce 3d
       0.13028884 0.08159171 0.10384744 0.10066815
000180 2e c6 a6 bd 2d 53 04 3e e8 9e a1 3c b1 bd d4 bd
       -0.081432685 0.12922354 0.019729093 -0.10387743
000190 e5 31 5a 3d e0 02 24 3e 71 84 aa bd 7c 63 f5 bd
       0.05327024 0.16016722 -0.083260424 -0.11981866
0001a0 d0 e3 e3 bd 62 93 13 3e 4e 0b 3b be 30 75 50 3c
       -0.11127436 0.14411691 -0.18266031 0.012723252
0001b0 ef 43 88 bc a3 96 2e be de 98 d4 3d 4e 26 01 3e
       -0.016633956 -0.17049651 0.103807196 0.12612268
0001c0 f7 d6 21 3e a8 73 43 bd 62 4c 6c bd 7f 67 10 3d
       0.15804659 -0.04771772 -0.05769003 0.03525495
0001d0 89 d8 f5 bd c9 ec 3a 3e 8a 14 26 be de 4c 7e 3c
       -0.120041914 0.18254389 -0.16218773 0.015521256
0001e0 cc 38 0f be 0a fc 1f 3e 83 c5 3f be 1c 63 47 bd
       -0.1398651 0.15623489 -0.18727688 -0.048678502
0001f0 11 7c 40 bb 15 d5 eb 3c 65 a6 20 3c ac f4 27 3d
       -0.0029370824 0.028788129 0.009805297 0.04100482
000200 27 e4 8d 3d dc 24 e4 3d ca af af 3d 22 1f b0 bd
       0.06928282 0.11139843 0.08578451 -0.08599688
000210 76 3d cf bd d0 84 52 bd 80 4e 12 3e 6f cf 28 be
       -0.101191446 -0.05139619 0.14287758 -0.1648538
000220 10 cf 35 be 3e 4c 1c 3e 1a 4a 81 3c d0 a9 52 3d
       -0.1775477 0.15263459 0.015782405 0.051431477
000230 c6 cf 0a 3e fb 51 e9 3d 9a e3 bd bc 08 bf 88 3d
       0.13555822 0.1139259 -0.023179818 0.06677061
000240 6d aa d5 bd 1b 1e 83 bd 86 44 a2 bd 85 62 af bd
       -0.10432897 -0.064022265 -0.07923226 -0.08563713
000250 ef 52 30 be 70 1f ae bb b3 42 01 3e 9f 45 a7 bc
       -0.17219137 -0.0053138062 0.126231 -0.02041894
000260 b0 cd 27 bd 98 01 ac 3d 87 4c 80 bd 2c 61 03 3e
       -0.040967643 0.083987415 -0.062645964 0.12830037
000270 8c a7 a0 bd af 34 25 be 05 f4 1f be 82 43 ed 3d
       -0.07844457 -0.16133378 -0.1562043 0.11585142
000280 53 fc 1b 3e de 07 de bd ac 19 a7 bd 23 15 04 be
       0.15232973 -0.10841344 -0.081591934 -0.12898688
000290 41 04 30 be ee c3 76 bc 36 2c ec bd c3 14 93 bc
       -0.17189123 -0.015061362 -0.1153187 -0.017954236
0002a0 cf 1a f4 bd 62 0c 31 3e 2b 1b 25 3e a7 b7 0e bd
       -0.11919176 0.1728988 0.16123645 -0.034843113
0002b0 3f 75 85 3c ce 45 91 3d 56 85 bc 3d 92 22 82 3d
       0.016291259 0.07093392 0.09205119 0.0635425
0002c0 41 39 73 3d a4 80 b4 3d c1 40 31 3e 67 98 2c 3e
       0.059380773 0.08813599 0.17309858 0.16855012
0002d0 1f 20 43 3d dc 12 be 3d 91 06 00 3e 83 69 79 3d
       0.047638055 0.09280941 0.12502505 0.06089164
0002e0 08 9e 91 bd 5f 4b 12 be 0e a4 a7 3c e8 8b fb 3d
       -0.0711022 -0.14286564 0.02046397 0.122825444
0002f0 f3 00 7d bc 38 50 06 be 3f d8 d5 bd 6b 9a 1d 3e
       -0.015442121 -0.13116539 -0.10441636 0.15390937
000300 c3 f2 a4 bd 87 ae 40 3d be 3a 3d be 23 43 4c bc
       -0.080541156 0.047041442 -0.1847944 -0.0124671785
000310 14 8d 8d 3d fb fc 90 bc d9 e5 ae bc d8 57 93 bd
       0.06911674 -0.017698755 -0.021349834 -0.07194489
000320 af f6 cd 3d 73 47 1f be d9 cb ce 3d 9a 56 17 be
       0.10056817 -0.155546 0.100974746 -0.1477913
000330 c4 01 a1 bd 90 d3 0b be 83 54 c6 bb cd 21 ef 3d
       -0.07861665 -0.13654923 -0.006052555 0.11676369
000340 63 bd 18 be b5 36 b4 bd d7 86 b0 3d b1 bc 2f be
       -0.14915995 -0.08799497 0.08619469 -0.17161824
000350 27 f5 87 3c 83 0f 31 be 0b 9c 1d be f6 4e 13 be
       0.01659639 -0.17291074 -0.15391557 -0.1438559
000360 de 0c 1a 3e 72 00 d6 bd c0 a6 55 3d 1f 48 8a 3d
       0.15043971 -0.10449304 0.05216098 0.06752037
000370 3b b7 d0 3d ff 3d d2 3d 19 8b c3 bd 1c 5a fb bb
       0.101911984 0.10265731 -0.09548015 -0.007670654
000380 d0 61 00 be 2a a3 f6 bd 6e 09 46 3e 1c b7 39 3e
       -0.12537313 -0.1204284 0.19339535 0.18136257
000390 58 55 13 bd fe 66 87 bd df 68 d9 3d d9 6f 0b be
       -0.035970062 -0.06611441 0.10615706 -0.13616885
0003a0 d9 d7 79 bc 9a 6e 47 bd 95 40 c3 bd 5a 38 9e 3d
       -0.015249216 -0.048689462 -0.095338024 0.07725592
0003b0 2a e7 33 3e 12 54 32 3c 51 e9 0d be 58 c1 99 bd
       0.17568651 0.010884302 -0.13858534 -0.075075805
0003c0 5b 77 34 be f4 36 b3 bd 29 7f 4a bb 92 00 e1 3d
       -0.17623655 -0.08750716 -0.0030898547 0.10986437
0003d0 43 15 c8 bd 8a cb 29 3e 0c de e3 3d 97 59 a5 bc
       -0.0976968 0.1658155 0.111263365 -0.020184321
0003e0 06 e0 5a 3d 13 75 a1 bd 4c e1 3c bd 36 64 39 bd
       0.0534363 -0.07883658 -0.046113297 -0.045261584
0003f0 cd 37 26 3e a9 d7 15 3e e6 b9 9a bd 7a a0 c1 bc
       0.16232224 0.14633049 -0.075549886 -0.023636092

layer1.0.bias f4 [16]
000000 a0 6e bd 3c d3 39 cf bc 84 9a 87 bd f0 a3 22 be
       0.02312404 -0.025296127 -0.066212684 -0.1588285
000010 a3 cb ae bd f8 b8 94 bc e6 bb 37 be 03 06 1d be
       -0.08534934 -0.018154606 -0.17942771 -0.15334325
000020 f8 be 13 3d 31 10 09 3e 34 9e 9d bd 53 d8 a0 bb
       0.036070794 0.13385083 -0.076961905 -0.0049086004
000030 22 96 c5 bd a2 c6 50 bd 7b 89 28 3d 7e d9 d6 3d
       -0.09647776 -0.05097068 0.041146737 0.10490702

layer1.1.weight f4 [16]
000000 04 49 80 3f 97 11 7c 3f 28 54 7f 3f 46 0a 7f 3f
       1.0022283 0.9846434 0.9973779 0.9962505
000010 70 f2 7e 3f 08 8e 80 3f 88 49 7e 3f 19 1a 81 3f
       0.9958868 1.0043344 0.9933095 1.0086089
000020 51 83 81 3f 69 0d 7f 3f 46 c1 80 3f 44 52 7e 3f
       1.01182 0.9962984 1.0058982 0.9934428
000030 f1 3d 7f 3f 39 c8 80 3f 17 f7 80 3f e3 ff 7f 3f
       0.9970389 1.0061103 1.0075406 0.9999983

layer1.1.bias f4 [16]
000000 5f be af 3b 32 00 52 bb 5a 74 ea ba 4e 5d ee bb
       0.00536327 -0.0032043573 -0.0017887459 -0.0072743064
000010 8a 10 cf 3c 07 7c e9 3b 5b ab 42 bc 38 d6 11 3a
       0.025276441 0.007125381 -0.011881675 0.0005563232
000020 77 93 d6 3b 97 a6 5a bc 02 76 14 3b b8 69 e8 3a
       0.006548341 -0.013345382 0.0022653346 0.0017731702
000030 52 7a af 3c cd 47 08 bc f7 7c c7 3c ab 03 ec bb
       0.021420632 -0.0083179 0.02435158 -0.0072025857

layer1.1.running_mean f4 [16]
000000 d8 b0 a3 3e d3 ee 8b 3e 52 04 a5 bd e6 07 12 3e
       0.3197086 0.27330646 -0.08057465 0.14260826
000010 d2 ed 91 bd 8a c9 38 be ca 30 b6 3d 66 54 43 bf
       -0.07125439 -0.18045631 0.088960245 -0.76300657
000020 df 08 a9 3c 6c e8 10 3f bc 30 93 3e c7 44 cd 3e
       0.020634113 0.5660465 0.2874812 0.40091535
000030 9b 0e c7 bd fd f6 dc be c8 55 f0 3c 27 46 0f 3f
       -0.09719583 -0.43157187 0.029337779 0.5596642

layer1.1.running_var f4 [16]
000000 af d9 97 3c c3 fe af 3c 26 1b 30 3a 9e f4 98 3c
       0.018536417 0.021483785 0.00067179126 0.01867133
000010 a5 37 8b 3a f3 8a 15 3c 83 70 d4 3c a1 ac de 3d
       0.0010621442 0.009127366 0.025932556 0.1087277
000020 2c d7 78 3b 8b aa 53 3d db af f0 3c 44 40 5a 3d
       0.003797005 0.051676314 0.02938073 0.053283945
000030 da 43 43 3b b0 97 1c 3d 38 55 4d 3a ec bc 48 3d
       0.0029795081 0.038230598 0.0007832828 0.049008295

layer2.0.weight f4 [32, 16, 3, 3]
000000 ad e3 88 3d b3 0d e6 3b 7b 52 6d 3d 5f e8 94 bd
       0.06684051 0.007020676 0.057939988 -0.07270884
000010 e0 51 95 3d e7 b2 3e bd b8 1f 35 3d 46 cd 3e 3d
       0.07291007 -0.046557333 0.044219702 0.046582483
000020 61 88 99 3d d2 41 6a bd 77 19 ba bc 69 8f 15 bd
       0.07496715 -0.057191677 -0.02271722 -0.03651372
000030 fc e1 85 bd e8 3b 6f 3d 11 ff 94 bc 55 34 d2 bc
       -0.06537244 0.05840674 -0.018188031 -0.02565972
000040 ef 22 54 bd fb 62 8f bd 5c 11 50 bd bb 80 17 bd
       -0.051791128 -0.07001301 -0.050797805 -0.036988
000050 1b af 48 bd 8e dd 5c bd 1e fe eb 3a e6 9b 32 bd
       -0.04899512 -0.05392223 0.001800481 -0.043605708
000060 1e 21 80 bd 51 71 97 bc 35 d0 f0 3c 6a f4 8d bd
       -0.062563166 -0.01848665 0.029396156 -0.06931384
000070 2a 74 ca 39 73 06 8c bb f0 6a e8 3c f2 b1 75 3d
       0.0003861499 -0.0042732297 0.028371304 0.059984155
000080 15 b6 87 bd c3 49 f5 3c fe 90 87 bd 04 af 86 3c
       -0.06626526 0.029942399 -0.06619452 0.016440876
000090 11 b3 98 3b 6b 11 c5 3c 33 58 45 bd 4d ec 4a 3d
       0.0046600183 0.024056157 -0.048179816 0.04954176
0000a0 1e 53 9a 3d b1 c1 00 bd be 6e 1e bc ed 94 84 bb
       0.075353846 -0.03143472 -0.009669958 -0.0040460736
0000b0 0d ee 27 bd c1 69 a6 3d b5 16 73 bc ed a1 9c 3d
       -0.040998507 0.0812564 -0.014836957 0.076480724
0000c0 64 f8 4a 3b 90 ec 7a bd 04 8b 45 ba 18 f5 f6 3c
       0.0030970806 -0.06126076 -0.00075356686 0.030146167
0000d0 e1 10 8b bc 47 ba 78 bd 0c f6 7f 3d 6d e5 22 bd
       -0.016975822 -0.060724523 0.062490508 -0.03976958
0000e0 5e f0 9f bc 92 09 05 3d bb da 7e bd df 05 80 bd
       -0.019523796 0.03247983 -0.062220316 -0.0625112
0000f0 f6 1c 1b bd 9e b1 1b bd 10 81 95 3d 2e 8e 73 3d
       -0.037869416 -0.038011186 0.07300007 0.059461765
000100 5a 16 b8 bc b6 c8 aa bd 15 a8 19 3d ca 68 a2 3a
       -0.022471596 -0.08339064 0.03751381 0.0012390849
000110 ee bd 66 3d 3c b0 72 bd fe 32 a1 3c b8 60 43 bd
       0.056333475 -0.0592501 0.019677635 -0.04769966
000120 25 ed 11 3d ee 13 5b 3c fe 25 25 3d 0f 3e 43 3c
       0.03562655 0.013371451 0.040319435 0.011916651
000130 37 f5 91 bd 06 53 47 bd 13 7a bc bb fb 86 c2 3b
       -0.07126849 -0.04866316 -0.005751857 0.005936501
000140 e3 62 58 3d 22 13 2a bd 2f f2 0c bd 00 b8 8e 3d
       0.05282868 -0.041522153 -0.03441065 0.06968689
000150 23 63 14 3c c4 71 72 3d 3a 85 a9 3d 70 0c 94 bc
       0.009056839 0.059190527 0.08277364 -0.018072337
000160 f1 d9 81 bd 42 5d b9 bb b3 76 8a bd 01 f5 54 bd
       -0.06340397 -0.005656869 -0.06760921 -0.051991466
000170 9d d7 50 bd c1 21 87 bd 12 f5 63 3d f6 b2 72 3d
       -0.050986875 -0.06598235 0.05565364 0.0592527
000180 28 f3 88 3b 58 b4 e5 bc 41 15 92 bd d0 e8 16 3c
       0.004179377 -0.028040096 -0.0713296 0.00921078
000190 12 6b 42 bc ff 43 35 3c 91 24 07 bd e9 c9 26 bd
       -0.011866348 0.011063575 -0.032993857 -0.0407199
0001a0 bf ff 95 bd b2 03 3d bd 41 64 4f 3d be 3f 3c 3b
       -0.0732417 -0.046146102 0.05063272 0.0028724517
0001b0 f0 67 82 3d ef 3e 90 3d 50 c7 4a bd f5 22 96 3d
       0.06367481 0.07043254 -0.049506485 0.07330886
0001c0 d7 83 3d 3d be 04 23 ba 1e 06 6a bd 78 db e8 bc
       0.04626831 -0.0006218663 -0.05713474 -0.028424963
0001d0 c6 8d 8b 3d 95 d1 80 bd b5 a0 48 bc 55 3d 9c b9
       0.068141505 -0.062899746 -0.012245347 -0.00029800335
0001e0 9c e9 ec 3c 9c 9a a0 bd fc d9 11 3d d9 1c 89 bd
       0.028919987 -0.078419894 0.035608277 -0.066949554
0001f0 5a 0e 32 3d d8 22 85 bd 23 72 66 bd d1 1a 75 bd
       0.043470718 -0.065007865 -0.056261193 -0.059840027
000200 23 07 05 3b 80 e4 08 bd ce 4f 1e bd ec 9e 6b 3b
       0.0020298443 -0.03342104 -0.038650326 0.003595288
000210 3d 1f b3 bc 67 e2 8e 3c b9 b8 fe bc 78 0d 44 3d
       -0.021865482 0.017441941 -0.031093942 0.047864407
000220 b4 c1 05 3d 99 4c 33 3d 64 38 d0 bb dc 86 98 3d
       0.032655433 0.04377422 -0.0063543785 0.074475974
000230 be b3 62 bd f4 cd 4e bc 91 bc 96 3d cb 42 ad bc
       -0.055347197 -0.012622345 0.07360185 -0.021150013
000240 98 65 15 bd 61 16 86 bc d1 40 81 bd 2a 4d b4 bd
       -0.03647384 -0.016368093 -0.06311191 -0.088037804
000250 3f f1 82 3c 3f 72 94 bd d1 b1 70 3d db 72 85 3d
       0.015984176 -0.07248353 0.05876333 0.065160476
000260 18 ff 96 bd d8 ea 87 3c 49 2e 77 3d a1 ba 53 3c
       -0.07372874 0.016591474 0.060346875 0.012922914
000270 6e 44 62 3d db 04 31 bb cf 68 80 3d 4d de f4 3c
       0.05524104 -0.002701095 0.06269991 0.029891158
000280 bc 4f d8 bc 1b ab 7b 3d fa e5 57 3c bb f2 a2 bd
       -0.026405208 0.061442476 0.013177389 -0.079564534
000290 72 31 8e 3c 9c f6 1c bd 94 2f 5f 3d 08 b8 05 bd
       0.017357562 -0.038321123 0.054488733 -0.03264621
0002a0 6f 0c 90 3d e6 7d 0d bb 5d af 0c bd 2e bc 97 bd
       0.070336215 -0.0021589934 -0.034346927 -0.07408939
0002b0 3b 17 70 3d 23 b1 4d 3c 36 e1 5c 3d 7c e3 80 3c
       0.058615904 0.01255444 0.053925715 0.015733473
0002c0 d4 b0 b4 bd a9 44 4c 3d b7 ea a9 bd 19 7d c5 3c
       -0.0882279 0.049870167 -0.082967214 0.024107503
0002d0 62 34 3f 3d 4e 08 70 3d 31 03 e7 3c c0 87 8a bc
       0.046680816 0.05860167 0.028199764 -0.016910434
0002e0 cc ab 11 3d 5f db dd bc 01 41 e0 bb 4b 38 91 bc
       0.03556423 -0.027082143 -0.0068436866 -0.017727038
0002f0 8f e7 14 3d 00 f6 a1 bd 3e b4 fd 3c 16 86 89 3b
       0.036353644 -0.07908249 0.030969735 0.0041968925
000300 40 46 55 bc 65 58 84 bd b8 fb 6e bd 05 ed 2b bd
       -0.013017237 -0.064621724 -0.058345526 -0.041974086
000310 da bb 7f bd f9 66 62 bd 99 68 e3 bc 17 87 80 3d
       -0.06243501 -0.055273984 -0.027759837 0.06275766
000320 3b c0 24 3c 46 63 49 3c 32 ca 8a ba 1e 10 b5 3a
       0.010055597 0.012291735 -0.0010588823 0.0013814007
000330 b5 c3 47 3d 5f 46 27 3d 37 21 1a 3d 82 cc 75 3d
       0.048770625 0.040838595 0.037629332 0.060009487
000340 3d 20 84 3d 53 21 bc bc 36 f1 26 bd 2a e3 6c bc
       0.064514615 -0.022965109 -0.04075738 -0.014458457
000350 d8 32 aa 3c 2f b6 93 3c 29 34 17 3d c8 89 6e bd
       0.020776197 0.018031208 0.03691498 -0.058236867
000360 69 c0 f8 bc 09 cd f8 3c 28 f3 7f bd 35 c1 e1 bc
       -0.030365186 0.030371206 -0.06248775 -0.027557949
000370 71 74 27 3d 4e 6b 85 bd 56 a6 22 3a b8 2b 32 39
       0.04088253 -0.06514607 0.00062045956 0.0001699169
000380 60 30 44 3d 63 8f 5c bc ce 61 a5 bc 09 b6 1b bc
       0.047897696 -0.01346192 -0.020188238 -0.00950385
000390 a9 0f 0f 3d 5e 77 dc 3c be 2c 43 bd 5a c2 43 bd
       0.034927044 0.026912387 -0.04765009 -0.04779277
0003a0 00 7a 95 3d 91 05 ae bd 9e 55 a9 bd ee ab 91 bd
       0.0729866 -0.084971555 -0.08268283 -0.07112871
0003b0 88 21 5d 3d 17 35 67 bd e6 a5 8a 3c 32 bf 89 3d
       0.053987056 -0.056447115 0.01692481 0.06725921
0003c0 44 1e 51 bc aa 17 1d bd ec 12 13 3d 64 bd 51 3d
       -0.012763564 -0.038352646 0.035906717 0.051206008
0003d0 4b e3 33 bd f3 4f 87 bd fe 9b 6f bb cf c0 b6 bd
       -0.043917935 -0.06607046 -0.0036561484 -0.08923494
0003e0 e9 12 79 bd 73 f9 8e bd 91 eb 81 bc e0 93 e6 3c
       -0.06080905 -0.069811724 -0.015859397 0.028146684
0003f0 fb 58 6d 3c 01 44 d5 3c f7 41 80 bd 8e 1e a4 3c
       0.014486547 0.026033403 -0.06262582 0.0200341

layer2.0.bias f4 [32]
000000 da 56 21 bc 5d 32 96 bb fe 62 96 3c dd c5 95 3d
       -0.009847367 -0.0045836405 0.01835775 0.0731313
000010 4d 3b 0c bd bc 16 83 3d 33 04 9b b8 39 c5 8b 3d
       -0.03423624 0.064008206 -7.391758e-05 0.068247266
000020 e2 3c 98 bc 0e ef 15 3d 0d 64 51 3c d0 99 99 bd
       -0.018583719 0.036604933 0.012780202 -0.075000405
000030 d8 49 cb 3c e2 de 43 bd 0d ce 60 bd 19 9a 89 bd
       0.024815485 -0.04781998 -0.054884005 -0.06718845
000040 83 30 a3 bd 77 7e c0 3a ab fc 0e 3c 8d 9e 31 3d
       -0.07968237 0.0014686127 0.008727233 0.043364096
000050 c4 c2 bd 3b 73 27 8d bd 84 9f 05 bc d5 69 02 3d
       0.00579104 -0.0689229 -0.008155707 0.03183921
000060 0e 63 46 bd bc b8 8d 3d 18 d3 85 3d 89 c5 85 3c
       -0.04843431 0.06920001 0.065344036 0.016329544
000070 27 e9 dd 3c 86 45 59 bd 9e bb 5d 3d 2f c3 91 3d
       0.027088715 -0.05304482 0.054134004 0.071173064

layer2.1.weight f4 [32]
000000 04 6a 7d 3f 6b 0e 81 3f 83 75 7e 3f eb c9 7f 3f
       0.9898989 1.0082525 0.9939806 0.9991748
000010 df b5 80 3f 20 da 7e 3f 9a 87 80 3f 38 2e 80 3f
       1.0055503 0.9955158 1.0041382 1.0014105
000020 cc f5 7f 3f cf 9d 81 3f 5a a7 80 3f 65 7a 7f 3f
       0.9998443 1.0126284 1.0051072 0.99796134
000030 cb 80 82 3f 71 60 81 3f 98 ff 7f 3f 89 d7 7d 3f
       1.0195554 1.0107557 0.9999938 0.99157006
000040 7a 3b 7e 3f b0 2e 81 3f fe 46 7f 3f 9f 61 80 3f
       0.99309504 1.0092373 0.997177 1.0029792
000050 a7 ab 7c 3f e1 c5 7f 3f 7e 08 7f 3f 3e 7c 7f 3f
       0.9869942 0.99911314 0.99622333 0.99798954
000060 94 d5 7d 3f 80 a2 7f 3f 0c dd 7c 3f cf 65 7e 3f
       0.9915402 0.9985733 0.9877479 0.993741
000070 69 e1 80 3f f9 13 80 3f c0 4d 7d 3f 94 fe 80 3f
       1.006879 1.0006095 0.9894676 1.0077691

layer2.1.bias f4 [32]
000000 7c e8 10 bc 13 7f 20 3c c8 87 92 ba f4 b8 2d bc
       -0.008844491 0.009795922 -0.0011179382 -0.010603178
000010 9f 5f 20 3c 17 d1 b6 3a 99 f8 ce bb b7 7c ee ba
       0.009788423 0.0013947812 -0.0063162562 -0.0018195127
000020 70 5e b8 bb 85 81 a5 3b bc d7 29 3a 0c de 1b bb
       -0.005626492 0.0050508403 0.00064789853 -0.0023783473
000030 3f b7 41 3c ca 42 da 3a e3 cd b2 3b be 03 d5 bb
       0.011823474 0.0016651985 0.0054566725 -0.0065006902
000040 f0 27 b1 bb bc 74 41 3c 5f d5 56 38 78 92 04 ba
       -0.0054063722 0.011807617 5.1220293e-05 -0.0005057226
000050 77 60 26 bc c3 ce 01 3c 0b a0 7b ba 9d f9 ac b9
       -0.010154835 0.007922831 -0.00095987384 -0.00032992373
000060 e9 26 28 3b c1 2d 27 3b 05 6e d9 bb 0b 4d 27 bc
       0.0025657958 0.002550945 -0.00663543 -0.01021124
000070 44 f3 67 3b 1e 3c 8e ba 91 25 dd bb d1 b9 35 bc
       0.00353928 -0.0010851657 -0.006748863 -0.011091665

layer2.1.running_mean f4 [32]
000000 5c 8c b8 be 4c f7 03 be ff 97 cc 3e 6f b5 8f 3e
       -0.36044586 -0.12887305 0.39959714 0.2806811
000010 9c d1 3a 3e bb 52 16 be 6d cd c5 bd a1 18 14 bd
       0.18244022 -0.14679997 -0.096583225 -0.0361563
000020 0f 70 82 be 3d cb 0c bf c5 fe 7a 3e e6 fe 9b be
       -0.2547612 -0.54997617 0.2451125 -0.3046791
000030 29 dc a0 be 9f 9c 85 3e 85 a1 16 be fa cf a5 3e
       -0.3141797 0.26096055 -0.14710052 0.32385236
000040 68 31 2d be 2a b6 96 be ae 56 bd bc 38 a6 c1 3c
       -0.16913378 -0.29435855 -0.023112621 0.02363883
000050 5c 55 4b bd 53 2d 00 3e 61 fc ff 3e 33 35 83 be
       -0.049641952 0.1251729 0.49997237 -0.25626525
000060 a7 cd d3 bd 9c a6 77 bd cd 57 e0 3d b7 e8 51 3e
       -0.103419594 -0.060461625 0.10954247 0.2049893
000070 b2 f0 0f be 4d ea ab be 1d 95 1f 3f 9a 8f 81 3d
       -0.14056662 -0.33577195 0.62336904 0.06326218

layer2.1.running_var f4 [32]
000000 a8 82 1b 3d e4 35 b6 3d 48 45 85 3e 42 a1 c1 3d
       0.0379664 0.088969976 0.2602942 0.094545856
000010 c6 0e 6c 3e 20 57 9a 3d 8d a7 b6 3d c3 4f 84 3e
       0.2305251 0.07536149 0.089186765 0.25842103
000020 c7 cc ba 3d 80 8f 64 3e 8e 86 f5 3d 21 75 84 3d
       0.091210894 0.22320366 0.11988555 0.06467653
000030 7b d7 78 3d 1e 48 07 3e 62 70 81 3d 26 35 bf 3e
       0.060752373 0.13211104 0.063202634 0.37345237
000040 9b 10 a7 3d 1e 35 58 3e 16 a9 ab 3d 74 88 4f 3e
       0.08157464 0.21114013 0.0838186 0.20266896
000050 27 de 17 3e 39 3d 34 3e 84 1f d6 3d 7d 4e 20 3f
       0.14830838 0.1760148 0.1045523 0.62619764
000060 7f df 6a 3d 73 15 0a 3e 60 a3 b1 3e 29 88 3d 3e
       0.05734205 0.13484745 0.34694958 0.18508972
000070 38 27 d2 3d 99 a6 3e 3d 77 c3 d6 3d d2 8f 22 3d
       0.10261387 0.0465456 0.10486501 0.03968794

layer3.0.weight f4 [64, 32, 3, 3]
000000 5a 19 d1 bc 90 1d 09 3c e3 25 9a 3c 95 19 20 3c
       -0.025524784 0.008368865 0.018816894 0.009771724
000010 7b 93 bf 3c 72 35 b1 3c d1 02 48 bd 1d 1e 96 3c
       0.023385754 0.02163193 -0.04883081 0.018324906
000020 b7 26 6f 3b 42 75 0e 3d d4 03 13 bb 50 1e 87 3c
       0.0036491582 0.034779795 -0.0022432702 0.016493946
000030 74 4c 9b 3c 82 54 51 bd 08 7e e6 3b b4 4a 3c bc
       0.018957354 -0.051105984 0.007034067 -0.01149242
000040 aa 1f 6f 3d 6c 05 c9 3b 53 e5 56 bc 27 59 2d 3d
       0.058379807 0.0061346795 -0.013116199 0.04232135
000050 34 96 11 bd 9b 72 3f bd bd 3f 31 bd 99 dc 65 3c
       -0.035543635 -0.046740156 -0.043273676 0.014029645
000060 54 aa 16 bd 8b 45 a4 bb 47 d5 27 bc 29 ec fd 3b
       -0.03678353 -0.005013173 -0.01024372 0.0077490998
000070 ec 5f 09 bd 70 06 4a 3c 9b 2f ae bc 32 2d 71 bb
       -0.033538744 0.012330636 -0.021262934 -0.003680062
000080 e1 bb d9 bc 20 c9 bd bc 87 dd 64 bd cf 14 df bc
       -0.026578845 -0.023167193 -0.055875327 -0.027231602
000090 83 2b 16 bd 12 06 2a 3d ab bf 34 3d 8c be 06 bd
       -0.03666259 0.041509695 0.0441281 -0.032896563
0000a0 0d a9 98 bc 0e 20 53 bd 5a 6c 47 3d 48 e2 14 bd
       -0.018635297 -0.05154424 0.048687316 -0.03634861
0000b0 24 47 40 bb 1a eb 3a 3d 9e 5b 12 bc 0f 1b a3 3b
       -0.0029339278 0.045634367 -0.008932976 0.004977591
0000c0 e5 04 89 bc 92 31 58 bc 18 1a 30 3d a5 24 01 bd
       -0.016725967 -0.013195412 0.042993635 -0.031529088
0000d0 77 3c 16 bd 79 18 b0 b9 84 45 9b 3c b8 b0 1e bc
       -0.036678758 -0.0003358757 0.018954046 -0.009685688
0000e0 32 ed 1e 3d a6 9b 1b bd e6 d8 f0 3b 3e 41 36 bd
       0.038800426 -0.037990235 0.007350075 -0.044495814
0000f0 27 ea 4a 3d af 87 7e 3d 67 33 36 3d 5a a1 df 3c
       0.04953971 0.062141117 0.044482615 0.027298618
000100 89 2b 2f bd f5 3d bb 3b 8e c0 bd bc ac a0 b1 bc
       -0.042766128 0.005714173 -0.023163106 -0.02168306
000110 a7 cb 31 3d 2a 58 ae ba dc 86 72 3b 83 1a 67 bc
       0.04340711 -0.0013301421 0.0037006652 -0.014105442
000120 9f 30 3c bd a0 2f 19 3d e0 b1 63 3d 7e d3 17 bd
       -0.045944806 0.037398934 0.055589557 -0.03706693
000130 c6 3c c0 3b ad b7 1a 3d 0a c8 f3 3c 0f ba ea bc
       0.0058666198 0.037772823 0.029758472 -0.028653173
000140 75 1a 19 3d 1a 1d ef bc bd 2f 2b bd ca 39 17 bc
       0.037378747 -0.029188681 -0.041793574 -0.009230087
000150 f8 d8 e0 bc 8a 6a 75 bc 5a 68 99 3c 9e 23 e3 bb
       -0.027447209 -0.014979014 0.018726517 -0.006931736
000160 fd 0b 15 3d be 76 01 3c 08 cf 0d bd 62 ba 54 bc
       0.036388386 0.0079018455 -0.03462127 -0.01298389
000170 b8 17 2a bd d5 c3 24 3d ec 4b 54 bd 48 46 26 3d
       -0.041526526 0.040225822 -0.051830217 0.04059437
000180 97 05 6c 3c c7 7d 12 3d 09 96 6c 3b b4 ae e3 3c
       0.01440563 0.035764482 0.003610017 0.027793266
000190 cd db f2 3b bb b1 46 bd 82 d6 ea bc 43 bc e7 3c
       0.007411456 -0.04850934 -0.028666738 0.028288012
0001a0 68 af eb 3c 94 8b 90 3c a4 98 4b 3d e9 02 8f bc
       0.028770164 0.017644681 0.049706116 -0.017457442
0001b0 84 85 2b 3d d9 f2 da bc 2b ae 12 bd 69 c4 79 bd
       0.041875377 -0.026727127 -0.03581063 -0.060978327
0001c0 77 c7 62 bc 5c 54 b0 bb 57 c4 87 bd 22 b2 20 bd
       -0.013841501 -0.00538115 -0.06629246 -0.03923238
0001d0 a4 11 8a bc a3 2d 59 3c e4 ff 09 bd 3a 80 2b 3d
       -0.016854115 0.01325551 -0.033691302 0.041870333
0001e0 04 bf bf 3c ff 18 c0 bc 11 15 9a bb 09 f8 b2 bb
       0.023406513 -0.023449419 -0.0047022183 -0.005461697
0001f0 3b 73 a1 3c ae 76 b5 bc df 4a bd 3c b6 0f ec bb
       0.019708266 -0.022151317 0.02310699 -0.0072040213
000200 af ce e4 3c 1c 49 43 3c bf 73 86 39 e7 07 39 3d
       0.027930586 0.011919286 0.0002564471 0.045173552
000210 45 3b 68 3d 47 79 1c 3d da 22 4c 3d 08 3f 3c bd
       0.05669715 0.038201597 0.049837925 -0.04595855
000220 97 9d 48 bd c3 b5 8a bc 04 b6 69 bb 50 54 b0 ba
       -0.048978414 -0.016932374 -0.0035661468 -0.0013452861
000230 27 13 8d bb 28 4f cd bc 5c 3d 54 3d f3 4d 66 bd
       -0.0043052617 -0.025062159 0.05181633 -0.056226682
000240 e5 a0 11 bd 33 1a 5d 3d 28 d4 0f 3d 2e 83 c7 bc
       -0.03555383 0.053980064 0.035114437 -0.024354544
000250 cd 05 06 3d 1b 18 36 bd e0 10 08 bd be b6 29 3d
       0.032720376 -0.044456583 -0.03321922 0.041434042
000260 db 93 0f bc ab e6 cf 3c 35 fa 21 3d 85 38 ec 3c
       -0.008763279 0.025378546 0.039545257 0.028835544
000270 3e 9d 5c 3d 20 83 76 bc 42 0f 76 3d 76 56 f1 bc
       0.053860895 -0.015045911 0.060073145 -0.029460173
000280 b1 e8 89 3d 7a 23 78 3d 04 6d 07 bd 7c e8 4a 3d
       0.067338355 0.060580708 -0.03306295 0.04953812
000290 46 eb 04 3d f0 e2 0d bd dc 54 5f bd 53 89 80 bc
       0.032450937 -0.034640253 -0.054524288 -0.015690481
0002a0 75 9d 77 bd f9 aa b1 3b 57 dd f2 bc 4d b6 0a 3d
       -0.060452897 0.005421993 -0.029646559 0.03386526
0002b0 80 18 72 3d 6b c0 40 bd fb 64 01 3b fe 62 15 bd
       0.059105396 -0.047058504 0.0019744027 -0.03647136
0002c0 f1 95 01 39 48 aa 96 3b 93 bf d7 3c 01 ec 6d bc
       0.00012358256 0.004597936 0.026336467 -0.0145216
0002d0 d5 c9 38 3c d9 ea 61 3c d2 3b 2e bd 34 0f 68 bd
       0.011278589 0.013788902 -0.042537518 -0.056655124
0002e0 fe 20 fb bc 58 a7 51 3d 00 4e 55 bd 2b 3a b2 3c
       -0.03065538 0.051184982 -0.05207634 0.021756252
0002f0 92 cf fe 3c df ad 86 3c 6c a3 a0 bc ec f0 bf bc
       0.031104837 0.01644033 -0.019609176 -0.02343031
000300 d8 84 4f bd 9f 9e 3f bd ca 89 43 bd 94 1b 10 3b
       -0.0506638 -0.046782132 -0.047738828 0.0021989094
000310 d8 9b 55 3d e9 ed 0d 3d 50 69 39 3d bf 6e 30 3d
       0.052150577 0.034650717 0.04526645 0.043074366
000320 32 24 65 3d bd b4 5f bd 62 82 f2 3c 35 75 16 bd
       0.05594272 -0.054615725 0.029603187 -0.03673287
000330 8a ab c4 bb 6f 24 cf 3c 49 93 fe 3c c1 b1 c3 bc
       -0.0060018944 0.025285928 0.03107609 -0.02388847
000340 46 28 de 3c 53 a0 b8 bc 76 4f 55 bd 35 ae 63 bd
       0.027118813 -0.022537386 -0.052077733 -0.05558606
000350 e6 dc d2 3c ab 46 9e 3c e3 b9 a4 bc ec f1 45 bd
       0.025740098 0.019320806 -0.020108169 -0.048326418
000360 14 50 26 3c 03 03 3f 3d 0a 6c 3d bc 39 6a cf 3c
       0.010150928 0.04663373 -0.011561403 0.025319206
000370 ab ad 54 3d 9e 55 a5 3c f6 b3 6d bc f5 b3 10 3b
       0.051923435 0.020182427 -0.014508238 0.002207992
000380 71 88 25 3d 25 6f fa bc e8 f5 13 bd 22 62 d5 3a
       0.040413324 -0.030570576 -0.036123186 0.0016279856
000390 fc 1a fb bc d1 c7 14 bd 94 fb 31 3d 1d 46 55 bd
       -0.030652516 -0.036323372 0.043452814 -0.05206882
0003a0 5c ab 25 3d 83 6b 31 3b 1b 97 3e 3c c9 23 f4 bb
       0.040446624 0.0027072139 0.011632706 -0.007450555
0003b0 5e eb 21 bd 78 b9 c9 bb 0b 74 18 bd 0d 45 0c bd
       -0.039531104 -0.006156143 -0.037220042 -0.03424554
0003c0 27 51 b5 bb 13 19 50 3d 9c 33 40 bc a9 2c d5 3c
       -0.0055333558 0.050805163 -0.011731055 0.026022272
0003d0 07 e6 07 3c 73 c9 1c bc c3 98 26 3d 10 f7 75 3c
       0.008294589 -0.009569514 0.04067303 0.015012518
0003e0 3d 3d c7 bc 4d 33 98 bb bf 88 fc bc 8c 25 21 b7
       -0.024321193 -0.0046447874 -0.030826924 -9.60509e-06
0003f0 62 d6 53 3d c6 1d e5 3c 27 b8 91 3b 7e 6f 98 3b
       0.051718123 0.027968299 0.0044470015 0.004651963

layer3.0.bias f4 [64]
000000 10 ac 1e bd a1 23 68 3d 83 06 16 3d c6 56 50 3d
       -0.03873831 0.056674603 0.036627304 0.050864004
000010 7b 49 53 bb 78 18 07 3c b9 5a c7 bc a5 73 32 3d
       -0.0032239843 0.00824558 -0.024335252 0.04356732
000020 b1 06 a9 3c b1 ae 06 bd 5e 17 d3 bc cc 89 c6 bc
       0.020633074 -0.032881442 -0.025767978 -0.024235629
000030 28 65 2e bc 43 39 1d 3c bb 5b 99 3c 3f 55 79 3a
       -0.010644235 0.009596172 0.018720498 0.0009511299
000040 20 d8 8c bc 63 2c 57 3b e2 81 00 3d a6 27 83 bb
       -0.0171929 0.0032832853 0.031373866 -0.004002529
000050 1a 38 55 3d 85 13 81 3c 07 2d 20 3d 25 65 1c bd
       0.052055456 0.015756378 0.03910544 -0.038182396
000060 4e cd 6b bd df ea 26 bd 7e 3e 70 3c e7 4a 3a 3c
       -0.05756884 -0.040751334 0.014663337 0.011370397
000070 d6 c7 5b bc 41 f8 33 3d a0 63 e4 bc 4c e4 fe bc
       -0.013414344 0.043937925 -0.027879536 -0.03111472
000080 3e 07 1d 3c db bd c0 bc bf 10 11 3c 49 ac 2b 3d
       0.009584246 -0.02352803 0.00885409 0.04191235
000090 e2 22 1b 3b a5 c0 a9 bc 36 29 29 bc 0c 59 0d bd
       0.0023671915 -0.020721743 -0.010324767 -0.03450875
0000a0 b5 5b 2f 3d a4 8b 52 bd c6 47 28 bd 69 41 44 3d
       0.042812068 -0.051402703 -0.041084073 0.047913942
0000b0 d7 30 3f 3a f1 56 a1 3c 61 05 b5 3b 6f 7d 87 3c
       0.00072933495 0.019694777 0.005524323 0.016539304
0000c0 d9 4a 27 3d 67 56 70 bd 76 45 68 bd d3 cb 43 3c
       0.040842865 -0.05867615 -0.056706868 0.011950451
0000d0 83 53 b1 bc 55 f9 6a bd 2a 0e 70 bd a6 be 71 3d
       -0.021646267 -0.057366688 -0.058607258 0.059019707
0000e0 7d 77 c4 bc b4 a3 38 bd 51 a3 00 bd 46 fe f4 3c
       -0.023982758 -0.045077994 -0.03140575 0.029906403
0000f0 05 a4 fa bc 85 56 35 bd 4d 11 80 3c 6e 06 50 3d
       -0.030595789 -0.044271965 0.01563325 0.05078738

layer3.1.weight f4 [64]
000000 8c 30 80 3f bf 07 7f 3f 0e 48 80 3f 23 99 80 3f
       1.0014815 0.99621195 1.0021989 1.0046734
000010 68 b3 7e 3f ea 6a 80 3f a5 89 80 3f 44 5e 80 3f
       0.994925 1.0032628 1.0042006 1.0028768
000020 1d f8 7e 3f 5c 12 81 3f d7 37 80 3f f1 e5 81 3f
       0.9959734 1.0083728 1.0017041 1.0148298
000030 39 c6 7d 3f 55 7e 81 3f cd 9a 7f 3f b4 18 80 3f
       0.9913059 1.0116678 0.9984558 1.0007539
000040 84 3a 80 3f cb 4b 80 3f 0a 3d 80 3f 7a ec 7f 3f
       1.0017858 1.002313 1.0018628 0.9997021
000050 f9 00 80 3f 9e 9c 81 3f 9c 4e 80 3f 1f 19 81 3f
       1.0000297 1.0125921 1.002399 1.0085791
000060 e0 34 7f 3f e8 0e 80 3f 98 6f 7e 3f db 8c 80 3f
       0.99690056 1.0004549 0.9938903 1.0042986
000070 4e 01 81 3f 69 63 80 3f bb 7b 80 3f af 4d 80 3f
       1.0078523 1.0030338 1.003776 1.0023707
000080 78 3e 80 3f f5 1b 80 3f 02 69 80 3f a3 b6 80 3f
       1.0019064 1.0008532 1.0032046 1.0055736
000090 21 2c 80 3f 3f a2 81 3f 17 2d 7f 3f 1e 25 80 3f
       1.0013467 1.0127639 0.99678177 1.0011327
0000a0 78 40 81 3f 0e a1 80 3f e2 62 80 3f 58 4d 80 3f
       1.0097799 1.004915 1.0030177 1.0023603
0000b0 06 71 80 3f 3e 65 80 3f 03 b0 7f 3f be 35 80 3f
       1.0034492 1.0030897 0.9987795 1.0016401
0000c0 a9 c7 80 3f b9 d8 80 3f 98 2c 82 3f 20 3d 82 3f
       1.0060931 1.0066139 1.0169859 1.0174904
0000d0 9a f6 7f 3f 67 53 7e 3f 14 f3 80 3f 51 1e 80 3f
       0.9998566 0.9934601 1.0074182 1.0009252
0000e0 4e 92 80 3f 4a 9a 81 3f 32 aa 7e 3f f0 41 80 3f
       1.0044649 1.012521 0.9947845 1.0020123
0000f0 ec 1a 7f 3f 2a ae 80 3f b9 90 80 3f 4b 78 80 3f
       0.99650455 1.0053151 1.0044166 1.003671

layer3.1.bias f4 [64]
000000 14 11 4a 3a 43 d8 9c bb b7 61 64 bb 99 d8 21 3b
       0.00077082333 -0.0047865226 -0.0034848282 0.0024695753
000010 e8 35 39 bc 52 f6 3e 3a c5 b8 5b 3b 09 0f d1 3b
       -0.011304356 0.00072846294 0.003352688 0.006379966
000020 c2 d9 f7 ba e9 ec 05 bb 9b b3 a6 bb 40 16 06 3c
       -0.0018909501 -0.00204354 -0.0050873286 0.008184016
000030 91 7a 26 bc 77 f3 40 3b 97 36 af bb df b9 bd bb
       -0.010161058 0.0029441991 -0.005347084 -0.00578998
000040 aa ea ae bb 87 ef 97 bb cb b3 72 3b a3 0e 80 3b
       -0.0053380327 -0.004636708 0.0037033434 0.003907995
000050 a9 f2 52 bb 90 66 97 3b 5d c0 53 bb 50 d3 4e ba
       -0.0032188094 0.0046203807 -0.0032310702 -0.00078897644
000060 44 85 09 bc fa c9 17 3a 51 cd 32 bb 3e e1 14 bb
       -0.008393589 0.000579029 -0.0027283023 -0.0022717263
000070 1a 83 af b9 79 fb 0b bb 02 2a 8e bb 8e 80 44 3b
       -0.0003347628 -0.0021359606 -0.004338504 0.002998385
000080 d2 0c 55 bb 44 54 c7 bb a5 91 8b 3b 96 49 20 3b
       -0.0032508862 -0.0060830433 0.0042593055 0.0024457923
000090 08 18 1f bb 16 fe d4 3a 95 b4 84 3b 96 4c b0 3a
       -0.0024275798 0.001625004 0.0040498474 0.0013450559
0000a0 60 68 60 ba 73 41 1d bc 96 d3 39 bb 39 8d 56 bb
       -0.0008560475 -0.009598124 -0.0028354875 -0.0032737984
0000b0 bc 56 27 3b c2 7e 1f 3b 90 aa ed 3a 00 9a 67 bb
       0.0025533875 0.0024337028 0.0018132497 -0.0035339594
0000c0 43 ef 21 ba 9d 4f e1 3a 4e b1 27 3b dd 56 f2 37
       -0.00061773154 0.0017189864 0.002558786 2.8889097e-05
0000d0 d8 b1 85 3b 7e 5b 98 bb 6e 34 a3 39 c6 c7 b1 bb
       0.0040800385 -0.0046495786 0.00031128846 -0.005425426
0000e0 1e 14 2f bb 09 6b 92 3b b3 ea ca bb 57 4c 93 ba
       -0.0026714872 0.004468326 -0.006192529 -0.0011237961
0000f0 27 7a 9d ba cb e1 8d 3a 57 f6 90 3b 60 85 24 bc
       -0.0012014554 0.0010824738 0.0044238972 -0.010041565

layer3.1.running_mean f4 [64]
000000 81 aa e6 3d b4 c0 8e 3e 59 b6 0f 3e d3 47 04 3e
       0.1126299 0.27881396 0.14034404 0.12918024
000010 31 63 e5 bd 9b 3e 0b bd f6 dd a5 be b7 85 31 3c
       -0.1120056 -0.033995252 -0.32395905 0.010835103
000020 cf 7a d4 3e 0e ca 49 bf 6f 5b 80 bf d0 ca d3 3e
       0.41499946 -0.78823936 -1.0027903 0.4136567
000030 40 80 c9 be 22 f4 d2 3e 6e f8 38 be c6 e4 b8 bd
       -0.3935566 0.41201884 -0.18063518 -0.0902801
000040 7d ca d6 bd e7 40 2a 3f 78 d3 11 3e f1 fe 53 bd
       -0.1048784 0.66505283 0.14240825 -0.051756803
000050 07 44 c9 3e bf a5 69 3e 79 4e 43 3e 81 c7 1f bf
       0.39309713 0.22817133 0.19072904 -0.62413794
000060 fe 6c f0 bd 5d 06 1e be fa 41 8c be 2c 41 63 be
       -0.117395386 -0.15432115 -0.27394086 -0.2219283
000070 69 2b 84 bf ef 91 3a bd 06 af e7 be 5d ce d5 3d
       -1.0325748 -0.04554933 -0.4525072 0.10439751
000080 85 1f 69 3e 61 8e 4a bd 64 ee f8 be fe 3b f0 be
       0.2276593 -0.04945219 -0.48619378 -0.4692077
000090 f8 c8 34 bf c1 dd f4 3d 0f 6b a2 be 8f 12 21 be
       -0.70619154 0.11956359 -0.31722304 -0.15729736
0000a0 6c c2 73 bf 1a 68 a3 3f 4d 80 43 bf 3b 9e 2f bf
       -0.9521854 1.2766144 -0.76367646 -0.68600816
0000b0 e1 63 b3 be 9c f8 13 3e 58 38 b4 3e 87 b9 4c be
       -0.3503714 0.14450306 0.35199237 -0.19992648
0000c0 1c 36 92 3f 5e 71 5a 3e fe 5e c1 3e b5 05 ea 3e
       1.1422763 0.21332309 0.37767786 0.4570748
0000d0 d8 d1 f6 3d 1b be 4b bf 97 71 ff 3d d5 a7 31 3f
       0.12051743 -0.7958695 0.124728374 0.69396716
0000e0 2c 09 0d 3e 64 df 35 3f ff 39 1b 3d 11 d3 ea 3e
       0.1377303 0.7104399 0.037897106 0.45864156
0000f0 38 24 44 bf d5 51 8a 3f ef 76 aa 3a a9 a6 3b 3f
       -0.76617765 1.0806223 0.0013005416 0.7330118

layer3.1.running_var f4 [64]
000000 45 96 b8 3e 6f af 91 3e 77 44 4b 3e c3 92 2f 3e
       0.36052147 0.28454158 0.19850336 0.17145829
000010 d6 3e 2b 3e 01 ac ed 3d cd 5d 45 3e 51 8b 5a 3e
       0.16723189 0.11605073 0.19274063 0.21342207
000020 13 41 93 3e 47 dc b5 3e 08 c1 5c 3e 01 21 0d 3e
       0.28760585 0.3551962 0.2155801 0.13782121
000030 5b 8a 4c 3e 6a 79 6a 3e ac 66 42 3e 82 e6 0d 3e
       0.19974653 0.22897878 0.18984479 0.13857463
000040 c2 42 f9 3d e9 d1 20 3e 74 f2 4f 3e 8f cd 1b 3e
       0.12170936 0.15705074 0.20307332 0.15215133
000050 75 ec 44 3e 40 10 1c 3e 27 26 6e 3e 53 df 4f 3e
       0.19230826 0.15240574 0.23256741 0.20300035
000060 54 78 7e 3e 28 d3 4b 3e 83 ea 1d 3e 5f 5e 27 3e
       0.24850589 0.19904768 0.1542149 0.16344593
000070 10 6a 58 3e 4b ec 17 3e 27 cf 89 3e 71 ab cf 3e
       0.2113421 0.14836232 0.26915857 0.40560487
000080 53 25 01 3e 41 86 c6 3d a5 a0 f5 3d 1e 77 83 3e
       0.12611894 0.09693576 0.11993531 0.25676817
000090 34 94 19 3e d7 ce 19 3e c7 f3 0d 3e fd 71 d1 3d
       0.14997941 0.1502031 0.13862525 0.1022682
0000a0 ca 3a d6 3e 8b 43 6c 3e 90 f8 68 3e fa a6 cd 3e
       0.41841727 0.2307264 0.22751069 0.40166456
0000b0 d6 8c 86 3e 83 7c 23 3e f1 6f 82 3e 6b b3 94 3e
       0.26279324 0.15965466 0.2547603 0.29043135
0000c0 28 fb 6b 3e 46 d8 a3 3e 42 4b 83 3e 27 cf 04 3e
       0.23045027 0.3200094 0.25643355 0.12969647
0000d0 9f 0e 54 3e a3 22 9b 3e b5 91 05 3e da b6 02 3e
       0.20708703 0.30299863 0.13043864 0.12765065
0000e0 d0 a4 44 3e e3 9f 36 3e 02 75 93 3e ad 78 d3 3d
       0.19203496 0.1783443 0.28800207 0.103257515
0000f0 7c 2e db 3e a3 27 c6 3e 2e 13 45 3e ac 16 9a 3e
       0.42808902 0.38702115 0.19245598 0.30095422

fc1.weight f4 [10, 576]
000000 26 ca 4b 3c 7f c0 00 3d 85 f2 0d 3b 21 85 ca 3c
       0.012438333 0.03143358 0.0021659445 0.024721684
000010 1a 66 21 bd 99 04 d3 bc 86 2a 14 bc b9 4c 89 3c
       -0.039404012 -0.025759028 -0.0090433415 0.016760217
000020 97 1f 67 3c 36 29 a1 3c fd 77 a1 3c 4b 94 ff ba
       0.014106653 0.019672971 0.019710535 -0.0019499151
000030 49 57 b5 bc b7 7f 90 bc 7f 2f c0 3c 64 a1 e8 ba
       -0.022136347 -0.017639024 0.023460148 -0.0017748293
000040 33 a8 99 3c 4c bb d4 bc 5e 9b fa bb d2 64 d3 3b
       0.018756961 -0.025968216 -0.0076479157 0.0064512277
000050 e5 d0 d5 bc 87 4c 2c 3c 65 58 27 3c c1 67 b9 3b
       -0.026100585 0.010516292 0.010213946 0.0056581204
000060 1f 25 9c bc 36 3b 39 3d 52 d2 dc 3c 97 13 0c bd
       -0.01906067 0.045222484 0.026955757 -0.03419837
000070 b3 fa 18 bc c3 29 e5 3b 69 93 47 bc 68 f9 92 bc
       -0.009337115 0.006993504 -0.012181141 -0.017941192
000080 c8 ab dd bb dd 07 f5 bc 3c 63 b8 bc cb b4 1e 3c
       -0.0067648627 -0.029910976 -0.022508256 0.009686659
000090 45 ad 05 bd 8e e8 dc 3c a6 1f a2 bc cc c9 8e bb
       -0.032635946 0.02696636 -0.019790482 -0.004357552
0000a0 58 8a 45 3c 58 3d be bb 83 db e2 bc 45 fa 0f bd
       0.0120569095 -0.0058056526 -0.027692562 -0.035150785
0000b0 08 8f 05 3d 9d 6d e2 bc fb 77 18 bd 34 66 7b bc
       0.03260711 -0.027640158 -0.037223797 -0.015344191
0000c0 5f aa 15 bd 90 dd 12 3c c4 85 43 3c ca 0d a7 bb
       -0.03653943 0.008963957 0.011933748 -0.0050980793
0000d0 24 dc 27 bd 99 0f 3c 3b f0 fc d1 3c 4c c6 ae 3c
       -0.040981427 0.002869582 0.025633305 0.02133479
0000e0 df ba db bc e7 7c b0 bb e1 3b ed 3c 73 54 10 3c
       -0.026822506 -0.0053859833 0.028959217 0.008809197
0000f0 7a f8 18 bb 94 0c c2 3c 90 b6 a1 bc a2 12 68 3c
       -0.0023341463 0.023687638 -0.019740373 0.014164599
000100 ab e9 05 bc e7 72 18 bd 7b 2e 42 bb 98 10 fc 3c
       -0.008173387 -0.037218954 -0.0029629755 0.030769631
000110 3d 0e bd bb 11 50 1a bc ae c1 73 bc 13 3a 02 3d
       -0.0057695196 -0.009418503 -0.01487772 0.031793665
000120 1c 7e 10 bd a2 fb 03 3d df 07 00 bc c3 1b c3 bc
       -0.035276517 0.032222398 -0.007814377 -0.023816949
000130 39 c0 9f bb f2 7c cb 3c 8e 6d fc bc 20 a5 ed bc
       -0.0048752096 0.024839852 -0.030813958 -0.029009402
000140 5b 64 08 bd 12 c4 bf 3c 5d 83 9f bc 34 18 da 3a
       -0.03329883 0.023408923 -0.019471819 0.0016639293
000150 1a 3f dc 3b ca 07 34 bc 43 f6 a8 3c a1 71 06 3d
       0.0067213895 -0.010988185 0.02062524 0.03282321
000160 3f e4 59 3b 5e 42 1a 3d 00 90 b8 bc 39 ed 31 3d
       0.0033247618 0.03766095 -0.022529602 0.043439124
000170 54 03 99 bc de ec 7b 3c 37 7c b3 bc 33 47 89 bc
       -0.018678345 0.015376298 -0.021909816 -0.016757583
000180 63 22 e9 3c 0c 64 08 bd 8b 7d 2a bd 90 b8 ce 3c
       0.02845878 -0.033298537 -0.041623633 0.02523449
000190 73 bc e0 bc 89 10 bc 3b 83 e8 f8 3c 9b 2d 30 bb
       -0.02743361 0.005739276 0.030384308 -0.0026882652
0001a0 3e 25 c4 3c e3 2b fe bc e1 27 cd 3c ef 6e a5 bc
       0.02394354 -0.031026786 0.02504343 -0.020194499
0001b0 e7 1a a8 3c 2c cb 23 3d 3a fe 69 3c 45 6c bb bc
       0.02052064 0.03998868 0.014281804 -0.022878775
0001c0 a6 7a a5 bc bd f1 1c 3c 66 ab 00 bd 8a 04 b1 3c
       -0.020200085 0.009579119 -0.03141346 0.02160861
0001d0 1a db ec 3b cc ca ac 3c 50 0d e2 3b 48 f5 02 3d
       0.0072282674 0.021092795 0.0068985596 0.0319722
0001e0 ec 92 3b 3b 4c 65 39 3d c2 5b 23 3d b4 53 18 bd
       0.0028621508 0.04526262 0.03988243 -0.0371892
0001f0 0b 7a 6a bc 7f 50 83 3c cf da 8d bc 41 61 91 3b
       -0.014311324 0.016029594 -0.01731625 0.0044366424
000200 00 63 fc 3c 5b 1b 18 bd 1a cf a5 bc d7 b2 1c bd
       0.030808926 -0.037135463 -0.020240355 -0.038256492
000210 f1 6b 85 3c f9 66 d0 3c f6 34 92 bc ec 65 7b bc
       0.016286822 0.025439726 -0.01784752 -0.015344124
000220 cf 48 b1 bc 4d 63 41 3d 7e 0e 11 3c 23 96 33 bc
       -0.021641163 0.04721384 0.008853553 -0.010961088
000230 37 de 39 bc 87 a8 75 bb 33 48 fb 3c 4e ab b5 bb
       -0.011344484 -0.0037484483 0.030674076 -0.0055441028
000240 db 75 06 bd 2e 44 4a bc f1 b8 f7 3b 61 e2 c0 3c
       -0.03282724 -0.012345357 0.0075598885 0.023545446
000250 de 01 e2 3c 90 c4 03 bc 50 a8 87 bb b0 52 a9 3c
       0.027588781 -0.00804247 -0.0041399375 0.020669311
000260 e9 ba a8 3c 5a 12 b7 3c f6 69 f9 3c cd 62 dd 3c
       0.020596938 0.022347618 0.030446034 0.027024651
000270 01 36 55 bb d6 98 12 3d e5 0f cf 3c ce 55 b1 bc
       -0.003253341 0.035790287 0.025276134 -0.02164736
000280 32 e6 fe 3c 38 fa 3f 3d 82 47 e5 3c 00 22 c4 bc
       0.031115625 0.046869487 0.0279882 -0.023941994
000290 bf 03 14 bc 7a f9 54 bc c3 d6 95 3b 63 76 ea bc
       -0.009034096 -0.012998933 0.0045727207 -0.028620904
0002a0 2c 69 48 bc 0d e4 ed ba 84 3d e5 3c c8 45 ef 3b
       -0.012232106 -0.001814963 0.027983434 0.0073020197
0002b0 ef 06 af bb 9c e4 22 3d 88 25 c2 bc 2d 97 17 3d
       -0.0053414027 0.0397688 -0.023699537 0.037009407
0002c0 1f f2 18 3d 49 46 7f 3b dc e3 d6 3b 20 89 16 bd
       0.03734028 0.0038951805 0.0065579247 -0.036751866
0002d0 db 5b 05 bd 5b ed bf 3c 76 83 2e 3d b1 92 3d 3c
       -0.032558303 0.02342861 0.04260584 0.0115706185
0002e0 c9 77 3b 3c 27 31 8b bc e7 69 bb 3b d0 22 c6 3c
       0.011442133 -0.016991211 0.0057194117 0.024186522
0002f0 4c fe 8b bb 55 65 cf bc 0b 97 98 bc 17 41 22 3d
       -0.004272258 -0.025316874 -0.01862671 0.039612856
000300 52 09 44 bc 59 70 2b bd 65 c2 2f bd 9f 45 9f 3c
       -0.011965113 -0.04185519 -0.04291 0.019442378
000310 0e 53 8a 3c 8a 3b 2b bd b5 e9 4b bd 58 39 28 bd
       0.016885307 -0.041804828 -0.049783427 -0.041070312
000320 66 fc 3e 3c c1 53 b0 bc cd 69 5b bb d9 02 50 bc
       0.011656856 -0.021524312 -0.003347981 -0.012695991
000330 ff 5f 0d 3d c5 d9 1e bd d8 44 8c bc c2 d5 49 3c
       0.034515377 -0.0387819 -0.017122671 0.01231903
000340 62 2b b6 3c 8f d1 ba bc 87 78 36 3d 8b 6c 3c bc
       0.022237483 -0.022805003 0.044548538 -0.011500488
000350 7d 4b 2c 3d 00 34 04 3c 73 a8 5b 3c 50 7f 8a bc
       0.04206418 0.008069038 0.013406861 -0.01690641
000360 da 8c 3a bb 38 f5 3a 3d 4f 53 f0 3a ea 08 89 38
       -0.0028465302 0.045644015 0.0018335375 6.5343294e-05
000370 74 6d 2c 3d 17 84 7e bb 9c b5 09 bc a7 55 b5 bb
       0.04209657 -0.0038836056 -0.008405115 -0.005533892
000380 9d 6a 4a 3c 3a 0a 99 3c 2c c5 a0 3c f4 f7 e3 bc
       0.01235452 0.018681634 0.019625269 -0.027828194
000390 55 83 81 3b 2d 68 12 3d 65 4f 8d 3c 38 05 ce bb
       0.0039524236 0.03574388 0.017249772 -0.006287243
0003a0 37 30 0e bc 15 d4 61 3c 68 5c 60 bc 44 56 ed bb
       -0.0086784875 0.013783474 -0.013693906 -0.0072429497
0003b0 b5 5d e4 3b 3c 4c a6 3c 66 c9 1e 3d 92 48 15 3d
       0.0069691786 0.020300023 0.038766287 0.03644616
0003c0 d6 b8 86 3b 42 74 29 3d a0 20 dd 3a 77 86 1e bd
       0.0041113896 0.041370638 0.0016870685 -0.038702454
0003d0 cb ed d2 3c c1 c3 3f 3d 4d c8 90 3c 95 1c e2 bc
       0.025748154 0.046817545 0.017673636 -0.02760152
0003e0 a3 6e ec bc 10 d6 87 bc 93 ab ac bc ee c2 47 3c
       -0.02886135 -0.016581565 -0.021077907 0.012192471
0003f0 9d 38 b9 3c 72 5c ac 3c f5 23 d5 bc cf 87 08 3d
       0.022610003 0.021040175 -0.026018122 0.033332642

fc1.bias f4 [10]
000000 56 0d 42 3c c9 99 5e 3c 23 73 ba bb df 94 c6 3c
       0.011844 0.01358647 -0.005689995 0.02424091
000010 46 62 41 3d 41 0b 54 3c 2b 8e 58 3c fa 32 11 3c
       0.04721286 0.012942136 0.013217489 0.008862251
000020 a1 1b be 3c 32 d3 07 3d
       0.023206534 0.033160396

fc2.weight f4 [2, 10]
000000 8d 8f c5 bd 28 ea b8 3d 81 a1 38 3e 0b 44 00 be
       -0.09646521 0.09029037 0.18030359 -0.12525956
000010 2d 02 c1 3d a4 26 2f be 2a 21 7f 3d a3 f3 8f 3e
       0.09424243 -0.17104584 0.062287487 0.28115568
000020 3e e1 13 3e d0 7b 14 be c4 8f 95 3e 74 be 38 be
       0.14441392 -0.14500356 0.29211247 -0.18041402
000030 9d c3 af 3d 39 1e 17 bd 08 97 a5 be f8 4a 81 bc
       0.08582232 -0.036894057 -0.3234179 -0.015782818
000040 0e 91 22 bd 2e 09 f5 bd 0b 65 a9 3d 8a 62 12 3e
       -0.039689116 -0.119646415 0.082712255 0.14295402

fc2.bias f4 [2]
000000 68 fa 14 be 69 60 ec bd
       -0.14548647 -0.11541826
