Lab5/model_10_1e-05.pth (torch, 378966 bytes, 54 tensors)

layer1.0.weight f4 [16, 3, 3, 3]
00000000: 5bdb 203c 54bc e3bd ef7a 90bc d85d 393e
00000010: 48f3 1cbe e0b9 84bd 47f3 bebd 29da c73c
00000020: 151c 0d3d e910 03be af12 b0bd e253 be3d
00000030: 7e7b 393e 21e0 dabd 6dbe fa3d e590 1dbe
00000040: c74e eb3d 373c 0f3e 9c1e 11be a828 a73d
00000050: bbcc d4bd 4b16 42be b629 a93c 0459 50bc
00000060: 5143 d43d 2ca3 373e 3ca2 bd3d 1715 033e
00000070: ef37 3fbd aa3b 073e 619a 3dbe ac7f b9bd
00000080: a96e eabd f7bc 713d a410 923d b4b2 533d
00000090: 8fb4 87bd 37aa f53d a873 363e 6a4f 2e3e
000000a0: f9c6 bebd 61a6 403e 2159 ee3d c3c7 97bd
000000b0: 62fa 203d bd76 333e c06a 22be 460b 663c
000000c0: a659 f03d 4f54 da3d 812a b8bd b22a d63d
000000d0: 5178 233e 6932 9f3d 8472 fbbd e100 19be
000000e0: c58f 08be e7c9 28be 8f9b aa3d 8742 fd3d
000000f0: b2ee 3c3d b5f8 303d 8d12 08be bb3a 153e
00000100: 68d8 2a3e af3b 1a3d ac3c 283d 2157 40be
00000110: 9471 2f3e fd3f b6bd 59d0 01be 7dea 2dbe
00000120: d142 e1bd cafb 4fbd 071e 3d3e d915 b03d
00000130: 4a34 39be cc29 533c 71a1 b33c f482 8a3d
00000140: 4bf5 16be 6de4 e3bd a3fe 383e 9c30 b5bd
00000150: ab1c 76bd 5c12 1dbe f8b2 f53d 4dfa cbbd
00000160: f036 9abd 0971 abbd 33cc 0a3e c7da 36be
00000170: 1f43 08bc 0186 503c 8291 183e db13 8a3d
00000180: b164 413e 201c 113e e6df de3d bbd1 20bd
00000190: dd67 edbb 63d9 1b3d f040 823d 348c 413d
000001a0: 903d 95bd 4873 c73d bfb6 39bc 53fb ffbd
000001b0: 94d6 2a3e ca5d c9bd 7e20 213d e70e 26be
000001c0: eb10 233e 34fe 213e 50fc 79bc 4f05 cebc
000001d0: 4309 1a3e 2694 b43d fe94 3abe 84a7 41be
000001e0: 6706 1d3e e265 863d b23b b23d 3151 c7bd
000001f0: 7749 6bbd 4c8a 333e e561 79bd b3a3 693d
00000200: b960 0abe c006 00bd 509d da3d 1a0a 0e3e
00000210: 1a0b e4bd 741f 3f3d 46d4 923d 3c3b 423d
00000220: f41a 0dbd ff60 2b3e 352c dabd 708a bb3d
00000230: 7d70 98bc 4a9b 403c 9980 a03d 1d2f 9a3d
00000240: e53c 9e3c 52e2 053e ef98 2ebe cf8d 78bb
00000250: bb43 6dbc eefb 3e3e 62d9 5ebd 005a 15be
00000260: ed4d 11bd 551c 3ebd 48a7 093e 4152 473c
00000270: 7ae6 f13d 7add 023e fd10 3abe 5caf 333e
00000280: b010 81bc 138f b73c 2b61 fbbd 4362 2fbe
00000290: 822e 093e e41a 76bd 8a1b 3e3e d9d0 20be
000002a0: 64c3 443d c27c dd3c f77f 1d3e b7fa acbd
000002b0: e815 f9bd 0e9e 0f3e 3113 8bbd ddd1 be3d
000002c0: 9c02 a63d a7fa 183e ca18 593d 4811 313e
000002d0: dca7 3dbe 2feb 8abc 7c92 e83d ffd7 103e
000002e0: 095e 1d3e 4204 1ebe 5c34 8c3d 3fed aa3d
000002f0: 2553 6a3d ec5f 833c bd76 f2bd c923 003e
00000300: c5c4 5dbd 5b3e 783d 1d57 f4bd 1384 f63b
00000310: db26 00be efc0 a6bc bc35 26bc 21fe 653c
00000320: 358c cfbc de54 31bd 2ac7 003e cb29 6c3d
00000330: 467c 24bd ab0c 0bbe dfe7 92bd 207d 373e
00000340: 9c1c 103e e199 903d 1e64 20be 5712 31be
00000350: 9627 8a3d 72f1 bb3c a830 1c3e 7f8b 213d
00000360: 6df0 8bbb 2d77 a9bd acdc 8e3d 5e4f 273d
00000370: be6a 953d 60f3 8ebc 299b 813d a850 123e
00000380: b376 10be eca4 d73c 6668 b23d 1478 86bd
00000390: a919 1d3e b705 6c3d e8d3 313e 65da ab3d
000003a0: 4aaf 2ebe 3236 303e 001f b13d 2975 ffbd
000003b0: d1f5 fc3d 5796 333b 23c1 7dbc 0660 083d
000003c0: 5656 f83d 8f24 41be f909 16be 8f94 ce3d
000003d0: e2df 303e 5ea3 0e3d e3fc 2f3e 25ae 523d
000003e0: bf8a 233e ba81 25bc c579 25be f783 b1bb
000003f0: 9195 19be 1d4d 3e3e 4b86 14be 958c 3ebe
0.009817923 -0.11119905 -0.017636744 0.18102205 -0.1532718 -0.06480765 -0.09323745 0.024396019
0.03445061 -0.1279942 -0.085973136 0.09293343 0.18113515 -0.106872804 0.12243352 -0.15387304
0.11489635 0.13987814 -0.14171833 0.081620514 -0.10390612 -0.18953817 0.020649772 -0.0127165355
0.10364402 0.17933339 0.092594594 0.12801014 -0.0466842 0.13206354 -0.18515922 -0.090575546
-0.11446888 0.0590181 0.0713208 0.051684096 -0.06626236 0.119953565 0.17817557 0.17022482
-0.09315295 0.18813469 0.11638094 -0.074111484 0.039301284 0.17525764 -0.15861034 0.014040774
0.11735849 0.10660612 -0.08992482 0.10457362 0.15963866 0.07773287 -0.122777015 -0.14941742
-0.13336094 -0.1648327 0.08330452 0.12366205 0.046126075 0.043205936 -0.13288327 0.14573185
0.16684115 0.037654575 0.041073486 -0.18783237 0.1713317 -0.088989235 -0.12677135 -0.16983981
-0.10999072 -0.050777234 0.18468486 0.08597917 -0.18086353 0.012888383 0.021927567 0.067632586
-0.1474201 -0.11127553 0.18065886 -0.08847162 -0.060085934 -0.15339035 0.11997026 -0.099598505
-0.0753001 -0.08371169 0.13554458 -0.17856894 -0.008316784 0.0127272615 0.14899257 0.067420684
0.18886067 0.14170885 0.10882549 -0.039262515 -0.0072450475 0.038049113 0.06360042 0.04725285
-0.07287133 0.09738785 -0.011335074 -0.12499108 0.16683418 -0.09832342 0.039337628 -0.16216622
0.15924422 0.15819627 -0.01525791 -0.025149016 0.15042596 0.088173196 -0.18220899 -0.18911558
0.15334474 0.06562401 0.08702792 -0.09732283 -0.05744311 0.17533225 -0.060884375 0.05704088
-0.1351346 -0.031256437 0.10674536 0.13871041 -0.1113493 0.046660855 0.07169394 0.04741977
-0.034449533 0.1673622 -0.10652963 0.09157264 -0.018608326 0.011755774 0.07837028 0.075285174
0.019316146 0.13074616 -0.17050527 -0.0037926321 -0.01448148 0.18650791 -0.05440653 -0.14585114
-0.035474706 -0.04641374 0.13442719 0.012165607 0.11811538 0.12779799 -0.18170543 0.17547363
-0.015755028 0.02240709 -0.12274393 -0.17127328 0.13396648 -0.06008424 0.18565193 -0.15704669
0.0480379 0.027037028 0.15380846 -0.084462576 -0.121623814 0.14025137 -0.0679077 0.09317372
0.081059664 0.14939366 0.053002156 0.17291749 -0.18521065 -0.016957847 0.11356065 0.14144896
0.15367903 -0.15431312 0.06845924 0.08346032 0.0572082 0.01603695 -0.11839054 0.12513651
-0.054142732 0.06060634 -0.11930678 0.0075230687 -0.12514822 -0.02035567 -0.010144647 0.01403764
-0.02533541 -0.043293826 0.12575975 0.057657044 -0.04015758 -0.13579051 -0.07173132 0.17918825
0.14073414 0.070606 -0.15663192 -0.17292152 0.06745832 0.022942279 0.15252936 0.039439674
-0.0042706043 -0.08274684 0.069756836 0.040847175 0.0729575 -0.017450035 0.063284226 0.1428858
-0.1410778 0.026323758 0.08711319 -0.06565872 0.1534182 0.057622638 0.17365992 0.08391265
-0.17059055 0.17208174 0.08648491 -0.124735184 0.12351573 0.0027402842 -0.015487942 0.0332947
0.12125842 -0.18861602 -0.14652242 0.10086929 0.17272905 0.034823768 0.17186312 0.05143561
0.15970896 -0.01010173 -0.16159733 -0.0054173428 -0.14998461 0.18584104 -0.14504354 -0.18608315

layer1.0.bias f4 [16]
00000000: 025a 9d3c b58a f13d cfcc c1ba 7695 02be
00000010: fabf c5bb 1437 3dbe 6fd0 eebd 7a27 9f3d
00000020: 2ab9 213c 7835 3abe efd2 123e a68b e4bd
00000030: b702 efbd d743 263e 8cad 12be d936 b43d
0.019207958 0.117940344 -0.0014785769 -0.12752327 -0.0060348483 -0.18478042 -0.11660849 0.077712014
0.009870807 -0.18184459 0.14338277 -0.11159448 -0.1167044 0.16236816 -0.14324015 0.08799524

layer1.1.weight f4 [16]
00000000: 1d0b 803f f6ed 7f3f 525c 7f3f 2654 803f
00000010: b619 803f 06da 7f3f 2e2a 803f 2381 7f3f
00000020: 6fed 7f3f c0d3 7f3f 604c 7f3f 5a8f 803f
00000030: e706 803f 6fe3 7f3f f2f5 7f3f 4022 803f
1.0003392 0.99972475 0.99750245 1.002568 1.0007846 0.9994205 1.0012872 0.9980642
0.9997167 0.9993248 0.99725914 1.0043747 1.0002106 0.9995641 0.9998466 1.0010452

layer1.1.bias f4 [16]
00000000: 9b6f 8b3a 6c78 7bba b937 35bb 9f02 fc3a
00000010: 0e13 a83a 3e2f 84ba 1818 5438 6341 9dba
00000020: a64b 4a39 da56 2d39 8693 3abb 8932 533b
00000030: 1cb9 90b9 b8d0 a4ba 3cae c43a b680 2d3b
0.001063812 -0.00095928344 -0.0027651621 0.0019226855 0.0012823062 -0.001008488 5.0567178e-05 -0.0011997636
0.00019292402 0.0001653092 -0.0028469278 0.0032226166 -0.00027603738 -0.001257441 0.0015005539 0.0026474423

layer1.1.running_mean f4 [16]
00000000: 81eb 763c aa7b 1b3f 449a 8cbe 686b d4bc
00000010: c1e6 803e b1ef 9d3d 0aa3 5a3e 4269 b83c
00000020: 383e 9c3e 27fc 8f3d d0de b53e 1ea7 73be
00000030: f185 093e f46b 24bf 5c80 793d 6961 453e
0.015070797 0.6073557 -0.27461445 -0.025930122 0.2517605 0.07711733 0.21351257 0.022511128
0.3051622 0.07030516 0.35521555 -0.23794219 0.13430001 -0.64227223 0.06091343 0.1927544

layer1.1.running_var f4 [16]
00000000: afc7 953a 596d 8e3d 34bb 8d3c 37e0 b33b
00000010: fc66 7f3c ab3b a23c cf1e fc3c dd46 343b
00000020: b1b4 973c ad04 793c d227 903c b357 1a3c
00000030: d66a 683c 094f 2a3e 2e5c 9c3c 5344 533b
0.0011427308 0.0695445 0.01730118 0.005489375 0.015588518 0.019803843 0.03077641 0.0027508058
0.018518778 0.015198869 0.017597113 0.009420323 0.014185628 0.16631712 0.019086923 0.003223677

layer2.0.weight f4 [32, 16, 3, 3]
00000000: 1fa6 81bd 27c6 6e3d 0ef5 05bd 1a32 303d
00000010: ab2c 8a3d 7394 a83d 3d2d cb3c 7ca1 95ba
00000020: 0451 80bd 2c4f 1e3c a76b d1bc 6423 893c
00000030: 4bbe 56bd 9b91 bfbc 3ab3 7fbd 0443 8d3c
00000040: b674 b83c 5279 2bbd 85f6 0a3d 0d70 86bd
00000050: ff1f a83d c9b8 a2bc 07a9 533d a4e1 25bd
00000060: 223c 183d 9986 a43d 3bfc 9fbc 6bda 283d
00000070: e36e 2e3c ac9b 2dbc 1ae4 5cbb 3dc3 a03d
00000080: 0e96 803d 99c2 6eba 155b 47bd bac9 003d
00000090: f508 86bc 0fae 33bd aa69 63bd aed9 b5bc
000000a0: 1eaf 50bd 92a2 ae3b d2ec 08bd 3411 b13c
000000b0: 2d3b 23bd 4073 a73c e7d6 11bc a5ad a43d
000000c0: f577 183d 192b 803d 61e3 e5bc a621 87bd
000000d0: 7ccb 953d 3a16 8ebd 0215 49bd ad2f 80bc
000000e0: 6fde c7bc f304 3c3c aadf c73c a71c d73c
000000f0: 8a7a 263c 1428 9ebd db1b 403a 65a5 57ba
00000100: 7693 083b 4905 3cbd eb0a 563d 6357 cf3c
00000110: 162a 14bb 2d8f 1fbd 2832 b23b 5bbf 613d
00000120: ad45 50bd 5bff 94bd 248b 70bd 39b0 63bd
00000130: 44a9 843c e089 9c3d c865 e0ba 15f3 663c
00000140: 19b1 88bd 4fcb dc3c fc83 893c f39e 71bd
00000150: d498 a63d b26d 43bd 3761 1d3c a90a 9a3d
00000160: c253 893d 22d0 ddbc 2c95 7e3c 4c7d 573d
00000170: 4b3d ca3c 295d 243c 4771 17bd 2c91 853c
00000180: 1095 5a3d 2019 a8bd ee3b 343d 5b4a 3c3d
00000190: 70a0 a33d 10c1 66bb 91e8 a6bd 975b 47bd
000001a0: 5efc fe3c 3ed8 44bc 1e04 ffbc 4b32 78bd
000001b0: 9778 95bd d23d 513b 3f53 c63c 293f 72bd
000001c0: 6ee8 90bd b02f 77bd a87a f53c 1177 103c
000001d0: 2e74 303d 969a 8d3c cbb0 85bd 52c5 c2bc
000001e0: fe5f 673d 1c93 6fbd 64c2 033d e15a dfbc
000001f0: 7acd aa3d 58ef 0f3d 1196 403d 5b5b 6f3b
00000200: 33ff 14ba 1c89 d7bc 626a a63d 2524 413d
00000210: 4091 2e3d 1e7b 873d e869 753c 5cac f53c
00000220: 51ee 3c3d 34e1 8c3d f102 b43c d399 33bd
00000230: b5c4 883b 16ab 87bd 961b 563d e23e 3d3d
00000240: 8529 8b3d e646 8bbd 9918 a03d 98ed 1dbd
00000250: 7da8 543d 7cca 99bd 5dcf 163d e43f 6ebd
00000260: 109a 87bd 308c 48bd 1918 993d 2375 83bd
00000270: 1011 fe3c caa1 293d e9e1 923a 6e2f 49bd
00000280: 2a73 a83d 1106 8b3d 810f fdbb 1ef7 bdbb
00000290: 699d 96bd 6fa1 3dbd 3129 88bd dcdf 553c
000002a0: 2f1e bcbb f718 d2bc 5ec5 6fbd 5c73 0fbd
000002b0: 74d2 9c3d 84f5 05bd a2bc 46bd 1f74 4bbd
000002c0: 215f a03c 0280 95bc 899d 80bc 23c3 dcbc
000002d0: cc1c 9a3d 996b 96bc 6e10 673d 8054 3b3d
000002e0: 2435 3ebd 23cc 723d dab7 1abd 8bdb 70bd
000002f0: 9c6d c7bc a69f 4abd a82d 3c3d c634 83bd
00000300: eb6d a1ba d31d e5bb b3d8 e7bc 4640 abbd
00000310: ec19 55bc bdf4 d8bc 130b e0bc d7fd a53b
00000320: e01a c63c 76fd 6d3d e375 8f3d 3b02 2bbd
00000330: b5a9 23bc f5d6 51bd 4748 3f3d 0906 943d
00000340: f5d5 183d 6ae1 71bd 4381 c63c 0da3 943d
00000350: 7169 f939 0ac1 6bbd a5da 3bbd 229d 153c
00000360: 1178 9cbd 4b88 523d 0cae 833d 6ce4 1b3c
00000370: bd4e 85bd 64ab 76bd f5d6 0a3d 089f 503d
00000380: 2e76 1ebc e86e 17bd 7dfe 103d 036d 03bd
00000390: 7688 51bd d13d 1b3d e31f 4b3d e75c 40bd
000003a0: b0fb 923d 3680 8dbd 911c 2c3d a31a 9b3d
000003b0: 54da a9bd 4efc 423b eb33 14bd c783 3abd
000003c0: 6276 5cbc 9a69 8e3d 5c3c 26bd ead3 e3bc
000003d0: 7ef7 2abd 5099 d5bc 4fba 3dbd 41ff 37bc
000003e0: 7988 023d a9d8 8a3d ce08 ae3b 105e 913d
000003f0: b247 8cbc 6076 4abd e96b 3a3d 9ae7 0c3d
-0.06330513 0.05829444 -0.032704405 0.04301653 0.06746801 0.082314394 0.024801845 -0.0011415924
-0.062654525 0.009662431 -0.025564028 0.016740508 -0.05242757 -0.02338486 -0.062426783 0.01724387
0.02251659 -0.041863747 0.033926506 -0.06564341 0.08209228 -0.019863503 0.05167487 -0.04049839
0.037166722 0.08033485 -0.019529453 0.041223925 0.010646555 -0.010596197 -0.0033705295 0.07849739
0.06278621 -0.0009107977 -0.048670847 0.03144238 -0.016361693 -0.043867167 -0.05552069 -0.022198524
-0.050948255 0.0053294385 -0.033428974 0.021614648 -0.039851356 0.020440698 -0.008901334 0.080409326
0.037223775 0.0625822 -0.028062524 -0.06598215 0.07314202 -0.06937833 -0.0490923 -0.015647734
-0.024398057 0.011475789 0.024398644 0.02625878 0.0101610515 -0.07722488 0.00073283695 -0.0008226245
0.0020839847 -0.045903478 0.052256506 0.025310224 -0.0022608093 -0.038954902 0.005438108 0.05511413
-0.050847698 -0.07275268 -0.058726445 -0.05558798 0.016193993 0.07643485 -0.0017120177 0.014096041
-0.06674404 0.026952414 0.016786568 -0.058989476 0.081346184 -0.047712035 0.009605697 0.075215645
0.06705429 -0.027076785 0.015538495 0.052609727 0.02468743 0.010031977 -0.036973264 0.016304575
0.053364813 -0.08207917 0.044002466 0.04596935 0.079895854 -0.003521029 -0.08149827 -0.04867133
0.031126197 -0.012014447 -0.031129893 -0.060594838 -0.07298391 0.0031927717 0.024209617 -0.059142265
-0.070755824 -0.060348213 0.029965714 0.00881745 0.043079548 0.017285626 -0.06527861 -0.02377573
0.05648803 -0.058489904 0.032167807 -0.027265014 0.08339973 0.035140365 0.047018114 0.0036522958
-0.00056837796 -0.026310496 0.0812576 0.04715361 0.04261899 0.066152796 0.014978863 0.029989414
0.046125714 0.068788916 0.021974059 -0.04384787 0.00417384 -0.06624429 0.0522724 0.046202548
0.067950286 -0.06800632 0.07817192 -0.038556665 0.051918495 -0.07509324 0.03681885 -0.0581664
-0.06621182 -0.04896182 0.074752994 -0.064188264 0.031013995 0.04141406 0.0011206242 -0.049117498
0.08225091 0.067882665 -0.0077227955 -0.005797281 -0.07354242 -0.046296533 -0.06648482 0.0130538605
-0.005740903 -0.02564667 -0.058537833 -0.035022125 0.07657328 -0.032704845 -0.048519738 -0.04967129
0.019576611 -0.018249515 -0.015700119 -0.026948517 0.07525024 -0.018361853 0.056412153 0.045734882
-0.046437398 0.05927671 -0.03777299 -0.058803122 -0.024344258 -0.04946866 0.04594198 -0.0640655
-0.0012316083 -0.0069920807 -0.028301572 -0.083618686 -0.013006669 -0.026483888 -0.02734903 0.0050656605
0.024182737 0.058103047 0.07004907 -0.041750174 -0.009989192 -0.05123039 0.04669979 0.072277136
0.03731342 -0.059052862 0.024231559 0.07257662 0.0004757154 -0.057557143 -0.045862813 0.009131702
-0.07640088 0.05139951 0.06429681 0.009514909 -0.06509159 -0.060222045 0.033896405 0.050932914
-0.009671731 -0.036971003 0.03539895 -0.032086384 -0.05115553 0.03790075 0.049590956 -0.0469636
0.07176912 -0.0690922 0.04201943 0.0757344 -0.08293596 0.0029752436 -0.036182325 -0.04553583
-0.013455959 0.06953736 -0.040584907 -0.02781101 -0.041739933 -0.026074082 -0.046320256 -0.011230291
0.03186843 0.06779606 0.005311108 0.07098019 -0.01712403 -0.049429297 0.045513067 0.03440056

layer2.0.bias f4 [32]
00000000: 0b1a 43bd f0f4 edbc 6fdf febc 64d5 be3c
00000010: 19a3 4cbd 36fe 873d 19cc e8bc c03f d93b
00000020: c345 59bd 44f6 bf3c b16c d93c 053d 943d
00000030: 25e8 c8bc 895e 90bc a9b4 1ebd 3b5f e9bc
00000040: b54c 62bd 5678 5e3d 1b1b 99bd 7921 9abd
00000050: 346d 35bd e1de 35bd 27ef d13b 85fe 693d
00000060: 3e4b 4abd bb24 f7bc 7d63 13bd 2768 ac3a
00000070: 14f8 0a3d ba47 15bd 8bef a83c 4e44 d5bc
-0.04763226 -0.02904746 -0.0311124 0.023295112 -0.04996023 0.06640284 -0.028417634 0.006629914
-0.053045046 0.023432858 0.026541086 0.07238201 -0.024524758 -0.017623203 -0.03874651 -0.028487792
-0.055248935 0.05431398 -0.07475873 -0.07525916 -0.044293597 -0.044402007 0.006406683 0.057127494
-0.049388163 -0.030168882 -0.03598355 0.0013153598 0.033927992 -0.036445357 0.020622035 -0.026033547

layer2.1.weight f4 [32]
00000000: 460e 803f 9a0e 803f 2829 803f 51d9 7f3f
00000010: 05a9 7f3f 5871 7f3f 8a16 803f f4c3 7f3f
00000020: 91c7 7f3f 0e1b 803f 666e 803f f9ad 7f3f
00000030: 3100 803f 600a 803f 2753 803f e57b 7f3f
00000040: 481f 803f 8ddd 7f3f 9386 7f3f 29e1 7f3f
00000050: 8888 7f3f a7fe 7f3f b6e0 7f3f 6bc8 7f3f
00000060: b805 803f 7775 803f d1d3 7f3f d915 803f
00000070: af50 7f3f 50f2 7f3f 6d23 803f 3054 803f
1.0004356 1.0004456 1.001256 0.99940974 0.9986728 0.99782324 1.0006878 0.99908376
0.9991389 1.0008256 1.0033691 0.99874836 1.0000058 1.0003166 1.0025376 0.99798423
1.0009546 0.99947435 0.9981472 0.9995294 0.99817705 0.99997944 0.99952257 0.9991519
1.0001745 1.0035847 0.9993258 1.0006667 0.9973249 0.99979115 1.0010811 1.0025692

layer2.1.bias f4 [32]
00000000: 060f 7c3a 3782 523a 9fc3 b43a 3c11 b739
00000010: 199e 72ba 2020 22bb 4c72 223a bec6 54b9
00000020: f915 88b9 51fd f739 75a2 553b 1db7 ddb9
00000030: 3ba4 64b9 e67b 9b3a 3823 2a3b d602 28bb
00000040: d380 ec3a 7844 f638 9639 ab38 d19c 863a
00000050: 0e6c 11b8 7bff 82b8 de3c 95ba 1b22 2a3a
00000060: f261 873a 4a01 583b 237a 0fb9 d5a6 d4b7
00000070: 87ca ddba ac80 9b37 9aa9 c03a 18f5 eb3a
0.0009615276 0.0008030268 0.001379121 0.0003491732 -0.0009255126 -0.0024738386 0.0006196841 -0.00020291933
-0.00025956312 0.00047300247 0.0032598053 -0.00042288835 -0.00021804955 0.0011862486 0.0025960933 -0.0025636456
0.0018043764 0.000117429474 8.1646416e-05 0.0010270124 -3.4671328e-05 -6.24647e-05 -0.0011385938 0.00064900675
0.0010328873 0.0032959753 -0.00013683042 -2.5350057e-05 -0.001692132 1.8537357e-05 0.0014698983 0.0018002121

layer2.1.running_mean f4 [32]
00000000: 013c 173e 34b2 17be b6f7 ec3d bec8 5b3e
00000010: dfa8 2abf d9b4 bb3e 5e4e 9a3e ab2c ea3e
00000020: 042d ce3d 6d68 9fbe 3fbe 23be dfae b53e
00000030: 0894 e7be c888 1dbe a388 98be ace4 ddbd
00000040: 6689 59be e053 e23e bb71 f53d 2362 1b3e
00000050: 8f5b 6f3d c7bb 0ebe 7112 853e b170 633e
00000060: b700 efbe 865b b83d 2911 353f c0cf 0b3e
00000070: a43d 763e 74cd e13d 69e4 93be c167 11be
0.14768983 -0.14814073 0.115706846 0.21463296 -0.66663927 0.36661413 0.30137914 0.45737204
0.1006718 -0.31134358 -0.15990542 0.3548498 -0.45230126 -0.15384209 -0.29791746 -0.10834631
-0.2124382 0.44204617 0.11984583 0.15174155 0.058436926 -0.13938819 0.25990632 0.22210957
-0.46680233 0.09001832 0.7072931 0.13653469 0.24046952 0.11025515 -0.288852 -0.14199735

layer2.1.running_var f4 [32]
00000000: dc1d a23d d478 8b3d a627 123e 1522 853d
00000010: fe32 0c3f f5a2 b23d 1776 6c3d 9663 7b3d
00000020: 5f56 603d 8f6a 0a3d 2fe5 073e aa81 4a3d
00000030: 40d8 923e 417c 193e 4a58 3c3d 47b1 583d
00000040: 96d2 973d 607a 6f3e 806e ed3d 35dd e83d
00000050: 2c90 353d 2856 943d 4237 053e 934f 823e
00000060: 634e 6e3d 14b8 3b3d 9351 083f db2b 453e
00000070: 9b6f 923d 9b1e 7f3d da32 833d 54db e83c
0.079158515 0.068101555 0.14272937 0.06500641 0.5476531 0.08722488 0.057729807 0.06137427
0.05476987 0.03379303 0.1327102 0.049440064 0.2868061 0.14988805 0.045982637 0.05290344
0.07413213 0.23386526 0.11593342 0.11370317 0.044326946 0.072429955 0.1300936 0.25451335
0.058180224 0.045829847 0.5324947 0.19255011 0.07150193 0.062285047 0.064061835 0.028424896

layer3.0.weight f4 [64, 32, 3, 3]
00000000: 7d58 0bbb 0f2d f0bc 668f 55bd 46d2 39bd
00000010: 194e 233d 84cb 66bd a807 0f3d f498 07bd
00000020: 8516 9a3c 40d4 0e3d b564 693a c372 26bc
00000030: 5539 653d 90a0 f9bc 952a 0d3b 19f7 4a3d
00000040: bd21 1f3d d1a1 bd3c 0fc7 cc3c 4c89 213d
00000050: 4603 00bd c55c 48bd 1f51 4d3d 3732 e7bc
00000060: b5f8 d5bc 7934 573d 9e5f 52bd a1c3 c53c
00000070: 297a 5e3d 5109 353a 6923 f2bc cf63 15bd
00000080: c17c 443c 9409 e0bb f506 443d 3a7c 103b
00000090: c527 123d 43c8 ce3c f687 163d 5d38 fabc
000000a0: 0cd7 5fbd 0afb cdbc 9cd5 05bd 75e2 b2bb
000000b0: e30d babc 072c 37bc 2029 4ebd c28f 49bc
000000c0: 7661 4eba 7bd4 b03c 665a 2f3d e5cc 613d
000000d0: 1f98 31bd 9d6f ff3c f83e 13bc a3ef 643d
000000e0: 539c 673d d92e eebc 3a30 023d c7ad d83a
000000f0: 8cc0 01bd 8dd9 143a aa97 cc3c 7281 633d
00000100: 3c8f 00bc 81b1 083c cae9 43bb 2395 6fbd
00000110: ab7e 1a3c 61e7 443d e27f 40bc 997b 663d
00000120: ef37 3c3d 6edc c33c d2cc c3bc 8012 58bd
00000130: 4143 ab3b a9a1 063d bfc0 74bb bdf8 54bc
00000140: 8dca 303d 4ab3 2abd a42a 5cbc 0c08 1c3c
00000150: b1fd e4bc 6e64 113d 8040 213d 188d f03b
00000160: d8cf 57bc 45b4 5a3d e855 4ebd 5d06 dfbc
00000170: 55bd 953c 3edd 01bc 5e0b 4dbd cf4a 57bd
00000180: ba0e 2ebc d984 60bc 5915 70bb 7235 653d
00000190: bffa 87bb 3463 123d 2b83 3dbc dd62 92bc
000001a0: e09e ee3c a72d 99bb eb03 0a3d 0779 d83c
000001b0: dcf1 263d 099d 29bd 8034 063d ee52 6abd
000001c0: e43a 0bbd b997 cc3c fe5e a03b 44d4 91bb
000001d0: c2b7 6bbd 7e51 0cbd 44f1 01bd d7d3 1f3d
000001e0: 8866 463d 5b13 373d 5e3f 1abd fc99 303b
000001f0: 35ff 74bd 95b5 683d 031f 0a3d 098e 0fbd
00000200: 075b f4bc 10dc 553d 53f8 453d 8839 df3c
00000210: b864 bc38 9002 78bc cb77 3f3c 3730 3bbd
00000220: 2de7 b23c 081d 893b 8116 e3bc 6a21 98bc
00000230: f770 06bc 3c98 ce3c 5191 633d f2f5 edbc
00000240: 26e0 3c3d d3c9 6bbd 72e3 c2bc 57d2 f63c
00000250: 9549 c6b9 4d05 cd3c af7a 8abc 2ef6 043d
00000260: b199 bf3c 4c6c 5cbd 25ee 59bd e2c8 473a
00000270: 0bad eebb e5d7 22bd c01c 6a3d baed 563d
00000280: 56c0 4e3d e0ff bdbc db52 4a3d 34bd ae3c
00000290: b517 3ebd 6b7e 773b ce35 ba3c 772c ea3a
000002a0: 89f7 5c3c 67ae f1bc bc44 103d 738d 373d
000002b0: 2fc0 44bd 115d 22bd 4d88 02bd df5b 05bd
000002c0: 3f8a 6abd f30a ca3c 9b65 b2bc 4d42 00bd
000002d0: ed47 fbba affb fb3c c8a1 793c c945 d33c
000002e0: 3e2d 3cbd ad00 513d 0f73 c3bc 3c9a 00bd
000002f0: 0cbd 4d3d dee2 1b3d 2796 62bd e87b 0ebd
00000300: 5d69 6b3c edc6 31bd 3034 5cbd 9199 56bd
00000310: e99a 48bd 9af1 253d df53 f73c f46d 933c
00000320: e840 3d3d 70f1 8a3b 238d 4bbc 70a4 28bc
00000330: 106c c33c 3052 143d 761e 2f3d a8f2 463c
00000340: 1f24 393d 8a71 0dbc d215 343d 328a c1bc
00000350: 6450 12bc 0dec 143d 36fe e3bc 0a15 ec3c
00000360: da8d c9bb bbd6 423d 3f3a 74bd 2729 33bd
00000370: c7dc 40bd 53d4 62bc 5c97 33bd bbc2 493d
00000380: 6597 38bd 4113 1d3d a93e 3f3d ad2a 17bd
00000390: c1c9 053d 3bac 043d 17ed 433d 521d 87bc
000003a0: 6045 733c e2c2 053c 0147 8ebc dffb e1bc
000003b0: a63d 89bc 5efc 68bd 0bb0 5c3c 1b87 8b3c
000003c0: 90b3 263d 6ebd 0f3d be78 b4bc f9a7 5fbd
000003d0: aedf 0f3d 95dc f93c d93f db3c b392 253d
000003e0: 88f0 b93b 1cfb 62bc 806b 013d e2a6 08bb
000003f0: d76d dbbc 6218 09bd cdfb 04bd 5b8a 1f3d
-0.002126246 -0.02931836 -0.05213871 -0.045366548 0.0398694 -0.05634643 0.03491941 -0.03310485
0.018809566 0.034870386 0.0008903251 -0.010159197 0.05596288 -0.03047207 0.0021540273 0.049552057
0.038850535 0.02314845 0.024997262 0.039437577 -0.03125312 -0.048916597 0.05012619 -0.028222186
-0.02611957 0.052540276 -0.05136072 0.024141135 0.05431572 0.00069059903 -0.0295579 -0.036472138
0.011992634 -0.0068370793 0.047858197 0.00220467 0.03568246 0.025241977 0.036750756 -0.030544454
-0.054648444 -0.025144119 -0.032674417 -0.0054591247 -0.0227117 -0.0111799305 -0.05033219 -0.012302341
-0.0007872799 0.021585694 0.04281082 0.055127043 -0.043357965 0.031181151 -0.008987181 0.055892598
0.056545567 -0.029075073 0.031784274 0.0016531282 -0.031677768 0.00056781695 0.024974663 0.05554337
-0.00784665 0.0083431015 -0.0029893988 -0.058491837 0.009429614 0.048072223 -0.01174924 0.056270216
0.04595178 0.02390882 -0.023901377 -0.052752018 0.005226523 0.032869015 -0.003734633 -0.012998757
0.043161917 -0.04167489 -0.013437901 0.009523403 -0.027953 0.035496168 0.039368153 0.0073410384
-0.013172112 0.053394575 -0.050374895 -0.027224714 0.018278757 -0.007926283 -0.05005967 -0.052561577
-0.010623628 -0.013703548 -0.0036633818 0.055959173 -0.0041497643 0.03573914 -0.011566917 -0.017869407
0.029128492 -0.0046746316 0.033695143 0.026424898 0.040758 -0.041409526 0.03276491 -0.057207994
-0.03399171 0.02497469 0.0048941365 -0.004450353 -0.057548292 -0.034257405 -0.03172423 0.039020386
0.048437625 0.044696193 -0.037658088 0.002694725 -0.059813697 0.056813795 0.03372098 -0.035047565
-0.029828561 0.05221182 0.048332524 0.027249113 8.983299e-05 -0.01513733 0.011686276 -0.045700278
0.021838749 0.004184369 -0.027720692 -0.01857062 -0.008205644 0.025219075 0.055558506 -0.02904794
0.046112202 -0.05756552 -0.023790095 0.030129595 -0.00037820326 0.025026942 -0.016904203 0.032461338
0.023388715 -0.053814217 -0.053205628 0.00076211814 -0.007283812 -0.039756674 0.057156324 0.052472807
0.050476395 -0.0231933 0.049395423 0.021330453 -0.046409328 0.003776456 0.022730734 0.0017866035
0.013486751 -0.029502107 0.0352218 0.04481263 -0.048034843 -0.039639536 -0.031868268 -0.03255832
-0.057260748 0.024663424 -0.021776965 -0.03131323 -0.0019171216 0.03075966 0.015236326 0.025790112
-0.045941584 0.051026035 -0.023858575 -0.03139709 0.050229117 0.038058154 -0.055318978 -0.034786135
0.014368382 -0.0434026 -0.053760707 -0.052392546 -0.04897586 0.040513612 0.03019136 0.017996766
0.046204478 0.0042402074 -0.012423786 -0.010293111 0.02385524 0.036211193 0.04275366 0.012142815
0.045200463 -0.008633027 0.043966122 -0.023625467 -0.008930299 0.036357928 -0.027831178 0.028818626
-0.006150943 0.047568064 -0.05962586 -0.043740418 -0.04708555 -0.013844567 -0.04384552 0.049257975
-0.045066256 0.03834844 0.046690617 -0.036905933 0.03266311 0.032390814 0.04783353 -0.016493473
0.014848083 0.008164139 -0.017367842 -0.027585922 -0.01675303 -0.0568813 0.013469706 0.017032197
0.040698588 0.035092764 -0.02203023 -0.05460355 0.035125427 0.03050069 0.026763843 0.040423106
0.0056744255 -0.013853814 0.03159666 -0.0020851423 -0.026785774 -0.03347052 -0.0324667 0.038950305

layer3.0.bias f4 [64]
00000000: b0b3 403d 383f d3bc eeba 43bc 1750 ccbc
00000010: f507 44bb 3fe6 d0bc 4205 7b3c 9b41 b6bc
00000020: a416 5c3d 5861 60bd 88af aa3c e907 3d3b
00000030: 3a26 c9bb 0f21 1f3d 0d60 38bd 9e3a 05bd
00000040: e338 4bbd f4f3 57bd 4fb0 58bd 453b 2e3d
00000050: 26de fe3c 96e0 a9bc 9b83 6abd 712f 643c
00000060: 1326 5c3a 93f5 21bd 884a 4f3d 0576 92bc
00000070: 0f00 acbc d64f 5ebd 4fd2 a9ba 16ca 0c3d
00000080: ab3f bcbb 4a83 a43b d7a3 57bc 75ea 093d
00000090: 797a 18bd 9f4c 4a3d d888 4ebc 6e4e 403d
000000a0: 46b8 2b3d b265 35bc fd0c a33c 7254 c63c
000000b0: bbab e13c 60f0 31bb 41be 883c 0de2 6bbc
000000c0: a056 11bc 68a8 93bc f2d6 1bbc 2dc5 b33c
000000d0: 9076 4cbc c5f8 c53c d5da 5f3d 7e90 6dbc
000000e0: 84b3 e83c 7271 6c3c b9f3 5f3d 48d4 3c3d
000000f0: 1115 843c f4a9 e43c 7d9c 373d f6f1 823c
0.047046363 -0.025786981 -0.011946423 -0.024940534 -0.002991197 -0.025500415 0.015321078 -0.02224808
0.05373253 -0.054780334 0.020835653 0.0028843826 -0.00613859 0.038849887 -0.045013476 -0.032526605
-0.0496148 -0.052722886 -0.052902516 0.042536993 0.031111788 -0.020736974 -0.057254415 0.013927327
0.00083980075 -0.03954084 0.050608188 -0.017878542 -0.020996122 -0.054275356 -0.0012956354 0.03437241
-0.0057448945 0.0050205337 -0.013161621 0.03367086 -0.037226174 0.049389478 -0.012605868 0.046949796
0.041923784 -0.011071609 0.019903654 0.024210189 0.027547708 -0.0027151331 0.016692283 -0.014397156
-0.008870751 -0.018024638 -0.009511696 0.021944607 -0.012479439 0.024166474 0.054652054 -0.014499782
0.028405912 0.014431344 0.05467579 0.046100885 0.016123326 0.027913071 0.044826973 0.015984517

layer3.1.weight f4 [64]
00000000: fece 7f3f 4d15 803f 5140 803f b7d1 7f3f
00000010: 6318 803f 17a6 7f3f 61dd 7f3f b0d9 7f3f
00000020: 2dff 7f3f a078 7f3f e041 803f da3e 803f
00000030: 00a6 7f3f b80e 803f ff23 803f c11b 803f
00000040: 93ab 7f3f ddf6 7f3f a606 803f 6f1e 803f
00000050: 8b47 803f 84f9 7f3f 4a83 7f3f bdce 7f3f
00000060: 7846 7f3f 496f 803f adc1 7f3f 6f2b 803f
00000070: aae7 7f3f 421f 803f bc2d 803f 700d 803f
00000080: 8734 803f 4e94 7f3f 0fa4 7f3f 724b 803f
00000090: d411 803f 2111 803f 09bb 7f3f 16d4 7f3f
000000a0: 642b 803f 7df6 7f3f d72f 803f 8e2f 803f
000000b0: 2ddd 7f3f 01b2 7f3f d730 803f c33c 803f
000000c0: 62c2 7f3f dbbd 7f3f b1e4 7f3f 8e1a 803f
000000d0: 69e4 7f3f 1e1a 803f de7b 7f3f 1788 7f3f
000000e0: 752f 803f 22c1 7f3f 0734 7f3f 3c01 803f
000000f0: c114 803f e3c8 7f3f 5b44 803f 1e31 803f
0.9992522 1.00065 1.0019628 0.99929374 1.0007442 0.9986281 0.9994717 0.9994154
0.9999874 0.99793434 1.0020103 1.0019181 0.9986267 1.0004492 1.0010985 1.000847
0.99871176 0.9998606 1.0002029 1.0009288 1.0021833 0.99990106 0.99809706 0.9992483
0.997169 1.0033962 0.999049 1.0013255 0.99962866 1.0009539 1.0013957 1.0004101
1.001603 0.9983567 0.9985971 1.0023024 1.0005441 1.0005227 0.9989477 0.9993299
1.0013242 0.99985486 1.00146 1.0014513 0.9994686 0.9988099 1.0014905 1.0018543
0.9990598 0.9989907 0.9995833 1.0008104 0.999579 1.000797 0.9979838 0.9981703
1.0014483 0.9990407 0.9968876 1.0000377 1.0006334 0.99915904 1.002086 1.0014989

layer3.1.bias f4 [64]
00000000: 3df7 42ba 6f66 8339 3372 313b 36c6 b1ba
00000010: b510 cc3a 1471 c9ba a281 9cb9 e714 fab9
00000020: a371 7dba 4023 ddba ac9d 073b 9634 033b
00000030: 2ecf a6ba 083e 903a 7d38 4e3a e2a0 8ab9
00000040: bcee c0ba 1732 4f39 c309 36ba 952d 4b39
00000050: da81 ec3a 8c53 853a d0ce 7eba c7bb 89ba
00000060: 1c44 ceba 1ad2 3e3b 129b 34ba cce7 013b
00000070: 0ca5 a83a 1b8a af3a 93f7 503a a375 133a
00000080: a8e0 f73a 870f 8ab9 0aa0 cbba 0316 fb38
00000090: 1164 e03a 843c 883a 4444 96ba edd9 06ba
000000a0: 3d3f 2337 ea57 3439 74ec 1e3b cc6e 153a
000000b0: 73a0 0139 e701 9eb9 1f0e 0d3b c370 cd3a
000000c0: 5914 83ba d16f d8ba 212c 7aba 2443 4a3a
000000d0: 4c0b f3b9 5da4 cab9 66e4 13bb 3c01 04bb
000000e0: 03c8 013b 4043 56ba 85c4 41bb 1d55 17ba
000000f0: a459 c13a a99c 95ba 83a4 133b 5aa8 2c3b
-0.0007437354 0.00025062586 0.0027076125 -0.00135631 0.0015568944 -0.0015368783 -0.00029851223 -0.0004769929
-0.0009668117 -0.0016871467 0.0020693345 0.0020020357 -0.0012726539 0.0011004815 0.0007866694 -0.00026441278
-0.0014719586 0.00019759718 -0.00069442036 0.00019376569 0.001804407 0.0010171994 -0.00097201485 -0.0010508233
-0.0015736851 0.002911693 -0.00068895624 0.0019822 0.0012866571 0.0013392599 0.0007971462 0.0005625134
0.0018911557 -0.0002633298 -0.0015535366 0.00011972713 0.0017119666 0.0010394012 -0.0011464437 -0.0005144168
9.730281e-06 0.00017198888 0.0024249824 0.0005700409 0.0001236217 -0.00030137526 0.002152331 0.0015673864
-0.0010000571 -0.0016512816 -0.0009543319 0.0007715693 -0.0004635699 -0.00038650903 -0.0022566556 -0.0020142337
0.0019803054 -0.0008173473 -0.0029566598 -0.0005772876 0.0014751446 -0.0011414486 0.0022528477 0.0026345463

layer3.1.running_mean f4 [64]
00000000: cada 7c3e 6dde 36bf 1ecb 1d3f cf34 903e
00000010: 263f c83d a137 4dbe 4bab 73bd 41f2 4f3d
00000020: 16e9 9c3e 1256 67be 8ed3 8f3e e3f2 563e
00000030: eb3e e43e ce34 013e 0de2 513e 262d a13d
00000040: bf4e 03bf c495 d1be 16a3 04bf f6e0 d2be
00000050: ba05 a73f 6c4d af3e 1828 b03d a603 283d
00000060: f19d c13e c254 143e 33aa 103f b923 833b
00000070: 45f7 b13e 555e 463c 6ed7 83be f826 af3e
00000080: 7c76 b1bd 5c98 d33e ed6b 75bd dcde b1be
00000090: 2ac9 1f3d 2f2a 743e e95e bebe da2f 1e3f
000000a0: cf17 c1be ff1a 58be 2901 373f 1b0b 243e
000000b0: 3d1c 943d 5398 33be 210c 143f f612 823e
000000c0: 0dc5 363e 65a3 b9be 075f 13bf 614c c13e
000000d0: 8cc2 29be 7617 b73f 5295 fb3e 6517 3bbf
000000e0: 0cfe dabd 21ca 67bd f1d7 81bc 45ed 973e
000000f0: d705 44be ae49 1abf 8db4 43bf 5378 a7bb
0.24692836 -0.71433145 0.6163806 0.2816529 0.097776696 -0.20040752 -0.05948953 0.05076814
0.3064658 -0.22591427 0.2809109 0.20991091 0.44579253 0.126178 0.20496388 0.078699395
-0.5129203 -0.40934575 -0.5181135 -0.41187257 1.3048623 0.34238756 0.08601397 0.041019104
0.37815812 0.14485458 0.56509703 0.004002061 0.34758964 0.012107451 -0.25750297 0.34209418
-0.08665177 0.41327178 -0.05991738 -0.3474034 0.039010204 0.23844217 -0.37181786 0.61791766
-0.37713477 -0.21104048 0.71486145 0.16019861 0.072319485 -0.17538576 0.5783101 0.2540509
0.17848606 -0.36257473 -0.57566875 0.37753585 -0.1657812 1.4304035 0.4913736 -0.7308257
-0.10692987 -0.05658925 -0.01585004 0.2967321 -0.19142853 -0.60268676 -0.76447374 -0.0051107793

layer3.1.running_var f4 [64]
00000000: e78a 773e ce01 833e 144d 0b3e 0f63 163e
00000010: b8a3 fc3d 5281 fd3e 1dd5 9d3e 735a 7a3e
00000020: 0681 fa3d f78e 673e 075d 2f3e a463 063e
00000030: 11f0 553e 5ec9 383e 83e1 243e 7314 da3d
00000040: 46dd 0a3e 8226 3e3e d907 f73d 8111 a53e
00000050: c546 003f 6e50 193e ddb8 133e 2bfa 453e
00000060: d783 453e b9ba 473e ea7e 4d3e e125 3f3e
00000070: 436f 213e ca41 603e a94e 2c3e 09e4 263e
00000080: 3c88 7a3e bdbb 1e3e 1925 143e a6fd 3f3e
00000090: 83b4 0c3e 4978 243e a15d 3c3e 3ba9 2f3e
000000a0: 7162 ef3d 3c88 593e c9d2 753e 7320 333e
000000b0: 0b73 283e fa9c 5a3e 8235 3b3e 884d 293e
000000c0: f4dd 863e 67b6 2c3e f84a b83e ce95 5d3e
000000d0: 024f 603e 06d3 063f 3d5c 2b3e 535d 113f
000000e0: 51b0 063e c3a8 413e 36e4 403e eed4 053e
000000f0: 2d63 9a3e 9c8b 473e 149b 263e 0550 313e
0.24174081 0.25587314 0.13603622 0.14686225 0.123359144 0.49512726 0.30826655 0.24448566
0.122316405 0.2261313 0.17125331 0.13123947 0.2089236 0.18045565 0.16101651 0.10648432
0.13560972 0.18569377 0.12062044 0.32239917 0.50107986 0.14972088 0.14425988 0.19333713
0.19288574 0.19504823 0.20067945 0.18666793 0.15765099 0.21900097 0.16826881 0.16297926
0.24466032 0.15501304 0.14467277 0.18749103 0.13740735 0.1606151 0.18395092 0.171544
0.11688698 0.21243376 0.2400619 0.17492847 0.16450135 0.21348944 0.1828213 0.16533482
0.26341212 0.16866456 0.35994697 0.21639177 0.21905139 0.52665746 0.16734405 0.56783026
0.13153197 0.18912034 0.18837056 0.13069507 0.3015379 0.1948685 0.16270095 0.17315681

fc1.weight f4 [10, 576]
00000000: 5fe2 d53c c423 c5bc b87d 113d 34cf d6bc
00000010: abdc d53c e8e7 61bb bb86 e43b 9e8c debc
00000020: 80a5 8fbc cece 1b3d 7bdd e9bc e115 9cbc
00000030: 91e1 46bb e0ac 043d 412a d2bc 4b44 1dbd
00000040: 048b 2dbd 77fe e7bc 8a5f 72bc ab51 90bb
00000050: 03dc 083c 22eb 17bd fa12 89bc ac8a 083d
00000060: 5751 273c e576 d6bc 33b0 f33c ed0f 023d
00000070: 4997 1bbc c7a4 01bd 0084 03bd aa11 bb3c
00000080: a10d 2abd 4841 bfbc c986 43bc 628e fbbc
00000090: 4444 3f3c c439 0cbd 0537 1dbd c38e bcbc
000000a0: b143 b53c 21c1 df3c 0ca7 abbc 6736 86bc
000000b0: 4120 013d 34a2 b0bc c8a6 0bbd 3368 94bc
000000c0: dee7 293b a63b 14bd 2ae9 a93c 82e6 923c
000000d0: f5db 983c c1ce 36bc 33fb 143c e807 81b9
000000e0: df4f 8fbc b136 1abd 0a33 1e3d d972 86bc
000000f0: bcb4 ecbc a65d 0dbd b822 033d f8d5 4d3c
00000100: 1c2e c13c 4dc8 69bc 2b5a 9e3c 877a 0bbd
00000110: 6991 1ebb 5a79 523c cfb3 9fbc 54bc 113d
00000120: aaa8 26bb 708b a33c db62 9f3c f27f 62bb
00000130: 489c 723c 645e d33c a840 593b 175b 4e3c
00000140: 899a fdbc 1c09 0bbc a689 ae3b c55d c8bc
00000150: 3bf2 1d3d bd78 0c3d 8087 24bd cbf6 aa3c
00000160: 1f9e 8eb9 e240 b13b 400e cd3c 01df 8e3b
00000170: eaf0 e5bb 9a6f 85bc cf06 173d 7451 0e3c
00000180: d2a6 193d 82d9 033d 65ab adbc 5b7a 133d
00000190: 8ab7 fbbb 6165 e83c be53 f13c 6f16 09bb
000001a0: 62f4 513c 7aa1 8a3c 549d 3c3c ad6d c2bc
000001b0: 47cb 453c 8de3 bf3c 0c3b 933c 83ae 373a
000001c0: d904 b53c b05a 5ebc a2e5 fdbc 9cc8 0c3b
000001d0: 8081 0a3d 05f3 0ebd 00bd 19bd ed33 dfbc
000001e0: c233 4dbc dd06 0f3d c366 9a3c b534 733c
000001f0: 9503 66bc 5592 ef39 b211 05bb 09f7 fabc
00000200: b8ea d63c 8350 f5bc b8c1 d43c ec30 9b3c
00000210: 9714 19bc 19cd aa3c 685a b4bb 7f9b 8bbc
00000220: 0164 1cbd 0fca 03bd d750 dabc 8d92 143d
00000230: da0e dabc 0b6e 99bc 3ac8 9c3c b54b 213b
00000240: 2868 c03b 878e 9a3a 5664 97bc d57d 97bc
00000250: e81d 0e3d acad 2bbd 5a3b cf3c e1b8 d2bc
00000260: 0538 e9bb acd1 083d aea1 26bb 6320 113d
00000270: 5cef fa3c 57b1 223d 4fe4 dc3b b2d3 40bc
00000280: 78a5 2cbd 0182 3b3c 1386 7939 ef0f eabb
00000290: fb72 f4bc 48f6 e83b 6ba0 f3bc 07a1 26bd
000002a0: d7ef 2dbd 7ef4 c83c 0985 81bc 13e9 f6bc
000002b0: 4569 06bd 5376 5e3c 784c 1dbd d5fd 11bd
000002c0: 15c4 903a b85f 163a a015 ecbc 0922 a9bc
000002d0: d6a8 9a3c 60f7 153c 9684 a23c 5809 4bbb
000002e0: c5dd 2bbd 8b8f 19bd 2207 fabc bc29 69bc
000002f0: fc24 2e3c a903 0cbd d91f 01bd 1bbc bf3c
00000300: a390 18bd bcaa 323c 334d e53c 0775 2dbc
00000310: ee8a 1ebd 0940 0dbd dfcf 14bd 8304 ca3c
00000320: 478c 27bc 7e09 013c 2441 c8bc 5065 0e3d
00000330: 5b0e a93c cfda 2dbc ba01 1c3c 95a8 133d
00000340: ab48 9d3c 72cb 1d3d 6c4d ca3c a3e2 13bc
00000350: 6326 413c 1c5a b03c 911c e5bc cbd6 7a3c
00000360: f366 073d 323a c23c ce84 103d bc9e 893c
00000370: bd78 22bd 8c78 ecbc c38b 15bd 4cd6 2bbc
00000380: 8d61 36ba 8232 093d e36a 0cbb 7155 26bd
00000390: f1a5 1dbd d0c7 d3b9 d1b0 523c 97e8 abbc
000003a0: dba6 14bd 5889 df3c 811a e83c 43a6 173c
000003b0: 5dc7 c23c 9600 163d 287d 97bb 5945 d93c
000003c0: 4e66 17bc cbef ecbb ddf7 edbb 61a2 b13c
000003d0: b0f6 2cbd e2bf d1bc 8282 24bc f780 dd3c
000003e0: bc35 11bd 964f 4ebc 98e1 25bd c4a8 053d
000003f0: 6a8c 903b 7ba9 6d3c 5a36 443a 5466 ccbb
0.026108919 -0.024064906 0.035520285 -0.026221849 0.0261062 -0.0034470502 0.006974069 -0.02716666
-0.017534971 0.03803902 -0.028547993 -0.019053401 -0.003034685 0.03239143 -0.025654914 -0.038395207
-0.042368904 -0.02831958 -0.014793286 -0.004404267 0.008353236 -0.037089474 -0.016732682 0.033335373
0.010212264 -0.02617974 0.029747104 0.03175347 -0.009496518 -0.031651285 -0.032108307 0.022835571
-0.041516904 -0.023346558 -0.011933991 -0.030707542 0.011673991 -0.034234777 -0.03838255 -0.023017293
0.022127004 0.02731377 -0.020953678 -0.016383363 0.0315249 -0.02156172 -0.034094602 -0.018116092
0.0025925557 -0.036189698 0.020741064 0.01793218 0.018659571 -0.011157692 0.009093094 -0.00024610688
-0.01749414 -0.037649814 0.038622893 -0.016412186 -0.028894775 -0.03451314 0.032015532 0.012563221
0.023581557 -0.014268947 0.019330105 -0.034052398 -0.0024195558 0.012846315 -0.01949492 0.035579994
-0.0025430121 0.01996395 0.019456318 -0.0034561125 0.014807768 0.025801845 0.003315011 0.01259496
-0.030957477 -0.008486059 0.0053264676 -0.024458775 0.038561087 0.034294832 -0.040168285 0.020869633
-0.0002720216 0.005409346 0.025031209 0.00436008 -0.0070172446 -0.016288567 0.036871728 0.008686412
0.037512608 0.032189853 -0.021199891 0.03600536 -0.0076817917 0.028368654 0.029458877 -0.0020917912
0.012814613 0.016922701 0.011512119 -0.023733938 0.012072391 0.023423934 0.017972492 0.00070069
0.022097038 -0.013571426 -0.030993287 0.0021481877 0.033814907 -0.03489973 -0.03753376 -0.02724644
-0.012524547 0.034918655 0.018847829 0.014844109 -0.01403894 0.00045694658 -0.0020304737 -0.030635374
0.02623497 -0.029945618 0.025971279 0.018944226 -0.009343288 0.020849751 -0.0055039413 -0.01704192
-0.03818131 -0.03217512 -0.026649876 0.036272574 -0.02661841 -0.01872923 0.019138444 0.0024611775
0.0058717914 0.0011791744 -0.018480461 -0.018492619 0.03469649 -0.041913673 0.025296856 -0.025722923
-0.0071172738 0.033403084 -0.0025425958 0.035431277 0.030631714 0.039719906 0.0067410837 -0.011769222
-0.04214999 0.01144457 0.00023796437 -0.0071430127 -0.029839983 0.007109437 -0.02973958 -0.04068091
-0.042465057 0.024530645 -0.015810506 -0.030140435 -0.032815237 0.013578015 -0.038403004 -0.035642464
0.0011044765 0.0005736309 -0.028818905 -0.020646112 0.018879335 0.009153217 0.019838613 -0.003098091
-0.041959543 -0.03749041 -0.03052098 -0.014231142 0.010628935 -0.034183178 -0.031524513 0.023405125
-0.03724731 0.010904964 0.027990913 -0.0105869835 -0.038706712 -0.034484897 -0.036331054 0.024660354
-0.010226316 0.007875798 -0.024445124 0.034764588 0.020636728 -0.01061125 0.009521896 0.036049444
0.01919969 0.0385241 0.02469512 -0.009026202 0.011788937 0.021527342 -0.027967723 0.01531
0.033057164 0.02370939 0.035282902 0.016799323 -0.039665926 -0.028866075 -0.03651024 -0.010488104
-0.0006957285 0.033495434 -0.0021426014 -0.040608827 -0.038488332 -0.00040393928 0.012859539 -0.02098493
-0.03629194 0.02728717 0.02833295 0.0092559485 0.023776704 0.036621653 -0.004623074 0.026522325
-0.0092407 -0.007230734 -0.0072622136 0.021683874 -0.042227447 -0.025604192 -0.010040881 0.027039034
-0.035451636 -0.012592217 -0.040498346 0.03263165 0.00441127 0.014505739 0.00074849057 -0.0062377844

fc1.bias f4 [10]
00000000: cb53 2ebd b469 8bbc d1bd e53c ceae a6bc
00000010: 93c2 0f3d 10f0 f93c 0902 033d a8ab 6d3c
00000020: 670d c23c eb4f 26bd
-0.04256038 -0.017018177 0.028044613 -0.020347025 0.03509767 0.030509979 0.031984363 0.014506258
0.023688031 -0.04060356

fc2.weight f4 [2, 10]
00000000: 7438 5dbd feab 3a3e 7f7c 0bbe d09a 6c3c
00000010: dfdb 69be a0a3 f73d 78d4 71be de57 2e3e
00000020: 90cf 3b3d e9f2 243e b901 393d efe0 4c3d
00000030: 7fae 073e 359e 8dbe 65a4 973e 5442 5c3e
00000040: 94ef 973e 9be6 823c 254e 76be 6e4d 383e
-0.054008916 0.18229672 -0.1362171 0.014441207 -0.2283778 0.12091756 -0.23616207 0.17025706
0.045852244 0.16108288 0.04516766 0.0500192 0.13250159 -0.27659765 0.2961761 0.21509677
0.2967497 0.015979102 -0.24053247 0.17998287

fc2.bias f4 [2]
00000000: 3070 bdbd 9443 c4bc
-0.09249914 -0.023958005

exp_avg f4 [16, 3, 3, 3]
00000000: 854f 7d3d e213 783d 1954 373d 4336 4c3d
00000010: a6f5 5c3d a004 2e3d 948a 3c3d 6dbd 573d
00000020: 6c04 333d e743 a53d b83b a33d faed 823d
00000030: 87cb 8a3d f1f1 923d afe1 783d cad7 7b3d
00000040: 5dd4 8d3d 3e45 7b3d 0450 843d 5a71 843d
00000050: de63 493d c14d 5c3d 3301 753d 2c62 493d
00000060: f639 523d 7c85 763d 3314 583d d6c5 9aba
00000070: 3948 2eba d28c 2bb9 d4dd bfba 1298 a0ba
00000080: 68e2 47ba 3972 1fbb 0d74 0dbb 170e e4ba
00000090: 8732 32bb d1cf 1abb 9bb3 e1ba 0525 4ebb
000000a0: 025c 43bb 5b07 1ebb 8234 8abb 2d8c 83bb
000000b0: 9171 66bb 239c 883b 86d5 8d3b 960c 943b
000000c0: e5cb 773b 20d8 743b c671 7b3b b647 2f3b
000000d0: 2999 2a3b ba6f 323b 6ef0 c8ba 0fa9 53bb
000000e0: cb53 74bb 9f14 8fb9 199e 50bb 6264 39bb
000000f0: 1f8d dab9 cecc 21bb 0e2f 08bb 53de 1e3a
00000100: 2fe0 45ba 75fb bbba 504d 213b c49e 11b9
00000110: 18bd 2a39 2427 403b e140 913a 7738 c13a
00000120: 0365 033b 3094 603a 3435 463a 9454 803b
00000130: f243 ab3a 185f fa3a 44b6 983b ad70 2a3b
00000140: 6143 413b fccb 023c 2a93 e13b 72df 0b3c
00000150: 0bbb ff3b 5a61 cf3b 89d1 c23b 7fec ea3b
00000160: b179 923b e121 0c3b f48a 943b fc65 843b
00000170: 6f36 d33b 3d7c 9b3b f902 633b f48f 863b
00000180: 83ce 903b 83ec fa3a 27a1 113a c56e a53c
00000190: 8a85 9e3c 805c af3c d740 a83c 6038 9d3c
000001a0: 47c2 9c3c b959 a63c 991f 923c d3d1 823c
000001b0: a066 2fbb ab71 6dba 85c1 4735 ff3e 50bb
000001c0: d4de a2ba 1c4f 4839 c3b2 5bbb af03 99ba
000001d0: 2dae 843a 28be 73bb 31eb 15bb 937f b2ba
000001e0: 1166 94bb e53d 34bb 317c acba d798 acbb
000001f0: 8cba 4dbb c4ca 98ba 94df c0bb 909d 91bb
00000200: 9aa1 5abb c929 debb ea1c aebb fe21 81bb
00000210: d70f 02bc af8e cdbb 308c 91bb c0fd dcbb
00000220: e409 8ebb f826 89ba 9a8a 09bc b4a7 babb
00000230: 9759 83bb ecf3 15bc 211d f4bb 3440 cebb
00000240: 10ec 36ba 315c 8a3a 75f2 733b 077b b0ba
00000250: 6f08 1f3a 0798 dd3a a1f5 aeba eec3 b5b9
00000260: ed04 0339 6e6e 7b3b cb5d b13b 48ff 043c
00000270: 9437 4e3b cff8 a03b 6f04 c53b 98dd 4c3b
00000280: 1884 753b 3bce 923b c445 ea3b 22a5 a03b
00000290: dd01 293b 8c6d cb3b d854 8c3b cb76 023b
000002a0: dfe7 773b 7cb7 fc3a a427 d939 3b14 df3b
000002b0: b3c7 ac3b b8ed 653b 8c59 c53b 3545 9a3b
000002c0: 62b0 463b 085b 763b 3704 2a3b e5ff da3a
000002d0: a566 af3b dd24 833b c306 2d3b 104d 973b
000002e0: d8c3 5d3b d8d4 0f3b 695e 2c3b f73b b33a
000002f0: b254 653a 4760 9f3b 73da ea3b f17a 223c
00000300: 6ce2 9b3b 5ac3 0c3c 94f0 3b3c b9a9 b03b
00000310: d494 0b3c 3195 3a3c f056 57b8 68db 0e3b
00000320: 673d ad3b 951e da36 7c72 5c3b b832 d23b
00000330: e63c 43b9 9f07 1e3b b4db b13b 283f c73a
00000340: 800d 813b 745e f33b a49e 883b 68d2 dc3b
00000350: e479 243c fe61 b43b cdf4 f93b 91bc 2a3c
00000360: 49a2 7a38 5836 e4ba 6670 5dbb d7a6 8a39
00000370: c8bc 13ba 5d5a 07bb b326 623a c8d6 f839
00000380: 521e 34ba 3db9 813b b29c 163b cf3e 983a
00000390: a3a6 803b de00 5e3b e632 213b 286f 8e3b
000003a0: 720f 923b fafa 863b 3199 453c 8e9d 383c
000003b0: e44e 263c 314c 513c 4ce4 533c 4903 443c
000003c0: bb7c 643c 40c1 693c ed62 623c 27cb 8139
000003d0: 985a 8cb9 2cfc 3ebb 19e2 823a cc49 3f3a
000003e0: 615b 12bb 770c d2ba 0233 baba 58aa 3ebb
000003f0: 3f66 8c3b 4ebb 863b 0fb1 f13a 5a2d a33b
0.061843414 0.060565837 0.044757936 0.049856436 0.053945206 0.04248488 0.046030596 0.052670885
0.04370539 0.08069592 0.07970375 0.06393047 0.06777101 0.07175053 0.060762104 0.06148509
0.06925271 0.06134533 0.06460574 0.064669326 0.049167506 0.05378509 0.059815597 0.04916589
0.051324807 0.060185894 0.05275364 -0.0011808227 -0.0006648335 -0.0001636029 -0.0014638253 -0.0012252352
-0.0007624985 -0.0024329557 -0.0021584064 -0.0017399219 -0.0027190761 -0.0023622403 -0.0017219664 -0.003145517
-0.002980948 -0.002411327 -0.004217685 -0.004014513 -0.0035162906 0.0041690036 0.0043284325 0.004518102
0.003781074 0.0037360266 0.0038367375 0.0026745624 0.0026031232 0.0027227239 -0.0015330443 -0.0032296812
-0.003728139 -0.0002729045 -0.0031832515 -0.0028288593 -0.00041685344 -0.0024688723 -0.002078 0.00060603506
-0.00075483596 -0.0014341908 0.0024612732 -0.00013887422 0.00016282906 0.0029320205 0.0011081957 0.0014741559
0.0020049221 0.00085670035 0.00075610285 0.0039163325 0.0013066514 0.0019101826 0.0046603996 0.0026007101
0.0029489624 0.007983204 0.0068839984 0.00853716 0.0078042797 0.006328744 0.0059453887 0.007169306
0.004470073 0.0021382498 0.004533166 0.004040478 0.006445698 0.004745035 0.0034639223 0.004106516
0.0044191494 0.0019143972 0.00055553246 0.02019442 0.019350786 0.021406412 0.02053873 0.01919192
0.019135607 0.020306455 0.017837333 0.015969193 -0.002676405 -0.00090577704 7.4414885e-07 -0.003177583
-0.0012426027 0.00019102957 -0.0033523298 -0.0011674071 0.0010122709 -0.00371922 -0.002287578 -0.0013618342
-0.004528769 -0.0027502712 -0.001315957 -0.0052672434 -0.0031391708 -0.0011657109 -0.0058860276 -0.0044438317
-0.0033360482 -0.0067798835 -0.0053135054 -0.0039408198 -0.007938347 -0.0062731127 -0.0044417605 -0.0067441165
-0.004334675 -0.0010463884 -0.008394862 -0.0056962613 -0.0040084827 -0.009152394 -0.0074497615 -0.0062942747
-0.0006977925 0.001055604 0.0037223373 -0.0013464399 0.00060666254 0.001690627 -0.001334835 -0.0003466899
0.00012494969 0.0038365382 0.0054127923 0.008117504 0.0031466233 0.004912473 0.0060124914 0.003126001
0.0037462767 0.004480151 0.00714943 0.004902498 0.0025788464 0.0062081274 0.004282575 0.0019907232
0.0037827415 0.0019280757 0.00041419 0.0068078316 0.0052728294 0.0035084318 0.0060226377 0.004707957
0.0030317535 0.003759088 0.0025942454 0.0016708343 0.0053528124 0.004002197 0.0026401735 0.004617341
0.0033838656 0.0021946933 0.002630139 0.0013674487 0.00087482773 0.004863772 0.0071671545 0.009917007
0.004757216 0.008591497 0.0114709325 0.0053913263 0.00851937 0.011388109 -5.134096e-05 0.0021798257
0.0052868607 6.5004665e-06 0.0033637574 0.0064147376 -0.00018619336 0.002411343 0.005427802 0.0015201317
0.003938377 0.007427031 0.004169302 0.0067389496 0.010038827 0.0055048456 0.0076280595 0.010420934
5.9755785e-05 -0.0017411215 -0.0033788919 0.00026445717 -0.00056357356 -0.0020653226 0.00086269825 0.0004746227
-0.0006870973 0.0039588497 0.0022981581 0.0011615398 0.0039261146 0.0033875029 0.0024596988 0.004346747
0.0044574076 0.004119274 0.012060449 0.011268033 0.010150645 0.012774513 0.012932848 0.011963674
0.013945754 0.014267266 0.013817531 0.00024756158 -0.00026770378 -0.0029142005 0.0009985595 0.00072970684
-0.0022332298 -0.0016025443 -0.0014205875 -0.0029093232 0.0042846496 0.004111684 0.0018439608 0.0049797716
