Lab5/model_10_0.01.pth (torch, 378889 bytes, 54 tensors)

layer1.0.weight f4 [16, 3, 3, 3]
000000 8d bd fd bc 65 11 00 3e 46 f5 a3 bd b7 7f 2d 3e
       -0.030974174 0.12506635 -0.080057666 0.1694325
000010 e8 46 21 3e 1b 45 01 bd d4 36 51 3e 00 3e 0a 3d
       0.15749705 -0.031560045 0.20431072 0.033750534
000020 cd b2 f0 3d 77 ba 94 bc c5 d4 3c 3d 4d ce 85 3d
       0.117528535 -0.01815532 0.04610135 0.065334894
000030 55 0e 54 bd 26 43 7d 3d 19 60 01 be df 3f b5 3d
       -0.05177148 0.061831616 -0.12634315 0.08850073
000040 cc 38 b4 3d b3 4d 04 bd e3 2b ec 3d 92 c0 99 3d
       0.08799896 -0.032300662 0.11531808 0.07507433
000050 81 ce f8 bd a4 7c 37 be 89 33 9d 3c f1 fc ce 3d
       -0.121487625 -0.1791864 0.019189613 0.101068385
000060 af 6c c6 3d e4 e9 3c 3e fb 0f 1f be 4b 99 ef 3d
       0.096886985 0.18448597 -0.1553344 0.1169916
000070 e1 24 2c 3e 36 9f 52 3e 46 57 d8 3d b8 82 da 3d
       0.16810943 0.20568547 0.10563521 0.10669464
000080 64 44 e8 3c d0 93 af bb 12 37 6c bd f6 2c 77 3e
       0.028352924 -0.005358197 -0.057669707 0.24138245
000090 c3 e2 0c 3e be 1e 51 3d 1a a6 9f 3d fc cf 39 bd
       0.13758378 0.05105471 0.07795353 -0.045364365
0000a0 a6 6c 87 3d f0 75 93 3d 0f 22 9e bd a7 aa e4 3d
       0.0661252 0.07200229 -0.0772134 0.11165362
0000b0 0f 44 88 3c 7d 97 f3 3d e2 f1 8a bc 9e 5a 9c 3d
       0.016634015 0.118941285 -0.016961042 0.07634471
0000c0 da b7 ad 3b 79 82 2c be b9 8c 51 3d 5a 17 c5 bd
       0.005301458 -0.16846646 0.051159594 -0.096235946
0000d0 50 6d 42 be 7c 90 17 bd c8 9a e6 3d f9 07 68 bd
       -0.18987012 -0.037003025 0.11259991 -0.05664823
0000e0 71 71 e3 3d 06 8b 2d 3d a7 5a 5c 3e 95 42 6b 3e
       0.111056216 0.04236891 0.21518956 0.22974618
0000f0 00 53 0e 3e 0e 9c 30 3e 28 6b 90 bd 71 dd 5f 3d
       0.1389885 0.1724703 -0.070516884 0.054654542
000100 f6 0c 0a 3e ec 1a 1b bd 50 8c 37 3b 58 e1 24 3e
       0.13481507 -0.03786747 0.0028007217 0.16101587
000110 4a 85 61 3e 57 fd b1 3d dd ce 3a 3e 9b 73 33 bd
       0.22023502 0.08690899 0.18242975 -0.04381142
000120 b6 21 2e be 84 52 e0 3d 6b b5 26 3d cb f9 f0 bd
       -0.17005047 0.109532386 0.040700357 -0.11766394
000130 1e dc 6c bd 05 33 da bc 93 6c b7 bd d4 b8 00 bd
       -0.057827108 -0.026635656 -0.08956256 -0.031426266
000140 24 dc 15 3e eb d6 a6 3d 07 19 ca bc 07 10 94 bb
       0.14634758 0.08146461 -0.024670137 -0.004518512
000150 f0 6b 01 be 38 11 6e bd 81 69 9e bd 8f f7 0f 3d
       -0.12638831 -0.05812189 -0.07734967 0.0351482
000160 82 72 1c 3d f9 92 50 3e 27 ee 38 be 94 a5 7c bc
       0.03819514 0.20368566 -0.18059598 -0.015420336
000170 2d 3c c9 3c 02 9a 35 be 25 b7 6f bd 08 73 63 3d
       0.024564827 -0.1773453 -0.05852427 0.055529624
000180 d2 ec 9d 3c 60 21 bb bd 85 41 42 3d 12 e4 60 be
       0.019277964 -0.09137225 0.047425766 -0.21962002
000190 6a 4b 2b be 49 b0 36 3c b1 ee 4e be 19 e5 c4 bd
       -0.16727987 0.011150428 -0.20208241 -0.096140094
0001a0 0b 66 1d 3e 56 fc 42 be 96 3d 49 be 73 ec 47 be
       0.15370958 -0.19041571 -0.196524 -0.19523792
0001b0 fb 92 40 3e d2 cd c8 3d 4d a7 80 3e 62 05 cf bd
       0.18806069 0.09804882 0.2512764 -0.101084486
0001c0 3b 15 c3 3d cd 6a 78 bd 08 e3 62 3e 3d de 95 3d
       0.09525534 -0.06064873 0.22156918 0.07317779
0001d0 e7 49 2d 3e ea 70 81 3d db 63 db 3c 1c 12 7e 3d
       0.16922723 0.06320365 0.026781013 0.06202899
0001e0 df 4d 06 3e 26 82 10 bc 12 7a 0a 3e 92 d3 0e be
       0.13115643 -0.008820092 0.13523129 -0.13947895
0001f0 4d 82 c9 3d 6f 1b 4f 3e a9 d7 65 3c 73 45 1c be
       0.09839306 0.20225309 0.014028468 -0.15260868
000200 40 25 04 3d aa 5f 8d 3d 79 4e 00 3d d2 d6 cd bc
       0.032262087 0.06903012 0.031324837 -0.025126848
000210 ee ef 19 3c 77 5b bd 3d 36 ec 93 bd d8 46 44 bd
       0.009395583 0.09245961 -0.07222788 -0.047919124
000220 ea b9 0b 3e 22 b9 30 3e 0c d0 7c 3e 66 e8 7f bd
       0.1364514 0.17258123 0.24688739 -0.06247749
000230 28 fc 4e 3a 30 04 29 bc bb 9b 92 bd 9a 57 16 bd
       0.00078958506 -0.01031594 -0.071586095 -0.036704637
000240 d9 6a 61 be 4a 53 28 be 9f 7d 0f be 95 4e 5f bd
       -0.22013415 -0.16438022 -0.14012764 -0.0545183
000250 e9 fc 8b bd da e2 a9 3d 6c 1a f3 3d b8 86 17 be
       -0.06835348 0.082952216 0.11870274 -0.14797485
000260 53 2d cd bc 38 94 3f be 27 10 d0 bd 10 30 31 3e
       -0.025046026 -0.18708885 -0.10159331 0.1730349
000270 ad 31 68 3e c1 b9 23 be 30 cb 12 3e 03 25 22 3e
       0.226752 -0.15988828 0.14335322 0.15834431
000280 5a 61 5e 3d 7c 13 4d 3e 0a b2 85 3d 0a 5e d2 3d
       0.05429206 0.20026964 0.06528099 0.10271843
000290 38 d0 02 3e 04 28 50 3e 21 18 80 3e 17 f3 c7 3d
       0.12774742 0.20327765 0.2501841 0.097631626
0002a0 3b 38 dc bc 2b 96 d2 3d 77 ec 90 bc 00 bd 7a bd
       -0.026882282 0.102825485 -0.01769088 -0.0612154
0002b0 83 b5 67 3e 8b 7d 2b bd d7 51 7a 3d 8d 12 08 3d
       0.22627835 -0.041867774 0.061113205 0.033220816
0002c0 75 89 e5 bd 49 00 37 3e 0f 17 df bd c9 b3 14 3e
       -0.112078585 0.17871203 -0.1089307 0.14521708
0002d0 e9 57 19 be 59 cf 06 3e ff dc 5e bc 60 e3 2f be
       -0.14974941 0.13165034 -0.013602494 -0.1717658
0002e0 79 24 32 3e b7 3b 5e 3e 30 5d 48 3b 8c 34 d4 bd
       0.17396726 0.21702467 0.0030573122 -0.10361585
0002f0 6a 24 80 bd 60 1d 3f 3c dd 21 51 3e 6b 92 d7 3d
       -0.062569454 0.011664718 0.20423074 0.10525974
000300 7b d6 28 3e cd 7b 3c 3e 57 96 da bd e6 43 46 3e
       0.16488068 0.18406601 -0.10673206 0.19361839
000310 ff 45 77 bd 6b 0b 39 be 3e cd 9d 3d 45 16 4e 3e
       -0.060369488 -0.18070762 0.077051625 0.20125683
000320 13 be 1e be 2c a4 13 be b8 53 f8 3c 3b 0a 76 bc
       -0.15502195 -0.14418095 0.030313358 -0.015017088
000330 09 8f 09 be 88 02 19 be 3e 91 82 bc b9 58 4f be
       -0.1343347 -0.14942372 -0.015938397 -0.20248689
000340 b9 c5 ef 3d 95 6d d4 bd 4a 6d d9 bd 66 eb 32 3e
       0.117076345 -0.103724636 -0.10616548 0.1747261
000350 2b fc 26 3b 36 37 2e 3e a1 78 8f 3d 9c d9 2b 3e
       0.0025479894 0.17013249 0.0700543 0.1678223
000360 aa 97 0d 3e ae 38 2d 3e 32 8a 81 3e ae 78 76 3d
       0.13827386 0.16916153 0.25300747 0.060173683
000370 77 48 22 3d 2b 96 43 3e fb ec 29 3d f9 0d d4 3c
       0.03961989 0.19100253 0.041485768 0.025885569
000380 c3 4c 14 3e 10 cb d0 3d 7d 58 3e 3e 27 3a 0d 3e
       0.14482407 0.10194981 0.18588443 0.13791715
000390 91 08 2d bd f4 4e 5c 3e 61 ee 6e bd 59 78 7d 3d
       -0.042244498 0.21514493 -0.058332805 0.06188235
0003a0 e9 87 2a bd c2 4f c0 3b 24 7a 8b 3d be b2 b5 bd
       -0.04163352 0.005868883 0.06810406 -0.08871983
0003b0 bb 47 a3 3d 17 5e ae 3d a0 5b ae 3d 6a 8a ea 3d
       0.07972666 0.0851404 0.0851357 0.11452182
0003c0 48 68 69 bd 91 60 f4 3d fc e5 50 be 47 9f 9e 3d
       -0.056984216 0.11932481 -0.20400232 0.077452235
0003d0 f3 9f 42 bd e6 7b 2e 3e 44 90 4c bd 75 92 62 3e
       -0.04751582 0.17039451 -0.04994227 0.22126181
0003e0 5f bf 3b bd 2c 5d 08 be a8 8e 6f bc 4d 48 67 bd
       -0.045836803 -0.13316792 -0.014621414 -0.056465436
0003f0 c7 b5 5b be 90 ab 0e be 25 5c ee bd fd 99 08 3d
       -0.21456061 -0.13932633 -0.11638669 0.03334998

layer1.0.bias f4 [16]
000000 7d db 36 be 51 28 6b 3e 55 1d 62 be d5 18 2b be
       -0.17857166 0.22964598 -0.22081502 -0.16708691
000010 67 ae 0d bd db cc b6 3c 30 10 a5 3d 5d 16 b9 bd
       -0.03459015 0.02231448 0.08059728 -0.090374686
000020 14 27 98 3d 57 fd fd 3c ef 8b 3e be af c7 91 bd
       0.074293286 0.03100459 -0.18608068 -0.07118165
000030 0a 63 04 3d 49 29 37 3d 88 bc 33 be 34 17 0f be
       0.032321014 0.044717107 -0.17552388 -0.13973695

layer1.1.weight f4 [16]
000000 21 db 78 3f c3 e2 6d 3f 46 77 6f 3f 18 55 7e 3f
       0.97209364 0.92924136 0.9354137 0.9934859
000010 05 be 83 3f 80 8d 7e 3f e4 97 8c 3f c2 d8 78 3f
       1.0292364 0.9943466 1.0983853 0.97205746
000020 7a cb 84 3f 6f c3 79 3f 6c 53 82 3f 71 a3 87 3f
       1.0374596 0.97563833 1.0181708 1.0596753
000030 a9 69 78 3f 97 76 84 3f 89 b0 6c 3f 3e f7 82 3f
       0.97036225 1.0348691 0.9245687 1.0231702

layer1.1.bias f4 [16]
000000 8f 43 b4 bc d7 8c 78 bc 0e 8e 2b bd 05 17 cb bc
       -0.02200487 -0.015170298 -0.04188352 -0.02479125
000010 b1 7f 9a 3b 46 cc 2a bc f0 6f 96 bc 42 49 11 ba
       0.004714929 -0.010424679 -0.018363923 -0.00055422273
000020 1a 42 94 3c 55 ce e9 bc e2 68 e1 3b b3 46 23 3d
       0.018097926 -0.02854077 0.006878958 0.039862346
000030 29 17 ec bc 1b d3 5f bd 32 b5 2a 3b bd 6d 27 bc
       -0.028819637 -0.054644685 0.0026047942 -0.010219035

layer1.1.running_mean f4 [16]
000000 71 22 98 3e cd fa 53 3f 31 67 11 3f e6 83 40 bf
       0.29713777 0.82804567 0.5679808 -0.7520126
000010 77 fa 41 3f 8a 5e bc 3d 51 03 3e 3f 34 0c 1c 3e
       0.75772804 0.091977194 0.7422381 0.1523903
000020 55 e1 81 3f 62 8d 03 be 6e 46 b5 3e e5 79 31 3f
       1.0146891 -0.12846902 0.35405296 0.6932662
000030 44 0e 83 bc eb 47 3b bf 6e b1 bc 3e d9 ef 22 3f
       -0.015998013 -0.73156613 0.36854118 0.6364723

layer1.1.running_var f4 [16]
000000 d6 bd 56 3d fe 77 99 3d ee c5 08 3e 2a 90 06 3e
       0.052427135 0.0749359 0.13356754 0.13140932
000010 ee e7 0c 3e 38 38 dd 3b 8d 71 c6 3d 03 21 8a 3c
       0.13760349 0.0067510866 0.09689627 0.016861444
000020 9a 58 4f 3e 52 dc 42 3c 96 7b 93 3d a4 61 02 3e
       0.20248643 0.011893349 0.072013065 0.1273256
000030 1d 62 a5 3c 1e 9c 34 3e 77 11 af 3d c1 a9 0b 3e
       0.020188386 0.17637679 0.08548253 0.13638975

layer2.0.weight f4 [32, 16, 3, 3]
000000 09 07 1a be e0 5c dc bd 02 82 c4 3b a8 74 18 be
       -0.15041746 -0.10759902 0.0059969435 -0.14888251
000010 b5 6a 07 be af 98 39 bd 92 88 53 bd ce 1e e5 bd
       -0.13224299 -0.045311626 -0.051643915 -0.11187516
000020 9a 7e d3 bd 66 9c bf bd 31 a2 d5 bd 73 74 0d be
       -0.10326882 -0.093560025 -0.10431326 -0.13813953
000030 06 5b d6 bd c1 ae 57 bd 40 90 75 bb 44 e5 d2 bd
       -0.1046658 -0.052656893 -0.0037470013 -0.10297635
000040 4e d4 75 bd 56 ba 5a 3c bf 73 b3 bd 50 37 99 bd
       -0.060016923 0.01335009 -0.08762311 -0.07481253
000050 36 ce c4 bd b3 bb be bd 99 ae 62 bd a8 e8 53 3c
       -0.09609644 -0.093131445 -0.05534229 0.012933888
000060 29 1d 88 3c 0f f2 09 be d1 af a1 3d be 2c d1 3d
       0.016615467 -0.13471244 0.078948624 0.10213612
000070 ec 6f dc 3d 7e db 09 3e 28 e2 00 be 28 ef cc 3d
       0.10763535 0.13462636 -0.12586272 0.10006553
000080 d3 90 c2 3d 83 30 94 bc f7 f1 3f bc ce d5 02 3e
       0.09500279 -0.018089538 -0.011715404 0.12776873
000090 1e 4d 30 bd a6 00 e2 bd 1b 2c 69 bd 2b 9f 0e be
       -0.043042295 -0.1103528 -0.056926828 -0.13927905
0000a0 d4 84 26 bd 69 fb 0b be b0 b3 91 bd 54 ff c5 3b
       -0.04065402 -0.13670124 -0.07114351 0.0060424004
0000b0 d7 fe 3a 3d d6 59 b3 3d 11 46 05 3e 36 32 26 3c
       0.04565319 0.08757369 0.1301501 0.010143807
0000c0 43 13 1a bd 08 13 0a 3e 74 67 57 bc 58 81 83 3d
       -0.037616026 0.13483822 -0.013147224 0.06421155
0000d0 3d 57 64 bc dc 7f be 3d 48 a4 c9 3c 83 b3 8f 3b
       -0.013936815 0.09301731 0.024614468 0.004385413
0000e0 40 de e2 3d 12 4f 7d 3d 26 3c cb bc 4b 4a 66 3d
       0.11077547 0.061842985 -0.024808954 0.056223195
0000f0 01 46 ea 3d b2 e5 a2 bc d7 a9 cf 3d 90 8d 5a 3c
       0.114391334 -0.019884918 0.10139816 0.013339415
000100 53 f9 fa 3a 50 bc b5 bd 66 28 c3 bd b6 d5 aa bd
       0.0019147791 -0.088738084 -0.0952919 -0.083415434
000110 fb 8b 6c bd 4c 4c 10 bd b5 03 03 be 46 e0 c4 3b
       -0.057750683 -0.035229012 -0.12794383 0.006008181
000120 38 96 80 bd c6 d2 4a 3c e2 3b 05 be 20 09 bb bd
       -0.06278652 0.012379354 -0.13011125 -0.091326
000130 51 84 37 3b 96 e5 9e bd fd 55 01 bd eb df 68 3b
       0.002800245 -0.07758634 -0.031576145 0.0035533856
000140 da 90 52 3d 8c ca b5 3d e5 6a 92 3b dc 8c 17 3e
       0.051407672 0.088765234 0.004468309 0.14799827
000150 1f 71 bd 3d 5f 43 7f 3c 91 b4 0c 3e 1f b0 cc 3c
       0.09250092 0.015580027 0.13740756 0.024986325
000160 07 ce 6d 3d d8 26 00 3e 78 62 02 bc 3e 45 ff bd
       0.05805781 0.12514818 -0.007958047 -0.12464379
000170 48 8f c6 3c 6d 17 c8 3b ba 84 8a bd 1c 3e 01 be
       0.024238244 0.006106308 -0.06763597 -0.12621349
000180 67 3a cf bd 9b 09 0f bd 08 26 cb 3c f2 59 22 3b
       -0.10118561 -0.03492127 0.024798408 0.002477285
000190 e6 fb a6 bd 15 45 89 bd c9 bd 09 be a5 36 ba bd
       -0.081535146 -0.067026295 -0.13451304 -0.09092454
0001a0 54 97 2c bd 1e 9f de bd 97 e8 a4 bd b6 78 94 bc
       -0.042136505 -0.10870193 -0.080521755 -0.018123966
0001b0 42 50 e2 bd 7d d0 1e be 97 ea 11 be 4a cf b3 bc
       -0.11050464 -0.1550922 -0.14249645 -0.021949429
0001c0 cf 74 cf bd 52 4c b8 bc ec 1c 0f be 83 dc 3d bd
       -0.10129701 -0.02249733 -0.13975877 -0.046352874
0001d0 62 ef 17 3c eb 1a b0 3d 6c 2f de 3d 13 02 0c 3d
       0.009273382 0.08598884 0.10848889 0.034181666
0001e0 8d 1f a5 3d 98 02 8c 3d 0b 81 d3 bd 9d 02 cf 3b
       0.080626585 0.06836432 -0.10327347 0.00631745
0001f0 a4 8b ad 38 12 27 fb bc d8 5e 7b 3d 5b 7c af 3d
       8.275293e-05 -0.030658279 0.061369747 0.08568641
000200 e1 7d e3 3c 52 54 33 bc 2b 23 4d 3d 4e be bf 3c
       0.027769985 -0.0109453965 0.050082367 0.023406174
000210 3c 85 d2 bc 61 60 30 3d 9e 0b aa 3b 63 eb fc bc
       -0.025698297 0.043060664 0.005189373 -0.03087396
000220 44 2b 81 bd 90 d7 3a bc 1a 70 63 3c 0c 81 07 be
       -0.063070804 -0.011403933 0.013881708 -0.13232821
000230 71 5f 08 bd 8a 18 eb 3b 0a c8 96 bd f9 da 81 3d
       -0.033294145 0.007174556 -0.07362373 0.06340594
000240 c6 5b 06 3e 4d 5e b7 3d 82 f3 53 3d 48 83 8f 3c
       0.13120946 0.08953533 0.0517459 0.017518654
000250 64 85 9c 3d c9 aa ec 3d 58 d0 59 bc 9a ee d9 bc
       0.0764263 0.11556012 -0.013294302 -0.026603032
000260 11 88 8f bd 03 85 b7 3c 53 fb ed 3d 96 ff ef 3d
       -0.070083745 0.022402292 0.11620202 0.11718671
000270 93 d2 9f bb fc 63 3c bd 96 28 dd 3d ee fa 23 3b
       -0.0048773973 -0.04599379 0.10798757 0.0025021392
000280 fd 25 77 3d 60 39 14 3d 95 88 75 3d 29 23 2f 3e
       0.060338963 0.03618753 0.059944708 0.17103256
000290 d7 bc ad 3d d4 f9 91 ba 4c 90 a4 3d e9 d1 bd 3d
       0.08483284 -0.0011137077 0.08035335 0.09268553
0002a0 67 3b a7 3d b6 38 0b 3d 7e 6c 02 3e 9a f4 d3 bd
       0.08165627 0.03398963 0.12736699 -0.103493884
0002b0 cc 07 e4 3c 9f e4 bf bd a0 39 8c bd 78 3b a5 bd
       0.02783575 -0.09369778 -0.068469286 -0.080679834
0002c0 4a 0c 9d bd 17 0f b3 bd 86 18 d4 bd 49 2e ff 3b
       -0.076683596 -0.087431125 -0.1035624 0.0077875
0002d0 b4 45 c8 3d fe 1f 54 3e 46 3d 99 3d 19 64 aa 3d
       0.0977892 0.20715329 0.0748239 0.08319873
0002e0 59 4e e1 bc a4 37 3a 3d 97 29 1b 3e 88 a1 a9 3d
       -0.02750318 0.04546322 0.15152584 0.08282763
0002f0 94 3d 04 3e 4b 24 b0 bd d5 25 ea bd 89 2a 50 bd
       0.12914115 -0.08600672 -0.11432997 -0.050821815
000300 b9 dc 32 bc 19 f6 6d bd c4 fd 6a bd 4e 51 5e bd
       -0.010916882 -0.058096025 -0.057370916 -0.054276757
000310 7a d3 73 bd 0b b6 b5 3c b1 dd 25 bd dd 9f 1f 3b
       -0.05952785 0.022181531 -0.040494625 0.002435676
000320 3b 67 11 be f1 03 24 bd de 38 8b bd ee 8c 27 bd
       -0.14199536 -0.04004282 -0.06797956 -0.040905885
000330 d5 fd 24 be 51 1e 76 bd 8c ea 19 be 47 94 c6 3d
       -0.16112454 -0.060087506 -0.15030879 0.096962504
000340 99 47 ec 3d 6d 49 9f bd 72 1a 8c bc 55 4b 54 bd
       0.11537094 -0.07777677 -0.017102454 -0.051829655
000350 49 ce d4 3b 6d 5c 1d 3e 32 ca 91 3d 7f e2 12 bd
       0.0064943177 0.15367289 0.07118644 -0.035860535
000360 d8 0a 8c 3d 47 5d 0d 3e eb bd 48 3d c6 9a 99 3d
       0.06838006 0.13805114 0.049009245 0.07500224
000370 53 ad a9 bd 30 4e 28 bd 09 2a c6 3d f9 c7 09 3d
       -0.08285012 -0.04109019 0.09675986 0.033637974
000380 e6 48 4e bc 7e 14 bb bd 20 a8 ea bd f1 ad b5 bd
       -0.0125906225 -0.09134768 -0.114578485 -0.08871067
000390 a6 86 52 bd c6 df 04 3c af 96 06 bd fd dd bc bd
       -0.051397942 0.008109992 -0.032858547 -0.092220284
0003a0 03 f4 5f bd 77 28 37 bd 14 fc 83 bc 7d 9c 0e 3d
       -0.054676067 -0.044716325 -0.016111411 0.034817208
0003b0 1d 19 c0 3d 36 cf 73 3d 10 87 3d bd cf 76 17 3e
       0.0937979 0.059523784 -0.046271384 0.14791416
0003c0 90 a2 41 3d 6a 40 22 3e ca 37 f3 3d 72 c3 e0 3d
       0.047274172 0.15844885 0.11875875 0.10974778
0003d0 ab 3f 67 3d 97 03 9f bb 7f 98 e5 3c 6e e3 1d 3d
       0.056457203 -0.004852723 0.028026817 0.038546972
0003e0 7e d9 80 3d b7 bd 3d 3c b0 1f af 3d 53 4a 9b 3c
       0.06291483 0.011580876 0.08550966 0.018956339
0003f0 74 df 99 bb af 27 c8 3d f6 60 0b 3c d7 a9 9b bb
       -0.004695827 0.09773194 0.008507004 -0.004750471

layer2.0.bias f4 [32]
000000 20 0d 70 3d d6 0f a6 3c 4c 16 30 3c bd 9f 10 3c
       0.058606267 0.020271223 0.0107475035 0.008827147
000010 8b 9c bd 3c 1b 72 cf bd 9e 02 9b 3c f8 20 9f 3d
       0.023145935 -0.10129186 0.018922146 0.0776996
000020 4a 14 77 bc a5 ae d3 3c fb 18 7e 3c 4e b1 31 3d
       -0.015080521 0.025840113 0.0155088855 0.04338198
000030 78 7b 4b bd 15 22 0e b9 c6 d6 9d 3d 0d 78 ad 3d
       -0.049678296 -0.00013554872 0.077069804 0.084701635
000040 d2 a3 da 3d 02 ff 84 bc 44 95 9d 3d fa 4a 71 3d
       0.106757775 -0.016234878 0.07694486 0.058909394
000050 4f aa e6 bc 9d 4c 8d ba 6b 75 9c 3a 9d c8 37 3d
       -0.028157381 -0.0010780279 0.0011936849 0.044869054
000060 bd 96 03 3d cd bd 07 3d 71 2c b9 3c 95 41 11 bd
       0.032126177 0.033139993 0.0226042 -0.035462935
000070 87 f3 6f 3d cf c4 97 bd f8 34 d0 bb 16 06 8a bc
       0.058581855 -0.07410585 -0.0063539706 -0.016848605

layer2.1.weight f4 [32]
000000 27 3c 6d 3f 81 9f 72 3f 6e 0c 6a 3f cf 17 80 3f
       0.9266991 0.94774634 0.91425216 1.0007266
000010 f9 02 6b 3f 1d 68 82 3f 46 4f 76 3f 78 99 81 3f
       0.9180141 1.0188023 0.9621471 1.012496
000020 e3 4c 86 3f 13 ba 8c 3f dc 6e 77 3f aa 51 6a 3f
       1.0492214 1.0994285 0.96653533 0.9153086
000030 2a 20 82 3f 70 a8 84 3f 4e 0e 8a 3f 0a db 88 3f
       1.0166066 1.0363903 1.0785615 1.0691845
000040 33 ca 82 3f c0 d6 8b 3f 9f b7 79 3f 90 89 84 3f
       1.0217956 1.0924911 0.9754581 1.0354481
000050 1e 2e 72 3f 06 09 85 3f 20 fa 84 3f d1 65 80 3f
       0.9460162 1.0393379 1.0388832 1.0031072
000060 6d 08 70 3f f8 79 8c 3f 48 de 79 3f ba 12 79 3f
       0.93762857 1.0974722 0.976048 0.972942
000070 d0 8d 86 3f d0 e2 71 3f 7f 73 7d 3f 9f 14 83 3f
       1.0512028 0.94486713 0.9900436 1.0240668

layer2.1.bias f4 [32]
000000 57 1d fd bd 83 86 14 be 50 5a 1d bc f2 38 bc 3d
       -0.12359112 -0.14504437 -0.009604052 0.09190549
000010 ef b4 a3 bd c3 a6 b9 bd fc c7 88 bd 76 93 73 bd
       -0.07993495 -0.090650104 -0.06678769 -0.0594668
000020 f9 d7 2f 3d 43 13 58 3d c9 f6 1c 3b 12 8c 11 bd
       0.042930577 0.052752744 0.0023950806 -0.035533972
000030 a6 13 ee 3c 56 26 91 3b 31 ed 4f bd cc c4 73 3d
       0.029062103 0.004429619 -0.050763313 0.059513852
000040 f0 2f 02 3e ca 9d 8d bc f1 53 3d 3d ce 71 a0 3d
       0.12713599 -0.017287154 0.04622263 0.078342065
000050 4e 9b b3 bd 0a 8a da 3c b6 24 a3 3d e9 44 3c 3c
       -0.087698564 0.02667715 0.079659864 0.011491039
000060 6b 43 8f bd 4c 50 89 3c c4 5c d9 3c f3 4b 8a 3d
       -0.06995281 0.016761921 0.026533492 0.067527674
000070 2b 24 19 bd 2e 30 b3 bd ee 07 a5 bc e0 3b 08 bd
       -0.037388008 -0.08749424 -0.020145383 -0.033260226

layer2.1.running_mean f4 [32]
000000 0c ac 9a bf 50 b6 82 3f cb 80 1a bf 85 7a 0f 40
       -1.2083755 1.0211887 -0.6035277 2.241853
000010 dc 1d 32 c0 f9 bd f1 bf ab 4c 91 bf ac 13 b1 bf
       -2.7830725 -1.88861 -1.1351522 -1.3834128
000020 eb 1a ee bf b7 c8 ce bf 6a 28 0a 40 5c 42 f2 bf
       -1.8601965 -1.6155003 2.1587167 -1.8926501
000030 5e ad 0d 40 59 12 ee bf 38 dd f8 3f b0 4b 10 c0
       2.2137065 -1.8599349 1.9442511 -2.2546196
000040 bc d5 d7 3f e0 85 f2 3f d7 9c 6d 3f a4 50 84 bf
       1.6862102 1.8947105 0.92817444 -1.033711
000050 f9 0c 85 3f cf 04 2c 40 97 91 36 c0 09 60 9b 3f
       1.0394584 2.6877935 -2.852636 1.2138683
000060 c5 88 c6 be 58 38 c7 3f 33 c9 2c 40 f2 d4 43 40
       -0.38776222 1.556407 2.6997802 3.0598722
000070 6a 56 4b c0 45 db 64 c0 51 4d 0d 3d eb bc 26 c0
       -3.1771493 -3.5758832 0.034497563 -2.6052806

layer2.1.running_var f4 [32]
000000 02 3c aa 40 47 c5 8c 40 0f dc ac 3e 40 87 58 41
       5.319825 4.3990817 0.3376164 13.53302
000010 1e e6 ed 40 18 06 30 40 38 ba 01 3f 28 69 37 41
       7.4343405 2.750372 0.5067477 11.463173
000020 5c 06 db 40 f0 fc 55 3f 71 30 b6 40 ae 1a 35 40
       6.8445263 0.83589077 5.6934133 2.8297534
000030 a0 1f c8 40 28 9e 4f 3f 5c b6 28 3f c3 97 09 41
       6.2538605 0.811007 0.6590326 8.599551
000040 7c 93 a9 40 6e 42 a0 40 2b c0 7d 3f 8e f9 4c 40
       5.2992535 5.008109 0.9912135 3.2027316
000050 2b e1 9c 40 ae 60 63 41 be ab 26 41 a5 6e 4b 3f
       4.9024863 14.211103 10.416929 0.79465705
000060 66 25 43 3f 07 27 b8 3f 61 ed 11 41 9a 3b a6 40
       0.7622894 1.438691 9.120454 5.1947756
000070 76 b0 7b 41 9e f2 5a 41 b9 b0 34 3f 68 e4 fe 40
       15.730581 13.684233 0.7058216 7.9653816

layer3.0.weight f4 [64, 32, 3, 3]
000000 03 79 84 bd 59 f3 ba bd 41 93 1a be 28 b1 99 bc
       -0.06468394 -0.09128446 -0.15095235 -0.018761232
000010 bd b5 b4 bd 77 be 86 bd 98 a9 1f 3d 73 83 6a 3d
       -0.08823726 -0.06579297 0.038980097 0.057254266
000020 f3 ad 51 bd 51 8f 86 3d ec b3 c0 3d 03 35 7d 3d
       -0.05119128 0.06570304 0.094093174 0.061818134
000030 a0 a8 a3 3d 49 16 09 3d 69 d9 8a 3d 18 e0 1c bd
       0.07991147 0.03346852 0.06779749 -0.03829965
000040 1d 32 96 3d 4f e6 02 bd e7 70 c5 bc d5 40 9d 3d
       0.07333777 -0.03195792 -0.024101688 0.07678381
000050 19 31 c4 3d e0 e2 9a 3d 91 2e 0f bd ab 67 b4 3c
       0.09579677 0.07562804 -0.03495652 0.022022089
000060 a4 7e 00 3d fc e0 fe 3c a6 aa 23 bd dc f1 2e bc
       0.031370774 0.03111314 -0.039957665 -0.010677781
000070 fc a2 63 bc 4a 43 ed bd 38 4c bf bc fc 80 bf bd
       -0.013893839 -0.115851 -0.023351774 -0.09350774
000080 33 c9 06 be f5 1f 5c bd 8a 07 f2 bd d4 6b e4 bd
       -0.13162689 -0.053741414 -0.11817844 -0.11153379
000090 89 0e 6a 3b 09 bf 0a bd 70 9a 53 3d d6 1e ca 3d
       0.003571423 -0.03387359 0.051660955 0.09869163
0000a0 e5 ab 5f bd f8 c3 ae 3c f2 5e 9b 3d 02 da 82 bd
       -0.05460729 0.02133368 0.07586469 -0.06389238
0000b0 cd c4 4b bd 22 91 03 be 87 f6 e6 bd 17 92 9a 3c
       -0.04974823 -0.12848333 -0.1127749 0.01886849
0000c0 af 00 f5 ba f0 e6 8e 3d 64 86 a6 bc 6a 20 ea 3d
       -0.001869222 0.069776416 -0.020327754 0.11431964
0000d0 1d 77 49 bd f5 2f e9 bc cb b5 56 3d da 4e 1e 3c
       -0.04918586 -0.02846525 0.052419465 0.009662354
0000e0 de 5b 62 3d f9 56 5e 3b e0 47 6a bd 17 c4 90 3d
       0.055263393 0.0033926351 -0.05719745 0.07068651
0000f0 20 5d 82 3d 9f ab 25 3d cc 6e 3d bc 0c 2a 02 3e
       0.063654184 0.040446874 -0.011562061 0.12711352
000100 d0 10 d7 3d 52 ab 33 3d e3 7c 0f 3e 02 7d 15 3e
       0.105012536 0.043864556 0.14012484 0.14598468
000110 4d 56 3e 3d 94 26 98 3d b0 05 44 3e 60 71 77 bd
       0.04646902 0.07429233 0.19142795 -0.060410857
000120 1a fd e2 3d e6 22 18 3d ec 33 10 3d b8 f4 96 3d
       0.110834315 0.037142657 0.035205767 0.07370895
000130 be 76 e7 3d e7 67 d1 3d c5 fd d1 3d e1 5a 08 3d
       0.11301945 0.10224896 0.10253481 0.033289794
000140 a1 c4 b4 3d f3 46 c4 bd 7f f2 67 3d a5 1d 7f bd
       0.088265665 -0.09583845 0.056627747 -0.06228413
000150 47 4b 9f bc ca 2b 28 3d c7 72 67 3c 6c 6a 7d 3c
       -0.019445075 0.041057386 0.014126486 0.0154672675
000160 e4 a1 db bd f5 82 05 bd bc 1d 1a 3e c9 a8 50 3d
       -0.107242376 -0.032595593 0.15050405 0.050942216
000170 d4 ac b2 3c d9 c3 b7 3d cd 7b 8f 3d ee 5b 29 bd
       0.021810926 0.08972902 0.07006035 -0.041347437
000180 a9 eb 9b 3c 0e 1f 1a 3d 0e ec f5 3b c8 24 ad bc
       0.01903327 0.037627272 0.0075049466 -0.021135703
000190 e8 7a 69 bc 66 8d 07 bc 75 66 67 bd 78 06 54 bd
       -0.014250495 -0.008273458 -0.056494195 -0.05176398
0001a0 9d 88 6c bd f0 ea 21 3d 26 55 ef 3c c4 59 ad bd
       -0.057747472 0.039530694 0.029215407 -0.08464387
0001b0 3b ef a6 3d ac 7d e4 3c f3 f8 2b bd d5 93 07 3e
       0.08151098 0.027891956 -0.041985463 0.13239987
0001c0 ca 7c 9a bc 5d 7f 58 bd 6b 7a 0b bc 8c 49 2b 3d
       -0.018858332 -0.052855838 -0.008513073 0.041818187
0001d0 68 48 7d bd bd c9 ed bc 4a b9 5a 3d 64 62 12 3e
       -0.06183663 -0.02902686 0.05339936 0.14295346
0001e0 d4 94 b7 3d 49 13 e6 3c 2e 1a 85 3d 67 aa 47 3d
       0.089639336 0.028085368 0.06499134 0.048746493
0001f0 31 e0 88 3c b4 49 0f 39 86 b6 4b bd cc 3e c9 bd
       0.016708465 0.00013665 -0.049734615 -0.09826431
000200 f1 ed 89 bd d3 a8 06 bd 60 4e bb bd 7c 5a ba bc
       -0.06734837 -0.032875847 -0.09145808 -0.022748224
000210 fb 63 34 3d 1c 1c 85 bc 9c f5 5b bb cd 29 bb 3c
       0.04404066 -0.016248755 -0.0033563143 0.02284708
000220 94 87 f0 3d 6a 7d e9 3d 66 03 9e 3d 19 23 8c 3d
       0.117446095 0.11400874 0.07715492 0.06842632
000230 6a 23 d4 3d d8 50 6f 3d 5c b7 02 3d 62 a9 31 3d
       0.10358317 0.058426708 0.031913146 0.043374427
000240 7c 56 4e 3c dd 9e 1e 3d 27 87 92 3c 9e fa 88 bd
       0.012593862 0.038725723 0.017886711 -0.066884264
000250 85 07 b1 bc 18 c3 21 be 03 62 45 3b ef 19 6c bd
       -0.02161003 -0.15797079 0.0030118234 -0.05764192
000260 a2 35 bc bd 6a c1 ff 3d 3a fb 88 3d dc e7 a5 3c
       -0.09189917 0.12488063 0.06688543 0.02025216
000270 6c 79 48 3d 7b d3 a4 bd dd 3f c4 bc 3d 58 ca 3b
       0.048943922 -0.08048149 -0.023956234 0.0061750696
000280 9e c8 14 b9 b7 b0 8a bd 63 41 ee 3d eb 76 0a 3e
       -0.00014189116 -0.06771987 0.11633565 0.13521926
000290 4a 95 1b bd 88 1c 24 bb ed 2d fd 3b 7b ee 72 3b
       -0.03798417 -0.002504142 0.007726422 0.0037068415
0002a0 85 54 cf bb a9 30 45 3c e7 83 4d bd 01 86 0b be
       -0.006327214 0.012035527 -0.05017462 -0.13625337
0002b0 6e 2a be bd 75 0b 8f bd a9 40 d8 bd 70 61 94 bd
       -0.092854366 -0.06984607 -0.10559208 -0.07245147
0002c0 7b a9 cf bd e5 f5 6b bd 34 78 db bc 2d 11 7c bd
       -0.10139748 -0.05760755 -0.026790716 -0.061539818
0002d0 c6 5f a0 3d a3 6a c6 bc c1 53 b9 3c c6 d0 e3 bc
       0.07830767 -0.02422077 0.022622945 -0.027809512
0002e0 78 ee 82 bd 9a 10 76 bd c7 d2 98 bd 1a ed 8d 3b
       -0.063931406 -0.060074426 -0.074620776 0.004331243
0002f0 e6 56 c1 bd ab 91 ac 3d 41 62 d5 3d 05 d9 3b 3d
       -0.09440403 0.084262215 0.10419131 0.045861263
000300 02 d0 7e 3d b0 2b 75 3d d6 40 01 3d 72 8b 8c 3d
       0.06221009 0.059856117 0.031555973 0.068625346
000310 07 39 aa 3d e1 ef 88 bc 4f 32 96 3c c5 f9 42 3d
       0.08311658 -0.016715946 0.018334536 0.04760148
000320 d0 31 14 bc f7 81 0f bd 05 73 62 3d 3a 14 df bb
       -0.009045079 -0.035036054 0.055285472 -0.006807831
000330 9f 64 f6 3d 6f 0a b9 bd 67 1d 96 3d 88 03 38 bd
       0.12030911 -0.09035193 0.07329827 -0.044925243
000340 ee 14 df bd 78 62 0b bd c1 49 06 bd 6d a3 0b 3d
       -0.10892664 -0.034029454 -0.03278518 0.0340914
000350 0a 0e d4 bd bc 5b 94 bc 5f 93 9b bd e7 d4 7a bd
       -0.1035424 -0.018110149 -0.07596468 -0.061238196
000360 a1 6a 84 3c 83 7f a2 3d e5 95 03 3d 5b 42 12 3d
       0.016164126 0.07934477 0.032125372 0.035707813
000370 28 99 74 ba 68 d5 8e bd a7 c0 4c 3c 35 25 b2 3c
       -0.00093306834 -0.06974298 0.012497104 0.021746257
000380 56 86 17 3b 3f d0 33 bd e1 28 df bb 92 f2 8d bd
       0.0023120842 -0.04389977 -0.006810293 -0.06931032
000390 23 a1 db bc ca 20 e4 bd 01 85 43 bd f1 f4 ac bc
       -0.026810234 -0.111390665 -0.047734264 -0.02111289
0003a0 61 35 54 bc f8 26 2a 3b 09 55 ea 3d e7 67 36 3d
       -0.01295218 0.0025963169 0.114420004 0.044532683
0003b0 f3 41 88 bc 76 18 a4 3c fb 07 55 bc b8 67 ae bd
       -0.01663301 0.020031195 -0.013002391 -0.085158765
0003c0 96 94 42 bd 3a 38 a6 3d 94 9d 52 3c cc 18 3c bc
       -0.047504984 0.08116193 0.012854952 -0.011480521
0003d0 9f 4f 80 bd c6 2c f8 bc d1 ed 24 bd 75 7e 40 bd
       -0.062651865 -0.030294787 -0.040265862 -0.0469956
0003e0 aa da db bd 27 21 ef bc d5 40 9f bc 45 24 ae bd
       -0.10735066 -0.029190613 -0.019440094 -0.085030116
0003f0 6c a2 5a 3d 48 89 52 3d 19 b2 6b 3c 6a 62 53 3b
       0.053377554 0.051400453 0.0143857235 0.0032254704

layer3.0.bias f4 [64]
000000 d7 7a 40 3d 71 3b 49 bc e5 84 23 bd ad 4f 1a 3d
       0.04699215 -0.012282238 -0.03992166 0.03767364
000010 13 bb 02 bd ac 6d bd 3c ce b9 97 bc 7b cb 0c 3d
       -0.03191669 0.023123585 -0.018521216 0.03437374
000020 04 4b cc bc 31 82 50 3d 14 9c f4 3c d5 9d 48 3d
       -0.024938114 0.05090541 0.02985958 0.048978645
000030 72 54 9d bb 6c dd 48 bd 45 96 be 3c 0c 94 c2 3c
       -0.0048013264 -0.04903929 0.023265013 0.023752235
000040 3b 6f 09 3b 6d c1 40 bc 75 5c a7 3c a2 de fc 3b
       0.002097084 -0.011764866 0.02042983 0.0077169696
000050 34 73 1e 3d 9c 33 d2 bb 56 1d 26 3c ef 1c 65 3d
       0.038684085 -0.0064148437 0.01013883 0.055935796
000060 b1 7a b3 bc 7d d5 e6 bc 1c 6a 97 bc ad a0 fb bc
       -0.02190909 -0.028177971 -0.018483214 -0.030716265
000070 69 0e f7 bc 1e 02 e8 bb ad 70 44 3d ae 60 57 3d
       -0.030158238 -0.0070803305 0.04795902 0.052582435
000080 d1 40 4c bd 5c 31 f0 3a 00 4e 8d 3c be 9e 24 bd
       -0.0498665 0.0018325257 0.017249107 -0.04019045
000090 dc 48 0d 3c e9 d4 be 3a 13 13 21 bd 19 8e 28 bd
       0.008623328 0.0014559302 -0.03932483 -0.04115114
0000a0 c5 4c 5f bc a8 db 71 bd bf f3 0b bd 68 d6 5d bd
       -0.013629143 -0.05904737 -0.034168 -0.05415955
0000b0 ec 03 16 bc f7 f6 79 3d 18 08 c6 3a d9 95 82 3d
       -0.0091562085 0.06102654 0.0015108613 0.063762374
0000c0 40 1d 39 bd 87 ae f9 bc ed 07 a8 3c e3 1c 5c 3d
       -0.04519391 -0.030478729 0.020511592 0.053738486
0000d0 88 7e 31 3d 41 50 10 bd bb 29 80 bd db 4d 0b bd
       0.04333356 -0.035232786 -0.062579595 -0.034009796
0000e0 70 80 bd bb fb 35 7e bd 49 d5 ba 3b 40 b4 0c bd
       -0.005783133 -0.0620632 0.005701695 -0.034351587
0000f0 14 05 4c 3d a5 f5 9b 3b 17 fe ad ba 7d 4e c3 3c
       0.04980953 0.0047595077 -0.0013274577 0.023841137

layer3.1.weight f4 [64]
000000 69 01 77 3f 1a 12 5d 3f 05 a2 66 3f 90 ec 72 3f
       0.96486527 0.86355746 0.9009097 0.94892216
000010 f8 eb 65 3f 40 08 78 3f 04 b4 6c 3f 92 b5 5f 3f
       0.89813185 0.9688759 0.9246218 0.8738643
000020 bc 17 76 3f 4a 2f 71 3f d0 93 69 3f 1c 2b 89 3f
       0.96129966 0.9421278 0.9124117 1.0716281
000030 fe 67 7b 3f 35 6a 66 3f 98 f2 70 3f 69 6d 6f 3f
       0.98205554 0.9000581 0.9412017 0.9352632
000040 d8 65 72 3f 10 42 6d 3f 63 89 5b 3f b6 24 6d 3f
       0.9468665 0.9267893 0.8575651 0.9263414
000050 a0 72 77 3f 99 da 78 3f 2e af 67 3f 2e ec 5f 3f
       0.9665928 0.97208554 0.9050168 0.87469757
000060 9a 90 68 3f e1 89 5b 3f 88 64 6c 3f 3e a2 70 3f
       0.90845644 0.8575726 0.923409 0.9399756
000070 f7 8e 6a 3f 6c bc 5c 3f 6e 1d 71 3f f0 f2 62 3f
       0.916244 0.8622501 0.9418553 0.88651943
000080 90 86 6e 3f c2 42 63 3f 10 0b 66 3f 00 ec 60 3f
       0.93174076 0.8877374 0.8986063 0.8786011
000090 37 d5 74 3f e0 91 79 3f 6b 88 62 3f e1 25 79 3f
       0.9563784 0.9748821 0.8848941 0.97323424
0000a0 62 0e 5f 3f c3 2a 70 3f b0 15 7b 3f 2c e6 73 3f
       0.8713132 0.9381525 0.9807997 0.9527309
0000b0 83 74 68 3f a9 1c 61 3f dd 2e 8e 3f 13 fd 78 3f
       0.9080278 0.87934357 1.1108052 0.9726116
0000c0 4d bc 5d 3f be 05 75 3f 71 a4 65 3f 50 bb 76 3f
       0.8661545 0.95711887 0.8970404 0.96379566
0000d0 c0 dc 57 3f a3 18 75 3f 9b ad 72 3f bc 3d 6d 3f
       0.8432121 0.9574072 0.9479615 0.92672324
0000e0 44 9d 80 3f 52 68 76 3f e5 09 69 3f 52 34 66 3f
       1.0047994 0.9625293 0.9103072 0.89923584
0000f0 2f 41 63 3f bb 9d 69 3f 0d d7 6b 3f f0 26 69 3f
       0.8877134 0.912563 0.92125016 0.9107504

layer3.1.bias f4 [64]
000000 77 c9 5c bd 40 5e 05 be ad 8a 9f bd a2 c8 93 bd
       -0.05390307 -0.13024235 -0.07790122 -0.07216002
000010 96 16 ee bd d1 da d1 3b 36 e2 95 bd 9c 66 88 bd
       -0.11625402 0.006404259 -0.07318537 -0.06660196
000020 e2 79 c1 bc 18 7b 79 bd ba c1 b1 bd c6 82 6c 3b
       -0.023617689 -0.060908407 -0.086795285 0.003608869
000030 07 7c 03 bd 88 c3 bd bd 34 65 c2 bb 26 7e 99 bd
       -0.032100704 -0.0926581 -0.0059324745 -0.07494764
000040 6d fe 04 bd bc 43 ba bd 3c ae ce bd f5 85 90 bd
       -0.0324692 -0.090949506 -0.10091826 -0.070568
000050 d1 d1 8f bd ab c3 5f bd 18 66 9f bd 47 d3 12 be
       -0.07022441 -0.054629963 -0.07783145 -0.14338408
000060 19 0f 47 bd 9e cb 10 be 45 73 00 be b2 6f a2 bd
       -0.048598383 -0.14140174 -0.12543972 -0.079314604
000070 c1 cb 93 bd 36 ee 08 be 5a 07 89 bd ed b0 c7 bd
       -0.07216597 -0.1337212 -0.06690855 -0.09750543
000080 b6 9a 69 bd f9 2b f7 bd 67 3b aa bd 69 99 f9 bd
       -0.05703231 -0.12068934 -0.08312111 -0.12187464
000090 2f 2a 81 bd 5e 36 5f bc 09 93 ed bd 1c 0f dc 3c
       -0.06306874 -0.013623802 -0.1160031 0.026862673
0000a0 de 4c a4 bd 38 c0 57 bd d0 28 62 bd e2 21 65 bd
       -0.08022474 -0.05267355 -0.055214703 -0.055940516
0000b0 d1 38 af bd 76 90 09 be ed 63 1f 3e ed 51 4e bd
       -0.08555759 -0.13434014 0.15565462 -0.0503711
0000c0 45 51 b5 bd 95 51 6a bd 94 e4 c5 bd ab 38 ac bd
       -0.088533916 -0.05720671 -0.096627384 -0.08409246
0000d0 20 c3 ea bd ba c7 1c bd db b5 e1 bb 08 ec 23 bd
       -0.114629984 -0.03827641 -0.006888134 -0.04002002
0000e0 8d 2b cf bb 48 80 6d bd 9b b9 9a bd 37 81 b5 bd
       -0.0063223303 -0.057983667 -0.07554933 -0.088625364
0000f0 20 59 f6 bd 72 1b 99 bd bd 28 99 bd d3 26 c9 bd
       -0.12028718 -0.07475938 -0.07478473 -0.09821858

layer3.1.running_mean f4 [64]
000000 ab 26 70 3e 16 b2 ca 3e 90 3f cd 3e 64 73 13 bf
       0.2345225 0.39588994 0.40087557 -0.5759795
000010 1e bf 62 bf 52 3a 8f 3f 1a 37 1f c0 a4 a2 3f c0
       -0.8857287 1.1189673 -2.4877381 -2.9943018
000020 42 4d c2 be 73 b6 08 c0 49 d5 c7 bf 25 16 21 3f
       -0.37949568 -2.1361358 -1.5611964 0.62924415
000030 4f c5 09 c0 af 56 bc bf 00 df c4 3f 9f c1 09 be
       -2.1526678 -1.4713954 1.5380554 -0.13452767
000040 25 6a e6 3f 9a a0 77 bf 2e 43 0d c0 ef c3 d6 be
       1.8001143 -0.96729434 -2.2072253 -0.4194636
000050 0c 59 c4 bf d6 a7 28 40 07 b7 0b bf fa c0 f0 3e
       -1.5339675 2.635244 -0.5457615 0.4702223
000060 72 95 1b ba 09 60 b3 bf 77 57 c0 3e 4e 73 9a bf
       -0.000593505 -1.4013683 0.3756673 -1.2066438
000070 83 08 8c 3f eb 3b 10 c0 69 e4 c6 be e9 cd 20 40
       1.0940098 -2.253657 -0.38846138 2.5125678
000080 ec 2f 42 c0 d1 f6 01 40 81 93 58 c0 e5 d4 ca be
       -3.034175 2.0306895 -3.384003 -0.3961555
000090 4a 91 77 c0 77 02 13 c0 82 e4 f0 bf 17 37 08 40
       -3.8682427 -2.2970254 -1.8819735 2.1283624
0000a0 ed 50 ba 3f d2 45 3d c0 24 c0 90 3f 1a 7d 52 c0
       1.4555947 -2.9573865 1.1308637 -3.2888856
0000b0 3f 23 62 be 16 b4 d0 bf 55 e7 15 40 b5 a7 ac bf
       -0.22083758 -1.6304958 2.3422444 -1.348868
0000c0 92 ec 70 c0 7e 1d 68 c0 cb 63 33 3e da 45 07 be
       -3.764439 -3.6268 0.17518537 -0.1321024
0000d0 a1 b5 4d c0 17 b6 10 be 97 10 e2 3e a1 b6 3d 40
       -3.2142107 -0.14131962 0.44153282 2.9642718
0000e0 1b 86 ec bf 7d b6 00 bf 73 42 f0 bd cb 5e 04 c0
       -1.8478426 -0.50278455 -0.11731424 -2.0682857
0000f0 e6 dc 41 c0 b6 74 28 c0 08 b8 11 3f 04 f4 9a 3f
       -3.0291076 -2.6321235 0.56921434 1.2105718

layer3.1.running_var f4 [64]
000000 26 fd 01 40 00 8a fe 3f d0 89 95 40 2c 12 15 41
       2.031076 1.9885864 4.673073 9.3169365
000010 fd 4c db 3f 4b 91 40 40 de ed 26 41 72 23 7b 41
       1.713287 3.008868 10.433073 15.696154
000020 c4 7b 1f 41 ba 0a 7f 41 82 79 ad 41 2d 84 4e 40
       9.967716 15.940119 21.68433 3.2268174
000030 89 f0 02 41 6f 61 28 40 af de 09 41 8d 73 4b 40
       8.183724 2.6309469 8.616866 3.1789277
000040 40 f1 95 41 3e 72 86 41 84 15 9b 41 da cb e6 40
       18.742798 16.805782 19.385506 7.212384
000050 2a 9b ac 40 45 e9 b9 40 9e b4 10 41 fb af bd 3f
       5.393941 5.8097253 9.044096 1.481933
000060 13 2a 75 40 85 a5 aa 40 ba 08 ae 40 df 8a 8d 40
       3.830693 5.332705 5.4385653 4.423202
000070 85 89 1d 41 17 17 00 40 af 05 d9 40 6d 20 30 40
       9.846074 2.0014093 6.781944 2.751979
000080 52 ae 41 40 7b 39 3b 40 bb e5 1d 41 72 03 19 41
       3.0262647 2.9253833 9.868587 9.563341
000090 2c 70 6c 41 68 9e 41 40 1c 6f 95 40 94 32 d9 40
       14.777386 3.0252934 4.669813 6.787424
0000a0 01 30 34 41 5e 4d 93 41 e2 3f 05 40 36 53 91 3f
       11.26172 18.412777 2.082024 1.1353519
0000b0 95 36 c0 40 24 10 4e 41 30 3b 42 40 ec 44 5c 41
       6.006663 12.878941 3.0348625 13.766827
0000c0 83 2f 09 41 d7 7f df 40 36 8e 35 40 9a 23 28 41
       8.5741 6.9843554 2.8368049 10.508692
0000d0 7b ef 7a 41 90 43 a8 40 84 57 ef 40 74 f4 12 40
       15.683467 5.2582474 7.479433 2.2961702
0000e0 bc d0 f1 41 6f 22 d8 41 42 17 f4 3f e7 15 dd 41
       30.226921 27.016813 1.9069598 27.635695
0000f0 40 58 8f 41 21 66 dc 40 77 67 af 40 43 d3 c9 3f
       17.91809 6.887467 5.48138 1.5767597

fc1.weight f4 [10, 576]
000000 a5 e1 70 bd 12 d5 15 bd 59 a5 3d bd c2 b2 f3 bc
       -0.05880894 -0.036580153 -0.046300266 -0.029748324
000010 92 dd 7b bd 49 1d 93 bd 7e 69 11 bd af 02 df bc
       -0.061490603 -0.0718332 -0.035500996 -0.02722296
000020 de 31 ca bd 75 4a 29 bd 73 da a8 bd bf 52 c7 bc
       -0.09872793 -0.041330773 -0.08244791 -0.024331449
000030 6c 10 04 bd 1e b0 52 bd 29 43 9a bd 46 ba 4d bd
       -0.032242224 -0.05143749 -0.07532341 -0.050226472
000040 85 0a c6 bd 26 5d 29 bd 49 d4 bf bd 62 fd 3c bd
       -0.09669975 -0.0413486 -0.09366662 -0.046140082
000050 73 5c b2 bd b2 68 c9 bd 17 7f 96 bd cb 7b b5 bc
       -0.087090395 -0.09834422 -0.07348459 -0.022153756
000060 00 dc 4e bd 59 fb c9 bc 21 58 8d bd be 0e c9 bd
       -0.050502777 -0.024655985 -0.06901575 -0.09817265
000070 38 bf 86 bd 0e 3d 2c bd 9c 36 45 bd e8 9e 2a bd
       -0.06579441 -0.042050414 -0.048147783 -0.04165545
000080 2a c2 f0 bc d7 4c bf bc 34 74 91 bd 48 d9 a6 bd
       -0.02938946 -0.02335207 -0.07102242 -0.08146912
000090 55 13 84 bd f8 8c b3 bd aa c5 b5 bd 70 80 ca bc
       -0.06449 -0.08767122 -0.08875592 -0.024719447
0000a0 5b f3 8d bd c1 40 9e bd 1d 4b c8 bd 00 f5 9d bd
       -0.06931182 -0.077271946 -0.09779952 -0.07712746
0000b0 b0 43 c7 bc d2 1b 21 bd 9d c6 a2 bd f7 fa b0 bd
       -0.024324268 -0.039333172 -0.07948039 -0.08641618
0000c0 b0 87 d2 bc d7 49 a8 bd 64 82 e4 bc de 07 58 bd
       -0.025699466 -0.08217209 -0.027894206 -0.052741878
0000d0 1e c1 a6 bd 2c 98 86 bd f7 53 8a bd 65 fe b3 bd
       -0.08142303 -0.06571993 -0.06754296 -0.08788756
0000e0 4a a1 ac bd b6 9b 0a bd 9f 3a 06 bd d2 b8 33 bd
       -0.08429201 -0.033839904 -0.03277075 -0.04387743
0000f0 ac 3e c6 bd 2b 78 d8 bc 9e bc b3 bd 9b 16 92 bd
       -0.096799225 -0.026424488 -0.0877621 -0.07133218
000100 32 e5 79 bd aa 49 99 bd 8d a6 cd bc 18 dd 38 bd
       -0.061009593 -0.074847534 -0.025103832 -0.045132726
000110 99 86 81 bd 3e 7d f2 bc 04 da a1 bd 9a 1d 74 bd
       -0.063245006 -0.029600736 -0.07902911 -0.059598543
000120 d6 94 30 bd 8b 04 bb bc 36 0e ba bc d9 11 c5 bc
       -0.04311069 -0.022829315 -0.022711854 -0.024056362
000130 a5 0b 5c bd 68 26 c9 bd 0b ff e3 bc 25 fb 81 bd
       -0.053722043 -0.098217785 -0.027831575 -0.0634673
000140 d2 c8 a5 bd 24 0d 99 bd 6a 5a cf bd ce 01 2e bd
       -0.08094944 -0.074732095 -0.10124667 -0.04248219
000150 5b fa 7f bd 81 e8 dd bc f6 67 11 bd b7 c6 c7 bd
       -0.062494617 -0.027088406 -0.035499536 -0.09754699
000160 58 9c ca bd f3 70 b9 bd 0d fe f3 bc 18 02 77 bd
       -0.098931015 -0.090547465 -0.029784227 -0.06030473
000170 64 b3 a0 bd 06 81 c8 bd 3e de 42 bd 43 db 84 bd
       -0.07846716 -0.09790234 -0.047575228 -0.06487133
000180 8d 1f d4 bc bb d7 c3 bd bd ec 97 bd e6 f1 1f bd
       -0.02589395 -0.09562632 -0.07418201 -0.03904905
000190 e1 31 9f bd 5f 8e a1 bd 70 ab 4b bd 1e 22 59 bd
       -0.077731855 -0.07888483 -0.049724042 -0.053011052
0001a0 5c 59 5e bd 7c d4 0a bd 2a c8 59 bd 3d b7 a0 bd
       -0.05428444 -0.033894047 -0.053169407 -0.0784745
0001b0 28 04 68 bd b1 0d b1 bc ca c5 ae bd 10 ea b7 bd
       -0.05664459 -0.021612974 -0.08533819 -0.08980191
0001c0 8c 4a 39 bd ec a3 39 bd ac 76 84 bd a8 3a 90 bd
       -0.04523711 -0.045322344 -0.06467947 -0.07042438
0001d0 fa ed 15 bd ae a1 24 bd 93 16 b2 bc 42 df 6c bd
       -0.036603905 -0.040193252 -0.02173928 -0.057830103
0001e0 b6 db 89 bd da d6 20 bd 6a fe af bd 2d d1 a1 bd
       -0.0673136 -0.0392674 -0.085934475 -0.07901225
0001f0 47 18 12 bd c2 f0 80 bd 2e 7a 6c bd 83 e1 7b bd
       -0.035667684 -0.06295921 -0.057733707 -0.06149436
000200 46 fc bf bd ed d6 b0 bd bd 3c 9d bd 79 58 84 bd
       -0.09374289 -0.08634744 -0.076776005 -0.06462187
000210 f0 6b c3 bd ed ca f0 bc 74 95 96 bd cf 77 9c bd
       -0.09542072 -0.029393638 -0.07352725 -0.07640039
000220 9e 79 49 bd 63 90 b9 bd 42 76 cd bd 3b bc 46 bd
       -0.04918825 -0.09060743 -0.100323215 -0.048519354
000230 8a b8 a6 bd c2 65 9f bd 65 cc bf bd b3 a8 cb bc
       -0.08140667 -0.07783081 -0.09365157 -0.024860715
000240 27 a6 82 bd bc fb b2 bd 12 c5 ae bd 3b fa 87 bd
       -0.06379347 -0.08739421 -0.08533682 -0.066395245
000250 c0 72 93 bd f5 c0 3b bd 56 6a 72 bd 5b 5d bb bd
       -0.07199621 -0.045838315 -0.05918344 -0.091486655
000260 a0 ab 1a bd 16 22 27 bd ad bf 2c bd 65 e7 9e bd
       -0.03776133 -0.04080399 -0.042174984 -0.07758979
000270 50 64 92 bd 76 0a a5 bd c2 5d c6 bd 45 e5 bb bd
       -0.07148039 -0.08058636 -0.09685852 -0.09174589
000280 34 ac 90 bd d0 e9 d7 bc 6f f7 21 bd 24 01 8e bd
       -0.07064095 -0.026356608 -0.03954261 -0.06933811
000290 8c d6 ac bd dd 29 8d bd 36 db 3e bd 55 b3 ab bd
       -0.08439359 -0.068927504 -0.046595775 -0.08383814
0002a0 33 a9 a7 bd 84 ad 70 bd e6 b7 95 bd 69 8b a4 bd
       -0.08186569 -0.058759227 -0.073104665 -0.08034403
0002b0 91 79 74 bd 7c 35 aa bd fb 5b b8 bd 31 67 d0 bc
       -0.059686247 -0.083109826 -0.09001919 -0.02543983
0002c0 b3 db a4 bd a7 c0 14 bd 57 81 f4 bc 78 1d cd bd
       -0.08049717 -0.03631654 -0.02984683 -0.10015386
0002d0 15 84 97 bc 2f 94 30 bd 85 eb bf bd 3a 74 c8 bd
       -0.018495599 -0.04311007 -0.09371094 -0.097877935
0002e0 ae f8 cb bc 35 c9 e7 bc 01 b6 cd bd 99 dc 8b bd
       -0.024898853 -0.028294185 -0.1004448 -0.06829185
0002f0 d9 21 9a bc 22 fc 03 bd 13 7f f7 bc 47 55 97 bd
       -0.018814968 -0.032222874 -0.03021196 -0.07389312
000300 80 4f a4 bd 3c 01 cb bd 63 df bf bd 42 3d 0a bd
       -0.08022976 -0.09912345 -0.093687795 -0.033749826
000310 8b 28 6f bd d0 05 b6 bd dd b4 b1 bd 67 5f 4b bd
       -0.058388274 -0.088878274 -0.08677075 -0.04965153
000320 14 19 32 bd f3 ca 96 bd 1d 4c 93 bd ca 34 9a bd
       -0.043480948 -0.07362928 -0.07192252 -0.075296
000330 21 25 10 bd 93 5f 4d bd cf 3d 3f bd e6 e5 ac bd
       -0.03519166 -0.050139975 -0.046689805 -0.08442287
000340 c8 47 8f bd 49 15 a5 bd b1 9e a3 bd e8 96 a6 bd
       -0.06996113 -0.080607004 -0.07989252 -0.08134252
000350 95 a0 dd bc 90 24 2c bd 7e e4 0b bd 09 b7 9b bc
       -0.02705411 -0.042027056 -0.034153454 -0.019008176
000360 e4 cf 74 bd 79 2b bb bd 37 8b 6e bd 75 19 a7 bd
       -0.059768572 -0.09139151 -0.058238234 -0.081591524
000370 c3 19 8c bd 8c e1 c0 bd 7e a7 a3 bd 88 9a be bd
       -0.06840851 -0.0941802 -0.07990931 -0.09306818
000380 a0 a8 80 bd 03 ab 15 bd 22 0c d9 bc 34 7e 76 bd
       -0.06282163 -0.036540043 -0.026495043 -0.06017895
000390 ac 34 cc bd 0b 0b 1a bd 28 b1 bb bd ff b8 89 bd
       -0.09970984 -0.037608188 -0.09164649 -0.06724738
0003a0 18 2b 29 bd 10 e6 06 bd 16 6e 99 bc ce 40 a9 bc
       -0.041300863 -0.03293425 -0.01872925 -0.020660784
0003b0 65 69 dc bc 44 17 61 bd a1 61 9e bd a6 d1 53 bd
       -0.026905725 -0.05495383 -0.07733465 -0.05171361
0003c0 16 36 bd bd c9 d8 8e bd 53 8f b8 bd 3a 83 c4 bc
       -0.09238832 -0.06974942 -0.09011712 -0.023988355
0003d0 cb 3f ba bd 60 7e 98 bd 9f 1b a8 bc 18 bd b8 bd
       -0.09094199 -0.07445979 -0.020520983 -0.09020442
0003e0 22 0a a0 bd d3 71 57 bd bd 8d b6 bd 31 58 28 bd
       -0.07814433 -0.052598786 -0.08913753 -0.04109973
0003f0 f2 15 0a bd 2b be 8c bd 0a f9 11 bd 61 e3 39 bd
       -0.033712335 -0.06872209 -0.035637893 -0.04538286

fc1.bias f4 [10]
000000 a9 72 2f bd 31 dd 26 bd 35 9a 4f bc f5 6b 8a bc
       -0.042833958 -0.04073829 -0.012671043 -0.016897181
000010 fa d2 a6 bd 40 f7 0a bd be 28 41 bd fb a8 00 bd
       -0.08145709 -0.033927202 -0.047157995 -0.031411152
000020 55 64 3b bd 6d 6c 30 bb
       -0.04574998 -0.0026920096

fc2.weight f4 [2, 10]
000000 7f 35 09 be 1c bf fa 3d 01 cc 82 3e be 3a 18 be
       -0.13399313 0.122434825 0.25546268 -0.14866158
000010 d9 26 7f be 60 48 3d be 07 b2 e8 ba 06 97 29 3d
       -0.24917163 -0.1848464 -0.0017753252 0.041403793
000020 bb 3f 9d bc 6a 27 a1 bd 91 14 15 be 58 56 80 be
       -0.019195428 -0.07868846 -0.14558627 -0.25065875
000030 77 6a 3b 3e fa 5d f3 3c a0 78 7d bd 3b 4f c6 bc
       0.18302332 0.029707897 -0.061882615 -0.024207702
000040 16 2f 55 be c3 80 c7 3d 95 db 0f be d9 e7 ef bd
       -0.20818743 0.09741356 -0.14048608 -0.11714143

fc2.bias f4 [2]
000000 5b e7 f2 3d 52 a3 8e 3d
       0.11860534 0.06964745

exp_avg f4 [16, 3, 3, 3]
000000 04 00 00 00 04 00 00 80 04 00 00 00 04 00 00 80
       6e-45 -6e-45 6e-45 -6e-45
000010 04 00 00 80 04 00 00 00 04 00 00 80 04 00 00 80
       -6e-45 6e-45 -6e-45 -6e-45
000020 04 00 00 00 04 00 00 80 04 00 00 80 04 00 00 00
       6e-45 -6e-45 -6e-45 6e-45
000030 04 00 00 80 04 00 00 80 04 00 00 00 04 00 00 80
       -6e-45 -6e-45 6e-45 -6e-45
000040 04 00 00 80 04 00 00 00 04 00 00 80 04 00 00 80
       -6e-45 6e-45 -6e-45 -6e-45
000050 04 00 00 80 04 00 00 80 04 00 00 80 04 00 00 80
       -6e-45 -6e-45 -6e-45 -6e-45
000060 04 00 00 80 04 00 00 80 04 00 00 80 04 00 00 80
       -6e-45 -6e-45 -6e-45 -6e-45
000070 04 00 00 80 04 00 00 80 04 00 00 80 04 00 00 80
       -6e-45 -6e-45 -6e-45 -6e-45
000080 04 00 00 80 04 00 00 80 04 00 00 80 04 00 00 80
       -6e-45 -6e-45 -6e-45 -6e-45
000090 04 00 00 80 04 00 00 80 04 00 00 80 04 00 00 80
       -6e-45 -6e-45 -6e-45 -6e-45
0000a0 04 00 00 80 04 00 00 00 04 00 00 80 04 00 00 80
       -6e-45 6e-45 -6e-45 -6e-45
0000b0 04 00 00 80 04 00 00 00 04 00 00 00 04 00 00 00
       -6e-45 6e-45 6e-45 6e-45
0000c0 04 00 00 00 04 00 00 00 04 00 00 00 04 00 00 00
       6e-45 6e-45 6e-45 6e-45
0000d0 04 00 00 00 04 00 00 00 04 00 00 80 04 00 00 80
       6e-45 6e-45 -6e-45 -6e-45
0000e0 04 00 00 80 04 00 00 80 04 00 00 80 04 00 00 80
       -6e-45 -6e-45 -6e-45 -6e-45
0000f0 04 00 00 80 04 00 00 80 04 00 00 80 04 00 00 80
       -6e-45 -6e-45 -6e-45 -6e-45
000100 04 00 00 80 04 00 00 80 04 00 00 80 04 00 00 80
       -6e-45 -6e-45 -6e-45 -6e-45
000110 04 00 00 80 04 00 00 80 04 00 00 80 04 00 00 80
       -6e-45 -6e-45 -6e-45 -6e-45
000120 04 00 00 00 04 00 00 00 04 00 00 00 04 00 00 00
       6e-45 6e-45 6e-45 6e-45
000130 04 00 00 00 04 00 00 00 04 00 00 00 04 00 00 00
       6e-45 6e-45 6e-45 6e-45
000140 04 00 00 00 04 00 00 80 04 00 00 80 04 00 00 80
       6e-45 -6e-45 -6e-45 -6e-45
000150 04 00 00 80 04 00 00 80 04 00 00 80 04 00 00 80
       -6e-45 -6e-45 -6e-45 -6e-45
000160 04 00 00 80 04 00 00 80 04 00 00 00 04 00 00 00
       -6e-45 -6e-45 6e-45 6e-45
000170 04 00 00 00 04 00 00 80 04 00 00 00 04 00 00 00
       6e-45 -6e-45 6e-45 6e-45
000180 04 00 00 80 04 00 00 80 04 00 00 80 04 00 00 00
       -6e-45 -6e-45 -6e-45 6e-45
000190 04 00 00 00 04 00 00 00 04 00 00 00 04 00 00 00
       6e-45 6e-45 6e-45 6e-45
0001a0 04 00 00 00 04 00 00 00 04 00 00 00 04 00 00 00
       6e-45 6e-45 6e-45 6e-45
0001b0 04 00 00 80 04 00 00 80 04 00 00 80 04 00 00 80
       -6e-45 -6e-45 -6e-45 -6e-45
0001c0 04 00 00 80 04 00 00 80 04 00 00 80 04 00 00 80
       -6e-45 -6e-45 -6e-45 -6e-45
0001d0 04 00 00 80 04 00 00 80 04 00 00 80 04 00 00 80
       -6e-45 -6e-45 -6e-45 -6e-45
0001e0 04 00 00 80 04 00 00 80 04 00 00 80 04 00 00 80
       -6e-45 -6e-45 -6e-45 -6e-45
0001f0 04 00 00 80 04 00 00 80 04 00 00 00 04 00 00 00
       -6e-45 -6e-45 6e-45 6e-45
000200 04 00 00 00 04 00 00 00 04 00 00 00 04 00 00 00
       6e-45 6e-45 6e-45 6e-45
000210 04 00 00 00 04 00 00 00 04 00 00 00 04 00 00 80
       6e-45 6e-45 6e-45 -6e-45
000220 04 00 00 80 04 00 00 80 04 00 00 80 04 00 00 80
       -6e-45 -6e-45 -6e-45 -6e-45
000230 04 00 00 80 04 00 00 80 04 00 00 80 04 00 00 80
       -6e-45 -6e-45 -6e-45 -6e-45
000240 04 00 00 00 04 00 00 00 04 00 00 00 04 00 00 00
       6e-45 6e-45 6e-45 6e-45
000250 04 00 00 00 04 00 00 00 04 00 00 80 04 00 00 80
       6e-45 6e-45 -6e-45 -6e-45
000260 04 00 00 80 04 00 00 80 04 00 00 80 04 00 00 80
       -6e-45 -6e-45 -6e-45 -6e-45
000270 04 00 00 80 04 00 00 80 04 00 00 80 04 00 00 80
       -6e-45 -6e-45 -6e-45 -6e-45
000280 04 00 00 80 04 00 00 80 04 00 00 80 04 00 00 80
       -6e-45 -6e-45 -6e-45 -6e-45
000290 04 00 00 80 04 00 00 80 04 00 00 80 04 00 00 80
       -6e-45 -6e-45 -6e-45 -6e-45
0002a0 04 00 00 80 04 00 00 80 04 00 00 80 04 00 00 80
       -6e-45 -6e-45 -6e-45 -6e-45
0002b0 04 00 00 80 04 00 00 80 04 00 00 80 04 00 00 80
       -6e-45 -6e-45 -6e-45 -6e-45
0002c0 04 00 00 80 04 00 00 80 04 00 00 80 04 00 00 80
       -6e-45 -6e-45 -6e-45 -6e-45
0002d0 04 00 00 80 04 00 00 80 04 00 00 80 04 00 00 80
       -6e-45 -6e-45 -6e-45 -6e-45
0002e0 04 00 00 80 04 00 00 80 04 00 00 80 04 00 00 80
       -6e-45 -6e-45 -6e-45 -6e-45
0002f0 04 00 00 80 04 00 00 80 04 00 00 80 04 00 00 00
       -6e-45 -6e-45 -6e-45 6e-45
000300 04 00 00 80 04 00 00 80 04 00 00 00 04 00 00 80
       -6e-45 -6e-45 6e-45 -6e-45
000310 04 00 00 80 04 00 00 00 04 00 00 00 04 00 00 80
       -6e-45 6e-45 6e-45 -6e-45
000320 04 00 00 00 04 00 00 00 04 00 00 80 04 00 00 00
       6e-45 6e-45 -6e-45 6e-45
000330 04 00 00 80 04 00 00 80 04 00 00 00 04 00 00 00
       -6e-45 -6e-45 6e-45 6e-45
000340 04 00 00 00 04 00 00 00 04 00 00 00 04 00 00 00
       6e-45 6e-45 6e-45 6e-45
000350 04 00 00 00 04 00 00 00 04 00 00 00 04 00 00 00
       6e-45 6e-45 6e-45 6e-45
000360 04 00 00 80 04 00 00 80 04 00 00 80 04 00 00 80
       -6e-45 -6e-45 -6e-45 -6e-45
000370 04 00 00 80 04 00 00 80 04 00 00 80 04 00 00 80
       -6e-45 -6e-45 -6e-45 -6e-45
000380 04 00 00 80 04 00 00 80 04 00 00 80 04 00 00 00
       -6e-45 -6e-45 -6e-45 6e-45
000390 04 00 00 80 04 00 00 80 04 00 00 80 04 00 00 80
       -6e-45 -6e-45 -6e-45 -6e-45
0003a0 04 00 00 80 04 00 00 80 04 00 00 80 04 00 00 80
       -6e-45 -6e-45 -6e-45 -6e-45
0003b0 04 00 00 00 04 00 00 80 04 00 00 80 04 00 00 00
       6e-45 -6e-45 -6e-45 6e-45
0003c0 04 00 00 80 04 00 00 80 04 00 00 00 04 00 00 80
       -6e-45 -6e-45 6e-45 -6e-45
0003d0 04 00 00 80 04 00 00 80 04 00 00 80 04 00 00 80
       -6e-45 -6e-45 -6e-45 -6e-45
0003e0 04 00 00 80 04 00 00 80 04 00 00 80 04 00 00 80
       -6e-45 -6e-45 -6e-45 -6e-45
0003f0 04 00 00 00 04 00 00 00 04 00 00 00 04 00 00 00
       6e-45 6e-45 6e-45 6e-45
