Lab5/model_50_0.0001.pth (torch, 379043 bytes, 54 tensors)

layer1.0.weight f4 [16, 3, 3, 3]
000000 f0 b3 7a 3d d4 df d0 3c ea 94 93 bd b1 93 7b bd
       0.061206758 0.025497355 -0.072061375 -0.061420146
000010 53 54 31 3e 61 e9 a0 bc f0 c0 1b 3e c9 bc ef bd
       0.17317323 -0.019642534 0.15210319 -0.1170593
000020 c8 aa 8a 3d 11 74 a0 bd ef be eb bd 09 14 c7 3d
       0.06770855 -0.07834638 -0.11511027 0.09720618
000030 de f5 04 3e d6 fb 07 3e 41 2f 35 3d 60 64 ed bd
       0.12984416 0.13279662 0.044234518 -0.11591411
000040 51 85 bd 3d 84 dd d7 3c e4 e0 bb bc 72 80 c6 3d
       0.09253944 0.026350744 -0.022934385 0.09692468
000050 25 0d 04 bb d6 c9 3f bd 78 fe 25 3e c9 10 83 3d
       -0.0020149436 -0.046823345 0.16210353 0.06399686
000060 20 28 1f 3e ef e9 08 be ac 49 32 be 06 91 02 3e
       0.1554265 -0.13370489 -0.17410916 0.12750635
000070 50 0b 1e be 94 df 39 3e c8 70 7a 3c d0 b4 6f bd
       -0.15434003 0.18151695 0.015285678 -0.058522046
000080 b9 3b 89 bd 65 67 63 bd 1a d4 8e 3d c8 cc c3 3d
       -0.06700844 -0.055518527 0.06974049 0.09560543
000090 63 30 11 3d 86 5a c3 bd eb 55 40 3d 7a f5 24 3e
       0.035446536 -0.0953875 0.046956938 0.16109267
0000a0 aa 19 17 be 2a 55 1d 3e 96 81 54 bd 4e b2 fc bd
       -0.14755884 0.15364519 -0.051881395 -0.123386964
0000b0 0b 35 9e 3d 41 9e a9 bc 94 7e bf 3c 8a ed 11 bd
       0.07724961 -0.020705344 0.023375787 -0.035626926
0000c0 ac 49 e9 bd 9a 4e fc 3d f6 00 32 be 7a 76 3e 3e
       -0.11391005 0.123196796 -0.17383179 0.18599883
0000d0 9d 9e 97 bd 36 7c f8 bd 99 47 da 3b f4 79 fe bd
       -0.074033 -0.12133066 0.006661367 -0.124256045
0000e0 d1 1f cb bc 8a 72 93 3d 85 a2 6f 3d c7 48 ce 3d
       -0.024795445 0.07199581 0.0585046 0.10072475
0000f0 ac 82 eb 3c f5 0b e1 3c 3c ef f5 3a fb 18 e5 bd
       0.028748833 0.027471522 0.0018763314 -0.11186405
000100 2c dd 8e 3d 28 41 d9 bd 89 80 a6 3d 4a 3f 33 be
       0.06975779 -0.10608131 0.08129985 -0.17504612
000110 da 61 34 3e f8 8e 2d 3e eb 99 21 3a 8c ec 9a bd
       0.17615452 0.1694907 0.0006164598 -0.07564649
000120 bc d6 3c 3d a8 c2 11 be da 6d 0c be 8c e8 a8 3b
       0.046103224 -0.14234412 -0.1371378 0.005154675
000130 4c f6 fe 3d 69 a4 4f bd ee 61 cf bd d1 56 14 3e
       0.12449321 -0.050693903 -0.101261005 0.14486243
000140 73 c0 ba 3d 97 f8 15 be d2 e6 5b bd ce e1 d5 bd
       0.09118738 -0.14645611 -0.053686924 -0.104434595
000150 d9 01 c5 3b b1 9d ef bd 0a 1b 18 3e 48 22 73 bd
       0.006012183 -0.11699999 0.14854065 -0.059358865
000160 0b ee 25 be 30 65 0b be 75 30 df 3d 50 0e 3f bc
       -0.16204087 -0.13612819 0.10897914 -0.011661127
000170 c4 74 2f bd 43 8f 9e 3d 6c c9 b2 bb 45 ef 96 bc
       -0.042835966 0.07742169 -0.0054561403 -0.01842464
000180 58 6d 93 3d f0 d4 ca bd 56 1a e2 bd 67 68 39 be
       0.0719859 -0.09903896 -0.110401794 -0.18106233
000190 31 8d 1c 3e 36 c8 86 3d 9c 4a 08 3e 1b 46 55 bd
       0.15288235 0.06581156 0.13309711 -0.05206881
0001a0 49 0f 83 3d 32 40 81 ba e3 6f 8f 3d 5c cd 30 be
       0.063994 -0.0009861051 0.070037626 -0.17265838
0001b0 c1 85 3d 3d 96 d4 13 3e b6 f2 91 bd e6 20 c0 bd
       0.046270136 0.14436564 -0.071263716 -0.09381275
0001c0 fe ef 16 3d 37 e0 c4 3c 82 12 c5 ba 38 b4 1d be
       0.036849968 0.024032695 -0.0015035423 -0.15400779
0001d0 6d d4 dd 3d 84 44 cc bd 33 77 13 bd 34 c0 e9 bd
       0.108315326 -0.09974006 -0.03600235 -0.11413613
0001e0 f3 71 e4 bc f8 78 1b 3e 3b a0 8b bb 63 1c fc bd
       -0.027886366 0.15182865 -0.0042610443 -0.12310102
0001f0 89 a9 09 be 01 96 b2 3d 20 d8 28 3e 31 64 2e bd
       -0.13443579 0.08720017 0.16488695 -0.04257602
000200 b5 b1 40 3e 43 cd fd bc 3f ad 92 bd bc 1d 3e 3e
       0.1881779 -0.030981665 -0.0716195 0.1856603
000210 01 8a 30 3e 1a b8 c4 3c 49 5c 0c bd 69 f1 35 be
       0.17240144 0.024013568 -0.034267697 -0.17767872
000220 63 2a 31 3e e6 da 14 3e 98 2e 28 bd 47 02 30 be
       0.17301326 0.14536628 -0.04106006 -0.17188369
000230 00 22 41 3d 16 98 0f 3e 56 aa fe bc e5 77 d7 bd
       0.047151566 0.1402286 -0.031087082 -0.10520915
000240 c2 d2 03 3e 66 d2 34 be 63 08 bc bd 49 34 8e bc
       0.12873366 -0.17658386 -0.09181287 -0.017358916
000250 41 21 1f 3d 3a 74 15 3e bb 7a 1c 3d af 0a 01 be
       0.038850073 0.14595118 0.038202982 -0.12601732
000260 88 6f 81 bd 1c a6 07 3d 14 a3 38 be 4e 09 24 bd
       -0.06320101 0.0331174 -0.1803096 -0.040047936
000270 61 60 0c 3e a2 e2 a1 bd 03 ad cf bd 8c c6 a6 3c
       0.1370864 -0.07904555 -0.10140421 0.020358346
000280 b8 19 05 be 40 cc fb 3d 7a 29 f1 bd 44 1b 67 bd
       -0.12998092 0.12294817 -0.11775489 -0.056422487
000290 1a 2c 3c be 88 5e 3f be 8b 3a 77 3c 10 b7 f3 3c
       -0.18376198 -0.18688405 0.015089641 0.029750377
0002a0 66 96 c2 bd 46 91 a7 3d ed b1 bf 3d 03 74 ad bb
       -0.095013425 0.081820056 0.093601085 -0.0052933707
0002b0 74 83 93 bc fd ce b1 3d 97 66 0e 3e 2b e9 cb 3d
       -0.018007018 0.08682058 0.13906322 0.09956583
0002c0 ec 07 52 3c 56 ca a9 bd 5f 44 ac 3d 40 37 3b be
       0.012819272 -0.08290546 0.08411478 -0.18282795
0002d0 5b cd da 3c 3b 50 3a 3e b7 eb 13 3d 3a d5 e8 3d
       0.02670925 0.18194668 0.036113467 0.11368795
0002e0 67 dd e0 3d b6 e5 0b be ab 39 0f be ed 90 82 3d
       0.10979729 -0.13661847 -0.13986842 0.06375299
0002f0 5d 5d f6 bd 63 ce 25 3e 9e 67 f3 3d 71 df 66 bd
       -0.120295264 0.16192012 0.11884998 -0.056365434
000300 9a 32 a9 bd f8 bd 03 be 83 2c bb 3c c7 5e 0d 3e
       -0.082616046 -0.12865436 0.022848373 0.13805686
000310 44 7d 7e 3c a4 8e 1d be 68 6a aa bd f6 4f 0b be
       0.015532795 -0.15386444 -0.08321077 -0.13604721
000320 ea ac 2d be a8 30 3e 3e e9 3d ce bd a4 f5 af bd
       -0.16960493 0.18573248 -0.10070402 -0.08591774
000330 58 99 e3 bd 19 f4 c6 bd 33 df 79 bd 73 e8 05 3e
       -0.111132324 -0.09714527 -0.061003875 0.13076954
000340 de 6b 19 3d 0c 4d 12 bd c0 25 40 3e 93 10 aa bd
       0.037456386 -0.03571801 0.187644 -0.083039425
000350 57 4b a6 3c 25 55 01 bc b2 1a f3 3d 2f 30 92 3d
       0.020299597 -0.007893835 0.11870326 0.071380965
000360 54 ba 93 3c 38 ca 21 be ff a4 0b 3e c8 f2 dc 3d
       0.018033184 -0.15799797 0.1363716 0.10788494
000370 4b 28 f1 bd 22 4c 13 be 6f 87 ee bd f3 b8 01 bc
       -0.117752634 -0.14384511 -0.11646926 -0.0079176305
000380 0e b1 44 3d 6a 06 0e be b2 da 8c b8 27 d4 75 3b
       0.048020415 -0.13869634 -6.7164554e-05 0.0037510486
000390 b4 05 ac 3d f9 a4 8b bd 73 be 24 3e 2c a3 85 3d
       0.08399525 -0.068185754 0.16088276 0.06525263
0003a0 ea 04 9f 3d a2 ef 10 be a9 a5 26 3e 49 9b 85 bd
       0.07764609 -0.14153913 0.16274132 -0.06523759
0003b0 45 39 86 3d 4b 3a 25 3e 38 b4 12 be 51 93 15 be
       0.06553892 0.16135518 -0.1432656 -0.14606978
0003c0 d2 b1 f0 bc 97 88 0d be 69 6f 8f bc 66 2f 02 3e
       -0.029381666 -0.13821636 -0.01750918 0.12713394
0003d0 f5 da f8 bd 80 0a 16 bc 78 40 2c bd b4 4e 39 bd
       -0.12151138 -0.009157777 -0.04205367 -0.045241073
0003e0 10 69 f7 3d 88 41 36 bd 08 56 cc 3d 16 cd 36 3e
       0.12080586 -0.04449609 0.09977347 0.17851672
0003f0 c0 4f 16 3e f2 aa 59 bd e0 25 0d 3e 4e 8e 03 be
       0.1467886 -0.05314154 0.1378398 -0.12847254

layer1.0.bias f4 [16]
000000 48 17 30 be 3c 82 19 3e 87 df 22 3e 36 51 d4 3c
       -0.17196381 0.14991087 0.15905581 0.02591763
000010 b6 35 13 be 51 b8 2f 3e 43 cd 1d be 54 71 cb 3c
       -0.14375958 0.17160155 -0.15410332 0.024834312
000020 be 8f a7 bd 8c 8b e4 3b 7c 15 c7 3d 1e da e2 bc
       -0.081817135 0.006974643 0.09720895 -0.027691897
000030 f6 f0 03 3e 70 c6 3c be 5b bb ad bd dd 83 2f bd
       0.12884888 -0.18435073 -0.08483001 -0.042850364

layer1.1.weight f4 [16]
000000 b4 5e 80 3f 9d 8b 7f 3f c6 d3 80 3f f3 07 7f 3f
       1.0028901 0.9982241 1.0064628 0.99621505
000010 c0 00 7e 3f e8 d6 7e 3f 37 b3 7f 3f 3d 0d 80 3f
       0.99219894 0.9954667 0.99882835 1.000404
000020 9d 23 7f 3f a1 60 80 3f 23 1f 7f 3f 44 4a 80 3f
       0.99663717 1.0029489 0.99656886 1.0022664
000030 87 89 7f 3f f0 dd 80 3f 96 30 80 3f 2b d9 80 3f
       0.99819225 1.006773 1.0014827 1.0066274

layer1.1.bias f4 [16]
000000 ba 78 4b 3b 9b 76 9a 3a 4e e0 ac 3b d1 02 d9 bb
       0.00310473 0.0011784615 0.0052757626 -0.00662265
000010 f2 ff 26 3c b5 00 0b 3b 39 b0 19 3a 34 03 fe 3b
       0.010192858 0.0021210138 0.0005862746 0.0077518467
000020 c9 31 f6 bb 5e 64 03 3b d0 66 ce b7 7d c8 22 3b
       -0.007513259 0.0020048837 -2.460499e-05 0.0024838739
000030 a5 58 d7 bb 6b ec 34 3c 3a 3a a9 3b f1 f2 8d 3b
       -0.0065718465 0.011042695 0.005164412 0.0043319394

layer1.1.running_mean f4 [16]
000000 97 a0 b3 3d 8d ba 36 3e 0f 5e 80 3e 75 78 98 be
       0.087708645 0.17844601 0.2507176 -0.297794
000010 11 a5 5b bd 5c dc 3a 3c 60 45 85 be a3 14 e6 bd
       -0.053624216 0.011405077 -0.2602949 -0.11234405
000020 c2 56 7d be 0f cf 8b 3b 56 1d 75 3e c1 ca 25 3e
       -0.24740127 0.0042666267 0.23936972 0.16190626
000030 6c 81 f5 bd 3c e6 01 bf a8 a7 95 bd 10 60 b2 3e
       -0.11987576 -0.50741935 -0.073073685 0.34838915

layer1.1.running_var f4 [16]
000000 ba 67 8a 3c d0 52 92 3a e7 2a 1b 3b 4a ba c3 3c
       0.016895164 0.0011163596 0.0023676695 0.02389254
000010 34 7a 1a 3c 77 b9 0d 3c 8f fe 6c 3b 7a 46 ee 3b
       0.00942855 0.008650175 0.003616247 0.007271585
000020 d5 19 ff 3b 30 d9 fe 3a 6b fa a2 3b 0f 33 3e 3c
       0.007785062 0.0019443389 0.0049737 0.011608853
000030 bf dc a8 3c cb 55 c0 3c 54 f4 d2 3b 2e 62 18 3d
       0.020613072 0.02347841 0.0064378176 0.037203006

layer2.0.weight f4 [32, 16, 3, 3]
000000 d1 53 dc 3c 04 92 a8 bc 23 4f a0 bb b2 0c b8 bc
       0.026895436 -0.020577438 -0.0048922463 -0.022466991
000010 39 a3 94 bc 5c 4f bd bc 14 d9 e3 bc c4 69 61 3d
       -0.018144237 -0.02310913 -0.027813472 0.055032507
000020 d1 5d 82 3d 2f be 7c 3d 71 9b 85 bd b7 f9 c2 bc
       0.0636555 0.06170481 -0.06523789 -0.023800714
000030 ac 01 93 bc f4 f8 a4 bd fa a5 96 bd d1 a7 45 bd
       -0.017945133 -0.080552965 -0.07355876 -0.048255745
000040 9f 30 e7 bb 70 c4 c5 bc 85 7b 04 3c 4e 2b 13 bd
       -0.0070553566 -0.02414152 0.00808609 -0.03592997
000050 57 5d 0c bd 02 b7 a5 bd 1b b4 61 3d 9d 87 98 3d
       -0.034268703 -0.080915466 0.055103403 0.07447741
000060 cf 82 30 3d ee 45 21 3d 08 ac a7 3d c4 0b 94 3d
       0.0430935 0.03937333 0.08187109 0.072288066
000070 de 9e 4e 3c a9 a9 f2 3b 6c fd 5b bb 25 d5 d2 bc
       0.012611119 0.007405479 -0.00335678 -0.0257364
000080 45 6b 32 3d 52 0f 4d 3d 88 65 fa bb 5f 35 aa 3d
       0.04355933 0.05006344 -0.007641498 0.08310961
000090 b3 03 5d 3d 41 8f a5 3d 1b b3 61 ba 3f 61 84 bd
       0.053958606 0.08083964 -0.00086097576 -0.06463861
0000a0 94 ba a9 bd 1c 61 65 3d 02 d5 a2 3d e5 55 88 bd
       -0.0828754 0.056000814 0.07950784 -0.06657008
0000b0 d5 99 ae 3c 3e 7b 7a 3d 6c 74 87 bb 77 23 aa bb
       0.021313587 0.06115269 -0.0041337516 -0.005192216
0000c0 f9 f0 f2 3c b4 0e 11 3d b5 ba 8b 3d 7d 2d d8 3b
       0.02965592 0.035414413 0.06822721 0.0065972195
0000d0 19 a6 39 bd 4d 2d 5c bc fb b5 b0 bd 93 d2 71 bd
       -0.04532442 -0.013438535 -0.0862846 -0.05903871
0000e0 4f e0 2b 3c 63 13 a1 3c 8b 0f 03 bd 3f cb 48 3d
       0.010490491 0.019662565 -0.031997245 0.049021956
0000f0 d4 19 0c bc bc 24 76 3d 3b 96 1e bd 65 51 3a bc
       -0.00855108 0.060093626 -0.03871749 -0.011371945
000100 69 ff 66 3d 62 a6 c0 bc 0e 7b 59 bd 13 7b fe bc
       0.05639592 -0.023516838 -0.05309587 -0.031064546
000110 64 b8 e6 3c 3a 45 a4 ba da 4b 8e bd 92 64 a1 bc
       0.028164096 -0.0012532838 -0.06948061 -0.019701276
000120 24 b5 ea 3b 23 28 28 3d e2 1b 92 3c 81 fe d1 bc
       0.007162707 0.041053902 0.017835561 -0.025634052
000130 97 66 1d b8 f4 00 96 bd cb 2d 25 bd 82 af 1d 3d
       -3.752726e-05 -0.073244005 -0.040326875 0.038497455
000140 a9 4c a1 3d 5f aa 51 bd fc 88 2d 3c 31 24 90 bd
       0.0787595 -0.05118787 0.010591742 -0.07038153
000150 0b 43 57 3c fc 9d ff bc e5 8a 8c 3d 2f 68 76 bd
       0.013138543 -0.031203263 0.068624295 -0.06015795
000160 3f f7 ac 3c 0b 14 7e bd 2d 87 e6 3b 44 10 85 bd
       0.02111399 -0.062030833 0.007035157 -0.06497243
000170 40 bf 19 3c d9 59 98 bc c6 74 3f bd d0 6a 73 3c
       0.009383976 -0.01859753 -0.046742223 0.014857009
000180 3e 6d 0d 3d d4 c4 37 3d 8c 16 8c 3a 6b 42 5f bd
       0.03452801 0.044865444 0.0010687872 -0.0545067
000190 b7 b2 a5 3c 86 19 6a bc df b0 dd 3c e4 61 61 3d
       0.02022682 -0.014288312 0.027061878 0.055024996
0001a0 3e d6 57 bc 34 13 82 3c 72 4a a1 bd e7 b5 17 bd
       -0.013173638 0.015878297 -0.078755274 -0.03703871
0001b0 54 a8 6a ba 03 33 07 bd de 12 01 bd 46 49 93 bb
       -0.00089514744 -0.033007633 -0.031512134 -0.004494819
0001c0 2b 8b 85 3d 35 9e 12 bb b0 3c 44 3d 0d a0 83 bd
       0.06520685 -0.002237213 0.04790944 -0.06427012
0001d0 db 2b 73 bd 97 90 6b 3d 0c 71 f9 3c 5d f2 00 bd
       -0.059367996 0.05751094 0.030449413 -0.031481136
0001e0 3f 74 3c bc ab 0d 37 bc fa a5 89 3d 5d a4 02 bd
       -0.011502325 -0.011172692 0.06721111 -0.03189503
0001f0 f3 9f 7b 3b ee a7 08 3d 62 e3 01 bd 49 16 4a bd
       0.0038394898 0.033363275 -0.03171099 -0.04933766
000200 f0 52 97 bd 0b b7 8d bd 1f eb 17 bd a7 0e 65 3d
       -0.07388866 -0.06919678 -0.037089463 0.055922177
000210 a7 9e 64 3d bf 05 83 bd 0b 0f cd 3b cf 0c 82 bd
       0.055815365 -0.0639758 0.006257897 -0.06350099
000220 91 fe c0 bc 64 00 58 bd 7b 12 90 3d 06 a3 42 3d
       -0.023558887 -0.052734748 0.07034775 0.047518753
000230 f2 c2 8c 3d 86 21 a0 3d 5a 2c 97 3d ec ab 53 bd
       0.0687312 0.07818894 0.07381506 -0.05167763
000240 23 f8 a1 3a 5d 5d 59 bd 6b e3 b6 3c ce 6f 99 3d
       0.0012357276 -0.053067554 0.022325238 0.07492028
000250 60 c3 9b 3d 4a 1a f1 3b 86 43 0b bd 06 01 ea bc
       0.07605624 0.00735787 -0.033999942 -0.028564941
000260 8a 31 af 3d a2 3c d1 3c e0 bf 8b bc 66 10 87 3d
       0.08554371 0.025541607 -0.017059267 0.06594925
000270 e7 62 8a bd 93 f6 89 3d 75 90 86 3d 1d 81 e9 bc
       -0.067571454 0.067364834 0.06570522 -0.028503949
000280 8e 96 64 bd bf 6e b8 bb 95 b9 18 3d c8 43 93 3d
       -0.055807643 -0.0056284363 0.03728636 0.071906626
000290 4f cc 32 bc 7e 5b f7 3c d6 58 e7 bc 4e 4b a8 3d
       -0.010912969 0.030194994 -0.028240602 0.08217488
0002a0 35 41 a5 3b cf e8 93 bd b6 bc 43 bd af 8f 86 bc
       0.0050431737 -0.07222139 -0.04778739 -0.016425936
0002b0 80 b6 89 3d 52 d1 47 3d 71 83 03 bd f1 87 42 bd
       0.06724262 0.048783608 -0.032107774 -0.047492925
0002c0 03 3f 19 bd e5 0c 15 bc 83 1a b4 3c 1e 25 70 bd
       -0.03741361 -0.009097313 0.021985298 -0.058629148
0002d0 c4 fa 9b 3c 8e 4e 7d 3d 35 88 9c bd dc e9 10 bd
       0.019040473 0.061842494 -0.07643167 -0.035379276
0002e0 f0 df 98 bc 09 ca 74 bc 68 6b 8c 3d f8 93 1c bd
       -0.01866147 -0.014940747 0.068564236 -0.03822705
0002f0 f9 04 8d 3d bc 60 ac bc 89 93 49 bd 58 7a 16 bd
       0.06885714 -0.02104222 -0.049212966 -0.03673777
000300 de 78 32 3c a5 7d 8e 3d 82 f4 25 3d 72 cf 06 bc
       0.010893075 0.069575585 0.040516384 -0.00822817
000310 80 db 8c bc 9b 58 f9 3b a7 c3 86 bd 81 17 53 3d
       -0.01719451 0.0076094395 -0.065802865 0.051536087
000320 9b b4 ac bd 47 7c be bc 0a a5 a4 bc 7b ea 15 3d
       -0.08432885 -0.02325262 -0.020098228 0.03660057
000330 4d 57 47 bd c1 fc 94 3d 0d f3 50 bd 0c 4c 84 bd
       -0.04866724 0.072747715 -0.05101304 -0.06459817
000340 91 6b 94 bd d8 10 0a 3c e7 e1 84 bc 85 2b 8f 3d
       -0.07247079 0.008426867 -0.016221 0.069907226
000350 8a 3d 42 3d ad fd 73 3d ee 45 a0 bd 1d 57 8b bc
       0.04742197 0.059568096 -0.07825838 -0.017009312
000360 7d d5 ad bd fe 12 c8 3c 3c 71 2c 3d a1 c7 4f ba
       -0.08487985 0.024423119 0.042100176 -0.00079261704
000370 e8 d2 81 3c a4 84 58 3d a1 6a 9e 3d 7a 13 0b 3d
       0.015847638 0.05286087 0.077351816 0.03395412
000380 ab 9d 9b bd 12 c7 1b bd 06 b8 86 3d 33 64 08 3b
       -0.07598432 -0.038031645 0.065780684 0.0020811677
000390 a7 8b 16 3c 15 44 76 3b d5 d6 43 3d c1 de 3d 3d
       0.009188569 0.00375772 0.0478123 0.046355013
0003a0 4d 99 01 3c 5d d2 88 bd 7c de 16 3d cf d8 9a bc
       0.007910085 -0.066807486 0.03683327 -0.01890221
0003b0 bc 5b 19 bd 0c cd 8c 3d 04 81 94 bd 84 22 94 bd
       -0.037441 0.06875047 -0.0725117 -0.07233146
0003c0 b8 b9 60 3a 87 6d a5 3d 77 68 17 3d c2 c7 12 bd
       0.0008572596 0.08077531 0.03696486 -0.035835035
0003d0 0c 1c 9c 3d e8 79 50 bd 4b 69 b5 bc c0 6a d3 bc
       0.07622537 -0.05089751 -0.022144934 -0.025807738
0003e0 fe 3b 1f 3d 2c 8a 91 bd fc 02 05 3c a8 1a 39 3d
       0.038875572 -0.07106432 0.008118387 0.045191437
0003f0 cb c4 b4 ba 43 e6 ae bd 13 80 87 bd 7f 68 4a 3b
       -0.0013791559 -0.08540013 -0.06616225 0.0030885038

layer2.0.bias f4 [32]
000000 48 1c ee bc 98 b1 6a bc 93 b8 6d bd f0 d5 6f 3c
       -0.02906622 -0.014324568 -0.05803735 0.014638409
000010 5c 0b a2 3d 64 50 d0 bc b1 9c a3 bd 6f fc a8 bd
       0.07912323 -0.025428958 -0.07988871 -0.08251273
000020 77 df 56 bd a0 3b e0 bc 52 2b 1d 3d 80 71 b8 3c
       -0.052459206 -0.027372181 0.03837139 0.022515059
000030 23 ef 83 bd e5 6e 88 3d 46 35 34 bb 69 1e 9e bd
       -0.06442096 0.066617765 -0.0027497574 -0.07720644
000040 08 74 d8 bc 5d 67 94 3d 38 9f 84 bd 07 fc 7e bc
       -0.026422516 0.072462775 -0.06475681 -0.015563018
000050 49 5a ea 3c f3 03 68 3d e1 cc 25 3d ee fd fc 3c
       0.028607504 0.05664439 0.04047859 0.030882802
000060 49 93 94 bd 1d d0 8d bc b7 0e 17 3c c3 ae 0e 3d
       -0.07254655 -0.01731115 0.009219817 0.034834635
000070 e2 22 6a 3b 21 14 8e bd 77 cd 50 3d ef f9 6a 3d
       0.0035726358 -0.06937433 0.050977197 0.05736726

layer2.1.weight f4 [32]
000000 46 03 80 3f 69 e2 7d 3f c6 e7 80 3f bf c4 7e 3f
       1.0000999 0.991736 1.0070732 0.9951896
000010 9d 41 80 3f f7 d5 80 3f 39 d3 7f 3f c2 f7 7f 3f
       1.0020024 1.0065297 0.99931675 0.99987423
000020 39 8c 7f 3f 44 64 7f 3f c9 bd 7f 3f fb f2 7e 3f
       0.9982334 0.9976237 0.99898964 0.9958951
000030 75 70 7f 3f 2c d8 80 3f 08 ba 7f 3f c6 b9 7f 3f
       0.9978097 1.006597 0.99893236 0.9989284
000040 eb 7b 7f 3f b9 74 7e 3f 6c 51 80 3f 84 71 7f 3f
       0.9979846 0.99396855 1.0024848 0.99782586
000050 5a 5d 7f 3f 6f 5c 80 3f 59 a0 7f 3f 44 0e 80 3f
       0.9975182 1.0028208 0.99854046 1.0004354
000060 40 22 80 3f 96 fa 80 3f de 64 80 3f 9c f5 7d 3f
       1.0010452 1.0076473 1.0030782 0.99202895
000070 8d 62 80 3f eb 99 7f 3f 48 b6 7f 3f 91 27 80 3f
       1.0030075 0.99844235 0.99887514 1.0012075

layer2.1.bias f4 [32]
000000 fb 99 be ba 29 c3 8e bb f0 ea 9d 3b eb e9 60 bb
       -0.0014541739 -0.004356761 0.0048192665 -0.0034319113
000010 77 cf a5 3a b1 a1 2b 3b bc ea ee ba c0 f1 1c bb
       0.001265033 0.0026188905 -0.0018227915 -0.0023947805
000020 d8 89 d7 3a 32 5c 4e 3b 8b 2b b8 3a 18 90 c8 3a
       0.0016444279 0.0031488058 0.0014051063 0.0015301732
000030 6c d6 9b 3a 99 76 a7 3b 78 f4 4f 3b 76 a0 5d 3a
       0.0011889464 0.0051105735 0.0031731408 0.00084543915
000040 7e b2 cc 3b f9 85 ac bb 8a 6e cf 3a 71 38 46 3b
       0.006246864 -0.005264994 0.001582579 0.0030246044
000050 de 9f 27 bb 93 3d 10 3b b3 0a 4c ba c7 40 2c 3b
       -0.0025577466 0.0022009357 -0.0007783577 0.0026283727
000060 bf a7 54 3b 3c be 01 3c e9 c1 a3 3a e7 38 df bb
       0.0032448617 0.007918891 0.0012493703 -0.006812203
000070 ed eb 29 bb b7 a8 29 3b 1c 64 67 bb 2b 79 cd 39
       -0.0025927976 0.0025887915 -0.0035307473 0.00039190924

layer2.1.running_mean f4 [32]
000000 69 a1 af bd 62 0e af 3e 36 21 ac be de 2f d7 3e
       -0.085757084 0.3419066 -0.33619088 0.42028707
000010 42 40 da 3e 11 63 1a be 1e 1a d4 bd 4a e5 a6 be
       0.4262715 -0.15076853 -0.10356544 -0.3259681
000020 9f 3e 62 3e f2 68 a4 3a f5 2c ea 3e 53 e7 62 be
       0.220942 0.0012543483 0.45737424 -0.22158556
000030 82 f3 cc 3d ad 89 f2 3d 93 c7 24 bd 26 be 87 be
       0.10007383 0.11842666 -0.04022939 -0.2651226
000040 0b 54 98 bd d0 68 a4 3e 18 86 30 be 5b 6d 3a be
       -0.07437905 0.32111216 -0.17238653 -0.18205778
000050 a1 40 5a 3e a3 c7 98 be 5b 6a e9 be be 91 12 be
       0.21313716 -0.2983981 -0.45588955 -0.14313409
000060 ba 9e 5c 3d 6b a3 1d be 12 ee 25 bf 21 0f 66 bd
       0.05386231 -0.1539437 -0.6481639 -0.05616677
000070 81 4d bc 3e 10 c9 98 3e 87 d5 69 3b 2f f7 01 3f
       0.3677788 0.298409 0.003568025 0.507678

layer2.1.running_var f4 [32]
000000 56 1e 55 3e 98 ae 4d 3e 27 9b 34 3d 4d 34 08 3e
       0.20812353 0.20086133 0.044093277 0.13301201
000010 8f 96 a4 3d ae df 8d 3e 5c 68 66 3e 0e fa c8 3d
       0.08036529 0.27709717 0.22500747 0.09813319
000020 44 41 3a 3e db d0 f0 3d 37 c8 34 3e 78 14 be 3d
       0.1818896 0.11758586 0.17654501 0.09281248
000030 14 09 24 3e db 93 88 3d fd a5 0b 3e 6d 65 c9 3d
       0.16019088 0.06668826 0.13637538 0.098337986
000040 cd b4 b4 3d c5 0d a1 3d cb 73 2a 3d 2f 93 25 3e
       0.088235475 0.078639545 0.041614335 0.16169427
000050 6e c6 e2 3d e9 d3 76 3d f8 a2 f1 3d 83 d2 0f 3e
       0.11073004 0.060260687 0.11798662 0.14045148
000060 d5 d0 1b 3d 7f 1e 1b 3d 9b 6c 3f 3e de b1 c8 3d
       0.038040955 0.03787088 0.18693773 0.097995505
000070 5e 1b 93 3d 39 dc 61 3d 42 12 02 3e eb 3a d8 3d
       0.07182954 0.05514166 0.12702277 0.10558113

layer3.0.weight f4 [64, 32, 3, 3]
000000 54 61 67 bd 6b 59 83 3c 4d f8 2f 3d 4c b3 e4 3a
       -0.056489304 0.016033849 0.042961407 0.0017448454
000010 4f cf 80 3c 06 93 ac bb b7 f9 05 bd 3b 2d 24 bd
       0.015723852 -0.00526655 -0.03270885 -0.040082198
000020 15 30 3f 3d c9 d5 67 bc 13 a0 85 bc 3a 61 d1 39
       0.046676714 -0.014150091 -0.01631168 0.00039936026
000030 9b da 0c bc 97 50 26 3b 1c 2e cb 3c 29 41 3f bd
       -0.0085970415 0.0025377625 0.02480226 -0.046693
000040 ac eb f5 bc ee ec 5f bd 34 af 02 3d 20 14 41 bb
       -0.030019604 -0.054669313 0.031905368 -0.0029461458
000050 75 5a c9 bc e3 65 0b 3d f5 c2 91 bc 41 14 3a bd
       -0.024579266 0.034032714 -0.017793158 -0.045429472
000060 e3 c1 b6 bc d7 f5 95 3a a1 f1 6c bd fd 0c 08 3d
       -0.02230925 0.0011441064 -0.057847623 0.03321551
000070 df 02 52 3d 80 fc 0b bd de 2a ac 3c de 4f 10 3d
       0.05127227 -0.03417635 0.021016534 0.035232417
000080 b9 97 e8 bb 68 79 49 3d fc 38 c1 3a 96 1a fd bc
       -0.007098165 0.049188048 0.0014741714 -0.030896466
000090 e3 26 c9 bc a4 12 dd bc 6e 71 5e 3d d0 ff bc 3b
       -0.024554675 -0.026986428 0.054307394 0.0057678
0000a0 a3 10 4c 3d 33 59 59 3c ad 2e 35 3d 4c dc 1c bc
       0.049820554 0.013265896 0.044233967 -0.009574007
0000b0 1e 3c 0a 3d cf 9c 7c bb a7 30 12 bd 14 e6 0d bd
       0.03374874 -0.0038545614 -0.03569093 -0.034643248
0000c0 d4 bf 0d bd 32 91 7e bb 5f d7 54 bc 47 3d 4c 3d
       -0.03460677 -0.0038843867 -0.012990802 0.049863126
0000d0 0f 76 28 bd 47 fd 27 bd e6 ba 10 bd fa 96 79 3c
       -0.041128214 -0.04101303 -0.03533449 0.0152337495
0000e0 07 d5 4d 3d 41 c9 56 3c 67 44 4a bd 8a f0 8a 3b
       0.050251987 0.013109506 -0.04938164 0.0042401003
0000f0 f3 ec 81 bc fc 3a c0 3c 0e 6b d7 3c d7 06 53 bd
       -0.015860057 0.023465626 0.026296165 -0.051520195
000100 32 fb 87 3c 09 8a 33 3d 41 5f 30 3c ab d2 48 3d
       0.016599271 0.043832812 0.010764898 0.049029034
000110 b9 4b 6e 3d d5 a8 35 3c 10 8d ec bc 44 93 56 bc
       0.058177684 0.011087616 -0.028875858 -0.013096634
000120 cf d1 19 3b ef 63 1c 3d e5 38 cc 3c a6 07 ea bc
       0.0023471003 0.03818124 0.024929473 -0.0285681
000130 30 6f 0f 3d 02 9c 4c bd 82 0d 1c bb 85 7e d1 bc
       0.035018146 -0.04995347 -0.0023811762 -0.025573025
000140 75 ba 14 3d 46 8f a0 3b 35 fa f2 3c 9a 1e c1 3c
       0.03631063 0.004899892 0.029660324 0.023574162
000150 1d c9 21 bd b1 7b c4 bc 26 88 10 3c 75 f4 5e 3a
       -0.039498437 -0.023984762 0.008821523 0.0008505055
000160 92 b4 1c 3d 70 4d a7 ba 14 bf 0e 3a 69 9f 32 3d
       0.038258143 -0.0012764167 0.0005445343 0.043609057
000170 53 b8 58 3d f3 5a 1c bd 56 44 14 3d db 62 b6 bc
       0.05291016 -0.038172673 0.036197983 -0.022263935
000180 73 bd 40 bd 7a c7 2d 3d e8 85 d0 bc 03 a7 3a bd
       -0.047055673 0.042426564 -0.025454476 -0.04556943
000190 3c 22 f0 3c 83 51 33 bd ca 47 e6 3c 52 99 00 3d
       0.0293132 -0.043778908 0.028110404 0.031396218
0001a0 05 cc 08 bd c8 2e 80 3d 1c bd b6 3c 83 09 27 3d
       -0.033397693 0.06258923 0.022306971 0.040780555
0001b0 c9 f6 7d bc e6 7e 34 3c 67 0b 38 bd b5 88 a4 3c
       -0.015500733 0.011016583 -0.04493275 0.020084718
0001c0 ce f2 70 bd 84 c3 e6 bc d3 2f 49 bd b3 55 4b 3a
       -0.058825307 -0.028169401 -0.049117874 0.00077566056
0001d0 43 55 8a 3c 56 40 1f bd 02 ac cf bb 1c 47 4e 3d
       0.01688636 -0.038879715 -0.0063376436 0.050360784
0001e0 52 b6 3f bc 2c a1 22 bd 95 1b b5 bb 32 bc 06 bd
       -0.011701183 -0.039704487 -0.0055269697 -0.03289432
0001f0 59 17 0a bc 3d f5 67 3b 4c f6 56 3d 0b ea 71 bd
       -0.008428418 0.0035393976 0.05248098 -0.05906109
000200 4f a1 13 3d 84 60 2f 3d b0 4f 0b 3d 2b d1 4d bd
       0.036042508 0.042816654 0.034011543 -0.050248306
000210 01 c2 38 3d e1 01 4e bd 4a 0e 06 3c b0 81 a9 bc
       0.04510689 -0.05029476 0.008182118 -0.020691723
000220 15 8b 38 bd 75 c3 b5 3c ad 83 f4 bc de c2 34 3d
       -0.045054514 0.022187928 -0.029847944 0.044131152
000230 40 08 10 3d c0 63 43 3d ba ef 0d 3c ba 6f 09 bd
       0.035164118 0.04770255 0.008663112 -0.033553816
000240 e4 6e aa 3c 62 b1 4d 3d ed de 4e bd 30 b7 47 3d
       0.02080483 0.050217994 -0.050505567 0.048758686
000250 4c fb ae 3c 4a 67 19 bd 1e 49 0c 3d 8b 0f 84 bd
       0.021360062 -0.03745202 0.034249417 -0.06448277
000260 07 b8 1d 3d 03 34 99 3c a8 5c d1 bc 9b a3 fe 3c
       0.03850558 0.018701559 -0.025556877 0.031083873
000270 8f 02 46 bd ee 0c 8d 3c ba 8e c9 bb a9 38 eb bc
       -0.048342284 0.01721808 -0.0061510475 -0.028713541
000280 52 98 0e bd af de 03 3d 73 ec 52 bd 34 6f bf bc
       -0.034813233 0.03219479 -0.051495027 -0.023368455
000290 d9 97 2c 3c e9 a0 67 3d 6e bf 26 bc 94 3c 51 bc
       0.01053425 0.05654994 -0.010177476 -0.012770791
0002a0 42 a9 6a 3d 45 83 88 3d ef 94 9f 3a cf fe 31 bd
       0.057290323 0.06665663 0.0012175123 -0.043455895
0002b0 26 01 46 bd 5d d5 18 bd a4 1c c7 bc b4 0f ad 3c
       -0.04834094 -0.037312854 -0.02430565 0.021125652
0002c0 28 3a 0d bd 7d 3a b4 bc be e9 76 bd ea 72 50 3d
       -0.03447929 -0.022000546 -0.060281508 0.05089084
0002d0 3e 5e d2 3c 9a 8c 38 3c 92 c1 88 bc d6 2d be bc
       0.025679704 0.011263991 -0.016693864 -0.023215216
0002e0 ae 2c 13 bd 04 b2 1b bd 83 92 52 bc 71 49 eb bc
       -0.03593128 -0.038011566 -0.012852314 -0.028721543
0002f0 7a e5 6d ba 5c f6 10 bd 37 ff 57 bd 95 e7 0f 3d
       -0.0009075027 -0.035391197 -0.052733626 0.035132963
000300 83 22 85 bd 4a c2 52 bd a3 ca 42 bd 20 61 d6 3a
       -0.06500723 -0.05145482 -0.04755653 0.001635585
000310 79 28 12 3d 0a 3e 3a bd db d1 ea 3c bb a3 6e bc
       0.03568313 -0.04546932 0.02866452 -0.014565404
000320 4c e4 87 bc d6 ec 4e bc cc 7c 54 3d a1 6b 76 3d
       -0.016588353 -0.012629708 0.051876828 0.060161237
000330 a2 07 05 bc 05 ea 42 bd ad 00 02 bd 88 59 02 bd
       -0.008119496 -0.04758646 -0.031738926 -0.031823665
000340 55 bf 03 3d 3e fa b5 3b c2 39 3b bd fe c2 56 bd
       0.03216489 0.005553513 -0.04570938 -0.052432053
000350 92 4b 35 bd 21 5c 3f 3d dd 5d 28 3d 53 dc 2b bd
       -0.044261523 0.04671872 0.04110514 -0.041958164
000360 84 a4 35 bd db b0 c5 bb 17 08 ef 3c c1 9c ca bc
       -0.044346347 -0.0060330457 0.029178662 -0.02473295
000370 db de e9 bb 0c 2d 1f bd 04 13 f3 3c 37 76 73 bd
       -0.007137162 -0.03886132 0.029672153 -0.05943891
000380 72 04 39 bd 8d e7 56 3c 0b 27 c2 bc a5 32 1f 3d
       -0.045170255 0.013116729 -0.023700258 0.038866658
000390 7a 2e 25 bb 06 e6 d3 3c ad 51 bc bc 1a 68 83 bc
       -0.0025204704 0.02586652 -0.022988165 -0.01604085
0003a0 fb 46 47 3c f0 4f 6d bc 35 4e 41 bc ff cb 3b 3d
       0.012162919 -0.014484391 -0.011798431 0.045848843
0003b0 87 eb bf 3c 30 74 54 bc 8a 41 25 3d 6c 0e ac bc
       0.023427738 -0.012967154 0.040345706 -0.02100297
0003c0 97 72 c3 3c 1e 25 05 bd 75 6c 80 3d 03 85 d1 3c
       0.023858352 -0.0325061 0.062706865 0.02557612
0003d0 4c 34 b3 bc 45 26 cf bb 58 7c 1a 3d 63 aa dd bc
       -0.021875523 -0.0063217008 0.03771624 -0.027058786
0003e0 09 75 17 bd 7b 1b 2a 3d c3 01 4a bd 94 b5 ba ba
       -0.036976848 0.041530114 -0.049318086 -0.0014244788
0003f0 ca 64 41 bd 3b 53 ae 3c 84 73 07 3c cb e8 57 3d
       -0.04721526 0.021279922 0.008267287 0.052712243

layer3.0.bias f4 [64]
000000 27 cc 8b 3c 74 c0 47 bd d8 61 53 3d e9 f8 e3 bc
       0.01706512 -0.048767522 0.051606983 -0.02782865
000010 70 ef 33 3d 68 db 10 bc 82 77 b4 3c f5 48 56 bc
       0.043929517 -0.008841373 0.022029642 -0.013078918
000020 28 87 53 3d f5 fd 7b 3c ff ad 2d 3c 22 46 29 3b
       0.051642567 0.015380372 0.010600566 0.0025829156
000030 f8 b2 bd bc f5 48 0c 3b 49 4b 46 bd ef f4 24 3d
       -0.023156628 0.002140579 -0.04841164 0.04027265
000040 49 4a e0 3b f3 16 30 bd 4b 1b 6e bd cf 13 7c 3c
       0.006844793 -0.042990636 -0.058131497 0.015385582
000050 5b 0d 6f bd 21 10 79 bc 7a 46 56 bd 01 de ba 3c
       -0.058362346 -0.015201599 -0.052313305 0.022810938
000060 ea 08 da bc f0 24 e5 bc d4 9b d1 3c 8b f8 4b bd
       -0.026615579 -0.027971715 0.025587 -0.049797576
000070 73 bd 3c 3d 0e 92 66 bd e3 94 40 3d 11 34 13 3b
       0.04607911 -0.056291632 0.04701699 0.0022461454
000080 89 3c df 3c a2 75 3f bc 6e 1f de 3c 17 7e d1 bc
       0.027250545 -0.011685761 0.027114596 -0.02557282
000090 5a 36 fa 3a 22 3d a1 3c e1 1a c6 bc bb f3 58 bd
       0.0019089684 0.01968247 -0.024182739 -0.052966814
0000a0 07 3d 16 3d dc fb 65 bc 8f 40 72 bc 1c 06 55 bd
       0.036679294 -0.014037099 -0.0147859 -0.05200778
0000b0 ff a7 85 3b 8f a2 97 bc 64 d6 c6 bc fe fc 72 3c
       0.0040788646 -0.018510131 -0.024272151 0.014830826
0000c0 67 05 70 bd 9d 96 07 3d a8 7f 54 bd 1a 90 03 3d
       -0.058598902 0.03310262 -0.051879555 0.032119848
0000d0 4b 34 3d bd 29 d4 d5 3b 42 9f af bc 05 8b ab 3c
       -0.04619245 0.0065255356 -0.021438245 0.020940313
0000e0 13 57 0f bd 0e 8e 06 bd 88 08 2d 3b 88 20 28 bd
       -0.03499515 -0.032850318 0.002640279 -0.04104665
0000f0 97 ac e4 bc 78 e3 eb 3c 6e 55 97 bc b7 01 ba bb
       -0.027914329 0.028794989 -0.018473353 -0.005676474

layer3.1.weight f4 [64]
000000 eb 81 80 3f 6d 92 80 3f 1d 41 80 3f f7 44 80 3f
       1.0039648 1.0044686 1.0019871 1.0021046
000010 13 1b 80 3f 7c a3 7f 3f 31 66 80 3f c7 96 80 3f
       1.0008262 0.9985883 1.0031186 1.0046014
000020 f9 84 7f 3f b7 d1 80 3f 6e f6 7f 3f fb f2 80 3f
       0.99812275 1.0064 0.99985397 1.0074152
000030 08 a8 7f 3f f8 e3 7e 3f 45 8b 80 3f 44 c9 7e 3f
       0.9986577 0.995666 1.0042502 0.99525857
000040 48 d9 80 3f 02 3c 80 3f 3e 13 80 3f 4c 50 80 3f
       1.0066309 1.0018313 1.0005872 1.0024505
000050 fd 49 80 3f 06 df 7f 3f 4f 3b 80 3f 23 24 80 3f
       1.002258 0.9994968 1.00181 1.0011028
000060 7e 2b 7f 3f 70 2e 80 3f 43 5d 7f 3f 84 b0 80 3f
       0.9967574 1.0014172 0.9975168 1.0053868
000070 c2 85 80 3f 0e bb 7f 3f 09 bb 80 3f 97 d9 7f 3f
       1.004082 0.998948 1.0057079 0.9994139
000080 32 16 80 3f 92 be 80 3f 67 1b 80 3f 0c 65 7f 3f
       1.0006773 1.0058157 1.0008363 0.9976356
000090 6f 00 80 3f 64 16 81 3f 73 db 80 3f b1 55 81 3f
       1.0000132 1.0084958 1.006697 1.0104276
0000a0 29 9a 80 3f da 15 81 3f bc 1a 7f 3f c4 83 80 3f
       1.0047046 1.0084794 0.9965017 1.0040212
0000b0 25 f0 80 3f 96 ba 7f 3f 85 6c 80 3f fa 17 7f 3f
       1.0073286 0.9989408 1.0033118 0.9964596
0000c0 4c 00 80 3f 74 fe 80 3f fc 1b 7f 3f 85 40 80 3f
       1.0000091 1.0077653 0.99652076 1.001969
0000d0 57 a5 80 3f 4f 77 7e 3f dd 3b 80 3f 46 14 81 3f
       1.0050458 0.994008 1.0018269 1.0084312
0000e0 69 b4 7f 3f 2b c3 80 3f 82 f5 7f 3f 2f 16 80 3f
       0.9988466 1.005956 0.9998399 1.000677
0000f0 f5 5d 80 3f ef cf 80 3f 52 b8 80 3f a9 d6 7f 3f
       1.0028673 1.0063456 1.005625 0.9993692

layer3.1.bias f4 [64]
000000 c7 10 81 ba bf 99 91 3b 8f b8 fc 36 22 52 a0 b9
       -0.0009846919 0.004443377 7.5316707e-06 -0.00030578772
000010 5a de 51 bb e6 d2 a2 3a ee f4 a7 ba ec 64 34 3b
       -0.00320234 0.0012422472 -0.0012814084 0.0027525974
000020 bc 9e bd ba 35 ca 6f 3b 95 b2 ba ba c9 7c 88 3b
       -0.0014466862 0.003658903 -0.0014243895 0.004165266
000030 25 f1 4b 3a a6 0b 06 bc e3 d2 98 3b 06 38 db ba
       0.0007779769 -0.008181488 0.0046638115 -0.001672507
000040 24 89 8f 3b de 5c e7 ba 27 e6 38 bb a0 7b 73 3b
       0.004380362 -0.0017651578 -0.0028213353 0.0037152544
000050 62 36 ad 3b 10 c9 3c bb c6 d2 31 3b 5e 2c b3 b9
       0.005286024 -0.0028806366 0.0027133687 -0.00034174597
000060 4b 14 bb 39 7e fc 00 3b 6f 4d 03 bb a3 48 8f 3b
       0.0003568254 0.0019681747 -0.0020035168 0.0043726726
000070 e2 69 a7 39 fe 73 92 bb 13 3b 7d 3b eb a2 35 bb
       0.0003193161 -0.0044693938 0.0038639947 -0.0027715515
000080 f6 3e 43 3b f7 ef 64 3a 97 63 8e 3b 8f a1 40 ba
       0.0029792166 0.00087332673 0.004345368 -0.0007348293
000090 b6 c0 83 38 79 63 f5 3b 79 7b f9 3b 7f 2e 80 3b
       6.282462e-05 0.0074886647 0.007613596 0.0039117928
0000a0 6d 15 9f 3a ee 31 1a 3c 0f 5e 7a bb 3d 3d 81 b9
       0.0012137123 0.009411318 -0.0038203036 -0.00024650423
0000b0 fc 51 17 3b f2 41 16 3a d0 0c 89 3a 1f 8c af ba
       0.0023089638 0.00057318725 0.0010456089 -0.00133932
0000c0 8a ef 43 bb 99 26 9c 3a a8 81 e6 b9 a7 d9 8f 3b
       -0.0029897415 0.0011913358 -0.0004396562 0.00438996
0000d0 cc da 8e 3b e5 09 4b bb 82 35 70 ba d8 13 a2 3b
       0.0043595787 -0.003098124 -0.0009163247 0.004946213
0000e0 13 d8 40 bb 20 ef a8 ba 70 f6 29 3a ef 4b f7 3a
       -0.0029425665 -0.0012888648 0.00064835604 0.0018867234
0000f0 1f ba cd ba 2e 42 b9 3b b1 cd 1a 3b ee bc 22 3a
       -0.0015695727 0.005653641 0.0023621137 0.0006207962

layer3.1.running_mean f4 [64]
000000 f7 b9 c5 be 5e d5 c9 3e 49 31 96 3d e2 88 f2 bb
       -0.38618442 0.394206 0.07333619 -0.0074015716
000010 a9 4a 08 3f a9 cf 1d 3f 5e 26 e8 3d 85 55 12 be
       0.5323892 0.6164499 0.11335443 -0.14290436
000020 59 00 9c be cd e9 d9 bc 81 21 19 bf af 65 a8 bd
       -0.30469015 -0.026600743 -0.5981675 -0.082225196
000030 81 d7 05 3f 0f 7a 64 be 10 10 92 be c1 be 11 be
       0.5228196 -0.22312187 -0.2852788 -0.14232923
000040 26 e1 ce 3d db 0f 64 bd a1 8c 8c 3e d8 8e 67 be
       0.101015374 -0.055679183 0.2745104 -0.22613084
000050 d7 38 4a be a5 0e 09 3f ab 69 63 3e 68 2d ca 3e
       -0.19748245 0.5353797 0.22208278 0.39487767
000060 10 6c 38 be 46 8e bd bd 53 33 95 be 4b c8 d2 3d
       -0.18009973 -0.09255652 -0.2914072 0.10292109
000070 90 6d b6 be 95 65 a8 be 99 6a 04 3e dc 98 ec 3d
       -0.35630465 -0.3289 0.12931289 0.11552593
000080 01 99 82 be 3c 70 e4 bd d6 6f 48 bd 9c af 38 3d
       -0.25507358 -0.111542195 -0.04893478 0.04508935
000090 16 88 01 3f 81 9d e3 3d 38 54 22 3d 9f 85 bc bd
       0.50598276 0.11114026 0.0396311 -0.09205174
0000a0 be 6d 1e 3f 64 f0 9b 3d c5 ae 38 3d c9 4f da 3e
       0.61886203 0.0761421 0.04508855 0.42638996
0000b0 0d f0 b1 3a c9 2f 18 3f 90 bc e4 3d 0d d3 b2 be
       0.0013575569 0.59447914 0.11168778 -0.34926644
0000c0 71 b3 e3 3e d1 d2 5c bc 00 7c b9 bd d6 fb 22 3f
       0.4447284 -0.013477997 -0.09056854 0.6366552
0000d0 af 7a 11 3e a9 14 1a 3f 37 c6 2c be da 13 a2 be
       0.14206956 0.60187775 -0.16872488 -0.3165577
0000e0 eb 55 37 3f 9b c4 17 bf ad b1 fb bd 7e 5a 4e 3e
       0.71615475 -0.5928437 -0.12289748 0.20151708
0000f0 6b be 11 3e 1c 4a 91 3e d2 d5 41 3f 96 7c e3 bc
       0.14232795 0.28376853 0.7571689 -0.027769368

layer3.1.running_var f4 [64]
000000 fa 5e ff 3d 90 fd 3e 3e 81 f9 15 3e cf eb 9d 3e
       0.12469287 0.18651414 0.1464596 0.3084397
000010 39 9a 99 3e 01 9d 9e 3e 74 42 b6 3d 4d f0 e6 3d
       0.30000475 0.3097916 0.08899394 0.112763025
000020 5b 1b 80 3e df 0b 1d 3e cf 2e 2e 3e 88 06 01 3e
       0.2502087 0.1533656 0.17010044 0.12600148
000030 c4 33 7d 3e cc 02 1e 3e 56 07 37 3e 8a 61 4f 3e
       0.24726778 0.15430754 0.17873892 0.20252052
000040 71 87 89 3e d1 7a d9 3d 12 ce 3c 3e 9a de 59 3e
       0.26861146 0.106191285 0.18437985 0.21276322
000050 55 95 da 3d db 42 3a 3e 44 9a f3 3d 18 eb 91 3e
       0.10673014 0.18189566 0.11894658 0.28499675
000060 c2 1b be 3d 6c 56 73 3e 60 e5 0c 3e 33 56 37 3e
       0.09282638 0.23763436 0.13759375 0.17903976
000070 17 c2 52 3e 9a 0e 66 3e 2a d5 50 3e 46 68 eb 3d
       0.20581852 0.22466508 0.20393816 0.11494498
000080 aa 06 18 3e 3f 5b c7 3d 7a a8 4a 3e 9f 90 e6 3d
       0.14846292 0.09734201 0.19790831 0.11258053
000090 1b 84 d0 3d 20 a1 bf 3d 99 93 00 3e 72 3d 45 3e
       0.10181447 0.09356904 0.12556304 0.19261721
0000a0 f4 c9 70 3e 3c 72 b3 3e 05 9d df 3d ac ec 79 3e
       0.23514539 0.3504809 0.10918621 0.2440669
0000b0 fc 2f 05 3e 2c 48 6b 3e 4a 68 c9 3d ad bc 92 3e
       0.13006586 0.2297675 0.09834345 0.28659573
0000c0 d8 48 84 3e 1d ab fd 3d 8b a9 1a 3e 37 ac ee 3d
       0.25836825 0.12386153 0.15103738 0.11653941
0000d0 93 c9 21 3e 3a 68 96 3e fd 42 e6 3d 5a b0 2d 3e
       0.1579955 0.29376394 0.11243246 0.16961804
0000e0 22 aa 76 3e 6d 84 56 3e e8 db 1a 3e ce f2 8a 3e
       0.24088338 0.20948954 0.1512295 0.2713837
0000f0 77 9c 03 3e a0 c7 be 3d 53 3b 2b 3e bc dc 89 3e
       0.12852655 0.09315419 0.16721849 0.2692622

fc1.weight f4 [10, 576]
000000 b2 e9 f7 3b 75 c8 59 bc 3e cb ab bc 20 92 27 bd
       0.0075657004 -0.013292422 -0.020970937 -0.04091084
000010 34 fd c2 3c 48 76 23 bc 6d 4a 9b bc 6b 70 3d bd
       0.023802377 -0.009976931 -0.018956387 -0.04624979
000020 34 28 0a bd 4e c4 d7 3c cf 0d cd bc b7 ac e3 3c
       -0.033729747 0.026338723 -0.025030999 0.027792318
000030 6a e9 ab 3c e0 97 12 bc 9d 25 a1 bc 19 f8 c8 3c
       0.020985324 -0.008947343 -0.019671256 0.024532365
000040 e5 74 21 3d 5c 78 96 3c 67 a0 f7 bb 3b 47 fb 3c
       0.03941812 0.018367939 -0.0075569632 0.030673614
000050 a4 64 6d bc 6c 1c 00 bc e7 10 0a bd 71 78 1d bd
       -0.014489327 -0.007819276 -0.033707526 -0.03844494
000060 26 bc 7c 3c 96 59 ad 3c 33 6d 5a 3c 0b 35 14 3d
       0.015425717 0.021160882 0.013331699 0.0361834
000070 0e a9 a5 3c b5 18 f8 3b 0b d1 07 bd 51 19 7f 3c
       0.020222213 0.0075713047 -0.033158343 0.015570001
000080 cc 8a 09 3c af 90 35 3d f3 5c 86 bb 0b 61 87 3b
       0.008394908 0.044327434 -0.004100436 0.0041314415
000090 93 ee 42 bc 01 84 bc bc ac 0d ec bc 94 8b e9 3c
       -0.011897701 -0.023012163 -0.028815113 0.028508939
0000a0 1f ef 33 3d 2f 34 4b 3c 30 db 53 bc 87 81 8c 3c
       0.043929216 0.012402578 -0.012930676 0.017151607
0000b0 ea 20 01 3d a1 79 86 3c 21 bc 49 3c 3d 2d 51 bb
       0.03152553 0.016415419 0.01231292 -0.0031917833
0000c0 e7 64 c6 3c 49 07 27 bd ff e3 74 3c 4d 71 bc 3b
       0.024218036 -0.040778432 0.014946937 0.005750811
0000d0 1a cb b9 3c 22 77 e9 bc e3 7b cc 3c 1b 53 15 3b
       0.022679854 -0.02849919 0.024961418 0.002278513
0000e0 ad e1 19 bd d2 15 da bc 20 ce 10 3c 3f ea 3b 3b
       -0.037568737 -0.026621733 0.0088382065 0.0028673557
0000f0 f4 45 ce 3c cb 22 cb bb 53 2c 2b bd e0 75 65 bb
       0.02517984 -0.006199216 -0.041790318 -0.0035012886
000100 96 b7 dc bc 03 0e 11 3d 73 65 23 3d f4 af 32 3d
       -0.02694301 0.035413753 0.03989167 0.043624833
000110 46 a6 ad bc 42 4d 91 bb 33 32 b8 3b b7 bf 81 3c
       -0.02119745 -0.0044342587 0.0056212186 0.015838487
000120 ba 25 47 bc 9b 5c 97 3c 72 83 ab bb d3 5e 50 bc
       -0.012154991 0.018476775 -0.0052341754 -0.01271792
000130 69 bb b7 bc 4a 19 21 3b 16 dc da 3b d6 2b 98 3c
       -0.022428231 0.0024581724 0.0066790683 0.01857559
000140 0f a8 e5 bc 25 db ce bb b2 45 89 bc b5 c8 60 bb
       -0.028034238 -0.006312745 -0.016756866 -0.0034299318
000150 45 a6 d3 3c fe 33 02 3d d4 a9 5a 3c 4a 1b 8d 3c
       0.02583612 0.031787865 0.013346154 0.017224927
000160 cc 19 54 3c ce cd 2c 3d 9b f4 78 3a 04 64 a0 3c
       0.012945604 0.04218846 0.0009496898 0.019578941
000170 0c 4e 87 bc 6d 04 de 3c 43 eb 3a bc e3 2d 6f 3c
       -0.016516708 0.02710172 -0.01140863 0.014598343
000180 8d 26 cb bc 1a 97 a8 3b 86 88 4c 3c b2 25 03 3d
       -0.024798656 0.005144966 0.012483722 0.03201837
000190 83 cc ed 3c c4 03 32 bd c6 76 cb 3c cf 18 16 bc
       0.029028183 -0.043460622 0.024836909 -0.009161188
0001a0 51 78 c2 bc 56 49 24 3d 48 0e 06 3d 8f 10 c9 3b
       -0.023739012 0.040109 0.032728463 0.006136007
0001b0 56 07 8b 3c e2 1e 09 bd 49 e3 89 3c 49 3f ea 3c
       0.016971271 -0.033476718 0.01683201 0.02859463
0001c0 76 5c 1c bd 27 64 33 bb b4 0f 27 3c ef a2 45 bc
       -0.038174115 -0.0027372928 0.010196615 -0.012062772
0001d0 56 c6 5f bc b2 64 10 bb eb e3 e1 3b bd 7b 90 3c
       -0.013658127 -0.0022032675 0.006893625 0.017637128
0001e0 84 f7 1d bd 89 d9 81 3c 52 f0 04 bd 5e a2 d3 3c
       -0.038566127 0.0158508 -0.03245575 0.025834259
0001f0 3c 4a b0 3c e9 02 05 bd e8 55 58 bc 6d d9 22 3c
       0.021519773 -0.03247348 -0.013204075 0.009939534
000200 ca 4c d6 b7 03 93 15 bd bc dc 81 bc 70 b8 0b 3d
       -2.5546546e-05 -0.036517154 -0.015852325 0.03411144
000210 69 f0 c1 3c 7e 5e ce 3c c1 1a 92 bc a9 41 83 bb
       0.023674207 0.025191542 -0.017835023 -0.00400563
000220 cf d2 28 3d 5c 36 03 3d df 08 1d bd e3 0c fd 3c
       0.041216668 0.032034263 -0.03833854 0.030889934
000230 3a eb 91 bc 2a f3 a0 3c b8 be 21 bd de e7 0a bd
       -0.01781236 0.0196472 -0.039488524 -0.033912532
000240 bd 93 54 3a 0d b9 32 3d 89 f0 cc 3c 5b 33 d5 3b
       0.0008109173 0.04363351 0.02501704 0.006506366
000250 81 3e 8d bc 47 8b 98 bc 54 12 29 3d 8e ce c1 3c
       -0.017241718 -0.0186211 0.041277245 0.023658063
000260 34 51 a0 3a 7d 94 ec bc 72 72 14 bd 2f a5 72 bc
       0.0012231232 -0.028879398 -0.036241956 -0.014809891
000270 90 1b 97 3c bd 4a 06 3d c4 c5 32 bc 79 f1 75 3c
       0.01844576 0.03278612 -0.010911409 0.015011185
000280 c8 71 1c bd 26 96 03 bd e0 e0 e0 bc d3 01 35 bd
       -0.038194448 -0.032125615 -0.027450979 -0.044191193
000290 55 76 a7 3c 36 48 25 bd bb 55 d6 3b a3 60 0c bc
       0.020442167 -0.04035207 0.0065409816 -0.008567962
0002a0 f5 73 98 3c ee ef df 3b 77 99 29 bd 4e 37 f4 3c
       0.01860998 0.006834022 -0.04140612 0.029811528
0002b0 0d b5 66 bc 6c 85 09 3d 81 11 73 3c 61 01 85 3b
       -0.014081252 0.033574507 0.014835716 0.0040590023
0002c0 5d 3c cb bc 57 57 81 bc 65 e7 42 3c e6 0a 42 3c
       -0.024809057 -0.015788717 0.011895989 0.011843419
0002d0 f1 7d b9 bc 3b a6 7c 3c ce bb 1a bd 5a 08 bd bb
       -0.022643061 0.015420492 -0.03777676 -0.005768818
0002e0 f7 30 1b 3d 44 87 a7 3c 80 d8 a0 bb a5 e6 82 3c
       0.037888493 0.020450242 -0.0049086213 0.01597912
0002f0 86 9e bd 3c 73 a0 f4 bc ab 05 40 3c b7 b8 48 bc
       0.023146879 -0.029861664 0.011720101 -0.012251071
000300 2b 9f ee bc 70 ae 0e 3d 3e 30 a7 3c e6 99 13 3d
       -0.029128632 0.034834325 0.020408746 0.03603544
000310 06 96 11 3d 92 74 03 bd 30 43 bf 3c bc 56 e0 3c
       0.035543464 -0.032093592 0.023347467 0.027385108
000320 25 9b 33 bc 94 1b cc 3c f2 6b dc 39 ab f4 bb 3c
       -0.010962282 0.024915494 0.00042042095 0.022943815
000330 03 4f 39 3c 5f c4 a9 3c d8 7b 9f 3c b1 37 31 3c
       0.011310342 0.02072352 0.019468233 0.0108165005
000340 cc 96 e1 3c 80 7f bf bc 28 45 c4 bc 8a c7 b2 3c
       0.027537726 -0.023376226 -0.023958758 0.021823663
000350 1b 0e d5 3c 00 72 0d bd d0 ec 21 3d 43 c4 14 bd
       0.026007703 -0.034532547 0.039532483 -0.036319982
000360 15 ca f8 3b 6f ef 1d 3d 97 62 93 bc a2 56 8c 3c
       0.0075924494 0.03855842 -0.017991347 0.017131153
000370 51 aa c2 bc 7c 7d 09 3d f3 37 86 3c 53 37 11 3b
       -0.023762854 0.033566937 0.0163841 0.002215822
000380 4a b3 f8 bc ee 8b c6 3c 03 df 7a bb 36 e6 0b bd
       -0.03035893 0.024236646 -0.0038279898 -0.034155093
000390 80 d5 ba bc 3e 24 18 3b 94 26 c7 3c 1a 02 50 bc
       -0.022806883 0.0023214961 0.024310388 -0.012695814
0003a0 ad 3f d4 bc 67 98 04 3d 7e ec d8 3c 5b f5 0b bd
       -0.02590927 0.032371905 0.026479956 -0.034169536
0003b0 b7 a9 f1 bc 9e be 9d bc d6 ca 11 bd b2 cc 6f bc
       -0.029499872 -0.019255932 -0.03559383 -0.0146362055
0003c0 ae a3 a2 bc 16 7e 1d 3b b4 1d 19 3d df 8a f1 bc
       -0.01985344 0.0024031452 0.037381843 -0.029485164
0003d0 56 84 36 3c b5 f4 43 bc ab 45 1e 3c c1 d4 65 3c
       0.01113995 -0.011960198 0.009660165 0.014027775
0003e0 dc dd 99 3c 5b 87 0b 3d b1 a2 1d 3c dd 0d 21 3d
       0.018782549 0.034064632 0.009621308 0.03931986
0003f0 18 ba 97 3a 32 45 13 3d fa fd 98 3b 5d b8 a4 3c
       0.0011575846 0.03595466 0.0046689482 0.020107443

fc1.bias f4 [10]
000000 eb 24 9d 3c cd a0 10 3d f7 e9 16 bd 94 88 a9 3c
       0.019182643 0.0353096 -0.03684422 0.020695008
000010 c8 b5 ca 3c c9 64 9a bc 40 3d a7 3b 80 0d e2 ba
       0.024744883 -0.018846886 0.005103737 -0.0017246455
000020 a8 bc 95 3b 49 7c 0e 3d
       0.0045696087 0.034786496

fc2.weight f4 [2, 10]
000000 79 90 8b 3e ae 85 31 be e2 9b 4c be e3 bd 78 3d
       0.2725866 -0.17336151 -0.1998134 0.060727965
000010 07 b0 87 3c ed da a4 be c1 e9 0c 3e ca f6 be bc
       0.016563429 -0.32198277 0.13761045 -0.023311038
000020 e7 32 0a bd f1 ba 06 3e 82 0b 86 be f5 65 3e 3d
       -0.03373995 0.1315725 -0.26180655 0.046483953
000030 0e 51 8e 3e 0d 51 a7 be bf c0 c1 3d c8 8d 9f 3c
       0.27796215 -0.32679024 0.094605915 0.019476786
000040 7d de 07 be a8 c2 87 3e aa 92 46 3d 6e 4f 79 be
       -0.13268466 0.26515698 0.048479713 -0.24346706

fc2.bias f4 [2]
000000 39 c9 2b be 6d a2 f8 bd
       -0.16775979 -0.12140355
