Lab5/model_50_1e-05.pth (torch, 378966 bytes, 54 tensors)

layer1.0.weight f4 [16, 3, 3, 3]
00000000: b448 12bd ef49 f73d 6bef f3bd aae3 e93d
00000010: d0db 42bd 8c77 b3bd 55fa 16be d3a5 1dbe
00000020: fcda 14be 21aa 0bbe 647e 763c 02f3 f63c
00000030: f4d3 7c3d 88d1 a5bd 38d8 de3d c9a3 393e
00000040: cda2 25be 7cbe 2a3e 2f0c a23d b147 d5bc
00000050: 84f8 423e b58e 0fbe e1d7 a53d 934a 2f3d
00000060: 49fb 2abe 0cba c3bd 8f76 58bd f883 19be
00000070: ecfa d73d 0224 50bd 6393 653d 64e1 5bbd
00000080: 7b8e b53d 34d6 603d e4f7 c03c bc34 2ebd
00000090: c82f 953c 207e 153e 7ee5 70bd f415 91bd
000000a0: af71 333e 300f a73d 9fed 1e3c 938e de3d
000000b0: 555d a8bd 56c3 1e3e 9dc1 003d 204a 6abd
000000c0: c5df 3abc c6df babd 2b32 e8bd eac3 dabd
000000d0: 36fc 9fbd 1281 3a3e 7a13 3bbe c875 75bd
000000e0: 48df 06be 9df5 00be a66f 47bd cb17 273e
000000f0: d1de 2c3e 999b 203d 0043 f83d 4c0f adbc
00000100: 9a81 34be 35af 1b3e 49c1 253c 0180 1b3e
00000110: d9da 1bbe 2fd2 433d ff5d 31bd df2b 603d
00000120: 0157 0f3e c914 df3d d71a eb3c cae7 8abd
00000130: 1a25 0fbe 6287 70bd df93 aa3d 568f df3c
00000140: 8787 35bd 3598 963d c403 91bd 1744 f2bd
00000150: 4867 c2bc c383 e1bd a06b bfbd 7f3b 1abe
00000160: eb0e 1f3e 2431 d43d 17c1 06be 7e0b 363e
00000170: bcaf 72bd 4f62 1b3e 2d5e 43bd 6907 09be
00000180: 5e67 9fbd 76de ff3d 5236 95bd fe24 cc3d
00000190: 57ac 133e 423e 153e 39bd 96bd db46 db3d
000001a0: 6f58 123e 652b 063e 1b44 dfbd 4096 8dbd
000001b0: 2998 203e 1aa7 bb3d 2821 1e3e 26e4 09be
000001c0: 8364 cebd c113 f0bd 15e4 2d3d e25d 5e3b
000001d0: da17 9cbc c6a0 06be 5eb6 2cbc 2819 27be
000001e0: f31a 173e 7204 8dbd c0f0 0c3d c6ee 3bbe
000001f0: ce21 d0bc 4cbb 1ebe 6e62 abbc 5505 313e
00000200: 48a9 1cbe 1031 88bd f7b3 0cbe 98d0 233e
00000210: b82b 043e df52 d73d d8d9 443d 334a 6b3d
00000220: b57b ddbd 7422 afbd 386d 38bc bd45 22be
00000230: cf0a 3f3e 412c 11be 846f ac3d 7d90 403d
00000240: 1c86 893d 1669 9b3d db21 47bd 01f6 013e
00000250: ea08 043e e5df 1fbd 57d7 f7bc 84d1 e03d
00000260: 93ca 383e 3c6a 063e f4d4 f3bd 7bbc 123d
00000270: f5a2 cc3d 16ba 68bd b212 083e 0edc 0b3e
00000280: 9818 0cbd 548a 7bbd 6e5c e23d 1538 9b3d
00000290: ac19 08bd 8216 c9bb 657b a83d 786c 3b3c
000002a0: a90c 933d 83b0 d9bd 4e00 ab3d 7cbd 3bbb
000002b0: d0df 1fbd af0b 10be 0993 af3c 1839 613d
000002c0: 29e0 34be c7f1 43bc 1402 263e 2b96 e03d
000002d0: d5a9 f83c 83b5 c13d 310f f33d 31bf c4bd
000002e0: d917 383e 7865 c43d 5031 eebd 9fb7 293d
000002f0: f5c6 91bd 6d5e e7bd 58e4 aa3c d7be fdbd
00000300: b206 1a3e e7f0 c33c eb5c 013e d271 1dbd
00000310: ff5c 473d 4b00 3fbe 3b17 fdbd f2fa af3d
00000320: 8113 d53d 6fb6 e33d 13a1 f23c a3f5 ecbc
00000330: 5a4a 113d 0cfa 353c 77f6 fa3d 0020 08bd
00000340: cf3c 483d b2f5 3dbe 2b98 97bc 2052 27bd
00000350: e05c bdbd 7e1e 3a3e 5ef5 3ebe 601f bebd
00000360: 5483 ad3d 24da ec3d 6429 2a3d 2e74 a73d
00000370: daa6 0dbe 28ad 8ebd 3b6f 123d 4311 233d
00000380: 413e 3c3e f283 e1bd 79e7 69bc 3dc2 72bd
00000390: 5b68 173e 5f38 f1bd d6e4 b93c cc7e 39be
000003a0: 1706 e53c e463 ed3d 5d0a aebd ddcf b2bd
000003b0: b53f 87bd ed55 3f3e 9f78 9bbd f0b8 293e
000003c0: 5369 763d cef3 2fbe 15d8 f1bd 041c 063e
000003d0: c4b7 8a3d a613 503c 35f1 373e f1cf ba3d
000003e0: 24b7 a23d 1c2d 333d 8fe6 98bd 2eb2 193d
000003f0: e505 b6bd c831 ebbc 4f1e fabc 60d8 a9bd
-0.035713866 0.120746486 -0.119109 0.114203766 -0.04757291 -0.08763036 -0.14743932 -0.15395288
-0.14536661 -0.13639118 0.015044782 0.030145172 0.06172557 -0.080966055 0.10881084 0.18128885
-0.16175385 0.16674227 0.0791248 -0.026035162 0.19040114 -0.14019282 0.08097816 0.04279573
-0.1669742 -0.0955697 -0.05284744 -0.14991748 0.105459064 -0.05081559 0.056048762 -0.053681746
0.088650666 0.05489178 0.023555703 -0.04253076 0.01821126 0.14598894 -0.05881261 -0.07084265
0.17523836 0.08157194 0.009700208 0.108670376 -0.08220927 0.15504202 0.031434644 -0.057199597
-0.01140589 -0.09124713 -0.11337694 -0.10681899 -0.07811777 0.18213299 -0.18269148 -0.059926778
-0.13171113 -0.12593694 -0.04869046 0.1631767 0.16881873 0.03921089 0.12122154 -0.021125458
-0.17627564 0.15203555 0.010116884 0.15185548 -0.15220203 0.04780787 -0.043302532 0.05472934
0.13998033 0.10892636 0.028699322 -0.067824915 -0.13978997 -0.05872286 0.083289854 0.027290028
-0.044318702 0.0735325 -0.07080796 -0.11829393 -0.023730889 -0.1101146 -0.093467 -0.15061758
0.15533035 0.10360935 -0.13159595 0.17777821 -0.059249625 0.1517422 -0.047697235 -0.13381733
-0.077833876 0.12493603 -0.072857514 0.09967993 0.14421211 0.1457453 -0.0736031 0.10706874
0.14291547 0.13102491 -0.10901662 -0.069134235 0.15683044 0.091627315 0.15442336 -0.13465938
-0.10077765 -0.11722518 0.042453844 0.003393047 -0.019054342 -0.13147268 -0.010541527 -0.1631819
0.14756374 -0.068856135 0.034409285 -0.18352804 -0.025406744 -0.15501136 -0.020920958 0.1728719
-0.1529895 -0.06649983 -0.13740526 0.15997541 0.12907302 0.10513853 0.048059314 0.05744381
-0.10814611 -0.08551493 -0.0112565085 -0.15846916 0.18656467 -0.14177038 0.084197074 0.047012795
0.067150325 0.07588403 -0.04861627 0.126915 0.12894025 -0.03903188 -0.03025405 0.10977462
0.18046026 0.13126463 -0.11905852 0.03582428 0.09992019 -0.05681809 0.13288382 0.13658163
-0.034203142 -0.061411217 0.11052786 0.07579056 -0.033227608 -0.0061367163 0.08226661 0.011439435
0.07180149 -0.1062937 0.083496675 -0.0028646877 -0.039031804 -0.14066957 0.021432417 0.05498609
-0.17663635 -0.0119595 0.1621173 0.10966142 0.03035442 0.09458449 0.11868132 -0.09606779
0.17977847 0.09589666 -0.11630499 0.04143488 -0.07118026 -0.11297307 0.020860836 -0.123899154
0.15041617 0.023918582 0.12633102 -0.038438626 0.048672672 -0.18652456 -0.123579465 0.08592786
0.10404111 0.11118781 0.029617822 -0.028925722 0.035471298 0.011106979 0.12254041 -0.033233643
0.048886117 -0.18550757 -0.018505177 -0.040849805 -0.0924623 0.18175694 -0.18648288 -0.09283328
0.084723145 0.115650445 0.04154338 0.081764564 -0.1383318 -0.06966621 0.03575061 0.039811384
0.18383123 -0.11011495 -0.014276379 -0.05926727 0.14785902 -0.1177833 0.022692125 -0.18114775
0.027957005 0.11591318 -0.084980704 -0.08731053 -0.06603948 0.18685122 -0.07591366 0.16574454
0.06015904 -0.17182848 -0.118087925 0.13096625 0.06773332 0.012699997 0.17963107 0.09121693
0.079450876 0.04374419 -0.074658506 0.03752344 -0.08887843 -0.028710261 -0.03053203 -0.082932234

layer1.0.bias f4 [16]
00000000: 5bf6 423e 6f88 dfbd 5129 43be bf98 803d
00000010: 2f96 9cbd 331f 08bd 5892 3b3e d047 373d
00000020: 1b08 3cbe cf17 013e c3de 323e e78c e0bd
00000030: 71ce 18be 0f24 183e a1c6 29be d917 8ebd
0.1903929 -0.109146945 -0.1905873 0.06279134 -0.07645833 -0.03323288 0.18317544 0.04474622
-0.18362467 0.12606739 0.1746779 -0.10964375 -0.14922501 0.14857505 -0.16579677 -0.06938142

layer1.1.weight f4 [16]
00000000: 9e02 803f af23 803f 050b 803f 1407 803f
00000010: 0299 7f3f aeef 7f3f 2712 803f 59ed 7f3f
00000020: ae1c 803f 1fcf 7f3f 2d00 803f 0216 803f
00000030: 60bf 7f3f 34e2 7f3f 7dff 7f3f d7fc 7f3f
1.0000799 1.001089 1.0003363 1.000216 0.99842846 0.999751 1.000554 0.9997154
1.0008752 0.99925417 1.0000054 1.0006716 0.9990139 0.99954534 0.9999922 0.9999518

layer1.1.bias f4 [16]
00000000: 69b6 8b37 1749 893a 20c1 6939 fdab 613a
00000010: b496 fcba 9620 2fba f81d 643a f19c 29ba
00000020: 3a95 7b3a b062 23b9 065b bbb8 70d4 d639
00000030: b7c7 59ba 7e06 0fba 4529 1cba f337 f238
1.6655033e-05 0.0010474053 0.00022292556 0.0008608697 -0.0019270987 -0.0006680576 0.00087019755 -0.00064702245
0.00095971266 -0.00015581655 -8.933809e-05 0.0004097554 -0.0008307653 -0.00054559845 -0.00059570774 0.000115498806

layer1.1.running_mean f4 [16]
00000000: 48f6 c6bc bac4 133d aa2e 37be 285e d93d
00000010: 1b31 5fbe 4130 923e a42b e03e bbdb 343b
00000020: 78fd 0ebe 7d22 5f3e d44c 803e 9a20 c9bd
00000030: 77da 76be 7ec3 253e 24ea dbbe a5fa b03e
-0.024287358 0.036076285 -0.17888895 0.10613662 -0.21796076 0.2855244 0.43783295 0.002759679
-0.13963878 0.217905 0.25058615 -0.098206714 -0.24106775 0.16187856 -0.42952073 0.34566227

layer1.1.running_var f4 [16]
00000000: 7f5b 483c 4f25 a33b 7589 083a 2a73 003c
00000010: 3fd0 b13b ccda 003d 8ebe 983c e149 923b
00000020: 7eba 1e3b 7bb2 993b a921 383c 7bd6 993a
00000030: ab83 953b d2d7 be3b 1a4a 793c eb44 5b3d
0.012228846 0.0049788128 0.0005208471 0.007839957 0.005426436 0.03145866 0.018645551 0.0044643735
0.0024220045 0.004690466 0.011238494 0.0011736894 0.004562815 0.0058240676 0.015215421 0.053532522

layer2.0.weight f4 [32, 16, 3, 3]
00000000: de66 963c a33b 9ebd 2739 983d ee4b 033d
00000010: 3ac1 9b3d 0477 40bd b8d7 74bc ad63 da3c
00000020: 7ad2 82bd e51e 7abd b5c6 8ebd 42a7 8e3c
00000030: 2922 013c b5a6 6f3d e964 943d 450a 66bd
00000040: 7cb7 98bd 05de 17bd 53ba 60bd 3bc5 953d
00000050: e434 74bd 636c 4f3b fe6f 6b3d b8ac 47bd
00000060: 0978 92bd 7ea8 aa3c fa22 ff3c a97c 42bd
00000070: 6188 08bd d43f b1ba 45c3 55bc 2943 553d
00000080: 9d4a 4c3d 2702 a5bd 2fb0 05bd 28cf 0f3d
00000090: 4dd4 763d ff20 4c3d d08f 37bd 58bc fcbb
000000a0: 3b26 0d3d 8980 59bd 70a5 963d ec2f 813d
000000b0: e039 22bd f9d1 9d3d c913 7a3d 6f6b f43a
000000c0: b40b a23c b3ee 06bd 1406 8dbb 0b99 a33d
000000d0: 5ddd 76bd af0b a6bd 9232 803d afaf 953d
000000e0: b075 8cbc 9131 433d 37e0 623c cdef 03bc
000000f0: c3a2 403d ee4b 7ebc 7c0b 9cbc 266a 4d3c
00000100: 40b8 02bc f00c e8bc 6c5d 9c3d a06e 3fbd
00000110: 36f4 883d 3e77 923d 3e77 5e3c d92f 873b
00000120: 638b a2bd d4fa 95bd 5267 07bd 82d3 a5bd
00000130: e092 113d d0a3 bebc c4d0 943c 343c 5ebd
00000140: c5e8 953c 2679 17bc 0533 193c df30 0dbd
00000150: 5aac 8e3c 84b8 5bbd 3729 823d ce51 a53c
00000160: e059 983d 804c 9fbc 02fb d83c 7cc6 393b
00000170: d209 59bd 9d87 993b bea9 c93c 7045 5dbb
00000180: 0aa3 d5bb e9d9 713b f60a 8cbd e29a 8abd
00000190: e667 32bd 1a34 c73b c515 233d 3c84 063c
000001a0: 14cb a8bb f501 47bd 322a 8bbd 6077 edbc
000001b0: 6788 35bd 380a 1cbd 1baf 123d 0ed0 20bb
000001c0: 3cdb 55bd 0d2e 813c cf6a aa3d 76ab 323d
000001d0: a3da 2b3c 3c51 d53c be0d 5abd 61fa 97bd
000001e0: 0815 32bc f3a7 1e3d 6c1d 8cbd c108 943d
000001f0: 3b0e a23d 793c 963c 85bd 9e38 4a9d 4f3d
00000200: 6c1e 28bd 07af 7ebd 6804 4cbd ef76 9dbd
00000210: 949b 3cbd faac 62bd 0bcc c8bc 80f0 4b3d
00000220: bd99 49bd a0a0 64bd 5c6b 6e3d 47ba 0bbd
00000230: 8dcb d53c ec2d 213d 33e7 5e3d 8a54 79bd
00000240: f5aa e4bc bc84 7bbd 7249 91bd 45ec edbc
00000250: d5b9 eb3c 3ae2 06bd b270 92bd 5f7d 8cbd
00000260: 9d34 2abd 32f9 cfbc 576b 71bd 1ff7 a3bc
00000270: 6978 d93a bc3f 103d 9e10 343c 0798 f73a
00000280: 39dd 8bbd c786 babc 3cdb 76bd 6c2e 6bbc
00000290: ce0d 0a3d 2eca b4bc fdfa ab3c 8ba7 91bd
000002a0: daf6 87bd 60c7 083d fd62 f2bc 25f9 733d
000002b0: 94e0 8b3d c30f 63bd 6e83 06bd 709a 3cbc
000002c0: d1cd 8c3d c0a6 a13d 0a05 953d 571e 24bd
000002d0: 27aa 25bb a6cb 9ebd b371 283d b07c 903d
000002e0: b968 f23b 6def 173d d2f1 573d 883b 043b
000002f0: 74c1 e5bc 9a50 b1bc e854 02bd 75e4 b7bb
00000300: 3bd7 4cbd da74 a63d 1bc1 263d f6d1 8b3d
00000310: 55ec 973d 0c25 143c c8e7 1b3d da9e 50bd
00000320: 8125 a33d 6ca9 8abd a2d3 963d 5860 30bd
00000330: cab4 a3bd 3c60 9c3d 512a 5a3d 1871 0ebd
00000340: c0e8 903d 904d 303d e45d 7c3d 9812 b03c
00000350: dd57 c73b 9bc7 c03c c4e7 693d 6555 103a
00000360: 3b7d aa3d 830c 7c3c b278 9f3c c594 a33b
00000370: 826b 60bd 66a6 8b3d 959c 223d 7c41 9b3d
00000380: 359a 423d d7a1 ff3c 9365 58bd 1275 803c
00000390: 7098 a73d 80c6 e43b 4d44 8abd 6a66 c63b
000003a0: 127a 7c3d 961d d93c ed28 c13b 39b2 773d
000003b0: 055c 02bd e0b8 6dbd 291e 6b3d cb89 8fbd
000003c0: 56f1 b13c 3f17 553c ac24 a6bc fd36 a1bd
000003d0: c788 90bd 784e af3a dc9a 423c cfc2 a2bd
000003e0: 99f9 873d b44c 5ebc 780a a4bd 53e7 d93c
000003f0: b3e0 70bb 0a64 5a3d 0233 a4bd a888 a13d
0.018359598 -0.077262186 0.07432776 0.032054834 0.076052144 -0.046988502 -0.0149440095 0.026658857
-0.063878015 -0.06106462 -0.06971494 0.01741374 0.00788168 0.058508594 0.072458096 -0.056162138
-0.07456872 -0.03707697 -0.054865193 0.07313009 -0.059620753 0.0031650297 0.05747985 -0.0487487
-0.07151801 0.020832296 0.031144608 -0.047482166 -0.033333186 -0.0013523051 -0.013047044 0.052066002
0.049875844 -0.08057051 -0.032638725 0.03510967 0.06026106 0.049836155 -0.044814885 -0.007712882
0.034460288 -0.053101096 0.073557734 0.063079685 -0.039605975 0.07706065 0.061054025 0.001864774
0.019780971 -0.032942485 -0.004303703 0.07988175 -0.060269702 -0.08107697 0.062596455 0.073088996
-0.017145962 0.047654692 0.013847402 -0.008052778 0.04703022 -0.015521033 -0.019048445 0.012537515
-0.007978499 -0.028326482 0.07635006 -0.04673636 0.066872045 0.0715165 0.013578234 0.004125577
-0.07936742 -0.07323232 -0.03305752 -0.080969825 0.03554046 -0.023271471 0.018165953 -0.054256633
0.01829947 -0.009245193 0.009350543 -0.034470435 0.017416168 -0.053642765 0.06355517 0.02018061
0.07439017 -0.019445658 0.026486877 0.0028347066 -0.05298788 0.004685356 0.024617072 -0.0033763312
-0.00651968 0.0036903566 -0.06838028 -0.06767823 -0.043556117 0.006079209 0.039815683 0.008210238
-0.005151162 -0.04858585 -0.067951575 -0.028987586 -0.044319537 -0.038095683 0.035811525 -0.0024538073
-0.05221103 0.015769029 0.08321153 0.04362055 0.010489139 0.026039712 -0.05323576 -0.07420803
-0.010869272 0.038734388 -0.06841549 0.07228232 0.079128705 0.018339382 7.569328e-05 0.050687112
-0.041044638 -0.062178638 -0.04980889 -0.076887004 -0.04604681 -0.055340745 -0.024511358 0.049789906
-0.049218882 -0.055817246 0.058207855 -0.034113195 0.026098037 0.039350435 0.054419708 -0.06087164
-0.02791355 -0.061405882 -0.07094087 -0.029043326 0.028775135 -0.03293059 -0.07150401 -0.0685985
-0.041554082 -0.02538738 -0.058940258 -0.020015297 0.0016591671 0.03521703 0.01099029 0.0018889912
-0.06829304 -0.022769345 -0.060267672 -0.01435433 0.03370457 -0.022069063 0.020993704 -0.071120344
-0.0663888 0.033393264 -0.029588217 0.059563775 0.06829944 -0.055434953 -0.032840185 -0.01151143
0.06875194 0.07893133 0.07276352 -0.040067997 -0.002527842 -0.077536866 0.041124057 0.07055032
0.007397738 0.03709357 0.052720852 0.0020177085 -0.028046347 -0.02164488 -0.031819254 -0.005611951
-0.050009947 0.081277564 0.040711503 0.06827156 0.07418124 0.009042036 0.03806284 -0.050932743
0.07966138 -0.06770596 0.073645845 -0.04306063 -0.07993467 0.07635543 0.053263012 -0.034775823
0.070756435 0.04304272 0.06161298 0.021493241 0.006083472 0.02353268 0.057105795 0.0005505889
0.08324667 0.015383842 0.019466732 0.0049921 -0.054790027 0.06818847 0.03970011 0.075808495
0.047510345 0.031205101 -0.052831244 0.015680823 0.08183372 0.006981671 -0.067513086 0.006054689
0.061639853 0.026503365 0.0058947713 0.0604727 -0.031826038 -0.05803764 0.05740181 -0.07008704
0.021721523 0.013006031 -0.020281158 -0.07871816 -0.07057338 0.0013374826 0.011877742 -0.07947313
0.06639404 -0.013568092 -0.08009809 0.026599562 -0.0036755025 0.05331806 -0.080175415 0.07887393

layer2.0.bias f4 [32]
00000000: de01 18bd d88d c3bc ec2f 5e3d b0a0 953d
00000010: d690 f63a 29bf 9e3d 9f68 7abd fa49 9ebb
00000020: f646 7dbd 27d4 6ebd afc9 803d 5d5e 623d
00000030: 798a 28bd 1b21 3cbd 93f0 0ebc 6d48 4b3d
00000040: cf37 823d 035c f7bc be9c 5cbc 22db a93d
00000050: dc98 563d 6650 2dbd aa1c 773d 97db 9bbd
00000060: 9ee9 8e3d a737 733d 87b7 8b3b 789a 93bd
00000070: 9779 9d3d 697a 21bd 461a dc3b d018 f8bc
-0.037111156 -0.023871347 0.05424492 0.07306039 0.0018811475 0.07751305 -0.06113493 -0.004830596
-0.06183525 -0.058307793 0.06288468 0.055265773 -0.041147683 -0.04593001 -0.00872435 0.049629617
0.06358301 -0.030195242 -0.013465105 0.082937494 0.05239187 -0.042313002 0.06033007 -0.07610243
0.06978153 0.059379246 0.0042638215 -0.07207197 0.07689207 -0.03942338 0.006716999 -0.030285269

layer2.1.weight f4 [32]
00000000: 91f9 7f3f 38fc 7f3f ceff 7f3f 40e5 7f3f
00000010: a0fd 7f3f d7d9 7f3f 2100 803f 2adb 7f3f
00000020: 80f5 7f3f f913 803f 6a9d 7f3f 2fee 7f3f
00000030: 4ab9 7f3f e309 803f d0e5 7f3f 85fd 7f3f
00000040: 04d8 7f3f 45fa 7f3f c74c 803f 6f3e 803f
00000050: 6aeb 7f3f c407 803f db14 803f ded9 7f3f
00000060: 60ed 7f3f b1f3 7f3f 6be6 7f3f df17 803f
00000070: 26f6 7f3f a915 803f 03ca 7f3f 8ac7 7f3f
0.99990183 0.9999423 0.999997 0.9995918 0.99996376 0.9994177 1.0000039 0.9994379
0.9998398 1.0006095 0.9984957 0.99972814 0.99892104 1.0003017 0.9996004 0.99996215
0.9993899 0.99991256 1.002343 1.0019053 0.9996859 1.000237 1.0006365 0.99941814
0.9997158 0.9998122 0.99960965 1.0007285 0.9998497 1.000661 0.9991762 0.9991385

layer2.1.bias f4 [32]
00000000: 225b 58b9 6dc7 a0b7 1755 7638 1543 17b9
00000010: 2044 a139 0f9e 5aba 101f f038 3f27 00ba
00000020: bcdb 07b8 d84d 0b3a a048 b2b9 f751 c6b8
00000030: 977f 9cb9 dd55 08b9 0a53 9eb9 2690 8f39
00000040: 2781 9f39 307f 21b9 b27a 203b 9f0b e43a
00000050: c1d1 3739 2f6d 9fb8 630b db39 f160 52ba
00000060: bc06 c0b9 9a4b 5239 0cad 21ba 8538 2b3a
00000070: 62b6 5e39 b4cc 793a 28c8 0eba 9c62 23ba
-0.00020633315 -1.9166351e-05 5.8730217e-05 -0.00014425472 0.0003075907 -0.00083395926 0.00011449878 -0.00048886606
-3.239115e-05 0.0005314029 -0.00034004916 -9.456643e-05 -0.000298497 -0.00013001957 -0.00030197977 0.00027382484
0.0003042307 -0.00015401538 0.0024487195 0.0017398483 0.0001753038 -7.602048e-05 0.0004177942 -0.00080253097
-0.0003662611 0.00020055324 -0.00061674486 0.00065315544 0.00021239513 0.00095290993 -0.0005446696 -0.00062326505

layer2.1.running_mean f4 [32]
00000000: 02fb 56be 5f84 d83d d342 11bc 8433 b4be
00000010: 8b24 f9bd 5519 4a3e ee8e a93e aac3 2abe
00000020: 83e1 573e c9ce 47bd 29fa 533d b014 753d
00000030: 6746 b5bc d7ad a23e 7fba 4abd 4a96 bfbc
00000040: b573 043f 8e10 793e d8e1 d7ba 0770 873e
00000050: e7cf 03bc b433 983e 5043 0ebf f29b d1bb
00000060: b702 54bd 897b b7be 3ae4 b93c 42a2 8dbd
00000070: d2c9 2bbe 8c8f bbbd 6954 7ebe 3b16 7ebe
-0.2099419 0.10572123 -0.00886603 -0.35195553 -0.12165173 0.19736226 0.3311686 -0.16676202
0.2108212 -0.04878119 0.051752243 0.059834182 -0.022128297 0.31773254 -0.049494263 -0.023387093
0.51739055 0.24322721 -0.0016470505 0.26452658 -0.008045173 0.29726946 -0.5557146 -0.006396764
-0.0517604 -0.35836437 0.022691835 -0.06915714 -0.16776207 -0.09158239 -0.24836887 -0.24813168

layer2.1.running_var f4 [32]
00000000: 367f 663d 6851 113e 8819 963d 91d0 243e
00000010: 6438 bd3d 0d17 663d 5d19 2c3d 27b5 393d
00000020: 94ec 223d d019 db3e 8c7c 863d e432 b93d
00000030: 0545 d63d cae3 223e b1c2 f63d aabd 583e
00000040: 596a 043e bc4f 9b3d a238 0a3e 6892 383d
00000050: 5415 943d d580 e23d b778 a23d c640 de3d
00000060: 052f 5d3e 6efb 233e 40fa 8c3e 0b2a b33d
00000070: 490f 263d 584f 013f 74e1 963d cbdd 943d
0.05627366 0.1419121 0.073290884 0.16095187 0.09239271 0.056174327 0.042016376 0.045338776
0.0397764 0.4279313 0.06566724 0.0904291 0.10462383 0.15907207 0.12048853 0.21166101
0.12931193 0.075835675 0.13498166 0.0450615 0.072306305 0.11059729 0.07933181 0.10852198
0.21599968 0.16013882 0.27534676 0.087482534 0.04054192 0.50511694 0.073672205 0.07268866

layer3.0.weight f4 [64, 32, 3, 3]
00000000: 4a71 fa3c 96fe b13c 0cd7 113d c66f 13bc
00000010: 9a3d 4a3d b4c0 33bd 1201 a33c 6e4e 67bd
00000020: b6fa a33c a8a1 e7bc 80c9 35bc b7cf f83b
00000030: 1665 7dbc 8e66 71bd 394c ecbb 8a07 68bd
00000040: 7303 073d cafa 493c 0499 b4bb b7c9 583d
00000050: 4b73 3abd dbf6 46bd b718 0abd 2d56 5abd
00000060: 2819 26bd 4477 68bd 0a9f a13b 0999 babb
00000070: 53dd 44bd f944 063d 995a 29bd e741 283d
00000080: be2d c1bc 7123 3b3d 1d01 40bd c14f 20bd
00000090: 0097 15bd 6953 58bd 104e 0cbd 5a98 1b3d
000000a0: dd39 05bc 14e1 8ebc 75ca cfbc 42de e539
000000b0: 2cdd 3abc 48b3 9a3c cfc0 8e3b 6448 143c
000000c0: 4e30 623d a156 193d c0c1 debc 9989 263c
000000d0: 6ab0 023d 1b96 67bd 8208 6c3d 3001 e43c
000000e0: eb98 e0bc 39dc 323d a61f b93c b845 37bd
000000f0: 83c7 b43b ba24 093d 9e1e cd3c b9a0 de3c
00000100: 6cf1 323d 6927 2ebd a30a 4cbd eb39 613d
00000110: c95e e3bb 1b75 433d 9c5d 8bbc 7a75 97bb
00000120: f5c9 3ebd 359f 173c c596 e43c 4a20 64bd
00000130: 7653 a73c 9426 c0bb 3f02 023d ff1f febc
00000140: 3e80 5e3d 53cb e33c 1367 703c d055 313d
00000150: 4e5a 9f3b 64d5 943c 156a 3c3d 8ea0 4ebd
00000160: f8d5 493d aa76 143d 7446 9e3c 8b43 16bd
00000170: b58e 3cbc b795 3c3b d949 abbc b850 cf3c
00000180: f7b3 0abc 7456 de3c 1823 623d 3657 2c3d
00000190: b5af 27bb aecb 5d3d 594c 44bd fb16 793c
000001a0: e0ba 36bc 9165 953a 4980 ca3b 4cc4 043c
000001b0: 9d27 f0bc 8d3b bc3c ca31 be3c 9257 803b
000001c0: 4767 523d 0dab e33c 9934 3abd fdf9 9c3c
000001d0: ea9d 1e3c 9f66 2abd fc98 303d 1baf c63b
000001e0: 5edc 21bd 1ed5 6d3c 35fc dc3c 5ac0 acbb
000001f0: 678f f9bc 4338 37bd 4414 0abc 68b8 55bd
00000200: b12b d6bc 9c59 0a3c a9f7 3d3d 67e6 3e3d
00000210: 53e6 f3bb 7998 563c 7bfa 4fbd 1b31 573d
00000220: 2b1c 33bd 224c d0bc c386 b03c 361e 2b3d
00000230: 3b8f d33c 1961 26bd c941 593d 78b3 45bc
00000240: 7d9f 903c d8bd 133c 8dc6 4b3c af36 05ba
00000250: 0c8c 293b 7252 20bd 7cba 2dbd 11fe 1b3d
00000260: 05b8 aebc 8887 12bd b530 243c 2808 2f3c
00000270: e943 b2bc b02a 0a3d 5a5c 03bd b669 d2bc
00000280: 9a92 fcbb 1212 b3bb bcc1 28bd faa2 183d
00000290: 170c 193c 0d8b 3a3d c12c e33c d655 6cbd
000002a0: 000e fe3c 3cc4 113d 86d1 0ebc d5a8 ec3b
000002b0: 7863 3b3d 8018 83bc fd25 0e3d 1942 8c3c
000002c0: a77f 80bc 60dc 943b 4120 7cbb 2578 6a3d
000002d0: c1b8 2dbc 1274 8b3c 64b5 1dbd 8490 43bc
000002e0: 5507 2f3c 6de6 37bd dcce 63bd 6c52 6bbd
000002f0: efb6 97bc aad3 093c 7b31 413c 4b86 6dbc
00000300: a35b b6bb 9520 5a3d 9842 3abd e18f cc3c
00000310: 183d 0abd ad9c 58bd aeff 4bbd a5d4 74bd
00000320: 4b11 4dbd 19bb 0fbd f136 4cbb 7036 9d3c
00000330: c943 163d 6d23 ab3c 4edb 20bd dea6 293d
00000340: 82d1 59bc 3d2c 55bd 2f73 72bd b027 2e3d
00000350: fe2b 853b 153c 913c 71da 3d3d f9a7 9eba
00000360: 7cc6 8cbc afd3 31bd 4320 72ba bfe6 7dbc
00000370: a39e 3b3d e35c 023c 5eb2 4d3d 4ff6 053d
00000380: 263a b03c 9ed1 5d3d 5f04 98bc 48d0 5cbc
00000390: a90c 683d 7d4f 2e3d 1b71 0fbd 8aa4 76bd
000003a0: 9618 32bc 592b 523d c22a 0dbc fd90 0f3d
000003b0: afbf 743c 2f39 943c d336 e63c 9cec 553d
000003c0: 749b f9bc be47 11bd c6ae d23c e020 fbbc
000003d0: 5e90 203d 1a81 ff3c 27d8 f7bb 4fad a53b
000003e0: e957 ec3b 786f 7ebc b8c8 00bc 57d0 af3c
000003f0: 7555 0d3d 8129 50bd fe53 cb3c 58c8 2dbc
0.030571599 0.021727841 0.035605475 -0.008998817 0.049375154 -0.043884948 0.019897971 -0.05647128
0.02001701 -0.028275326 -0.011095405 0.007593121 -0.015465995 -0.058935694 -0.007211235 -0.056647815
0.032962274 0.012327859 -0.005511405 0.052926745 -0.04552011 -0.048575263 -0.033714976 -0.05330484
-0.040551335 -0.056754366 0.004932289 -0.0056945127 -0.048062634 0.03278062 -0.041346166 0.041078474
-0.023581382 0.045688096 -0.04687606 -0.03913856 -0.036520958 -0.05281392 -0.034254134 0.03798709
-0.008131471 -0.01744131 -0.025365094 0.0004384388 -0.011405271 0.018884316 0.0043564807 0.009050462
0.05522185 0.03743613 -0.027191997 0.010164642 0.031906523 -0.056539636 0.0576253 0.027832597
-0.027416667 0.043667052 0.022598099 -0.044744223 0.0055169477 0.03348229 0.025039013 0.027176248
0.04368727 -0.042518053 -0.04981483 0.054986876 -0.0069387895 0.047719102 -0.01701241 -0.0046221586
-0.04657932 0.0092542665 0.027903924 -0.055694856 0.02042554 -0.005863974 0.031740423 -0.031021116
0.05432152 0.027806913 0.014673012 0.043294728 0.00486306 0.018168159 0.045999605 -0.050446086
0.049276322 0.03624598 0.019320704 -0.036685508 -0.011508633 0.002877576 -0.020909237 0.025307044
-0.0084657585 0.027140833 0.05520925 0.04207536 -0.0025586907 0.054149322 -0.047924373 0.015203233
-0.011152953 0.0011398067 0.0061798436 0.008103441 -0.029315764 0.022977615 0.0232171 0.003916689
0.051368024 0.027791524 -0.045460317 0.019162172 0.009681204 -0.041601773 0.043114647 0.0060633547
-0.0395168 0.014516143 0.02697573 -0.0052719535 -0.030463887 -0.04473139 -0.008427683 -0.052177817
-0.02614388 0.008444216 0.046378765 0.046606448 -0.0074432283 0.013097876 -0.050775986 0.052537065
-0.043728035 -0.025426928 0.021548634 0.04177686 0.025825134 -0.040619943 0.053041253 -0.012066714
0.017654175 0.00901743 0.012437475 -0.0005081696 0.0025870828 -0.039141126 -0.042414173 0.038084093
-0.021327982 -0.035773784 0.010021378 0.010683097 -0.021760898 0.033732116 -0.032070495 -0.025685173
-0.007707906 -0.0054648006 -0.041200384 0.0372648 0.009341261 0.045542765 0.027731301 -0.057699047
0.031012535 0.035587534 -0.0087169465 0.007222275 0.045749158 -0.016002893 0.034704197 0.017121362
-0.01568587 0.0045428723 -0.0038471373 0.057243485 -0.010603131 0.01702312 -0.038503066 -0.011936311
0.0106829 -0.044897486 -0.0556172 -0.05745165 -0.018519847 0.008412281 0.011791582 -0.01449735
-0.005565123 0.05325373 -0.045473665 0.02497095 -0.03374967 -0.052883793 -0.049804382 -0.059773106
-0.05006532 -0.03509054 -0.0031160677 0.019190997 0.03668574 0.020890916 -0.039271645 0.041418903
-0.013294579 -0.052044142 -0.05919188 0.042518318 0.004064082 0.017728845 0.0463509 -0.0012104503
-0.017184488 -0.043414768 -0.0009236375 -0.015496909 0.045805585 0.007956716 0.050218932 0.0327056
0.021512102 0.054154985 -0.018556772 -0.0134773925 0.0566527 0.042556275 -0.035019975 -0.06021551
-0.01087012 0.05131087 -0.008616151 0.03505038 0.014938279 0.018093674 0.028102314 0.0522276
-0.030469634 -0.03546881 0.025718104 -0.030655324 0.03920018 0.03118949 -0.007563609 0.0050560604
0.007212628 -0.015529506 -0.007860355 0.021461649 0.034505326 -0.05082083 0.024820324 -0.010606848

layer3.0.bias f4 [64]
00000000: b5aa a33b 00a0 b63c 7815 46bc 568a 5cbd
00000010: c7a9 503d 69f2 6d3d 8fac 2c3d aecc 43bd
00000020: ea3c 253d c63f d43c bdb1 6dbd 44c2 27bd
00000030: c7fd 43bd 6158 07bc 9953 c3bc 504f 5f3c
00000040: 5085 433d be99 43bc a062 5f3d 1a6c 153d
00000050: 3442 593b 3fcd 67bd aae9 42bd e17f 403d
00000060: 955e 853c e484 a7bb c543 f5bc 946d 363c
00000070: cd71 28bd 4b21 5d3d 0e18 0ab9 03b1 ccbc
00000080: 60fd f93b 4663 2d3d 4998 473d 723a 43bd
00000090: 5eeb de3c e861 1e3d b65f 1bbd 5f5b b6bc
000000a0: e399 6fbd 9b38 203d f0e3 13bc a8eb 66bd
000000b0: 5f08 6a3d c7a7 6abc 0869 55bd 9f48 103d
000000c0: b9a3 273d c578 0f3c f7ab 083d 60d5 493d
000000d0: 69da 36bd 1641 873c 7a8e 1cbd 1d6a 97bb
000000e0: db9e 223d ede3 25bd 7dce 65bd 82bb 72bb
000000f0: cd13 313d b5b6 2038 ee5a 09bd c771 993b
0.004994715 0.02229309 -0.0120900795 -0.053842865 0.050943162 0.05809251 0.042156752 -0.04780262
0.040341295 0.025909316 -0.058030833 -0.04095675 -0.047849443 -0.008260817 -0.023843573 0.013629749
0.04773456 -0.01193851 0.054537416 0.036480047 0.0033151032 -0.056592222 -0.04758612 0.046996955
0.016280452 -0.0051122773 -0.029939542 0.011134524 -0.041124154 0.05398683 -0.00013169667 -0.02498675
0.0076290816 0.042331003 0.048729215 -0.04766316 0.027211841 0.03866759 -0.037933074 -0.022260366
-0.058496367 0.039116483 -0.0090265125 -0.056377083 0.05713689 -0.014322228 -0.05210212 0.035225507
0.040927622 0.008756821 0.033367123 0.049275756 -0.044641886 0.016510528 -0.038221814 -0.004620804
0.039702278 -0.04050057 -0.056105126 -0.0037038033 0.043231774 3.8317132e-05 -0.033533983 0.004682753

layer3.1.weight f4 [64]
00000000: 8017 803f 84ee 7f3f 1fe9 7f3f 9aca 7f3f
00000010: 0e11 803f e7fa 7f3f 18e0 7f3f e30f 803f
00000020: 3520 803f feba 7f3f 9aa6 7f3f fdd5 7f3f
00000030: 6a1e 803f aaa3 7f3f 56f7 7f3f aff1 7f3f
00000040: 7ce2 7f3f 7dd9 7f3f af32 803f 7112 803f
00000050: a309 803f ae0e 803f dd23 803f 25fd 7f3f
00000060: 59c5 7f3f e233 803f 3215 803f 911f 803f
00000070: 7123 803f 2c06 803f 5e9a 7f3f a3dd 7f3f
00000080: 8ff4 7f3f e50e 803f ced6 7f3f d022 803f
00000090: 25d4 7f3f 0b31 803f ebc2 7f3f efed 7f3f
000000a0: 3ef4 7f3f 0ddb 7f3f 2133 803f 0019 803f
000000b0: 9519 803f cb47 803f d6ca 7f3f 4ccc 7f3f
000000c0: 8b01 803f 3616 803f 1e01 803f c920 803f
000000d0: da94 7f3f 2604 803f 5108 803f 5f10 803f
000000e0: 1fc7 7f3f 2f28 803f 521d 803f cce4 7f3f
000000f0: 8f2e 803f 0201 803f 872a 803f 310a 803f
1.0007172 0.9997332 0.9996509 0.9991852 1.0005205 0.9999222 0.99951315 1.0004848
1.0009829 0.998947 0.9986359 0.99935895 1.0009282 0.99859107 0.9998678 0.99978155
0.9995496 0.99941236 1.0015467 1.0005628 1.0002941 1.000448 1.0010945 0.9999564
0.99910504 1.0015833 1.0006468 1.0009633 1.0010816 1.0001884 0.9984492 0.99947566
0.9998254 1.0004545 0.9993714 1.0010624 0.9993308 1.0014967 0.99906796 0.9997243
0.9998206 0.9994362 1.0015603 1.0007629 1.0007807 1.002191 0.9991888 0.9992111
1.0000471 1.0006778 1.0000341 1.0010005 0.99836504 1.0001266 1.0002538 1.0004996
0.9991321 1.0012263 1.0008948 0.9995849 1.0014209 1.0000308 1.0012978 1.000311

layer3.1.bias f4 [64]
00000000: ce82 533a d282 0eba 5de2 02b7 8019 98ba
00000010: 1857 733a 9e31 dd39 9cb3 9bb9 d209 2a3a
00000020: 3de2 023a ef6c 91ba 324d b9ba 4454 86ba
00000030: 4f7f 7c3a b38f c6ba cf25 8cb9 b3c6 09ba
00000040: 6fcc ccb9 2921 31ba d131 b63a 051a 3b3a
00000050: e1e6 6839 8ec8 093a 0c13 b23a 2559 acb9
00000060: ec41 86ba 383c 9f3a eb42 253a 42fb 5d3a
00000070: 17a2 7d3a 1f7e 3739 d330 9aba 9313 56ba
00000080: 32e5 5d39 d0d4 e238 97cf 52b9 6fef a23a
00000090: 16e1 1cba 7280 c43a 3c6b 82ba 1be1 17ba
000000a0: eee9 c639 36e9 5bba 3a56 b93a aa9e 4f3a
000000b0: e804 753a 41d3 d33a c6ac 11ba 797c 05ba
000000c0: 31ab c439 ca90 6e3a 9aa9 90b9 9ae9 533a
000000d0: 2e83 b0ba b5b5 9a39 f4eb a637 d7a8 5639
000000e0: 53ea a3ba 58ec 963a ce7f a73a be87 90b9
000000f0: f0c0 b03a 5d86 26ba 0f68 833a d2e6 203a
0.00080685026 -0.0005436364 -7.801308e-06 -0.0011604279 0.00092826923 0.00042189372 -0.00029697723 0.00064864487
0.00049928186 -0.0011095087 -0.0014137386 -0.0010248502 0.00096320076 -0.0015149027 -0.0002673105 -0.0005255744
-0.00039062227 -0.00067569554 0.0013900344 0.0007137361 0.00022211253 0.000525602 0.0013585999 -0.00032872814
-0.0010243035 0.0012148684 0.0006304222 0.0008467921 0.00096753374 0.00017499224 -0.0011763818 -0.0008166369
0.00021161584 0.00010816159 -0.00020104494 0.0012430976 -0.0005984468 0.0014991893 -0.0009950171 -0.0005793736
0.00037939794 -0.0008388938 0.0014140077 0.0007920066 0.00093467394 0.0016160981 -0.0005557056 -0.0005092095
0.0003751158 0.0009100555 -0.00027592183 0.00080838206 -0.0013466829 0.0002950855 1.9898616e-05 0.00020471528
-0.0012505747 0.0011514528 0.0012779178 -0.00027566956 0.0013485234 -0.0006352419 0.0010025519 0.00061379105

layer3.1.running_mean f4 [64]
00000000: 3844 efbd cbc0 abbe 8f34 ef3e 298e 72be
00000010: 1a83 47bd 0851 623d f4a8 d6bd db4d 48be
00000020: 4f94 e83d 13fd 183e 0b6a ccbe c40e b2be
00000030: 4464 ebbe ea54 a43e f64d 94be 0eac 153f
00000040: b552 223e e287 20bc 8ae8 9abe fb8d a63e
00000050: 4ca3 47be 2d84 e63e 279a a9be 04ee acbd
00000060: cdd7 e7be d0a2 143f 7dab cfbd 6cda 143e
00000070: 9aa7 40bf 061a a5be a2a8 c13e 0b87 1bbf
00000080: fa25 153e 7abe a9be 4b33 dbbd 006c 033f
00000090: 2373 253e 7fd3 29bf e262 db3e 8ae8 303e
000000a0: 1bc6 babc ac85 2b3e 044b d6be acd9 da3e
000000b0: de94 83bd be96 6cbe a430 6d3e dd14 4bbe
000000c0: a825 143f 3461 94be 2b6b cfbe 8816 383e
000000d0: 1329 243f 8257 0dbe f50b a2bd 45c9 ae3e
000000e0: 0366 173c 4c5b 35bc 1a29 0dbf cfad bcbd
000000f0: a4fe 463d 3ddd 2bbe b7b6 b23e 9d98 cdbe
-0.116829336 -0.33545527 0.46719787 -0.23687042 -0.048709013 0.05525306 -0.10481444 -0.1956095
0.113564126 0.1494029 -0.39924654 -0.3477689 -0.45974934 0.32096034 -0.2896573 0.5846566
0.15851863 -0.009798022 -0.30255538 0.32530198 -0.19495887 0.45022717 -0.3312542 -0.084438354
-0.4528183 0.5806093 -0.10140131 0.14536446 -0.7525574 -0.32246417 0.3782397 -0.60752934
0.14565268 -0.33153135 -0.10703143 0.5133667 0.16157202 -0.6633834 0.4284888 0.17276207
-0.022799542 0.1675021 -0.41854107 0.42744195 -0.064248785 -0.23104379 0.23163086 -0.19832177
0.5786996 -0.2898041 -0.4051145 0.17977345 0.64125174 -0.13802913 -0.07912437 0.3413793
0.00924063 -0.01106913 -0.5514084 -0.09212839 0.048582688 -0.16783614 0.34905025 -0.40155497

layer3.1.running_var f4 [64]
00000000: 06b7 3a3e b2a3 3b3e 1996 283e 5dd3 103e
00000010: 9702 013e 1221 a83d 2697 573e b3c1 1b3e
00000020: 67dc 353e 8269 1d3e d0af 343e 0577 893e
00000030: a1ce 2b3e 1136 483e b2c5 fe3d 3e5d 733e
00000040: 6c00 793e ef1a c63d f8c4 293e 960e 403e
00000050: 944d ec3d 702a e33d 1fa2 173e 07ba 0a3e
00000060: 8297 f93d 84ce 3d3e 6c48 3a3e 7800 e13d
00000070: 880b 133e d23a b03e a7c6 1d3e 202b 173e
00000080: 7e57 083e 3e23 023e b304 353e 844d ea3d
00000090: 9bf8 de3d 0881 893e 5959 0f3e c6e5 2b3e
000000a0: c0f3 183e 7704 373e 9443 1d3e 196f ee3d
000000b0: be94 9f3d b7fd 3f3e 57d6 793e dfbb dc3d
000000c0: 056c 123e 1d25 2d3e 9f11 843e 78e7 f83d
000000d0: 986d de3d 8889 b43d 653e eb3d 299e 653e
000000e0: 35d3 2c3e a8d8 353e 709a 3a3e 3d37 383e
000000f0: 589b 553e 4e94 d53d f902 cf3d 3572 c33d
0.1823388 0.18324164 0.16463508 0.14143129 0.12598644 0.08209433 0.21053752 0.15210609
0.17759858 0.1537228 0.17645192 0.26848617 0.16778041 0.19551875 0.12440051 0.23766038
0.24316567 0.09673106 0.16579044 0.18755564 0.11538234 0.11092079 0.14807938 0.13547526
0.12187101 0.1853581 0.18191689 0.109864175 0.14359868 0.34419876 0.15407811 0.14762545
0.13314626 0.12708756 0.17677574 0.11440566 0.108872615 0.26856256 0.13998927 0.1678687
0.14936733 0.17872797 0.1535781 0.11642284 0.07792042 0.18749128 0.2439817 0.10778021
0.14299019 0.16908689 0.25794694 0.12153524 0.10860747 0.088152945 0.1148651 0.22423615
0.16877444 0.17758429 0.18222976 0.17989822 0.2086004 0.104286775 0.10107989 0.09543268

fc1.weight f4 [10, 576]
00000000: 5f57 d5bc 969b 1dbd 1bee ec3b 7f59 b13c
00000010: 085b eebc d9fe 3fbc 188c f4bc f514 12bd
00000020: f907 d8bc 1b03 80bc e0ac fdbc b925 b13c
00000030: f18c 033c e173 cfbc f023 ec3c acff 8a3c
00000040: bdbf 003d 52a1 49bc 9db1 adbb 78d2 cfbc
00000050: fdf0 9a3c 8adf 023d 443a aabc 06bc 21bd
00000060: 73e0 1dba 2900 6a3b 31c2 e3bc 3442 57bc
00000070: 85d8 7aba b11f d2bc e7f1 a13c 0e36 16bd
00000080: a13e 15bd a6c5 9c3c 9652 75bc 5e4c 463c
00000090: d23b 0a3d 2f9a 133d bea7 b8bc e98b 203b
000000a0: 6b3a 243d f95d c33c cdd9 24bd 862c 803b
000000b0: 87cb bb3c 5c62 f9bb 3a38 73bb 8061 073d
000000c0: 194a 78bc 2220 533c f1fd fbbc e4e2 14bd
000000d0: 1626 6e3c 48db 033c f6db 123d ed55 633c
000000e0: 9e74 753c b98d 063d 7ba6 f6bc 6432 25bd
000000f0: 36d1 8d3b 7227 01bb 8640 a33c 8134 2e3c
00000100: dbc2 a33c 7a14 9b3c 9f2f 7c3c 38fb bebc
00000110: 65fb e0bc 82da e93c 57cc 3ebc 2f30 c0ba
00000120: 56c7 75bc 8182 f23b a6c4 debc 74b8 17bd
00000130: 5278 cfbc 6566 913c c731 57bc f3ef 59bc
00000140: dbb2 d73c ea6e 103d aade 0c3c 7684 1b3d
00000150: 86ac 0dbc d1fc ddbb 8fa6 13bd d012 393c
00000160: a28f 19bd d092 1f3d f4b6 0ebd 54e6 dabc
00000170: 4686 2abc 4b0a e0bc 056a 66bc 2dcb fbbb
00000180: 3306 9dbc 9676 be3c f016 27bd 6797 213c
00000190: 3f79 e33c 7711 dabc 18ca 04bd 0f09 843c
000001a0: 2773 fa3c 99d1 243d 7957 f13c d0f4 4b3c
000001b0: f75c fb3c 5ca8 0abd 184e 1cbd 5489 07bd
000001c0: 22ac 0c3c 32a0 a73b 3c90 e3bb 422e f1bc
000001d0: 7158 bf3a 8041 0cbd f7ae f63c 94fd b3bb
000001e0: ed0d 12bd 8387 ea3c e768 b0bb 87f8 02bd
000001f0: 96d4 acbb 262e 18bd b7f0 a83c 2105 46bb
00000200: fb86 8fba 3bea 89bb 8824 963b d2a0 de3b
00000210: f67b 013d 9f6c 583c 7839 9dbc 35ed 0c3d
00000220: 7926 21bc 9e51 b43c 071d b2bc 7fef a53c
00000230: 4dd5 c33c 2526 e03c f913 793a a127 9cbb
00000240: 086f 8bbc c152 e83c 0e4e 123d d90c dcbc
00000250: f87d 0fbd 26db 21bd 5ec6 e5bc 1de0 a7bc
00000260: 124f 253d f658 8539 95d1 67bb 52e3 02bd
00000270: 777d 853c e0d2 89bc 84fd 643c 43ff 64bc
00000280: 50d0 ae3c 5eb8 fabc 3936 a1bc 22b2 933c
00000290: c1ac 57bc c5ca fbbb a351 31bc 11bf 103d
000002a0: aebd 0f3d 1d65 1bbd 2e8e 1cbd 0de8 0b3c
000002b0: c59c 6bbc 01a6 1fbc 3775 1dbd f3e8 11bd
000002c0: a0cb 6abc b02d e1bc 2744 a43a acf0 e43b
000002d0: bbe9 ddbc f204 12bd d792 553c 0c53 83ba
000002e0: d8b2 b23c 97c2 ffbc 7661 1e3c 2666 703c
000002f0: 0dc4 d23c 605c babc e52b b1bb bad4 febc
00000300: a5c0 a4ba d7c9 aebc 56f4 e8bc 2e57 013d
00000310: 3819 a63b bd72 963c 79d6 2fbc 30b1 033d
00000320: 4670 ccbc b828 803b 9f1b c83c baf3 263c
00000330: 6d6b e33c ef0b 043d 24ef b33c c80e 0ebd
00000340: dd77 023c 80f7 07bd 034e 05bc b488 333b
00000350: 3c97 2b3d 4551 d83b ab56 9d3c d327 8b3c
00000360: dccf e63b 016b 3b3c 4d59 d33c d86f 0dbd
00000370: 974e 53bb dd66 cbbc 6e2d d4bc f387 293d
00000380: df9c f4ba 09a9 dfbc b4aa d2bc f934 b1bc
00000390: 8c72 043d da3e df3c b036 9dbc 9a8f 603c
000003a0: 7b6c c4bc 840c 5c3c b3ed 1a3a 2fef a93c
000003b0: 465c 8039 16a3 cf3c 97c1 b9bc 689c 8e3c
000003c0: 99cc 0a3c ef6a b3bb 46ed 26bd ff02 b2bb
000003d0: 5ff1 06bd 58a5 803c fa98 e7bb c9b1 023d
000003e0: c04c 1bbd 2af0 cb3c 42b9 a3bc 8e73 0ebd
000003f0: 8a82 0cbd 4b56 0e3d 57c0 f4bc 1a24 a63c
-0.026042638 -0.038478456 0.007230533 0.02164912 -0.029096141 -0.011718475 -0.029851958 -0.035664517
-0.02637099 -0.01562648 -0.030966222 0.021624433 0.0080292085 -0.02532381 0.02882573 0.016967617
0.031432856 -0.012306528 -0.005300714 -0.025368914 0.01891374 0.031951465 -0.020779736 -0.039485954
-0.000602252 0.0035705662 -0.027802559 -0.013138343 -0.0009569007 -0.025649877 0.019768668 -0.036672644
-0.03643668 0.019137215 -0.014973303 0.012103168 0.033748455 0.036035713 -0.022540923 0.0024497455
0.040094774 0.02384852 -0.040246774 0.0039115576 0.022924198 -0.0076106023 -0.003711237 0.033051968
-0.015154385 0.012886079 -0.030760737 -0.036349192 0.014535448 0.008047886 0.035854302 0.013875467
0.014981417 0.03285 -0.030108681 -0.04033126 0.0043279184 -0.001970735 0.019928228 0.010632635
0.019990375 0.018930662 0.015392213 -0.02331315 -0.027463624 0.028546575 -0.011645398 -0.0014662797
-0.015001139 0.007400811 -0.027193379 -0.037041143 -0.025325928 0.01774902 -0.013134426 -0.013301837
0.026330402 0.035262026 0.008598009 0.03796812 -0.00864709 -0.006774523 -0.036047515 0.011295989
-0.037490495 0.03895837 -0.034842446 -0.026721157 -0.01040799 -0.027348658 -0.014063363 -0.0076841325
-0.019167995 0.023249906 -0.04079336 0.009862757 0.027767776 -0.026619656 -0.032419294 0.0161176
0.030572487 0.04023895 0.029460656 0.012448505 0.030683978 -0.033851966 -0.038160414 -0.03308995
0.008585962 0.0051155323 -0.0069446843 -0.029441003 0.0014598501 -0.034242153 0.030112727 -0.0054928754
-0.035657812 0.02862907 -0.005383599 -0.031975295 -0.0052743657 -0.037153386 0.020622594 -0.003021546
-0.0010950261 -0.0042088307 0.0045819916 0.0067940736 0.03161236 0.013209491 -0.019192442 0.034405906
-0.009835833 0.022011574 -0.021742357 0.020255802 0.02390542 0.027361939 0.00095015723 -0.0047654663
-0.017020717 0.028359773 0.03571897 -0.026861595 -0.035032243 -0.039515637 -0.02804869 -0.020492608
0.04035861 0.00025434018 -0.0035372723 -0.03195507 0.016295178 -0.016824186 0.013976458 -0.013976875
0.021339566 -0.030605491 -0.019679176 0.018029276 -0.013163746 -0.007684084 -0.010822686 0.035338465
0.035093002 -0.037938226 -0.03822153 0.008539212 -0.0143806385 -0.009744168 -0.038441863 -0.03562255
-0.014330775 -0.027487606 0.0012532518 0.006986698 -0.02708899 -0.035649247 0.013035498 -0.0010019257
0.021813795 -0.031220717 0.009666791 0.014672792 0.02572825 -0.022749126 -0.005406844 -0.031107295
-0.001256962 -0.02133648 -0.028436821 0.03157728 0.0050689243 0.018365258 -0.010732287 0.0321514
-0.02495588 0.003911104 0.024427233 0.010189945 0.027761186 0.032237943 0.021964617 -0.034682065
0.007963148 -0.03319502 -0.008136275 0.0027394714 0.041892275 0.006601485 0.019206366 0.016986763
0.0070438217 0.011439086 0.025799418 -0.03453049 -0.0032242888 -0.024829322 -0.025900569 0.041389417
-0.0018662474 -0.027302282 -0.025716163 -0.021631705 0.032335803 0.02725165 -0.019191116 0.013706112
-0.023977509 0.013430718 0.0005910054 0.020743934 0.00024482812 0.02534632 -0.022675319 0.017408565
0.008471631 -0.005475394 -0.040753625 -0.005432486 -0.032945033 0.015703842 -0.007067797 0.03190783
-0.03791499 0.024894793 -0.019985799 -0.03477817 -0.03430418 0.034750264 -0.029876871 0.020280886

fc1.bias f4 [10]
00000000: 4b38 fabc a762 1cbc 2265 25bc a1a8 4bbc
00000010: 4884 f4bc e0ea 8ebc 7ef3 133d eb82 76bc
00000020: ce1b 0bbd 3186 bebc
-0.03054442 -0.009545005 -0.010094913 -0.012430341 -0.029848233 -0.017445982 0.036120884 -0.015045862
-0.033962063 -0.023257347

fc2.weight f4 [2, 10]
00000000: 49b2 83be 95b1 593e 2e41 0ebe bd34 36be
00000010: 8d56 873e 6155 963d 9b11 fd3b b1b3 53be
00000020: 4d38 5cbe 910b 8fbe eabb 49be 753a 6e3e
00000030: c676 06be 468e 983e ac86 c7bd 6ea5 33be
00000040: a81b 7dbe 4847 3f3e 0a5d e5bd a47f 7dbd
-0.25721958 0.21259148 -0.13892052 -0.17793556 0.2643322 0.073405035 0.007723046 -0.20674016
-0.21505852 -0.27938512 -0.1970059 0.23264487 -0.13131246 0.29796046 -0.097424835 -0.17543575
-0.24717581 0.18679535 -0.111993864 -0.061889306

fc2.bias f4 [2]
00000000: 4dd2 b43d f14d 53be
0.08829174 -0.20635201

exp_avg f4 [16, 3, 3, 3]
00000000: 3b5b 8339 26a6 933a 8c4a 393b f6a0 a7b9
00000010: b18b 6a3a 4f28 153b ddeb 06ba f14c 8f3a
00000020: 2f5e f63a b0db b3ba 834f 08ba 70b7 9a3a
00000030: dc04 15bb 3510 90ba feb5 ad39 0e83 3abb
00000040: 979b 9fba e1a8 c6b9 1296 38bb edae 0cbb
00000050: 4927 86b9 9c66 6fbb 20e6 28bb 6253 73ba
00000060: 317c 83bb 4771 24bb 990c bfba 8588 173c
00000070: 1db7 e23b f8a2 bc3b bc1e 2a3c 0256 043c
00000080: a65d eb3b ace1 1d3c 8f54 e83b 5cc9 ec3b
00000090: 4fd3 603b 6562 a93a d815 f238 967a 9a3b
000000a0: e597 283b 5a4f fe3a f344 793b bb06 d53a
000000b0: ce64 e93a 303c 503c 6f7e 183c 60c1 de3b
000000c0: 84a8 633c ad67 2c3c 474b 0b3c bfc0 583c
000000d0: 94ae 1d3c a249 0b3c 2962 45bc 5a65 e0bb
000000e0: ed4d 513b d865 3fbc c96f 0cbc fae8 a2ba
000000f0: e022 2ebc 7a21 16bc b255 19bb e1f3 dabb
00000100: 153f eaba f28c 083c f6c8 bebb 0484 3ebb
00000110: a32d 903b c697 9abb 63e5 4cbb 4d0b 4c3b
00000120: 97cd 9fbc 42af 83bc 6c3a c4bb a2f1 9ebc
00000130: 1cf4 8bbc cb0a 0bbc 1f52 97bc fb54 8abc
00000140: d334 0cbc 2d03 95bb 7b6f 78bb 304d 3cbb
00000150: d8a9 9dbb e151 6abb de5b 32bb e90f 9abb
00000160: 8d07 63bb c32d 1dbb 3fdb 1fbb def1 faba
00000170: 5459 94ba 2779 3bbb d475 f0ba 93e0 9bba
00000180: 3fab 3dbb 42e1 f7ba b933 7bba 8042 1dbb
00000190: 06ca ecba af57 82ba 2bfc 34bb e6a9 e0ba
000001a0: c264 8dba d64e 37bb 0622 f2ba 659e 75ba
000001b0: f4cb 6e3b af8b 843b 6d8f 993b d4c5 063b
000001c0: c7b1 143b 7619 523b 2517 223b 2e5e 343b
000001d0: 0009 573b 9e49 663b 5156 7f3b 53a7 993b
000001e0: 06c0 063b ea02 0c3b d303 503b 0110 0f3b
000001f0: 4f7f 143b 33e7 3d3b 6b35 9f3b ffb3 ae3b
00000200: dc50 ce3b c72e 6a3b f997 6f3b b534 a03b
00000210: 8a69 853b 298d 813b 0732 9c3b 00a4 683a
00000220: 0496 cf3a 564d 8d3a 9161 a63a 7d29 1c3b
00000230: af6f 0d3b db40 af3a 335c 273b 4c35 293b
00000240: dd7e b2ba ec8d 34ba 3296 9cba f414 85ba
00000250: fdb5 2139 8f3b 80b8 607c 70ba 7518 c839
00000260: 5363 bb39 9e1f 573a 275c cf3a 4f9c 8e3a
00000270: d2ad 7d3a 94c6 0e3b 2355 043b b239 773a
00000280: aadd 133b 78ae 133b d8a8 1d3a 4f5f 433a
00000290: e7d1 ac3a 7d15 4939 74d0 db39 6ffb a83a
000002a0: 3b97 1db9 56a9 cf39 15f0 b33a 2d9b 54b9
000002b0: 9ecb 5cb9 c093 c139 f613 22ba 3f40 d3b9
000002c0: 764b 013a 632b 63ba 016e b7b9 5b12 2f3a
000002d0: b974 93ba 5b2a 77ba 3ff2 57b9 958b d5ba
000002e0: ae65 aeba f9a9 94b9 0a2d 0dbb 129f cfba
000002f0: 30ca 9bb9 ea0c b9ba 89fb 9ebb df88 1dbc
00000300: 610d d0ba 1616 e2bb 14b4 3bbc 0911 71bb
00000310: 553a 14bc b3f3 4dbc 3e22 1abc f98a 55bc
00000320: a857 92bc 0de7 17bc 7116 71bc 7445 9fbc
00000330: b128 31bc b462 87bc 4aef a5bc 9fb8 133a
00000340: a2e3 40bb e1c6 00bc b8aa fc39 066e 9ebb
00000350: e304 1cbc 436e 6dba 8c86 cdbb c1ae 27bc
00000360: 3f97 0f3c 3de1 023c 827f a83b a95d 463c
00000370: 70ac 303c 3580 eb3b ed03 633c 75ca 463c
00000380: e6e4 063c d452 cb3b f114 c43b ef89 723b
00000390: 0af4 123c 296f 063c bf21 a53b d63c 2c3c
000003a0: 2a8d 183c 9681 b53b f0eb 103c 880d 1a3c
000003b0: 5b34 f13b e1cc 5a3c 6096 573c 0130 263c
000003c0: add9 7b3c 02f6 733c 0cf5 3b3c bee1 32bc
000003d0: 8a45 44bc dc5b 55bc b4b5 3bbc 2a26 44bc
000003e0: a728 53bc 9866 32bc 2fae 2fbc 3e70 30bc
000003f0: f830 70bc de3b 77bc 2c19 81bc ca5f 7bbc
0.0002505424 0.0011264726 0.0028273193 -0.00031972647 0.0008947207 0.0022759621 -0.00051468407 0.0010932965
0.001879638 -0.0013722088 -0.00051998365 0.0011803936 -0.0022738492 -0.0010991158 0.00033132726 -0.0028459462
-0.0012177107 -0.00037891328 -0.002816562 -0.0021466569 -0.0002558774 -0.0036529666 -0.002577193 -0.00092821394
-0.0040126075 -0.0025091933 -0.0014575898 0.009248857 0.0069188015 0.005756732 0.010383304 0.0080771465
0.0071827946 0.009636324 0.0070901583 0.0072261523 0.0034305637 0.0012923001 0.00011543528 0.0047143204
0.0025725302 0.0019402311 0.0038035482 0.0016252616 0.0017806531 0.012709662 0.009307488 0.0067979544
0.013895158 0.010522765 0.008501834 0.013229548 0.009624142 0.008501442 -0.012047329 -0.0068480195
0.0031937317 -0.011681996 -0.0085715735 -0.0012429052 -0.010628432 -0.009163255 -0.0023397026 -0.0066819047
-0.0017871583 0.008334385 -0.0058222963 -0.0029070387 0.0043999716 -0.0047178 -0.0031264655 0.0031134665
-0.019507213 -0.01607478 -0.0059884097 -0.019402329 -0.017084174 -0.00848646 -0.018471776 -0.016886225
-0.008557516 -0.0045474977 -0.0037908244 -0.002873253 -0.0048115067 -0.003575437 -0.0027215402 -0.0047016037
-0.0034641952 -0.0023983575 -0.0024392155 -0.0019145568 -0.0011318126 -0.0028606148 -0.0018345662 -0.001189249
-0.0028941182 -0.0018911737 -0.00095825974 -0.0023995936 -0.0018065579 -0.0009944345 -0.0027616124 -0.0017140477
-0.0010787474 -0.0027970574 -0.0018473275 -0.0009369611 0.0036437484 0.004044972 0.004686287 0.0020564692
0.0022688971 0.0032058633 0.0024733033 0.0027521956 0.003281176 0.0035139094 0.003896136 0.004689136
0.0020561232 0.0021364042 0.003174056 0.0021829607 0.002265889 0.0028976917 0.004858663 0.005331516
0.0062962603 0.0035733448 0.0036559089 0.0048890957 0.004071419 0.003953595 0.004766706 0.00088745356
0.0015837555 0.0010780494 0.0012693872 0.002382844 0.0021581461 0.0013370769 0.0025537133 0.002581912
-0.001361813 -0.0006887603 -0.0011946617 -0.0010153339 0.00015421952 -6.114609e-05 -0.0009173807 0.00038165195
0.00035741422 0.00082063104 0.001582031 0.0010880324 0.00096770853 0.0021785842 0.0020192347 0.00094308995
0.0022562542 0.0022534411 0.00060142344 0.0007452862 0.0013185114 0.00019176859 0.00041926245 0.0012892316
-0.00015029025 0.00039608282 0.0013728166 -0.00020275703 -0.00021056688 0.0003692191 -0.0006182784 -0.00040292923
0.0004932204 -0.0008665828 -0.0003498644 0.00066784554 -0.0011249996 -0.00094286137 -0.00020594242 -0.0016292209
-0.0013305449 -0.000283554 -0.0021541738 -0.0015840253 -0.00029714545 -0.0014118229 -0.0048517627 -0.009615152
-0.0015873128 -0.0068996055 -0.011456508 -0.0036783835 -0.009047111 -0.012570309 -0.009407578 -0.013033622
-0.017864063 -0.009271395 -0.014714823 -0.019442298 -0.010812924 -0.016526558 -0.020255703 0.00056351157
-0.0029432555 -0.007859916 0.0004819238 -0.004834893 -0.009522649 -0.0009057263 -0.0062721428 -0.010234536
0.008764087 0.007988271 0.0051421532 0.012107291 0.0107833 0.0071869143 0.013855916 0.01213323
0.008233285 0.0062049422 0.0059839417 0.0037008484 0.008969316 0.008205214 0.0050394232 0.010512551
0.009311 0.0055391295 0.008845314 0.00940264 0.0073609776 0.013354511 0.013158411 0.010143281
0.015371722 0.014890196 0.011471998 -0.010918079 -0.01197947 -0.013022389 -0.011456896 -0.01197199
-0.01288811 -0.010888718 -0.010722681 -0.010768948 -0.014660113 -0.015089957 -0.015759073 -0.015342662
