Lab5/model_10_0.001.pth (torch, 378966 bytes, 54 tensors)

layer1.0.weight f4 [16, 3, 3, 3]
000000 37 14 e8 3d f1 89 2a be 7d 91 6b bd f8 c5 10 bd
       0.11331981 -0.16654183 -0.057511795 -0.035345048
000010 b3 77 0e be 1b 66 09 3e 8f 68 ab 3d 88 79 33 be
       -0.13912849 0.13417856 0.08369552 -0.17526829
000020 a6 09 11 3e 95 4b 9e bd bc c7 52 3d 74 dd 09 3c
       0.14163837 -0.0772926 0.051460013 0.008414615
000030 e7 d3 3f 3e 86 cb 59 3e 78 8c f2 3d 3c 27 8c bd
       0.18733178 0.21269044 0.118431985 -0.06843421
000040 a6 2d 45 3e 9c 59 88 3e 66 56 3d bd 3e b2 41 3e
       0.19255695 0.26630867 -0.046224974 0.1891565
000050 c7 8f d4 3d 0e f7 36 3e c6 cc 16 3d d9 54 d8 bd
       0.10378986 0.17867681 0.03681638 -0.105630584
000060 9e d5 31 be f9 7d 04 3e 0f ae 6d bd 84 78 1e 3e
       -0.17366645 0.1293868 -0.058027323 0.1547566
000070 f3 5e de bd c1 94 a8 bd ab 74 06 be da 26 6a bd
       -0.10857954 -0.082314976 -0.13130443 -0.057165958
000080 3a c0 80 bd a7 d0 5b bc 16 09 48 bd 49 4f 41 be
       -0.06286664 -0.013416446 -0.04883679 -0.18877901
000090 3b 31 92 3d eb b9 85 3d 36 65 dc bb 24 ca ed 3d
       0.07138296 0.06529602 -0.0067259325 0.11610821
0000a0 3b c5 32 3e a6 02 70 bd 5e fd 05 3e 86 50 b8 bc
       0.1745805 -0.058596276 0.13084933 -0.022499334
0000b0 d6 6b b6 3d 69 1e 19 bd 42 c7 c6 bb 9a db bb bd
       0.08907287 -0.037382517 -0.006066234 -0.09172745
0000c0 64 a3 04 be 3e ac 45 bc 0b 64 32 3e 8c 63 c0 bd
       -0.12952954 -0.0120649915 0.17420976 -0.09393987
0000d0 d5 a9 e2 bc 24 fe 02 3e a2 7d 22 be 1f 55 42 be
       -0.027668873 0.1279226 -0.15868238 -0.18977784
0000e0 92 e0 3b be 6a f1 e4 bb 97 b7 8e 3d 24 78 4e be
       -0.18347386 -0.0069867866 0.06968611 -0.20163018
0000f0 29 3b 41 bd 3a 06 59 be 1a c2 e1 bc a9 f9 24 bd
       -0.04717556 -0.21193781 -0.027558375 -0.040277157
000100 f5 99 ed 3d ff 6c df 3b 60 ee 17 be 5f 8a 8b 3d
       0.116016306 0.0068184133 -0.14837027 0.068135016
000110 3d e3 67 bd d2 b6 31 3d 13 0e ae 3c 92 be 3a be
       -0.056613196 0.04338724 0.021246945 -0.1823676
000120 80 66 1a be 50 ad 12 3e 52 d3 42 3c 9f 83 a8 3c
       -0.15078163 0.14323926 0.011891203 0.020570574
000130 db 28 bb 3c bd 46 5a bd fa c2 af bd 9e 0e 2c 3d
       0.02284663 -0.053290118 -0.08582111 0.042006128
000140 58 78 6f 3d 21 b1 e5 bc b5 4d 83 be 09 a7 b0 3d
       0.058464378 -0.028038563 -0.25645223 0.086256094
000150 6f 85 57 be 11 d7 13 bd 04 87 b2 3c f6 4b c6 bc
       -0.21046995 -0.036093775 0.021792896 -0.024206143
000160 c8 fe ea bd 81 b9 61 be 6a 2f 7f be e6 76 3e be
       -0.11474377 -0.2204342 -0.24920431 -0.18600044
000170 0f bd ee bd 16 57 38 bd 80 25 a9 3d 0e 04 12 3c
       -0.11657154 -0.045004927 0.08259106 0.0089120995
000180 93 0a 12 bd 17 92 3a be f8 0b ed bd 8a 69 57 bd
       -0.035654616 -0.18219791 -0.115745485 -0.052590884
000190 ff 68 39 3e 5b b4 00 3e f3 d7 09 bd c1 43 c4 bd
       0.18106459 0.125688 -0.03365321 -0.095832355
0001a0 aa b3 b1 3d d5 52 14 3e 6b c6 60 bc da fb f2 bd
       0.08676846 0.14484723 -0.0137191815 -0.11864443
0001b0 50 9f e8 3d 65 44 15 be 9e 9f 5d be 14 13 6c 3d
       0.113585114 -0.14576872 -0.2164292 0.05763538
0001c0 55 33 01 3c 48 94 e1 3c c8 43 92 bd 24 48 0d 3e
       0.007885774 0.027536526 -0.071418345 0.1379705
0001d0 5b f9 38 3d c4 7c c7 bd 05 66 d9 bd 16 12 46 3d
       0.04515968 -0.09740594 -0.10615162 0.04835709
0001e0 08 a2 d4 bd 60 d4 cd 3d 47 66 59 be 48 cc 67 bd
       -0.103824675 0.10050273 -0.21230422 -0.056591302
0001f0 f5 87 58 3b e1 b4 40 3d 92 f0 89 bd 79 97 27 3e
       0.003304002 0.0470475 -0.06735338 0.16366376
000200 c6 2a d2 bd f4 70 ce 38 d2 25 ee bd b0 07 65 3c
       -0.10262065 9.8438846e-05 -0.116283074 0.013978884
000210 cf f0 bf 3c 4d 71 f9 bd a7 ff 2d be e5 da cb bd
       0.023430256 -0.121798135 -0.16992055 -0.0995386
000220 0a 58 a6 3d b0 9f 5d bd 5b 4f f4 3d 09 ed 6b 3d
       0.08122261 -0.054107368 0.11929198 0.0575991
000230 91 df 63 bd 44 5d 8f 3d af bd 9c 3b 83 20 70 bd
       -0.05563313 0.07000211 0.0047833542 -0.058624756
000240 f3 5e 62 bd dc 6b 9a 3d 14 ae 5c be da ee 3a be
       -0.055266332 0.07540104 -0.2155078 -0.18255177
000250 84 bd 56 3d 3f 49 8c 3d 2a 0b 78 be 1f 69 d5 bd
       0.05242683 0.06849908 -0.24223009 -0.10420441
000260 0a e4 b5 3d 08 7f 2c 3e 5a 27 07 bd 6a 02 8d 3e
       0.088813856 0.16845334 -0.032996513 0.27540904
000270 9d 55 80 39 64 f6 db 3c 5b 4e fe 3d cb fc e3 3d
       0.0002447785 0.026850887 0.12417289 0.11132201
000280 88 cd 92 3e f2 4c 31 3d 86 ac 52 be 42 fb 72 3d
       0.28672433 0.04328627 -0.20573625 0.05932165
000290 2a f4 dc bd 87 50 ac ba c9 90 77 3b 91 2b 56 bd
       -0.10788758 -0.0013146558 0.0037775508 -0.052287642
0002a0 a6 b5 4e bd 78 6c e0 bd a2 b4 06 bc 68 06 4c be
       -0.050466202 -0.10958189 -0.008221777 -0.19924319
0002b0 3f 16 2e be f5 cd 54 be 9b 84 4d 3d 47 28 3b 3e
       -0.17000674 -0.20781691 0.05017529 0.18277083
0002c0 3d 81 f4 bd 00 97 7f bd fd a6 78 be 48 e0 da 3b
       -0.11938713 -0.062399864 -0.24282451 0.0066795684
0002d0 8e 18 08 be 6c 80 56 3e d5 36 33 bd c8 4a c3 bd
       -0.13290617 0.20947427 -0.043753464 -0.09535748
0002e0 9c 81 8f 3c 3a dc 87 bc 45 e1 9d 3d 74 0c 37 be
       0.017517857 -0.016584504 0.077089824 -0.17875844
0002f0 ef 6a bb 3d 0e f5 2b bd 24 7a 18 3e ca f4 ce bd
       0.09151255 -0.04198175 0.14890343 -0.101052836
000300 8d fb 47 3e 22 b5 be bd 20 6b 33 be 62 70 3d 3e
       0.19529553 -0.09311892 -0.17521334 0.18499902
000310 8a 9b e6 bb 76 82 b9 3d 60 25 15 be ca 25 66 be
       -0.0070375847 0.090580866 -0.14565039 -0.22475353
000320 54 2f 46 be 24 ba 92 bd 55 31 1a 3d 63 29 da bb
       -0.19353992 -0.0716441 0.037644703 -0.0066577657
000330 cc ca a2 bd 32 9a 5f bd d3 93 bc 3c 27 6a ed 3d
       -0.07948837 -0.05459041 0.023019707 0.115925126
000340 2b 12 e9 3d fd b8 9e bd 25 f6 1c 3e ee 22 d4 3d
       0.113804184 -0.077501275 0.15328272 0.10358225
000350 4d ca 9d bc 15 d7 40 be fc 0a 9a 3d 4b 9a 85 bc
       -0.019261504 -0.18832047 0.07521626 -0.016308924
000360 4d cd f5 bd 77 54 f2 bd 8a d2 e1 bd d0 69 9a 3d
       -0.12002049 -0.11832517 -0.11026485 0.075397134
000370 31 34 35 be f7 f0 3c bd d0 0a ca 3d 9f 44 16 3d
       -0.1769569 -0.04612824 0.098653436 0.036686536
000380 ff d5 6f be a6 85 1a be 9a 0a 53 bd 2d 4f c9 bb
       -0.23421477 -0.15090045 -0.051523782 -0.0061434717
000390 84 62 25 be eb 75 42 3c 88 47 bf 3d 16 ce 9a be
       -0.16150862 0.011868934 0.093398154 -0.30235356
0003a0 b0 e4 ef bd 18 b1 19 be 81 11 52 bc 90 31 ed bb
       -0.117135406 -0.15008962 -0.012821556 -0.0072385743
0003b0 96 84 bf bd 78 1c 4b 3d c9 bd 25 3e 96 ae 86 3d
       -0.09351461 0.049587697 0.16185679 0.065762684
0003c0 f3 de f4 3c a4 9c e8 3d 6c 7e 1d be 4e 76 01 3e
       0.029891467 0.11358002 -0.15380257 0.12642786
0003d0 56 56 b5 bd 51 e9 74 bc 85 0d b6 bd 09 5f 08 3e
       -0.08854358 -0.014948205 -0.088892974 0.13317503
0003e0 8f 03 fd 3d 5a 5b 3f be 66 6b 09 3c 42 83 c8 bd
       0.123541944 -0.18687192 0.008387422 -0.097906604
0003f0 51 7d 03 3d 33 d0 5d 3d 79 32 21 3e 55 42 e5 bd
       0.032101933 0.054153632 0.1574191 -0.111942925

layer1.0.bias f4 [16]
000000 67 d0 14 bd dc f2 da 38 d1 19 d0 3c 0d 71 e1 3d
       -0.03633156 0.00010440286 0.025402935 0.11007891
000010 0b cb ee bd ed 69 79 bd bc e0 03 be 4f cd e6 3d
       -0.11659821 -0.060892034 -0.12878698 0.11269628
000020 cd 89 cf bd e6 9e aa 3d 82 ae 55 3d 2a a1 a8 bd
       -0.10133705 0.08331089 0.052168377 -0.082338646
000030 f1 05 0f be a1 87 b6 bd 91 50 ef 3d f8 b9 2a be
       -0.1396711 -0.08912588 0.11685289 -0.16672504

layer1.1.weight f4 [16]
000000 7e d8 6f 3f 9b 53 81 3f 0e 74 81 3f 3a c7 74 3f
       0.93689716 1.0103639 1.0113542 0.95616496
000010 ca 0b 5b 3f 34 21 81 3f 63 0c 6f 3f f4 ba 7e 3f
       0.85564864 1.0088258 0.93378276 0.9950402
000020 89 f9 7b 3f 63 84 6b 3f 1e 6d 66 3f c8 3e 69 3f
       0.98427635 0.9199888 0.9001025 0.9111142
000030 9e 08 8d 3f b3 3f 81 3f c5 48 80 3f 7c 2e 89 3f
       1.1018255 1.0097564 1.0022207 1.0717311

layer1.1.bias f4 [16]
000000 5d e3 b0 bd f1 00 bd 3c d5 a6 b8 bd 5f 89 20 be
       -0.08637116 0.023071738 -0.09016196 -0.15677403
000010 85 6c f4 bd 38 8e 76 bc 9d a6 16 be 4d 34 92 3d
       -0.11934761 -0.015048556 -0.14711995 0.07138882
000020 96 08 02 be 59 b7 86 bc 28 3e f2 bd 02 65 37 bd
       -0.12698588 -0.016444849 -0.118282616 -0.044774063
000030 e7 30 33 bd 9e b6 71 bd 45 3c 0a bd b0 d2 84 3d
       -0.04374781 -0.059012048 -0.033748884 0.06485498

layer1.1.running_mean f4 [16]
000000 02 53 e8 3e 15 14 55 bd e3 8b 13 bf d6 97 24 bf
       0.4537583 -0.052021105 -0.57635325 -0.64294183
000010 ed 51 f4 be 5f 60 e6 3d ea 13 4b bf e8 27 dc bc
       -0.47718754 0.1124885 -0.7932726 -0.026874498
000020 5d 3f 47 bf b6 af d9 bd f2 ec e2 be 31 23 d2 3d
       -0.7783106 -0.10629217 -0.443214 0.102606185
000030 b7 6e f9 bd c0 f8 6e 3e 5a e5 d5 3e c1 98 56 be
       -0.1217932 0.23337078 0.41776544 -0.20956708

layer1.1.running_var f4 [16]
000000 ee 6c 8a 3d 5d c3 68 3b 0d 75 a5 3d 57 d6 fb 3d
       0.06759058 0.0035516836 0.08078966 0.122967415
000010 96 0e 21 3d 70 cf fd 3c 5d d7 d2 3d e2 8c d1 3b
       0.03932055 0.030982703 0.102949835 0.0063949684
000020 6b 51 cd 3d 1a e7 52 3c cb 69 97 3d e0 44 13 3c
       0.10025295 0.012872482 0.07393225 0.008988589
000030 cd 18 c9 3a 4b 11 de 3c de 55 09 3d 62 7e 21 3b
       0.0015342474 0.027107855 0.033529155 0.002464198

layer2.0.weight f4 [32, 16, 3, 3]
000000 9d a8 c9 3c 6d 7c b5 bc 78 4e 71 bd 81 a2 09 3c
       0.024616534 -0.022154057 -0.058912724 0.00840056
000010 15 9a 38 bd 82 01 05 bd 85 06 a0 bd 12 40 a7 bd
       -0.04506882 -0.03247214 -0.078137435 -0.08166517
000020 8f e9 89 3c 3b 27 58 bd 4b b5 f2 bd ec b1 3d bd
       0.016835002 -0.052771788 -0.11850985 -0.046312258
000030 ee ec f1 bd d7 60 0d be e0 15 87 bd e1 31 f4 bb
       -0.11812769 -0.13806473 -0.06595969 -0.007452235
000040 f3 7a 01 bd 5c f7 d3 bd db f3 94 3c cb cb 46 3c
       -0.031611394 -0.103499144 0.018182686 0.012133549
000050 0b c5 89 bd ae 8c d5 3d ed 59 80 bd 96 48 76 3d
       -0.06727036 0.10427223 -0.06267152 0.060127817
000060 94 ba e5 3d ff 36 e0 3b d8 b3 f4 3b da 23 d8 3c
       0.112172276 0.0068424935 0.007467728 0.026384283
000070 48 66 19 3d 39 f3 38 bc b0 03 af 3d 49 ed 1e 3d
       0.03745106 -0.011288458 0.08545625 0.03880051
000080 68 0e 21 bc fd aa 7a 3d a6 0e 55 bc 01 21 c1 3b
       -0.009830095 0.061198223 -0.013003981 0.005893827
000090 cc d0 f1 bb aa 73 86 bd 83 ed 73 3d be e1 99 bd
       -0.007379627 -0.0656503 0.05955268 -0.0751376
0000a0 8f ec ab 3c 7c f6 9a 3c db ee 9d 3c 51 f9 25 bd
       0.020986823 0.018916361 0.019278934 -0.04052097
0000b0 51 c8 ce 3b 24 77 d3 3c b1 84 7a 3c f6 2c 19 bc
       0.0063105007 0.025813647 0.015290425 -0.009349098
0000c0 3b ff d0 bd c0 f9 6f bd dd 84 85 bd cf 4a b4 bc
       -0.10204931 -0.05858779 -0.06519482 -0.022008328
0000d0 3a b9 18 bc e9 6a a4 bd af 04 5c 3b 7b ac 4a bc
       -0.009321505 -0.08028204 0.0033572128 -0.012370224
0000e0 a5 b7 a1 3a b6 b2 c8 3d 3b 37 13 3d 64 d3 c2 3d
       0.0012338056 0.097997114 0.035941344 0.09512976
0000f0 cc 84 ca 3d 16 80 1b 3c cb 03 84 3c 34 d6 93 3d
       0.0988861 0.009490987 0.01611509 0.072185904
000100 98 81 ac 3d 96 5e 9e 3c a8 6b be 3c 7a c8 f4 3d
       0.084231555 0.019332211 0.023244694 0.119523
000110 cd bf ae 3d aa 43 fd 3d e5 51 f4 3d 0a 63 e3 3d
       0.08532677 0.123664215 0.11929683 0.111028746
000120 71 c9 4e 3d 49 81 02 bd 54 bb c6 3d ab e1 0a bc
       0.05048508 -0.031861577 0.09703699 -0.008476655
000130 7e a6 a7 bc 9c b1 29 3d 60 be b5 bb f6 e2 01 bc
       -0.020465132 0.041429147 -0.005546376 -0.007927647
000140 03 8a f9 3c c2 8f 8a bd c2 d6 73 bd d7 a2 bf bd
       0.030461317 -0.06765701 -0.05953098 -0.09357231
000150 1d eb 95 3c 5f 55 6d bd 34 99 f6 bb 57 bd e1 3a
       0.018300587 -0.057942744 -0.0075255875 0.0017222565
000160 78 f9 39 3d 43 26 df 3b 80 7e 5f bd b2 e0 e2 bc
       0.045403928 0.006809981 -0.054564 -0.027695034
000170 5f 15 0f bd 28 e3 12 3d 80 57 02 bb be 04 68 bc
       -0.03493249 0.035861164 -0.001988858 -0.014161287
000180 18 b7 c7 3d 41 08 9d 3d 16 a3 c4 bc fc 9e e2 bc
       0.09751719 0.0766759 -0.024003547 -0.0276637
000190 05 b5 0c bc a6 d9 95 3d c4 11 07 3c af ca 3f 3d
       -0.00858808 0.07316904 0.008243982 0.046824154
0001a0 10 d0 e6 bc d0 f4 0f bd 27 89 eb bd 73 46 20 3d
       -0.028175384 -0.03514558 -0.11500769 0.039129686
0001b0 8a e7 7a 3d f4 d3 d8 3c eb 3f 52 bd 1b 39 6e bd
       0.06125597 0.026468255 -0.05133049 -0.05815993
0001c0 64 15 4a 3d c7 53 48 3c b4 06 2f bc 85 e0 fe bb
       0.049336806 0.012227005 -0.0106827505 -0.0077782297
0001d0 4e ca 2a bb 6f 43 51 bc 3a 8d 83 bd 94 e7 8d 3c
       -0.0026060524 -0.012772425 -0.06423421 0.01732234
0001e0 4e 5a 11 bc 92 2a 25 3c d9 86 9a bd 4f dc 1a 3d
       -0.008871628 0.01008095 -0.075452514 0.03780776
0001f0 77 4f af bd 56 ce 64 bd 3d 73 12 3d 01 60 69 3d
       -0.085600786 -0.05586084 0.03575443 0.056976322
000200 46 1b 8e 3d 6d 38 e0 bc dc 43 87 bd 7d 4a 2f bd
       0.06938796 -0.027370656 -0.0660474 -0.042795647
000210 6f 1f 59 bd 67 ea c0 bd ac 2d 1e 3d e0 f4 6e bc
       -0.053008493 -0.09419709 0.038617775 -0.01458475
000220 af b6 1f bd bf 93 60 bc 32 d5 8e bc 1c 70 53 bd
       -0.03899258 -0.0137071 -0.017435644 -0.051620588
000230 5f a8 cf 3d de 2d 67 bd a4 a5 d7 bc ba fb 9b 3d
       0.10139536 -0.056440227 -0.0263241 0.076163724
000240 8b 3e 50 3d fe 5a 5e bd 63 2c 2f bd f9 a3 c7 bb
       0.050840896 -0.054285996 -0.04276694 -0.006092545
000250 8c 12 2a 3c e2 74 89 3c 23 0c 96 bd 8b 12 fa bc
       0.0103803985 0.016779367 -0.07326534 -0.03052642
000260 3e 19 98 bc 9f c8 9b bd 29 59 ac 3c 49 b1 92 bd
       -0.018566724 -0.07606625 0.021038609 -0.07162721
000270 fd 85 1f 3d 84 eb 3a bd b7 0d 9d bc b3 21 59 bd
       0.03894614 -0.04563476 -0.019171579 -0.053010654
000280 b1 a2 02 3c 6b 97 de 3c d9 28 87 3c 94 47 11 bd
       0.007973359 0.027171811 0.01649897 -0.035468653
000290 d4 1b 4b bc e6 0e 36 3d 93 5a 64 3d 55 ba 4b 3d
       -0.012396771 0.044447802 0.05575044 0.049738247
0002a0 64 27 dd bb 14 d7 60 bb b4 26 95 3c b7 8e 39 3c
       -0.0067490805 -0.0034307884 0.018206932 0.01132553
0002b0 6a d8 9c ba f7 da b2 3d 65 9f 00 bd ca 53 fc 3c
       -0.0011966352 0.087331705 -0.03140201 0.030801672
0002c0 f9 94 2c 3b d8 0d 81 bd 00 4a 85 bd 9e 36 31 bd
       0.0026333912 -0.063014686 -0.06508255 -0.043264978
0002d0 3b ba 33 3b 95 c3 5e 3d fb 4e 03 bd 3b a9 d8 bb
       0.0027424234 0.05438574 -0.032057744 -0.0066119707
0002e0 b4 9c 96 bd 64 3c dd bb 68 44 60 bc 3b 47 b1 bc
       -0.073541075 -0.006751584 -0.013688184 -0.02164041
0002f0 2c 3a 80 3d d2 e7 ca bc 75 68 d8 bd bb 45 f4 bd
       0.062610954 -0.024768744 -0.105667986 -0.119273625
000300 2d dc fd bc 7a 05 16 be 4b a8 7a bd 6b 96 2a bd
       -0.030988777 -0.14650527 -0.061195653 -0.041647356
000310 6b a1 cc bd 4c 3b 71 bd c5 91 81 bd 13 e5 81 3d
       -0.099917255 -0.05889444 -0.063266315 0.063425206
000320 74 94 aa 3d f1 ce 63 bd 9a dd 88 bc ba 6c 9e 3c
       0.083290964 -0.055617277 -0.01670723 0.019338954
000330 c2 e6 9d bd 54 44 79 bd ea 3d b9 bc f9 a5 92 bd
       -0.07710029 -0.06085618 -0.02261253 -0.07160563
000340 0d f0 cc 3c cb 8e 59 bd 96 fb 54 bd d8 4b df 3c
       0.025016809 -0.053114694 -0.051997744 0.027257845
000350 72 44 f9 bc a4 6c df 3c 9d d4 ec 3b 7d 80 93 bd
       -0.030428145 0.027273484 0.007227494 -0.072022416
000360 ea 46 68 bd 44 f8 c1 bc 25 bc 2c bc e2 3d f6 3c
       -0.056708254 -0.023677953 -0.010542904 0.030058805
000370 3f 72 ac bd 3b f8 fa bc 8f dd 24 3d 70 cf 40 bc
       -0.08420228 -0.030635944 0.040250357 -0.011768207
000380 88 5b 45 3d 45 96 4e 3d f1 81 e7 3b cd e1 26 3d
       0.048182994 0.050436277 0.007065051 0.040742684
000390 ba 16 a3 bd 92 15 de 3c f5 85 97 bd 4f 36 09 bd
       -0.07963319 0.027109895 -0.07398597 -0.03349906
0003a0 ca a7 00 3d ad cb be bd 47 be b3 bc 0b 6e 9a 3b
       0.031410016 -0.09316192 -0.021941317 0.004712825
0003b0 d0 95 5b 3d f5 9c 27 bd de ce 5a 3c 25 ef aa 3d
       0.05360967 -0.04092117 0.013354985 0.083463944
0003c0 40 ac 59 bd 7d cb a9 bc 36 c6 24 3d 0c 0a bd 3b
       -0.053142786 -0.020726914 0.04022809 0.00576902
0003d0 bd c4 42 3c 51 7f b1 bc 12 1f 56 bc fc 11 1c 3c
       0.011887726 -0.021667155 -0.013068931 0.009525772
0003e0 11 23 7b bb b0 81 f2 bb 2b ef c3 bd e8 0a ed bc
       -0.0038320462 -0.007400714 -0.09567102 -0.028935865
0003f0 d1 05 ac bb 18 71 2c bd 96 ae 93 3d de ed 94 3c
       -0.005249717 -0.042100042 0.07211034 0.01817983

layer2.0.bias f4 [32]
000000 f1 2f ad 3d 9e c6 47 3b d1 71 51 bd 3a 42 1a bd
       0.0845641 0.0030483375 -0.051133934 -0.037660815
000010 c6 a9 7b bd 76 6d 85 bd d3 5b 11 bb 53 d0 9e 3c
       -0.061441205 -0.06515019 -0.0022179976 0.019386446
000020 46 9e bd 3c c5 b7 93 3d ae fa 35 bd 20 af 31 bc
       0.02314676 0.07212786 -0.04442852 -0.010844976
000030 2e 0e 9c 3d 42 a9 83 3b 41 a4 23 bd dd 71 a7 bd
       0.07619892 0.00401798 -0.039951567 -0.081760146
000040 e2 58 83 3c a5 0e 0b bd 54 b5 51 3d 9d 2e d8 bd
       0.016033594 -0.033949513 0.05119832 -0.10555766
000050 e9 f2 06 3d db b0 36 bd d4 58 6a bd c1 2b ba 3d
       0.0329465 -0.044602256 -0.05721362 0.09090377
000060 aa 2f 82 bd e5 fb 92 3d bb 60 5b bd f6 40 50 3d
       -0.063567474 0.07176951 -0.053559046 0.0508432
000070 56 ff f1 3b e9 3f 7b 3d 92 c0 4e bc 33 37 01 3d
       0.0073851747 0.061340246 -0.0126191545 0.031546783

layer2.1.weight f4 [32]
000000 dc 6c 6e 3f f0 37 73 3f 5a bb 81 3f 3b 4d 81 3f
       0.93134856 0.9500723 1.01353 1.0101694
000010 78 c2 80 3f 2c 83 84 3f 21 c6 84 3f 5e 04 86 3f
       1.0059347 1.035253 1.0372964 1.0470083
000020 80 51 7f 3f cf 61 7f 3f 7a f2 86 3f 6c 28 84 3f
       0.99733734 0.9975862 1.0542748 1.0324836
000030 eb 60 80 3f 2c ea 76 3f 1d f4 6d 3f 5d 60 82 3f
       1.0029577 0.9645107 0.9295061 1.0185658
000040 55 ab 75 3f 1e 6e 6e 3f 31 57 67 3f ea 84 83 3f
       0.95964557 0.93136775 0.9036742 1.0274937
000050 13 6d 87 3f 03 7f 81 3f 45 6d 6a 3f bf 93 74 3f
       1.0580162 1.0116886 0.9157298 0.9553794
000060 ab a2 82 3f b3 79 7a 3f b2 19 81 3f 77 64 72 3f
       1.0205892 0.9784195 1.0085967 0.9468455
000070 dd 00 85 3f b2 90 6d 3f ad 46 88 3f 79 31 75 3f
       1.0390888 0.9279891 1.0646569 0.95778614

layer2.1.bias f4 [32]
000000 3c df b2 bd b0 95 a1 bd dd ee 95 bd de f1 37 bd
       -0.08733985 -0.07889879 -0.0732095 -0.044908397
000010 7d c1 68 bc 7b 91 89 bd df 3c 15 bd af 6c 06 bd
       -0.014206287 -0.06717201 -0.036435004 -0.032818493
000020 93 9b c1 bd 8e 18 a1 bc cd 33 13 be 81 aa 0e bd
       -0.094535016 -0.019665029 -0.14375229 -0.034830574
000030 8d 56 0f bd 9f 5d 7d bd 87 ec 03 be c1 94 03 3d
       -0.03499465 -0.061856862 -0.12883197 0.032124285
000040 7d f7 f3 bd 85 2d 0d be 5b ef 9d bd 34 0a 07 be
       -0.11912439 -0.13786896 -0.07711669 -0.13187486
000050 bb 1e df 3b 76 e7 9b 3c 4a 10 a4 bd 6d b9 2d be
       0.0068090833 0.019031268 -0.080109194 -0.16965266
000060 6c ff 41 bd e1 3d aa bc 9f 10 05 3c 97 54 87 bd
       -0.04736273 -0.02078146 0.008121639 -0.06607931
000070 3a da 15 bd 0e 70 f4 bc 4b 20 90 3c 54 a9 ca bd
       -0.03658507 -0.029838588 0.017593523 -0.09895578

layer2.1.running_mean f4 [32]
000000 9b 6e b1 3c d9 f1 e4 bf 1d 1f 89 3f 4c 31 cb 3f
       0.021659186 -1.7886306 1.071262 1.5874419
000010 f8 1e 03 bf ae e4 0b c0 2b de 18 bf e7 55 26 bf
       -0.5121913 -2.1858325 -0.59714 -0.64974827
000020 40 1f dc be a5 95 8e bf 21 34 e9 3e 42 e5 af 3e
       -0.42992592 -1.1139418 0.45547584 0.34354597
000030 f0 bd b7 be bf 8f 99 be e4 b1 4c bf 9a 8d 2e bf
       -0.35887098 -0.29992482 -0.7995894 -0.68184817
000040 57 27 53 bf c0 7d c2 3f f4 3f e2 be 9e 4f 72 3f
       -0.824819 1.5194626 -0.44189417 0.94652736
000050 f4 40 f2 bf d8 77 5b be e1 07 8c bf 97 4a b4 3f
       -1.8926072 -0.21432436 -1.0939904 1.4085263
000060 8b a1 77 bf 95 1a bb bf 27 01 cd be a9 f1 dc be
       -0.9673087 -1.4617487 -0.40039942 -0.43153122
000070 1c c4 05 c0 fb c8 e7 3e 34 e7 1d bf 60 a9 5a 3f
       -2.0900946 0.45270523 -0.6168091 0.85414696

layer2.1.running_var f4 [32]
000000 0b d2 8f 3f 4c ff 9e 3f 02 23 ac 3f 57 d5 83 3f
       1.1235975 1.242166 1.3448184 1.0299481
000010 60 1e 2b 3f 54 4f ea 3f c9 25 05 3f c6 f9 03 3f
       0.66843224 1.8305459 0.5201078 0.51553
000020 da c9 2c 3f 5a 7e ad 3f 4f 4c 4b 3f 5c 07 f3 3f
       0.674955 1.3554184 0.7941331 1.8986621
000030 8d f3 a1 3f bd 6e 29 3f 28 a9 06 3f cc 21 1f 3f
       1.2652451 0.661846 0.5260186 0.62160945
000040 b8 e9 a9 3e e5 75 ca 3f b9 20 24 40 32 f9 3d 3f
       0.33186126 1.5817229 2.5644972 0.74208367
000050 bf 40 b7 3f 92 a6 14 3f 1d d3 2b 3f 0b 6a 23 3f
       1.4316634 0.58066666 0.6711901 0.63833684
000060 ac c4 0a 3f a9 b2 a7 3f 03 a0 63 3f 9c fa a4 3f
       0.5420635 1.3101398 0.88916034 1.288898
000070 b2 f6 17 40 e7 20 a9 3f a3 1e f6 3e da 36 cf 3f
       2.374432 1.3213166 0.4807025 1.6188614

layer3.0.weight f4 [64, 32, 3, 3]
000000 75 26 ba 3c 59 fd e7 bc 90 72 94 3d 0d ee 67 3d
       0.022723416 -0.028319048 0.072484136 0.056623507
000010 b2 92 0c bc 32 f2 ec bc 87 fb 83 bc 81 85 a3 bc
       -0.008579897 -0.028924081 -0.016111149 -0.01996112
000020 e4 4a 5c bc 2a c6 5c 3d 36 27 de 3d 47 17 08 3e
       -0.01344559 0.05389992 0.10847323 0.1329013
000030 65 fb 3c bc 00 b2 bd 3d 15 d9 fc 3d 22 db 1a bb
       -0.0115345465 0.092624664 0.123460926 -0.0023629148
000040 52 74 e3 3c b0 e2 27 3b 52 23 bf 3c 99 b4 44 bd
       0.027765427 0.0025617294 0.023332272 -0.048023794
000050 3d 71 ce bb 4a 4a 37 3d 5b 0f 9a bc dd cb 4e bd
       -0.00630012 0.044748582 -0.01880615 -0.050487388
000060 3b 41 79 bc 88 45 89 bd 3a 1a 69 bd f5 c2 79 bd
       -0.015213306 -0.06702715 -0.056909777 -0.06097694
000070 ed ba 18 bd b5 6e 84 bd 62 bd 93 bd 99 f9 0e bd
       -0.03728764 -0.06466428 -0.07213856 -0.034906004
000080 f4 29 d2 bd d6 9c 41 bb 3f d1 5c bc 3b 68 4e 3b
       -0.10261908 -0.0029542944 -0.0134776225 0.0031495232
000090 70 fb 98 3c 02 2c 26 3c 2d 90 3c ba 12 c8 43 3b
       0.018674582 0.010142328 -0.0007193115 0.002987389
0000a0 2b bc e8 3c ce be b6 bc e1 d6 01 bd dc 8c d5 3b
       0.028410038 -0.02230778 -0.031699065 0.006517036
0000b0 b8 e2 10 3c 76 80 74 bc 4a ab b6 3d b0 fc b6 3d
       0.008843116 -0.014923206 0.089193895 0.08934915
0000c0 1c f5 1a 3c 4d f9 96 3d 83 b5 e1 3c 40 d2 79 3d
       0.009457853 0.07371769 0.027552372 0.060991526
0000d0 50 5e 20 3d 8f b0 bf 3c 01 d7 13 bd c5 e7 f8 3b
       0.039152443 0.02339962 -0.036093716 0.0075959885
0000e0 6b c8 65 3c 66 1b c1 bd d9 39 4b bd fe 3b 91 bd
       0.014024834 -0.09429054 -0.049615715 -0.07091521
0000f0 62 7c ac bd 90 09 63 bd 18 e0 51 bd b9 81 00 3a
       -0.08422162 -0.05542904 -0.051239103 0.00049021427
000100 08 b2 aa 3c f1 cd d8 3a 38 aa 7e bd c7 41 1c bd
       0.020836845 0.0016540868 -0.062174052 -0.038148668
000110 29 78 97 3d ea c7 28 bd f0 68 d0 bb ac e7 a8 3d
       0.073959656 -0.041206278 -0.006360166 0.08247313
000120 68 f3 4d 3d b2 cb 65 bd c6 01 a8 bc 37 98 58 3c
       0.05028096 -0.056102462 -0.020508658 0.013219885
000130 a1 85 cc bd d8 80 02 bd bf 2b 0d 3a c0 27 af bd
       -0.09986425 -0.031861156 0.0005385242 -0.085525036
000140 79 dd 9b bc 60 37 79 bd d0 99 28 bd 1b c9 e4 bb
       -0.019026505 -0.060843825 -0.041162312 -0.0069819815
000150 91 d8 55 3c 78 5a 0f 3c e0 9c 2d 3c 98 42 65 bc
       0.013052122 0.008749597 0.010596484 -0.013992928
000160 65 30 36 3d 50 ec 92 3c 78 c2 a7 bd 46 65 03 ba
       0.044479746 0.017934948 -0.08191389 -0.00050123443
000170 79 a3 35 ba ee d2 98 bd 42 50 ce bd 3c cd 1b bd
       -0.00069289614 -0.07462107 -0.10073902 -0.038037524
000180 ad 0f 70 bd 34 f9 fe bc aa ec 0f 3d d1 6f b1 3c
       -0.0586087 -0.031124689 0.03513781 0.021659764
000190 4a 64 e4 bc 7d 45 52 3d b7 bd 26 bb 78 c5 ba bc
       -0.027879853 0.0513358 -0.0025442669 -0.022799239
0001a0 9f 83 d2 3c 0a 8c 03 bb 59 cd 8c bd 9b 8a 91 bc
       0.025697527 -0.0020072483 -0.068751045 -0.017766288
0001b0 a8 8f 05 3a 2a d5 6b 3d 3b 5f 87 39 f7 0d 23 3d
       0.0005094954 0.057576336 0.0002582016 0.03980824
0001c0 51 6d cb ba f3 3d 09 3d bd 16 4a 3b 06 04 08 bd
       -0.001552025 0.033506345 0.0030836307 -0.033206962
0001d0 ca 62 5c 3d e8 12 25 3d 87 90 16 bd 96 5e 55 3c
       0.05380515 0.040301234 -0.036758926 0.013023039
0001e0 ff c5 fc 3c d5 e1 a7 bd 52 5d 4c 3d 75 a5 14 bc
       0.03085613 -0.08197371 0.049893685 -0.009072651
0001f0 c3 d0 65 3c 61 93 9c bc 2d 97 a7 3c 11 9e a3 bc
       0.014026823 -0.019113244 0.020457828 -0.019972833
000200 d8 12 45 bd f9 15 66 bd b1 ab 0d 3d 34 d2 45 3d
       -0.048113674 -0.0561733 0.034587566 0.04829617
000210 33 da dd bc 0b a9 09 bd 9f 4b 55 3d af 5c 1c bd
       -0.027081585 -0.033608478 0.05207407 -0.038174327
000220 f6 ac c4 bd 25 a6 73 bd 13 e5 dd bc 7e 86 b4 bc
       -0.09603302 -0.05948462 -0.02708677 -0.022036787
000230 b0 69 cf bc 7b 64 cd bc 42 c2 56 bd 7f ee bb bc
       -0.02531895 -0.025072327 -0.052431352 -0.022940872
000240 c6 5e a4 bd fa e6 5b bd 7a 01 2f 3b 4a d0 08 bd
       -0.08025889 -0.053687073 0.002670376 -0.033401765
000250 26 ea 09 bd c4 ab 85 3d bd 38 f0 bc 34 5d 86 3d
       -0.033670567 0.06526902 -0.02932393 0.06560746
000260 20 51 07 3d 85 4b f3 bc 91 4b 22 bd 10 1c 42 ba
       0.03303635 -0.029699096 -0.039622847 -0.00074046943
000270 d0 cc ba bc dd 82 c5 bc bc 26 22 3b 8f d6 76 bd
       -0.02280274 -0.024110252 0.0024742326 -0.060263213
000280 ba 7e 3c bd 1c fe ae bb 52 7c 42 3d d6 18 57 3c
       -0.046019293 -0.005340351 0.047481842 0.01312848
000290 38 ec e1 3c 02 18 e4 3c 8f 2f 73 3c 20 8a 23 bb
       0.027578458 0.027843479 0.014842882 -0.0024954155
0002a0 3a d3 3a bd 90 01 48 3d e5 6c 14 3d 79 31 97 bd
       -0.045611598 0.048829615 0.036236662 -0.07382483
0002b0 36 e3 d9 bc 31 cb 0a bd fa 39 49 3c c7 86 f9 bd
       -0.0265976 -0.033885185 0.012281889 -0.1218391
0002c0 07 20 a7 bd 1f 7b a3 bd 35 dc 8e bc 4d 6e 98 bd
       -0.081604056 -0.07982468 -0.017438987 -0.07442913
0002d0 e9 b6 7d bc 4d 35 94 3c d3 c3 6e bd 46 a4 8c 3c
       -0.015485504 0.018091822 -0.05829222 0.017168175
0002e0 5a 97 eb 3c 42 1c d9 bc 0c 25 8b bc bc 6e 2e 3d
       0.028758693 -0.026502732 -0.016985439 0.042586073
0002f0 c6 69 b4 3c ef bd f8 bc 75 ae 0b bc 35 bf b5 3c
       0.022023093 -0.030364005 -0.0085254805 0.022185901
000300 3d 72 19 bd 6c ad 9f bd af 72 8c 3b 7d 57 85 bc
       -0.03746246 -0.077967495 0.0042861323 -0.01627707
000310 60 6d 57 bd a3 30 2a bd 76 c7 80 3d 95 7e a0 3d
       -0.052594543 -0.04155029 0.06288044 0.078366436
000320 38 5b 97 3d bd 42 84 3d 0c e6 b7 bb 10 f9 9a 3c
       0.073904455 0.06458042 -0.0056121405 0.01891759
000330 ab 80 50 3d e0 5d 81 3d ee 51 3f 3d 16 c9 97 3c
       0.050903957 0.06316733 0.046708994 0.018528502
000340 e6 07 3a 3c 77 e9 de 3c f6 8f 24 bd c1 c4 b4 bd
       0.011354422 0.027210934 -0.040176354 -0.0882659
000350 de 2c 44 bc f6 4b 39 bd 1a 14 73 bd 1e 68 ef bc
       -0.011973588 -0.045238458 -0.059345342 -0.029224452
000360 c3 b9 24 bd 41 1c 42 3b ee 9d f0 bc 06 42 cf bc
       -0.04021622 0.0029618891 -0.029372182 -0.025300037
000370 32 e1 8f bb 3f 34 37 3c d0 1b 2e bd 61 5f 80 bb
       -0.004390859 0.01118189 -0.042506993 -0.00391762
000380 bc d6 0f 3d 18 5d 54 3d f7 ef 90 3c 80 4e 7e bc
       0.035116896 0.051846594 0.01769255 -0.015521646
000390 ec 20 f6 3b 67 49 88 3d 6a 22 ad bb 2f 0e 06 3d
       0.007511249 0.066546254 -0.0052836435 0.03272837
0003a0 e7 6d 90 3c 97 67 c3 bc 72 54 d5 3b 32 8c 4a bd
       0.01763053 -0.023853106 0.006510311 -0.049450107
0003b0 5f 4f 66 3c 40 92 59 bd e0 24 f3 3b 8f 23 27 bc
       0.0140570095 -0.05311799 0.0074201673 -0.010201349
0003c0 a7 2b 7e ba 45 98 30 bd 8d 2d 76 3c 1e 29 54 3c
       -0.0009695836 -0.043113966 0.015025509 0.012949256
0003d0 20 3b a5 bc f9 5c 23 3d ab 08 fc 3c dc f8 37 bd
       -0.020169795 0.039883588 0.030765852 -0.044915065
0003e0 0e 35 0d 3d c0 df fd 3c d0 3b 02 3d 62 76 b1 3c
       0.034474425 0.030990481 0.031795323 0.021662895
0003f0 69 c2 4c 3b 1e 83 87 3c f3 d5 82 bc 0c 16 51 3c
       0.0031243807 0.016542014 -0.01597116 0.012761604

layer3.0.bias f4 [64]
000000 a4 e6 69 3d 65 f6 f6 bb 65 f8 4f bc 16 dd 20 bd
       0.05710472 -0.0075366967 -0.012693499 -0.039273344
000010 3d 04 ad 3b 61 c0 09 bd 86 10 06 bc 13 71 67 3d
       0.0052800463 -0.033630732 -0.00818265 0.05650432
000020 f0 01 80 bc 4a ba 33 bd ad 27 84 3c 21 cd 1f 3d
       -0.015625924 -0.04387883 0.0161322 0.039013986
000030 c0 32 74 bb cf e5 09 3d 8e 19 62 bd 7b 1b 6b 3d
       -0.0037261695 0.03366643 -0.055200152 0.057399254
000040 0f a6 3c 3d e4 60 b0 bc f0 26 f3 bc 9b 61 e8 3c
       0.046056803 -0.021530576 -0.029681653 0.028366854
000050 38 c6 e6 bc 01 66 02 3d ef e0 4e bd 63 30 46 3d
       -0.02817069 0.03183556 -0.050507482 0.04838599
000060 f8 41 72 bd 3c 9b 7d 3d 53 6a 0d 3d 19 ef c0 bc
       -0.059144944 0.06191562 0.034525227 -0.02355151
000070 4a 1b ee 3c 9e 80 46 3d 63 3a 5f bc 72 c5 af 3b
       0.029065747 0.048462503 -0.01362476 0.0053641135
000080 0c c1 1f 3d 7c b4 5b bd 13 b5 61 bd f3 91 f2 3c
       0.039002463 -0.05363892 -0.055104326 0.02961061
000090 1d 0e 31 bd 3e db 42 bd 41 89 82 bc 56 89 6d bc
       -0.04322635 -0.047572367 -0.015934588 -0.0144980755
0000a0 a5 21 06 3c ed 19 bd bb 5c 81 d0 3b cd 95 06 3d
       0.008186732 -0.005770913 0.006363077 0.032857705
0000b0 4a 84 2d bc 7b 43 02 3d 7e 61 60 3d 64 5c 6d 3d
       -0.010590622 0.031802636 0.054780476 0.05794944
0000c0 76 8d 69 3c 58 1a dd 3a c0 e4 2d bd 4e 7b 4b 3d
       0.014254918 0.0016868813 -0.04245448 0.04967814
0000d0 7c e4 83 bb 11 45 67 3d 4f 76 de 3b 40 fb c2 bb
       -0.00402504 0.05646235 0.006789006 -0.0059503615
0000e0 d6 b4 30 3c 48 67 8a 3c c3 8c 32 3d a4 38 72 3b
       0.010785302 0.016894951 0.043591272 0.003696003
0000f0 19 85 00 bc 2f a8 f5 3c cf 77 c8 3c f1 35 e2 3b
       -0.007844233 0.029987423 0.024471192 0.006903403

layer3.1.weight f4 [64]
000000 25 fd 71 3f ec 92 74 3f 71 77 83 3f 90 84 83 3f
       0.9452689 0.95536685 1.0270826 1.027483
000010 9b b4 78 3f 9b 82 81 3f 9b 0f 82 3f b2 da 7b 3f
       0.9715058 1.0117983 1.0161012 0.9838058
000020 91 c2 76 3f 49 c5 79 3f 9d 50 6b 3f 22 ed 77 3f
       0.96390635 0.9756666 0.9191988 0.9684621
000030 80 68 80 3f 13 52 70 3f 8d 5e 68 3f ec 50 81 3f
       1.0031891 0.93875235 0.90769273 1.010282
000040 ff e5 6d 3f e2 03 79 3f 26 c6 82 3f 99 34 7d 3f
       0.9292907 0.9727155 1.021672 0.9890838
000050 85 72 7c 3f 1d a5 83 3f b4 52 68 3f 0e 04 68 3f
       0.9861224 1.0284764 0.90751195 0.90631187
000060 41 d2 7b 3f 22 f0 5d 3f 3b 71 62 3f 3d a8 80 3f
       0.98367697 0.8669454 0.88454026 1.0051342
000070 d1 ec 77 3f 80 9a 7d 3f 0f 10 7e 3f 16 13 7f 3f
       0.9684573 0.99063873 0.99243253 0.996385
000080 64 b8 70 3f e2 53 72 3f c8 ba 80 3f a6 17 6f 3f
       0.9403136 0.94659245 1.0057001 0.9339546
000090 34 b5 76 3f 0b 22 73 3f 67 83 79 3f b5 10 70 3f
       0.96370244 0.9497382 0.9746613 0.9377549
0000a0 0b 61 7e 3f 1c 8b 7d 3f ba 1d 81 3f d5 d6 89 3f
       0.99366826 0.9904039 1.0087197 1.0768687
0000b0 14 ab 74 3f b4 ef 82 3f 3d 0f 80 3f a5 8e 76 3f
       0.95573545 1.0229402 1.000465 0.9631141
0000c0 cb 9a 70 3f e5 71 7b 3f 7d 8d 66 3f a0 d4 7a 3f
       0.93986195 0.98220664 0.90059644 0.9798069
0000d0 c5 92 6d 3f e9 7a 77 3f 72 6f 7d 3f ee 2c 76 3f
       0.9280208 0.9667192 0.9899818 0.9616231
0000e0 6d ee 7a 3f 50 f3 83 3f 6c 69 60 3f e6 37 7a 3f
       0.9802006 1.0308628 0.8766086 0.97741544
0000f0 e5 99 73 3f eb 82 72 3f c2 d6 65 3f fd c8 7f 3f
       0.951567 0.94731015 0.8978082 0.9991606

layer3.1.bias f4 [64]
000000 4a cb bc bd 43 34 98 bd 36 98 4d bd 33 ba 53 bd
       -0.09218462 -0.07431843 -0.050193988 -0.051691245
000010 43 7a 93 bd 91 6b 63 bd 8f 84 1e bd 3f 50 8f bd
       -0.07201054 -0.055522505 -0.038700636 -0.069977276
000020 ee 21 aa bd 6e 12 09 bd b9 31 a2 bd 1f 2c 76 bd
       -0.08307253 -0.03346484 -0.0791964 -0.06010067
000030 58 00 c8 bc 94 98 9d bd c1 4b 0d be 0a cc 14 bd
       -0.024414226 -0.076951176 -0.13798429 -0.0363274
000040 c3 47 a8 bd 4a be 29 bd 0e e0 29 bd 1d 97 fc bc
       -0.082168125 -0.04144124 -0.04147344 -0.030833775
000050 1a 35 a8 bd e7 79 0b bd 4a b4 20 be 05 b2 a7 bd
       -0.08213253 -0.034051802 -0.15693775 -0.081882514
000060 2e 53 87 bd 38 1f 03 be 89 f3 86 bd d6 48 47 bd
       -0.06607662 -0.12804878 -0.065894194 -0.048653446
000070 9a 78 3a bd 09 38 e5 bc 31 c7 e1 bc 67 a7 a7 bd
       -0.04552517 -0.027980821 -0.027560802 -0.08186226
000080 c1 20 8f bd 92 a8 ba bd cf a7 19 bd 74 9b a2 bd
       -0.06988669 -0.091141835 -0.03751355 -0.079398066
000090 8d c4 71 bd 07 0c 83 bd 22 4a 77 bd 35 b3 8f bd
       -0.059025336 -0.063987784 -0.060373433 -0.07016603
0000a0 97 a2 38 bd e4 9d 2a bd ad f1 4a bd 22 b2 48 bd
       -0.045076933 -0.041654482 -0.049546886 -0.048998006
0000b0 84 b6 f4 bd bf ef 6b bd 2d 16 c9 bd 87 26 96 bd
       -0.119488746 -0.057601687 -0.09818683 -0.07331567
0000c0 87 e7 9d bd 6c 60 2d bd 36 79 d9 bd 52 f0 37 bd
       -0.07710176 -0.042328283 -0.10618822 -0.04490692
0000d0 63 d5 b2 bd 70 5f 4c bd 2b 6a 23 bd 8a da 39 bd
       -0.087321065 -0.049895704 -0.03989617 -0.04537443
0000e0 7e 06 80 bd b0 1e 5c bd 87 21 03 be 29 59 78 bd
       -0.06251238 -0.053740203 -0.12805758 -0.060631905
0000f0 44 63 4e bd 5f 45 8c bd a9 9c ce bd 85 bb 53 bd
       -0.050387636 -0.06849169 -0.10088474 -0.051692504

layer3.1.running_mean f4 [64]
000000 61 71 a0 bf a5 ba 54 3f de 66 1e 40 19 4d 07 c0
       -1.25346 0.83097297 2.4750285 -2.1140807
000010 e8 58 1f 40 b7 0a 14 bf ac 67 47 bf b9 70 08 3f
       2.4898014 -0.5782885 -0.77892566 0.53297
000020 bf f8 9b bf 12 25 2b bf 89 67 44 be 48 60 ce bf
       -1.2185286 -0.6685344 -0.1918012 -1.6123133
000030 4d 3a 1e 40 33 0e 0b 3f 11 88 71 bf 2f 58 5c c0
       2.4723084 0.5431854 -0.94348246 -3.4428823
000040 73 06 08 c0 c0 a4 1e bf df e6 f3 bf 2a 91 97 be
       -2.1253936 -0.6197014 -1.9054831 -0.2960294
000050 59 63 c9 bf 9c 55 a4 3f a3 bf d7 3f 89 e5 20 bf
       -1.5733443 1.2838626 1.6855358 -0.6285024
000060 c3 4c 1d 3f 2b f9 8c bf 73 cc 99 be 01 86 07 40
       0.61445254 -1.101354 -0.30038795 2.117554
000070 ba 20 61 bf 7c 53 9e bf f8 e3 e7 3f 04 9a a9 3d
       -0.8794056 -1.2369227 1.8116446 0.08281329
000080 08 80 3f bf 7a a6 76 3f 7c d3 92 3f 39 e6 9f bf
       -0.74804735 0.96347773 1.147079 -1.2492133
000090 e6 f3 71 3f 37 d2 fe 3f 2b 12 f7 bf fc cd 37 3e
       0.94512784 1.9907902 -1.930242 0.1794967
0000a0 96 73 a3 3f 7c 86 33 3e c2 d4 51 3f 8b 3c 81 3f
       1.2769649 0.1753177 0.8196527 1.0096601
0000b0 b4 ba e3 3e 35 2f fd bf 34 f1 36 40 12 90 42 3e
       0.4447838 -1.9780031 2.8584719 0.19000271
0000c0 0b 43 98 3e 4a 50 36 3f 6a 82 93 bf ce a6 9b 3f
       0.2973865 0.7121626 -1.1524174 1.216028
0000d0 00 13 8a 3e 00 3e 33 3f 77 18 19 3e 26 5c 24 bf
       0.2696762 0.7001648 0.14950739 -0.6420311
0000e0 4e 67 fa 3e bb 70 04 40 0a 99 b8 3f 28 43 63 bf
       0.4890694 2.0693805 1.4421704 -0.8877435
0000f0 30 12 72 bd 5e dc 92 bf 43 6e 2a 3e 81 56 3b c0
       -0.059099376 -1.1473501 0.16643624 -2.9271548

layer3.1.running_var f4 [64]
000000 5e 98 13 40 1f c5 0f 40 47 57 9d 3f ec a3 7c 40
       2.3061748 2.2464063 1.229226 3.947505
000010 46 c1 b3 3f 27 84 0f 40 84 4c 11 40 a1 3d 26 40
       1.4043357 2.242441 2.2702951 2.5975115
000020 4c 22 e1 3f 31 f6 11 40 63 c5 59 3f ec 7a 3d 40
       1.7588592 2.2806513 0.85066813 2.9606276
000030 d1 0f f8 3f d3 20 97 3f 5c 48 8a 3f 3d 19 63 40
       1.9379827 1.1806892 1.0803332 3.5484154
000040 73 43 4d 40 d6 b3 ef 3f b8 12 1f 40 e9 c0 8e 3f
       3.2072418 1.8726757 2.4855175 1.1152622
000050 6a d7 3c 40 53 d0 d2 3f 54 72 28 40 e7 a2 bc 3f
       2.9506478 1.6469826 2.631978 1.4737214
000060 48 69 47 40 85 ec ed 3f 92 1e 24 40 16 fa a4 3f
       3.1158009 1.8587805 2.5643659 1.288882
000070 50 8f 15 40 1c 7b d2 3f fc a5 b7 3f 83 be 51 40
       2.336872 1.644382 1.434753 3.277253
000080 8c e0 e7 3f aa ba a6 3f 01 1c 0b 40 a5 6d 29 40
       1.8115401 1.3025715 2.1735842 2.6473172
000090 22 5c 7c 3f fc 20 87 3f e5 42 43 40 d2 c7 cf 3f
       0.98578084 1.0556941 3.050958 1.6232855
0000a0 06 f4 99 3f 32 d2 ef 3f 8b 16 e3 3f e3 99 9c 3f
       1.2027595 1.8736022 1.7741255 1.2234462
0000b0 ac 25 ae 3f 0a fe 5c 40 8d 02 a7 3f 92 43 ae 3f
       1.3605247 3.4530053 1.3047653 1.3614371
0000c0 2c e6 9e 3f a1 8c da 3f b7 c2 16 40 b4 23 9f 3f
       1.2413993 1.7074167 2.3556345 1.2432771
0000d0 bf 61 01 40 a4 2c 20 40 29 4b 1a 40 a2 da 02 40
       2.021591 2.5027246 2.4108374 2.0445943
0000e0 1d d0 c0 3f a1 75 9c 3f 42 ec 88 3f e8 80 31 40
       1.5063511 1.2223397 1.06971 2.7734928
0000f0 a9 32 f2 3f cd 5a d7 3f b2 af 7d 3f fe 6b 45 40
       1.892171 1.6824585 0.99096215 3.0847163

fc1.weight f4 [10, 576]
000000 5d 1b 9f bc 6f 96 0b bd 8a 40 5d bc 73 45 16 bd
       -0.019422228 -0.03407901 -0.013504157 -0.036687326
000010 9c 8a 45 3d 96 fa 64 3d 10 05 e9 bc f5 c8 89 bc
       0.04822789 0.05590304 -0.028444797 -0.016819457
000020 9d 35 4d bc c1 fa 42 3d b7 d8 21 bc b5 8d 7c bc
       -0.012524989 0.04760242 -0.009878329 -0.015414645
000030 99 09 b1 bc bb db 24 bc 3d d7 d5 3c 02 aa 5e 3d
       -0.021611022 -0.010062153 0.02610361 0.05436135
000040 10 20 e1 3c 50 4e 85 3d f7 39 a0 bb 8f b0 a5 3d
       0.027481109 0.065090775 -0.0048897224 0.080903165
000050 95 dc eb 3c 11 00 8c 3d f7 a8 ea 3d fb c8 36 3d
       0.028791705 0.0683595 0.11458009 0.044625264
000060 fe 4e f6 3c 91 d5 a8 3d e5 e9 47 3d 85 c7 6b bd
       0.030066963 0.082438596 0.048807044 -0.057563324
000070 a3 12 b2 bd dc b2 a7 bd e5 60 e6 bc 07 7d 3a bd
       -0.08694961 -0.081884116 -0.028122375 -0.04552939
000080 43 44 ae bd 32 e7 06 bc 14 0f 63 bc 63 6c 36 bb
       -0.08509114 -0.008233832 -0.013858575 -0.00278356
000090 02 9e 00 3c 59 4e c2 3d b9 db 97 bc 5e 9f 01 3c
       0.007850172 0.094876 -0.01853739 0.007911531
0000a0 6e 05 9a 3d 46 d8 fa 3c ac 5d 61 3d ec b1 1c 3d
       0.07520567 0.030620705 0.055020973 0.038255617
0000b0 3a 6b 32 3d be 5d ac 3c ab 8b 7a 3c c6 fe 38 39
       0.04355929 0.021040794 0.0152920885 0.00017642518
0000c0 3b ea 0b 3d ff 6a 42 3d 13 cf a9 3d 84 ac fe bb
       0.034158926 0.04746532 0.082914494 -0.0077720303
0000d0 d9 3d a9 3c 53 fd a9 3c 23 5d 37 bd 8b 33 83 bd
       0.020659374 0.020750677 -0.044766556 -0.064063154
0000e0 27 c4 c7 3b 47 61 bc bd 57 2c 68 bc 39 04 41 bd
       0.006096381 -0.09198242 -0.014170728 -0.047123168
0000f0 d6 b4 8c 3c 2f 95 3e 3c 65 77 45 bd ed 06 96 39
       0.017176073 0.011632248 -0.048209567 0.0002861539
000100 56 f5 31 3c 97 8a 03 3d 5f da 39 bd 37 5a 42 bd
       0.010861715 0.03211459 -0.04537427 -0.047449317
000110 a0 05 40 bd 36 a2 af bc 78 d9 da 3b f5 e2 92 3c
       -0.046880364 -0.021439653 0.0066787563 0.017930487
000120 20 f8 ff bc 12 ad 44 bd 7a 7a 20 3c 2d 59 ec bc
       -0.031246245 -0.048016615 0.009794826 -0.028851116
000130 99 d7 8e 3d 86 69 ab 3d f7 40 01 bd 68 21 30 bd
       0.06974716 0.083697364 -0.031556096 -0.04300061
000140 ae 01 4d 3d ba f9 71 3c 91 16 15 bd 4b 81 a8 3c
       0.05005043 0.014769012 -0.036398474 0.020569464
000150 82 14 16 3d 9f 2d 43 3d 68 52 98 3c 2d 04 1d 3d
       0.03664065 0.04765093 0.018593982 0.03833406
000160 cf 22 83 bc af c1 37 3d a4 c6 f2 bc 94 c5 35 bd
       -0.016007809 0.044862445 -0.029635735 -0.04437788
000170 a1 9f 07 bd d7 37 c8 bc 54 f5 fc 3c 00 10 05 3d
       -0.03311122 -0.024440689 0.0308787 0.032485962
000180 a0 ae 48 3d 45 70 37 3d b2 02 78 3a 7e 07 37 bd
       0.04899466 0.044784803 0.0009460851 -0.04468488
000190 31 96 19 bd 6c dd 99 bc a9 ad 9c bd da ab b0 bc
       -0.03749675 -0.01878234 -0.076503105 -0.02156632
0001a0 f2 36 12 bd b2 ad 82 bc 4c ee b0 bb 4f 77 cf bb
       -0.03569693 -0.015951965 -0.005399501 -0.0063313614
0001b0 90 49 a7 bc a2 56 20 3d 06 a1 0d 3d b8 76 03 3c
       -0.02042082 0.03914512 0.034577392 0.00802391
0001c0 26 69 be 3d ce ce 1c 3d b3 2b 98 bc 97 1f 83 3d
       0.09297399 0.03828316 -0.018575525 0.0640251
0001d0 d2 a9 ee 3c 96 06 ab 3c 45 33 1b bd 6d e3 85 3d
       0.029133711 0.020877164 -0.03789069 0.06537519
0001e0 11 d6 06 bd fc 52 16 3d 57 49 29 3d 43 d1 be bc
       -0.032918993 0.036700234 0.041329708 -0.023293143
0001f0 ce 2e 93 3c 6c 88 52 3d b2 8d a7 bc 72 9f 13 bd
       0.017966654 0.051399633 -0.020453308 -0.03604073
000200 8a 94 4b 3d f3 f1 0a 3d 1f a3 fe 3c 53 8d e3 3c
       0.049702205 0.033922147 0.031083642 0.02777735
000210 96 86 0a 3d 72 13 48 3b 77 58 de bc 99 86 d4 3b
       0.033819757 0.0030529168 -0.027141793 0.006485772
000220 f0 b5 2f bd a9 4a 94 bd f2 03 fa bc b4 2c c3 bd
       -0.04289812 -0.07240803 -0.03051946 -0.09530011
000230 12 6a 41 bd c7 30 d5 bb 0d d8 95 bd 65 39 a0 bd
       -0.047220297 -0.006506059 -0.07316599 -0.07823447
000240 a9 cd df 3c df 87 52 bc 14 70 45 bc 8c 02 e7 3c
       0.027319746 -0.012849777 -0.012050647 0.028199457
000250 0e 44 ba 3b 5d fa 04 bd d7 76 68 3d 00 81 0d bb
       0.0056843823 -0.032465328 0.05675396 -0.0021591783
000260 44 91 0b 3d 89 9e 11 3d e7 ab d0 bc ef 4f cf 3c
       0.034074083 0.03555158 -0.025472594 0.02530667
000270 76 7d 9d 3c 52 4b 42 3d dd 31 84 3c 05 a2 0c 3d
       0.019224863 0.047435112 0.016137058 0.0343342
000280 33 db c8 ba a9 58 f1 3c 5c 2c 4c 3d b9 be 3a bd
       -0.0015324116 0.029461222 0.049846992 -0.045592044
000290 90 00 4e 3c 1b 22 39 bd 5f 8f 00 be 34 32 67 bd
       0.012573376 -0.04519854 -0.12554692 -0.05644436
0002a0 10 14 77 3c ef 57 01 bd aa 03 31 bd 43 53 85 3d
       0.015080467 -0.031578 -0.043216385 0.065100215
0002b0 10 3f 80 3d ea be 89 3d 70 8a 23 3c 75 6d 7f 3d
       0.06262028 0.06725867 0.009981737 0.062360246
0002c0 55 d4 1b 3d 3d 85 d4 bc 9b 69 3e 39 24 c0 08 bd
       0.038044292 -0.02594244 0.00018159153 -0.033386365
0002d0 42 0e d5 bd 8d 27 77 bd a0 39 f4 bb f8 98 36 bd
       -0.1040311 -0.060340453 -0.0074531585 -0.044579476
0002e0 0a 87 04 3d 7a d1 0c bd 52 85 7e 3c 08 e9 ae 3c
       0.032355346 -0.03437946 0.015534716 0.021351352
0002f0 7f 56 45 bb 5a 93 36 3c 02 b0 fb 3c c1 ea 35 bd
       -0.003011137 0.01114353 0.030723576 -0.044413332
000300 22 2c 53 3d ed 8c ed 3d 9a 16 b4 3d c5 3e ae 3c
       0.05155576 0.11599145 0.087933734 0.021270165
000310 0b 27 45 3d 92 b5 0d bd bd 22 68 bd 90 f3 0a bd
       0.048132937 -0.034596987 -0.056673754 -0.033923686
000320 64 3a d7 3c 97 aa cd 39 c6 0d 5c 3d d3 d1 c7 3b
       0.02627296 0.00039227746 0.053724073 0.006098011
000330 c9 9d 20 3d d1 45 6c 3d 56 ac 90 3c 48 a8 c2 bc
       0.039212976 0.05768377 0.017660301 -0.023761883
000340 73 97 10 bd 94 58 46 bb 68 4f df 3c 98 17 99 3c
       -0.035300683 -0.00302652 0.027259544 0.018688008
000350 e9 6e 56 3d 02 8b 31 bd 8a 86 19 3c 6f c4 4b bd
       0.052351866 -0.04334546 0.0093704555 -0.04974788
000360 42 c4 6a bd e6 6d 29 bd cf a2 15 bc d9 77 e2 3b
       -0.057316072 -0.041364573 -0.009133055 0.0069112596
000370 f6 76 a9 3d 2f 19 5d bb 25 4a 0a bd 0f e2 ce 3c
       0.08274643 -0.0033736934 -0.033762116 0.025254278
000380 4d 15 0b bd 2d a0 49 bc 5f a8 40 bd 86 fc c3 bc
       -0.03395586 -0.012306255 -0.04703557 -0.023924123
000390 85 18 9d 3c 0a 86 f5 3c af 10 bb 3b c1 7b 90 3c
       0.01917673 0.029971141 0.005708776 0.017637135
0003a0 1a 6e cf bb 2f b7 1f bc 7e 44 9d bd b6 8e 10 bd
       -0.006330264 -0.009748264 -0.076790795 -0.03529235
0003b0 32 9d a7 bc 9a fd cc 3c 72 c3 ca bc 3e 5a e3 3c
       -0.020460699 0.02502327 -0.024751399 0.027752992
0003c0 e3 6a 93 3c f4 57 a9 3c 35 1c 87 3c f9 2b 33 3d
       0.017995303 0.020671822 0.016492942 0.043743107
0003d0 62 cd b0 3d 70 be f0 3c 47 df 84 3d 52 54 9e 3d
       0.08632924 0.029387683 0.06487899 0.077309266
0003e0 24 40 68 3d 6c 82 90 3c de 1f 60 3c 4d 2c 3c bd
       0.056701794 0.017640315 0.013679473 -0.045940686
0003f0 6e 7e 0b 3d 38 50 95 bc 33 d9 cf 3c 4b d2 5f 3d
       0.03405612 -0.018226728 0.025372123 0.05464391

fc1.bias f4 [10]
000000 23 09 61 bd 08 67 d9 bc 99 21 1d bd 37 d2 ed bc
       -0.054940354 -0.026538387 -0.03836212 -0.029030902
000010 d5 83 3f bd a7 34 4f 3d b4 c3 18 bc 0a c5 b3 bc
       -0.046756584 0.050587323 -0.009324003 -0.021944541
000020 06 c8 b2 bb 4d 51 82 3c
       -0.0054559736 0.015907908

fc2.weight f4 [2, 10]
000000 00 12 fb bd d1 2c d6 bd 80 d0 2b be 90 08 1a bd
       -0.122592926 -0.10457767 -0.16778755 -0.037605822
000010 a5 9e 52 3e c5 61 69 3e b5 cd 6b be 45 cd 15 3e
       0.2056833 0.22791202 -0.2302769 0.14629085
000020 9e c6 6b be b2 e5 3c be 7a f3 68 3e 89 76 d3 bd
       -0.23024985 -0.18446997 0.22749129 -0.10325343
000030 27 a3 84 be f4 48 ef 3d 6b c5 85 3e fe a2 87 bd
       -0.25905725 0.116838366 0.2612718 -0.06622885
000040 f0 a0 33 bd 7b 69 64 be 9f b5 49 3e 2d fc 63 be
       -0.043854654 -0.22305863 0.19698189 -0.22264166

fc2.bias f4 [2]
000000 81 6a a3 3e 8f 66 a6 bd
       0.31917194 -0.0812503
