Lab5/model_10_0.0001.pth (torch, 379043 bytes, 54 tensors)

layer1.0.weight f4 [16, 3, 3, 3]
00000000: c5d3 f13d fdcd 0a3e 922e 4fbc 0336 cb3d
00000010: 1890 88bc 133d 9b3d 1bf6 38be 710a bdbd
00000020: 4c97 91bd 2c95 2dbe 5e2e 2a3e 2de1 2dbe
00000030: 0265 a63b d28b 0c3e 4c4b 443e 1948 9abc
00000040: df7b a13c 31f8 3a3e 7c2d 77bc d9bf 123e
00000050: ab92 82bd 6db0 f7bd 3786 abbd 1488 18be
00000060: 144a 3fbe 081c 16be 0f76 0a3e 85d8 e9ba
00000070: 1b15 0abe 3c32 1c3d a2c0 093e ffd3 3bbe
00000080: 4f7a 3f3e 5727 28be d282 03be e4f4 133c
00000090: b325 cf3d 685d 9a3d cdce 91bd 7861 0fbd
000000a0: 02f9 e5bc 03c3 d4bd c78a 2fbe 1002 cf3d
000000b0: 58a4 dcbc 41f7 2a3e 811e 3ebe b759 03bd
000000c0: 742b 29bc 85b8 20bc 1c38 da3d 9bbc ce3d
000000d0: cc72 403d 7acd d03c 9e86 003e 8988 dd3c
000000e0: 96d2 52be f663 2fbd ef0f 1a3e df50 23be
000000f0: 5246 f73a 02e0 2c3e d118 d43c d5a8 02be
00000100: f437 193e 9ebe 423e aea3 073e 5138 c03d
00000110: 6c21 223e f237 15be 8b97 253c 936f 5b3e
00000120: 3835 183e 47b5 39bd e830 063d 25a4 933d
00000130: 49a9 22be a872 383d 06ee 0fbe 6ad5 8f3d
00000140: 3e0c bdbd e399 21be e757 993d aea8 453e
00000150: 4b28 863d 300f ed3c 853a 1fbd 2b72 19be
00000160: acd8 093e 84a5 e5bc e04f ce3d 093e 693d
00000170: c8ba 323d dd00 1a3e 6851 81bd 5968 cfbd
00000180: 6033 79bd 3ee8 1f3e 4f42 bc3d 3363 2f3e
00000190: 0e49 383e 7d66 e93d d2d1 04bd 0997 52bd
000001a0: 8c77 a2bd 06e1 42be 7d69 ee3d dc31 8d3d
000001b0: 004e 4fbd 7680 21bd 4414 a6bd 8f90 2cbc
000001c0: ad00 11be 4eae 3b3e 2a31 d33d e23e 043d
000001d0: 14c2 0b3e 70d7 9abd ea5c 763d 8246 27be
000001e0: 5aee ec3b f2d6 38be 5b65 27be 14f4 413e
000001f0: 3cb6 71bd 5d07 0cbe 1f96 c9bd 21b7 e53d
00000200: 9da4 4abd 9848 bb3d c8a5 a0bd 7665 f43d
00000210: ed64 1b3d 994a e43d 1dc1 5e3d 87ac 3fbe
00000220: 6c24 0e3d 0f53 1b3e 2343 933d 92f0 a8bd
00000230: d0b4 d2bc 69c8 b33d dfae 153d c058 4b3e
00000240: 8cc7 b3bd 6341 9e3d 78b7 223e c46a 58bd
00000250: 9353 243e 0309 383e 245f 1ebe 7eec 2dbe
00000260: 2794 9abd dac4 d1bd a019 8b3d e90d c2bd
00000270: d342 d23d a644 8cbd 1521 3fbe ab00 c33d
00000280: 5177 8a3d b3b5 cb3d 86ae 1f3c bbe0 0cbe
00000290: cb0e f53d 93c6 a4bd 4eae 083e d6e1 243e
000002a0: bdcc 09be d137 c03d bc1d 223e 419c eabd
000002b0: 6e9e 2b3e 3c81 173e 419e 48be 1c3f ff3c
000002c0: 7580 c2bd af7f ae3d 396a c63d df1e 9a3d
000002d0: 6d60 443e 991d 133e da10 203e a6be 343e
000002e0: eee2 443e 991e 98bd c7f2 573d 716e 6cbd
000002f0: f8d4 f13d 7e03 50be 9534 2c3e 9e8f 0a3e
00000300: 402f bfbd c3e1 0bbe f09c 843d 33e1 1f3e
00000310: 8a95 8abd 57af 2b3d 28f9 2cbe 744f 053d
00000320: 0299 c13c cf81 3bbe d1b8 0d3e 0cc9 3a3e
00000330: ae92 653d 73e3 aebd d6b9 3fbd 376d 0c3d
00000340: cfc9 0fbe 79a4 263a 6ef0 0dbd 6e86 7f3d
00000350: e3dd 9e3d 2478 d3bd ad5d 363e 0aff 43bd
00000360: 9c45 af3d a24f 513e d029 4fbd 8c45 1cbe
00000370: 5248 1abe e864 3ebd da5f 323d 5ded 183e
00000380: 55a1 ba3d 2f10 543d 1c36 33be 824e a23d
00000390: ecd7 2bbe 0eec 8b3d 4cb2 99bd 1885 01be
000003a0: f613 8bbd 4c28 2abe bfad 15be 439f abbd
000003b0: ba1c 0cbd 55e1 26be fdad 43be 21d8 21be
000003c0: e202 6fbd 4f29 1bbd 0b7f c4bd 08ac 283e
000003d0: 2f42 433d ba21 1cbe e589 d53c 502d d33d
000003e0: 2290 e5bd a4bf 713d f4e1 923d f94d ac3d
000003f0: 67a6 b9bd ff36 a83c 4e9a 8e3c b3e9 fb3b
0.1180797 0.13555141 -0.012645381 0.09922411 -0.016670272 0.07580008 -0.18062632 -0.09230507
-0.07108936 -0.16951436 0.1661925 -0.16980429 0.005077959 0.13725212 0.19169348 -0.018833207
0.019712387 0.1825874 -0.015086528 0.14330997 -0.06375631 -0.120941974 -0.08375209 -0.1489566
-0.18680602 -0.1465913 0.13521598 -0.0017841017 -0.13484614 0.038133845 0.1345239 -0.18342589
0.18699001 -0.16421257 -0.12842873 0.009030554 0.101146124 0.07537347 -0.07119522 -0.035005063
-0.028072838 -0.10388758 -0.17142783 0.10107815 -0.026933834 0.16695882 -0.18566324 -0.03206798
-0.010325301 -0.009809618 0.10655233 0.100945674 0.04698448 0.025488604 0.12551352 0.027042644
-0.20588145 -0.04281994 0.1504514 -0.15948819 0.0018865562 0.16882327 0.02589074 -0.12759717
0.1496275 0.19018027 0.13246033 0.093857415 0.15833062 -0.14572123 0.010106931 0.21429281
0.14864051 -0.045338895 0.032761484 0.072090425 -0.1588489 0.04503122 -0.14055642 0.070231274
-0.09230851 -0.1578136 0.07487469 0.19302627 0.06550654 0.028937906 -0.038874168 -0.14984958
0.1346156 -0.028033026 0.10073829 0.056943927 0.04363516 0.15039392 -0.06314355 -0.101273246
-0.06084001 0.15615937 0.09192335 0.17127685 0.17996618 0.11396501 -0.032426663 -0.05141357
-0.07932958 -0.19031152 0.11641214 0.068942755 -0.050611496 -0.03942915 -0.08109334 -0.010532512
-0.14160414 0.1832821 0.10312112 0.032286532 0.13648254 -0.07560623 0.060147204 -0.1633549
0.007230562 -0.18050745 -0.16347258 0.18940765 -0.059011683 -0.13674684 -0.098430865 0.1121657
-0.049473394 0.091447055 -0.0784412 0.11933415 0.037938047 0.11147041 0.054383386 -0.18718158
0.034702703 0.15168403 0.0719054 -0.0824901 -0.025720984 0.087784596 0.036543723 0.19858074
-0.08778295 0.07727315 0.158903 -0.052836195 0.16047506 0.17972188 -0.15465981 -0.16984746
-0.07547789 -0.102426246 0.06791997 -0.094753094 0.10266652 -0.06849031 -0.18664964 0.09521612
0.06761039 0.09946766 0.0097461995 -0.13757603 0.11965712 -0.080456875 0.13347742 0.16101775
-0.13457008 0.09385646 0.15831655 -0.11455584 0.16759655 0.14795393 -0.19591619 0.031158023
-0.094971575 0.085204475 0.09688229 0.075254194 0.19177409 0.1436676 0.15631428 0.17650852
0.19227192 -0.07427711 0.052721765 -0.057722513 0.11808199 -0.20313832 0.16816933 0.13531348
-0.09335184 -0.1366034 0.06475246 0.1561325 -0.067668036 0.041915264 -0.1689192 0.032546476
0.02363253 -0.18311237 0.13840033 0.18240756 0.056048088 -0.08539476 -0.046808086 0.034283843
-0.14041828 0.0006356906 -0.03465312 0.06238406 0.07757165 -0.103256494 0.17809172 -0.047850646
0.08558199 0.20440534 -0.050576985 -0.15260905 -0.1506665 -0.04648295 0.043548442 0.14934297
0.09112803 0.051773246 -0.1750111 0.079251304 -0.16781586 0.06832133 -0.075047106 -0.12648427
-0.067909166 -0.16616935 -0.1461706 -0.08379986 -0.034207083 -0.16296895 -0.1910934 -0.15805103
-0.05835236 -0.03788119 -0.09594544 0.16471875 0.04767054 -0.1524724 0.02606673 0.10311377
-0.11209132 0.059020653 0.071720034 0.084133096 -0.09064942 0.020534037 0.017407563 0.007687771

layer1.0.bias f4 [16]
00000000: 4e28 c53d 3083 1dbe 80fa 95bd 9a4b 723d
00000010: 9905 a4bd 8c54 1f3e bff7 d8bd d853 bfbd
00000020: 6a7b 1b3e c909 bb3b 82a5 adbd 17b9 5bbd
00000030: 146c 283e 02e6 c9bd cae7 01be 59ab 893d
0.09626828 -0.15382075 -0.0732317 0.05915413 -0.0800888 0.15559596 -0.10594129 -0.09342164
0.15183797 0.0057079536 -0.08478834 -0.053643312 0.16447479 -0.09858324 -0.12686077 0.06722135

layer1.1.weight f4 [16]
00000000: ff4f 7d3f d634 803f 3dec 7f3f e3ac 803f
00000010: 5eb3 803f ce85 7e3f 718d 7f3f e885 803f
00000020: 9e67 7f3f c298 7f3f 6455 7d3f 9524 803f
00000030: 1ccf 7d3f 5f10 813f cafc 803f c203 803f
0.9895019 1.0016124 0.99969846 1.0052761 1.0054739 0.9942292 0.998252 1.0040865
0.9976748 0.99842465 0.9895842 1.0011164 0.9914415 1.0083121 1.0077145 1.0001147

layer1.1.bias f4 [16]
00000000: 5f79 17bb f2d0 eebb dec5 99bb cc0f 0c3c
00000010: 53a2 e73c abb2 1cbc 1bb5 a0bb 67f9 863c
00000020: be7c 7bbb 412f 8f38 71fe ddbb cf30 1739
00000030: fcd6 17bc 62ad 573c 2ff1 9dba 12f9 9cb8
-0.0023113114 -0.007288092 -0.004692777 0.008548688 0.028275644 -0.009564082 -0.004904402 0.016476346
-0.0038373913 6.827573e-05 -0.0067747165 0.00014418665 -0.009267565 0.013163896 -0.0012050028 -7.4850526e-05

layer1.1.running_mean f4 [16]
00000000: 9c19 d43d b95f 8fbe b45d 8d3e 2057 d73e
00000010: d32f 15be 87d8 a23e 55cd 023f 1da1 95bd
00000020: 4544 d2be 4dcf 6c3e cceb 9e3e 75ab c03d
00000030: 4b81 8a3e 108e 27be 0334 08bf f92e 783e
0.10356447 -0.28002718 0.27610552 0.4205866 -0.14569025 0.31805822 0.5109456 -0.073061205
-0.4106771 0.23125954 0.31039274 0.09407703 0.27051768 -0.16362786 -0.53204364 0.24236669

layer1.1.running_var f4 [16]
00000000: d826 913b 66bd 7e3b e6b6 fb3c b406 1f3d
00000010: e05d 3a3b b7fd d83b 937e 023e 1734 983a
00000020: 6084 fd3d fdf7 3a3c 4567 133d 32dd c43b
00000030: 046b 243c 58da 013b 5f8a 603d dc37 273c
0.0044296794 0.0038870214 0.030726861 0.038824752 0.0028437302 0.006622042 0.12743597 0.0011612204
0.12378764 0.011411664 0.035987157 0.006007814 0.01003528 0.001981398 0.05481946 0.010206189

layer2.0.weight f4 [32, 16, 3, 3]
00000000: d922 17bb b4b8 573d 5762 91bd 8196 a4bb
00000010: 8482 9bbd fd5b 803d 7df9 9d3c 376a 953d
00000020: 89d8 aebd c076 763d 33a3 80bd d6b7 573d
00000030: fc9a a4bd 0bb5 6a3d decb cc3c 2f6d d6bc
00000040: 8303 30bd 4610 bdbc 38ce febc 4cc1 8d3d
00000050: 22a0 40bc b61f 65bd 8dba 7f3c a31c abbd
00000060: 3265 93bc 15d9 103c 60a7 843d 9954 4a3d
00000070: d836 fbbc 9eeb 973c d2f6 3dbc 7ff7 393d
00000080: b075 8f3d e895 583d 4f6f 403d 8fa4 7e3d
00000090: e6bf efbc 7dc4 953d 8b8e bcbc 849a 33bc
000000a0: 0cb6 913d 110f 813c 6524 273d f487 423d
000000b0: d0de 0bbc a507 47bd c8b1 e8bc 990c 8e3d
000000c0: d294 323d b08b a2bd 18b7 dabc ce32 21bd
000000d0: bb97 f13c aa29 eabc 01e3 863c c2c4 f23c
000000e0: 5408 bdbc cc01 25bd 09eb 8ebd 8b35 ec3a
000000f0: be31 3ebd a1bb 2dbd 61c5 97bd d514 233d
00000100: fc50 2937 35ba 383d 039e 31bd 6d17 7a3d
00000110: 26ad ad3c 99b3 bc3d 9e5c 4ebd 814c 633d
00000120: 1fc2 45bd db7a acba 0da2 94bd bfa2 1f3d
00000130: 61aa f9bc 6750 673c 1b84 5ebd 801c 663c
00000140: 0cc7 0cbd 0fe4 183d fee5 be3c e5f5 33bb
00000150: 79f2 66bd be9d 9ebc a994 2b3d 56c3 18bd
00000160: 2dd6 1fbd 7118 79bc 85b2 92bc ba92 933d
00000170: 4aef 4abd 6bcf 0cbd e179 3f3d be80 07bd
00000180: 33c4 7a3d cbac f2bc 9660 ab3d ba1b 7b3d
00000190: f859 3cbc 9525 d73c dd16 a8bd 6efc 6ebd
000001a0: bd43 663c 0487 5f3d 6d03 91bc fbde 8abd
000001b0: 3914 5ebd 87e1 45bd 55f6 c03c 6271 0e3d
000001c0: 78cf 86bc c094 72bd 4f27 1b3d 0706 8a3c
000001d0: 5d73 c0bb 1202 1d3d 4b4f f63c bdba 243b
000001e0: f95c 75bd 126c 823b 4771 afbd c3b3 38bd
000001f0: dc31 5b3c cb5e 533b 84b6 8bbd 7da1 7fbd
00000200: ae0b 32bd ccc0 13bd 7018 8c3d 05bc 773a
00000210: fbdf 85bd ef40 923d ac53 363d d857 32bd
00000220: 9219 81bd 0b22 d0bc 4159 5b3d 55a5 74bd
00000230: 6db1 193d fda6 cbbc 8f2b 443d 2d85 6a3c
00000240: 4320 8f3d fe95 a5bd f52e e33c 507c 98bc
00000250: b729 d3bc 8140 43bd 435f 9c3d d130 8fbd
00000260: 3481 73bd bfd5 c7b9 7777 3abd f328 3e3d
00000270: 74a8 823d 4f32 9ebc 2c57 893d 2e9d 5d3d
00000280: 5398 9bbd d398 bf3c aa1b 243d 6847 47bd
00000290: 760d 88bd 8bef 933d 7cba a8bd 6639 323d
000002a0: eacc 8abc 880d 4fbd fd38 563d 3585 b3bc
000002b0: d9f3 80bc 6151 543c cb73 0ebd 0790 37bc
000002c0: 1e35 4d3d a645 65bc 4a6f d9bc dc66 c23c
000002d0: 4246 62bb 12e8 863a 13b0 1ebd e528 0d3d
000002e0: 422b 353d 900b a7bc 3193 27bd bfeb c63c
000002f0: 9b46 a53c eef0 56bd 4450 853d 6ede c8bb
00000300: e03e 9f3d 110b 713d dc88 12bd 5f22 bfbc
00000310: 7cd5 683d 383c aebd 0b45 63bd 583d 09bd
00000320: d92f 303c 3be9 683d a1a9 b3bd 830c 083c
00000330: 424d 2cbd 4f60 c7bc 9c6e 32bd 217f 0ebd
00000340: 82af b2bd 870a 81bd 6d63 8ebd dcc9 f63c
00000350: 7082 75bd 647f 253d 9671 81bd b0ce ac3b
00000360: be1e 91bd f0b2 2f3d 0085 93bd 4150 2c3c
00000370: f398 15bd 33d9 32bd 40c2 35bc ec2a 82bd
00000380: 6be1 613d af91 e2bc b1ec e63c 31c6 8dbc
00000390: 888d 1abc e87d 39bd 72bc 3d3d 322e 6bbc
000003a0: 49e4 9bbc 8b47 4abd 638c 413c 52a6 73bd
000003b0: d93a bebd 79c8 94bd c171 a83c 1a6d b0bc
000003c0: 4d90 1dbd 3388 13bd bed6 843d 070a 3cbb
000003d0: 65b7 a5bc 426d 4b3d 3c96 2f3c a3d1 cdbc
000003e0: 9fe4 143d 3261 923d c8fb a8bd 18bb 3b3c
000003f0: 0bc3 79bd 4fa6 6e3d 7b0b c83b 6a0a ae3c
-0.0023061542 0.05266638 -0.07098835 -0.0050228243 -0.07593253 0.06267545 0.019284004 0.072956495
-0.085373946 0.060171843 -0.06281128 0.052665554 -0.080373734 0.057301562 0.024999555 -0.02617511
-0.0429721 -0.023079049 -0.031104192 0.06921634 -0.011756929 -0.055938445 0.015608442 -0.083550714
-0.01799259 0.008840819 0.06477237 0.049397085 -0.0306658 0.018544968 -0.011594491 0.045402046
0.07004869 0.052877337 0.046981152 0.062168654 -0.029266309 0.07312868 -0.023017189 -0.010962132
0.07114801 0.015754255 0.040806193 0.047492936 -0.008537009 -0.048591275 -0.028405085 0.069359966
0.043598957 -0.079367995 -0.026698634 -0.03935509 0.029491296 -0.02858432 0.016465666 0.029634837
-0.02307526 -0.040284917 -0.06978423 0.0018021328 -0.046434157 -0.042415265 -0.07410694 0.03981479
1.0092041e-05 0.045099456 -0.043363582 0.061057497 0.021200728 0.09213943 -0.050381295 0.05549288
-0.04828083 -0.0013159172 -0.07257471 0.038973566 -0.03047675 0.0141182905 -0.054325204 0.014044881
-0.034369513 0.03732687 0.023303028 -0.0027459797 -0.056383584 -0.019362327 0.04188982 -0.037295662
-0.039022613 -0.015203581 -0.01790739 0.0720572 -0.04954461 -0.034377497 0.046747092 -0.033081762
0.061222266 -0.02962341 0.08368032 0.06130574 -0.01149606 0.026263038 -0.08207486 -0.058346204
0.014054236 0.05457212 -0.017701829 -0.067808114 -0.054218505 -0.048310783 0.02355496 0.0347761
-0.01645635 -0.05922389 0.037879284 0.016848577 -0.0058731274 0.038332053 0.030067107 0.0025135719
-0.05990312 0.003980168 -0.08566528 -0.04509331 0.013378587 0.0032252546 -0.068219215 -0.062409867
-0.04346817 -0.036072537 0.068405986 0.00094503193 -0.065368615 0.07141291 0.04451339 -0.043540806
-0.06303705 -0.025406858 0.053551916 -0.059727985 0.037522722 -0.0248599 0.047893103 0.014313978
0.06988575 -0.08085249 0.027732352 -0.018613964 -0.025776727 -0.047668938 0.07635357 -0.06991733
-0.05944939 -0.0003811549 -0.045524087 0.04642577 0.06379786 -0.019311098 0.0670608 0.054104976
-0.07597413 0.023388302 0.040065445 -0.048652083 -0.066431925 0.072234236 -0.08238694 0.04351177
-0.016943414 -0.050550014 0.052300442 -0.021914104 -0.015741276 0.012958855 -0.034778398 -0.011203772
0.050099485 -0.013993656 -0.026542325 0.023730688 -0.003452674 0.0010292551 -0.038742136 0.03446283
0.044230707 -0.020391256 -0.040911857 0.024282334 0.020175269 -0.052475862 0.0650945 -0.0061300313
0.07775664 0.058848444 -0.03577505 -0.02333182 0.05684422 -0.085075796 -0.055485766 -0.033505768
0.010753595 0.05686305 -0.087725885 0.008303764 -0.042065866 -0.024337916 -0.043562517 -0.03478921
-0.08724882 -0.06300836 -0.06952558 0.03012555 -0.059938848 0.040404692 -0.06320493 0.0052736625
-0.07085942 0.042895257 -0.07203102 0.010517181 -0.036522817 -0.04366417 -0.011093676 -0.06355843
0.055146616 -0.027657358 0.028189035 -0.01730642 -0.009433158 -0.04528609 0.046322294 -0.014354276
-0.019029753 -0.049384635 0.011813256 -0.059484787 -0.09288568 -0.072647996 0.020562055 -0.021536399
-0.038467694 -0.03601856 0.06486271 -0.00286925 -0.02022905 0.049664743 0.010716971 -0.025124377
0.036350843 0.07147445 -0.082511485 0.011458181 -0.060977023 0.058264073 0.006104884 0.0212452

layer2.0.bias f4 [32]
00000000: 98dd 4ebd cea3 3dbd fa32 1dbd 2e63 2b3c
00000010: c22c 77bd 3406 0cbd a3df a43b 2f42 a9bd
00000020: af68 fcbb f45b 11bd b123 ac3d f608 a83d
00000030: 6ba3 9a3d 812b 953d 2ca1 25bd 274f 783d
00000040: 7c60 46bd e5c0 4c3c dc89 a6bb 9c3f 8b3d
00000050: 93cb 21bd f55c 363d 12aa d3bc 093d 43bd
00000060: bbfb a03c 615f df3c 5d6a bf3c c1a7 f4bc
00000070: 5c9f 8c3d 3589 3e3d e051 45bd b9ee 383d
-0.050504297 -0.046298794 -0.038378693 0.010460658 -0.06034542 -0.034185603 0.0050315424 -0.08264577
-0.007702909 -0.035488084 0.08405245 0.08204834 0.07550701 0.07283688 -0.04043691 0.06062236
-0.04843186 0.0124971615 -0.005082352 0.06799242 -0.039500784 0.044522244 -0.025837932 -0.04766563
0.019651284 0.02726716 0.023366148 -0.029865148 0.06866333 0.04651757 -0.048173785 0.04514954

layer2.1.weight f4 [32]
00000000: a861 7e3f 7448 7d3f 0708 813f c994 7c3f
00000010: 49d8 7d3f 10dd 7f3f 9fba 803f 4d4d 803f
00000020: b60d 7e3f 7a37 803f a78e 803f c547 7f3f
00000030: b0da 7e3f 1697 7f3f 3a02 813f 97db 823f
00000040: 6b24 803f 6d7b 813f 16b1 7e3f cc84 7d3f
00000050: 1200 803f cd9e 7d3f 7704 7d3f 5f90 7f3f
00000060: 1374 803f 330d 813f f053 7f3f 4756 7f3f
00000070: 88f7 7e3f 3381 7f3f e02f 7e3f f340 803f
0.9936776 0.9893868 1.0080575 0.9866453 0.9915815 0.9994669 1.0056952 1.002359
0.9923967 1.001693 1.0043534 0.99718887 0.9955244 0.99839914 1.0078804 1.0223264
1.0011114 1.0115792 0.9948896 0.99030757 1.0000021 0.99070436 0.9883494 0.9982967
1.0035423 1.0082153 0.99737453 0.99741024 0.9959645 0.9980652 0.992918 1.0019821

layer2.1.bias f4 [32]
00000000: 2103 22bc 2a4c b9bb 07a6 d03b 98b6 2abc
00000010: e709 f93b 96b5 863b d4e4 c0bb 430a 6abb
00000020: 1a9e 90bb ee59 fbbb ee44 09bc 4d92 10bc
00000030: 766f 46bb 933a 92bc 9eae 1538 5dc1 2a3b
00000040: 1419 803c 372b 3dbc 69c1 61bc 882d a63b
00000050: cdca 083b d464 b0bb ca1b a5bb 8e54 f8ba
00000060: 7549 5fbc 8e72 c9bb a609 2dbc 9d80 603b
00000070: 261e a8bb c525 a1bb c007 6abb 0c30 253b
-0.009888441 -0.0056548314 0.0063674483 -0.01041951 0.0076000574 0.004111002 -0.0058866534 -0.0035711683
-0.0044133784 -0.0076706326 -0.0083782505 -0.008823943 -0.0030278838 -0.017850196 3.5686993e-05 0.0026055195
0.015636958 -0.011545948 -0.013779023 0.0050713457 0.0020872832 -0.0053831134 -0.005038713 -0.0018946098
-0.013628353 -0.006147689 -0.010561382 0.0034256347 -0.005130547 -0.0049178326 -0.0035710186 0.002520564

layer2.1.running_mean f4 [32]
00000000: 16ad 36be f1a6 1abf c368 1cbe 643d dcbe
00000010: 32b0 aabd f025 88bd 02ea c33e 840a d2be
00000020: 35f7 e93e 7fb9 f5bc b6d0 483e 25ac eb3e
00000030: bec0 4fbd dde0 d73e 80a1 e6be 938d 0cbf
00000040: 5457 ffbd 0e4a 5b3f 7aea 1a3d daab 55be
00000050: 3686 f63d 0e67 9b3d 3bf7 24be 7911 d0be
00000060: a22e 0c3e 11fa 5ebf a7d3 44be 7cdb b2be
00000070: 6164 89be 593c f13d 4d55 38bf 74b7 99be
-0.17839465 -0.6041098 -0.15274338 -0.43015587 -0.08334388 -0.06647861 0.3826447 -0.41023648
0.45696416 -0.029995678 0.19610867 0.46029773 -0.050720923 0.42163745 -0.4504509 -0.54903525
-0.124678284 0.85659873 0.03782127 -0.20866337 0.120373175 0.075880155 -0.16109936 -0.4063833
0.13689664 -0.8710032 -0.19221364 -0.34933078 -0.26834396 0.117790885 -0.7200516 -0.30022776

layer2.1.running_var f4 [32]
00000000: b162 0d3d f0e6 e13e 64c1 b93d 7bff 813e
00000010: e741 943e 7e51 6a3e 5c90 f53d cf49 d33d
00000020: b90c 463e d7dc 243d 7646 393e 5e72 743e
00000030: 019f 143e 4825 2f3e 023f be3d e3d5 1c3e
00000040: 10c3 2f3d a1e7 963e b6d2 dd3d 9719 d23d
00000050: 026a c53e 4ff4 3c3e 5082 3c3d 9bff 023e
00000060: 9449 e63d 1b29 8c3e a772 a53d d52e c83d
00000070: 5f53 9b3e 1f12 813e dc8f e53e d426 373e
0.034517948 0.44121504 0.090700895 0.2539023 0.2895653 0.2288265 0.11990425 0.10316812
0.19340791 0.04024967 0.18093285 0.23871753 0.1451378 0.17104065 0.092893615 0.15315966
0.042910635 0.29473594 0.108312055 0.10258787 0.3855744 0.18452571 0.046022713 0.12792818
0.11244503 0.2737511 0.08078509 0.097745575 0.30337045 0.25209138 0.44836318 0.17885906

layer3.0.weight f4 [64, 32, 3, 3]
00000000: cd99 d9bc 2ec8 103c 3a69 4bbd 0fdf 66bb
00000010: a991 27bd 63d2 08bd 6a58 793c d32a 23bd
00000020: db3d ca3c f630 243d 2887 28bd da8f dd3c
00000030: a9cd 91bb ec02 ff3c 0e09 ea3c c95b 77bd
00000040: bab9 57bd bb6a cc3c 2595 07bd 2800 aa3c
00000050: 20b4 8a3d a65b 1ebc de8c 3cbd 2d30 28bd
00000060: 0b92 723c a08d 5c3d d597 6d3d 464d 6dbd
00000070: 8ec1 d83c 510d 9f39 cc96 2c3c f343 253d
00000080: 2754 2ebd bd37 8ebc b175 40bd 264f 2e3d
00000090: bc60 16bd 9f1d c9bc 4f82 2d3c 1a42 073d
000000a0: c711 e8b9 839b 6b3d 5234 403c aa5b 00bc
000000b0: e9f5 743d f408 2bbd 8ca1 643c 3474 1ebd
000000c0: 7079 69bd 0b05 ccbb c764 21bd 16e2 c93c
000000d0: 7420 84bb 179d 683c 0760 45bb bd12 8d3c
000000e0: 5523 5c3d 0efa 4abc 92df b73c 01a4 0a3d
000000f0: b623 20bc 47bb fbbc bded a6bc 1081 203d
00000100: 03a6 c93c e302 f33c 87e3 043d 82d8 65bd
00000110: 9f3f 233d b8ec 283d 59fe f63c 89e8 42bc
00000120: 9446 3c3d d089 80bd 2d14 233d 6df5 b4bc
00000130: b3cf 5d3d 9a5e 033d 9dbe 413c 2cff 6cbd
00000140: 12ef 1d3d 55de f2bc d1c4 7b3d 7b21 243c
00000150: 43d5 a1bc 6974 8c3d ea24 26bd 5648 873d
00000160: 20f3 723d a5e6 c0bb f716 6ebd 4baf 563d
00000170: 7eba bdbc 5965 d7bc fbbd 43bd 1739 6e3d
00000180: 3e0b e93c 188d 55bc d8cb 153d ba26 3dbd
00000190: a141 ea3c a397 603d 6169 653d a3e5 923c
000001a0: 475a 503d 8f5d 2d3d a8eb f8bb 7d73 02bd
000001b0: 0c45 a03b ce79 25bd d48c 40bd 8107 31bd
000001c0: e338 b63c 6c6f c23b aad5 f93c 8194 b9bc
000001d0: 2ff5 013d 6d78 e5bb 0421 68bc a57e 20bc
000001e0: 804f 57bd ed42 b9bb 1f9d 4d3d e1dc 15bd
000001f0: 19af 533d 20c6 e9bc 5bf8 6cbc f2f9 2c3d
00000200: d562 3fbc f66e 3bbd 5e93 573d 4006 173d
00000210: 3b1b 7cbc bcdf babb 0b3d 533d 6566 863b
00000220: 6080 53bd ea3b 1cbd 0699 14bc fb04 133d
00000230: 2588 a6bc e246 8bbc d29a 1dbd 64a5 0ebc
00000240: 7104 633c d9c2 a33c 8124 4ebd a95f 9c3b
00000250: 8852 d6bc 9272 303d 6c12 2c3d 395a 203d
00000260: 6bc0 7cbc e82a 25bd 9bd9 4d3d f144 5bbd
00000270: 4324 12bd 8f2b 4d3d 4117 1fbd 6cfc 653d
00000280: 2fe1 d53c 549a 11bd e49f c6bb c66d 893c
00000290: 1c32 0dbc 9023 273d 0758 cb3a 4c03 af3b
000002a0: 1f8e 4e3d 77b8 59bd 1ff9 963c 8b90 bcbc
000002b0: 1847 e73c c1e5 3e3d c77a 9b3c 1910 ddbc
000002c0: 390b f03c e1fe 26bd 75dd 1ebd 5ece 46bd
000002d0: a274 eb3c 3964 863c bc62 073d 20f8 9bbc
000002e0: 0f37 073d 9a77 1e3d c648 57bd a6d1 2dbd
000002f0: 1540 1d3d dc07 5ebd 4cf2 60ba 7527 923c
00000300: 13d1 5fbd ae8c 2abc a67e 8c3b 5186 22bd
00000310: 6e05 b6bc 0684 783d 845a 12bd d89d 5b3d
00000320: 7f9b 613d 4751 643c 9c20 2d3c 1f94 60bc
00000330: 6fdf 473d 8977 3abc bcc0 e4bb 3019 0f3d
00000340: 6280 66bd 0d23 453d 25ce 83bd 630f 79bd
00000350: f882 3fbd 1a54 f33b 74dd 03bd 7fb2 f6bc
00000360: 6d21 38bd 9cc1 f3bc db51 46bd 9a79 0e3d
00000370: 106e e6bc de01 433c 3b6b 5ebd a6c4 443d
00000380: 6ecd 4dbd be08 cebc 784b fc3c 2dee 77bd
00000390: 6a22 453d d13c be3c 6720 65bd 2919 4f3c
000003a0: 9102 4dbd 33d0 1bbc 2567 08bd ede2 1abd
000003b0: 5a12 bb3b 83b5 06bd 84ff 623d f08e 04bd
000003c0: 4739 1a3d 2089 233c 0924 543c 9cad d2bc
000003d0: c7f7 35bb 36df 333d 7494 763d d4db 3e3d
000003e0: c0b1 c0bc e29e ab3a 8d28 edbc 7c45 efba
000003f0: a060 8bbc 2081 f4bc f2bd 60bc 5811 463d
-0.026562596 0.008836789 -0.0496609 -0.0035228168 -0.040910397 -0.033403765 0.015218833 -0.039835762
0.024687698 0.040085755 -0.04114452 0.027046133 -0.0044495654 0.031129323 0.02856877 -0.060390268
-0.052667357 0.024953237 -0.03310122 0.020752028 0.06772637 -0.009665405 -0.04603278 -0.04106157
0.014805327 0.053846 0.058006126 -0.05793502 0.026459482 0.00030336765 0.010534 0.040348005
-0.042560723 -0.017360562 -0.04698724 0.04255595 -0.036713347 -0.024550257 0.01059015 0.033022024
-0.00044263733 0.057521354 0.011731224 -0.007834354 0.05980483 -0.041756585 0.013954531 -0.03868504
-0.057000577 -0.006226187 -0.03940275 0.024643939 -0.004032189 0.014197609 -0.0030117051 0.01722085
0.053744633 -0.012388719 0.022445474 0.033847813 -0.009774139 -0.03072895 -0.020377034 0.039185584
0.024615293 0.029664462 0.03244355 -0.05611468 0.039855596 0.041241378 0.03015058 -0.011896261
0.045965746 -0.06276286 0.039814163 -0.022089684 0.054153156 0.03207264 0.011825231 -0.05786054
0.038558073 -0.029647032 0.061466996 0.010017748 -0.019755011 0.06858141 -0.040562548 0.06605594
0.059313893 -0.00588687 -0.05812737 0.052413266 -0.023160215 -0.026293444 -0.0477886 0.058159914
0.028447744 -0.013034128 0.036571354 -0.04617951 0.028595747 0.054832112 0.0560087 0.017931765
0.050867345 0.042325553 -0.007596452 -0.03184842 0.0048910435 -0.040399365 -0.047009304 -0.043220047
0.022243923 0.0059336927 0.03049739 -0.02265382 0.031727966 -0.0070028813 -0.014168028 -0.009795819
-0.05256605 -0.00565373 0.05019867 -0.0365876 0.051680658 -0.028536856 -0.014463509 0.042230554
-0.011681278 -0.045760117 0.052630775 0.036871195 -0.015387352 -0.0057029407 0.051571887 0.004101562
-0.0516361 -0.038143076 -0.009069687 0.03589342 -0.02032859 -0.017001573 -0.038477726 -0.008706424
0.013856039 0.019990372 -0.05032778 0.0047721458 -0.0261624 0.043078013 0.042009756 0.039148543
-0.015426735 -0.04032412 0.050256353 -0.053532545 -0.035679113 0.05009037 -0.038840536 0.05614893
0.026108352 -0.03554757 -0.006061541 0.016775977 -0.008617904 0.0408054 0.0015513905 0.005340969
0.050428506 -0.053154435 0.018429337 -0.023018142 0.028232142 0.04660583 0.018979443 -0.026985215
0.029302226 -0.040770415 -0.038785417 -0.04853665 0.028742138 0.016405212 0.033053145 -0.019039214
0.033011492 0.03868828 -0.052559637 -0.042436264 0.03839119 -0.054206714 -0.0008581027 0.01784108
-0.054642748 -0.010409517 0.0042875586 -0.039678875 -0.022219386 0.060672782 -0.035730854 0.05361733
0.055079933 0.013935394 0.010566857 -0.01370719 0.048797067 -0.011381038 -0.0069809835 0.03493613
-0.05627478 0.04812913 -0.06435803 -0.06080569 -0.04675576 0.007425797 -0.032193616 -0.03011441
-0.044953752 -0.029755406 -0.048417907 0.034783937 -0.028128654 0.011902301 -0.05430148 0.0480391
-0.05024474 -0.025150653 0.030797705 -0.060529877 0.048128523 0.023222359 -0.055939104 0.012640276
-0.050051276 -0.009510088 -0.03330149 -0.03781407 0.005708975 -0.032887947 0.05541946 -0.03236288
0.03765228 0.009981424 0.012948045 -0.025717549 -0.0027766095 0.043914042 0.06020017 0.046596363
-0.023522258 0.0013093615 -0.02895 -0.0018254961 -0.017013848 -0.029846728 -0.0137171615 0.048356384

layer3.0.bias f4 [64]
00000000: 7797 253d 2d83 1fbd 20ff 9d3c e0e8 883b
00000010: 2cac 09bc 33fb 13bd ca63 5a3d bd0e c0bc
00000020: baa6 d23c 3535 0e3d c2ec cabc 10bc 393d
00000030: 88e7 133b 4a9f bebb 9599 3e3d 4ab8 91bc
00000040: e435 2c3c a17a 58bd cc58 733d bf33 f8bc
00000050: 66c7 0f3d f932 64bc 3ec0 e7bc bd40 6d3d
00000060: 5f6c 473c 436e 243d fe27 49bd 0d70 2e3d
00000070: 9eea bfbc f7c2 c7bc 05bc a83b 06ec f83c
00000080: ecf1 32bd 4040 623d 66a0 06bd 4f82 a7bb
00000090: 32ae 703d 9774 b1bb 8d75 2bbd e19f 153d
000000a0: edff 4f3d 42eb b03c f414 83bb 84a2 023b
000000b0: 0a61 293d 7760 0d3c 0e38 5b3d 8d2a 823c
000000c0: ac50 fcbc 0384 6ebc 503e 633d 36a9 e33c
000000d0: 343e 6e3c e0b6 2fbc bf49 813a 7d6c 5b3d
000000e0: a2f0 06bd 9678 10bd 9fe6 95bc f13e 4f3d
000000f0: d759 103d e1a6 6b3d f123 a13c 6853 5abd
0.04042765 -0.03894346 0.019286692 0.0041781515 -0.008402865 -0.036128234 0.053317823 -0.023444528
0.025714267 0.03471871 -0.024771098 0.045345366 0.0022568423 -0.0058173286 0.046533186 -0.017788071
0.010510895 -0.052851323 0.059410855 -0.030298112 0.03510227 -0.013928168 -0.02828991 0.057923067
0.012171834 0.040144216 -0.049110405 0.04258733 -0.023427304 -0.024384959 0.005149367 0.030385982
-0.043687746 0.055237055 -0.03286781 -0.0051119695 0.058759876 -0.00541551 -0.041860152 0.036529426
0.05078118 0.021596555 -0.0040003005 0.0019933293 0.04135231 0.008628956 0.053520255 0.01588943
-0.030800186 -0.014557841 0.055479348 0.027790647 0.014541198 -0.010724753 0.0009863897 0.05357026
-0.03294433 -0.03527125 -0.018298445 0.050597135 0.035241928 0.057532195 0.019670459 -0.0533022

layer3.1.weight f4 [64]
00000000: 6b07 813f c65e 803f 130c 803f f683 803f
00000010: 5791 813f 0ab1 803f 2e87 813f 9b30 7e3f
00000020: 66da 803f cca4 803f e922 803f fc85 803f
00000030: 96d9 803f f2f2 803f a21a 803f 9c42 803f
00000040: e4e3 803f ad7c 7f3f 52c2 803f ca35 7f3f
00000050: 7beb 803f 508c 7e3f 8f35 813f 7708 803f
00000060: 8eda 7f3f 5017 7f3f 025c 813f 2983 803f
00000070: 410c 823f 673f 7f3f 874f 813f 3949 803f
00000080: 8e6b 813f c1da 803f c025 803f 52d0 7f3f
00000090: 504a 803f 555c 803f 0f16 7f3f c33b 7f3f
000000a0: 6631 813f d1c2 803f c808 813f 4228 803f
000000b0: 0b1a 823f 7dca 803f 135e 803f fd5e 803f
000000c0: 4b96 813f eb07 813f 0002 823f 87d4 7f3f
000000d0: 9434 803f fd75 813f e16e 803f 7f4a 803f
000000e0: 511e 813f 3536 7f3f a670 813f 9267 803f
000000f0: 0546 803f e63d 803f 93f6 803f d90a 803f
1.0080389 1.0028923 1.0003685 1.0040271 1.0122479 1.0054028 1.0119379 0.99292916
1.006665 1.0050292 1.0010654 1.0040889 1.0066402 1.0074141 1.0008128 1.0020328
1.0069547 0.99799615 1.0059302 0.9969145 1.0071863 0.9943285 1.009447 1.0002583
0.99942863 0.9964495 1.0106204 1.0040027 1.015999 0.9970612 1.0102395 1.0022346
1.0110948 1.0066758 1.001152 0.99927247 1.0022678 1.0028177 0.99643034 0.99700564
1.00932 1.0059453 1.0080805 1.0012286 1.0164198 1.0061795 1.0028709 1.0028988
1.0123991 1.0080541 1.015686 0.99933666 1.0016046 1.0114132 1.0033838 1.0022734
1.0087377 0.9969209 1.0112503 1.0031607 1.0021368 1.001889 1.0075248 1.000331

layer3.1.bias f4 [64]
00000000: 0ed9 bc3b 0e41 4b3b 6c79 10bb e7f7 82bb
00000010: da7a d3b9 95b5 083a 553c 28bb 64a7 12bc
00000020: 4ff1 343b 3f8e ec38 1a24 b93a 588a 0e3a
00000030: 3769 1a3b aa26 173b 7412 59bb 8fdf 26bb
00000040: eb88 d8ba 65a4 a03b f082 3bbb f041 88bb
00000050: e132 de3a 30b7 4bbb 0a35 d7ba 6dbd 0bba
00000060: f2dc 31bb d01b f1bb 74a5 b4ba f190 cf3a
00000070: 515b 4c3a 630d 43bb adfd 7cb9 473f 8f3b
00000080: 635f 30b9 5877 15bb e084 973a 31a6 c43a
00000090: efab b1b5 3e65 0239 efc4 ba3a cec9 2bbb
000000a0: 4163 9d3b c7ad 66bb d1b3 eb38 cd92 22bb
000000b0: a719 043c 4746 763b 884b 5bbb 278e 72ba
000000c0: 8b53 dc3b 6ae7 303b 529d dc3b 2041 66bb
000000d0: 7e5a 543b 0e05 3dba 66e6 b83b d02f e5ba
000000e0: d5f1 18bb 8c8f 1ebb 75ed eab9 984e 70bb
000000f0: f4b7 5b3b 15b0 173b 613f 973b e973 bd3b
0.0057631796 0.0031014117 -0.002204503 -0.0039968374 -0.00040336588 0.0005215046 -0.0025670726 -0.008951042
0.0027609651 0.00011279852 0.0014125139 0.0005437485 0.0023561248 0.0023063817 -0.0033122571 -0.002546284
-0.0016520297 0.00490241 -0.002861198 -0.004158251 0.0016952419 -0.003108453 -0.0016419005 -0.0005330656
-0.002713975 -0.007358052 -0.0013782219 0.0015836043 0.00077955896 -0.0029762618 -0.00024127094 0.004371557
-0.00016820202 -0.002280673 0.0011559986 0.0015003142 -1.3237567e-06 0.00012435482 0.0014249365 -0.0026212814
0.0048030918 -0.0035198794 0.000112391666 -0.0024806738 0.008062757 0.003757851 -0.0033461768 -0.000925275
0.0067238263 0.0026993402 0.006732621 -0.0035134032 0.003240257 -0.0007210531 0.0056427 -0.0017485563
-0.0023337502 -0.0024194447 -0.00044808877 -0.003666794 0.0033526393 0.0023145725 0.0046157097 0.00578164

layer3.1.running_mean f4 [64]
00000000: f936 1d3e ec70 c1bd 9a67 e4be 5dba 6c3f
00000010: ce14 8b3e b5a3 a53e aab8 603f 61eb 483d
00000020: 0a43 ac3e 2eb6 fdbe 08ea babe 8eaa df3d
00000030: 0c99 773e d78c 0a3e 6f77 443e ab70 d53e
00000040: 6267 0b3f 21db cebe c227 0ebe 8e10 1abe
00000050: bc69 49bc d8a2 2fbe ef7b be3e b3d3 0cbf
00000060: 33c1 87bd 5c24 c33e 8348 3b3e 7b0a 36be
00000070: 0a81 72bd 7a91 bbbe e24d 5bbe 0323 bdbe
00000080: 3ec7 a53d 1723 19bf 00bd 3b3c 2c53 e4be
00000090: b7f7 3b3d d8ea aebe f68d 73be e247 c03e
000000a0: ee6b 0e3f 2abe 2d3e 939a e9be fbd0 823d
000000b0: 6448 883e 9d90 f0be 84d0 533f 7602 c1bc
000000c0: f786 df3e 0cd9 e23d d259 1e3f 013e a73d
000000d0: 1a32 72bd 00b9 34be b381 87be 35c0 d73e
000000e0: d208 0d3f cb90 d63d 5694 2e3f ba1d 22bd
000000f0: 7918 b8bd 1a81 c2be 465d b2be 12fc 6d3e
0.15353002 -0.09445366 -0.44610292 0.9247187 0.2716431 0.3235146 0.87781775 0.0490526
0.33644897 -0.49553055 -0.36506677 0.109212026 0.24179476 0.13530289 0.19186185 0.4168752
0.54454625 -0.40401557 -0.13882354 -0.15045378 -0.012293275 -0.17151964 0.3720393 -0.5501053
-0.06628647 0.38113678 0.1828938 -0.17777435 -0.059205092 -0.36634427 -0.21416429 -0.36940774
0.08094643 -0.5981917 0.011458635 -0.44594705 0.045890536 -0.34163547 -0.23784623 0.37554842
0.5563344 0.16967073 -0.45625743 0.06387516 0.2661773 -0.4698533 0.82740045 -0.023560744
0.43657658 0.11076555 0.61855805 0.08166123 -0.05912981 -0.17648697 -0.2646614 0.4213883
0.55091584 0.10476836 0.6819509 -0.03957913 -0.08989043 -0.37989122 -0.34836787 0.23240688

layer3.1.running_var f4 [64]
00000000: 4c4a 2a3e 82c3 743e 5384 863e 055c 1b3e
00000010: b483 eb3d 23fb e63d 9f01 2b3e 327f 503e
00000020: 9119 263e ba06 1e3e c287 583e 11b5 0e3e
00000030: 3f59 0d3e abdb 3b3e 0e7f 013e b874 073e
00000040: 896e 263e e33b 7f3e 6bc0 ff3d 3ae3 d03d
00000050: ccaa 123e 3369 053e 00dd 113e 78f0 183e
00000060: d16d db3d e9f5 b83e b599 5a3e 5e5c dd3d
00000070: 5370 8c3e 75de de3e 9c4f 3d3e 68c8 1d3e
00000080: b945 ff3d 08b3 7e3e a385 023e d332 af3e
00000090: ca24 2d3e 7448 063e 6c1d 4f3e 9d5e 113e
000000a0: b95f 303e 4243 e83d 97ed 913e 3c21 193e
000000b0: 4dc1 4f3e fab7 1e3e 026a f93d fc4a 3b3e
000000c0: 08dc bb3e 524f 253e 73c7 423e 1f89 2b3e
000000d0: 257f 9e3e 12a6 2f3e f401 b33e 54fe 2a3e
000000e0: 572f ec3d 3714 913e 477b 763e 9160 7f3e
000000f0: a117 123e a04b 2d3e 55bc 213e 13f8 403e
0.16629905 0.23902705 0.2627283 0.15171821 0.1149973 0.11278369 0.16699837 0.20361021
0.1622069 0.15432253 0.21145537 0.13936259 0.13803576 0.18345515 0.12646124 0.13228118
0.16253103 0.24925189 0.12487873 0.1019959 0.14322966 0.13028412 0.14244461 0.14935482
0.10714305 0.36125115 0.21347697 0.10808633 0.27429447 0.43529096 0.184874 0.1540848
0.124644704 0.24872983 0.12746291 0.34218463 0.16908565 0.13113576 0.20226067 0.14196248
0.17224015 0.113409534 0.2850158 0.14954084 0.20288582 0.15499869 0.121784225 0.18290323
0.36691308 0.1614354 0.19021396 0.16751526 0.3095638 0.17153195 0.34962428 0.16698581
0.11532467 0.28335735 0.24070464 0.24939181 0.14266826 0.1692338 0.15794499 0.18844633

fc1.weight f4 [10, 576]
00000000: d460 e6bc 07ab a8bc 0505 fd3c 2253 343d
00000010: aee6 53bc 50c9 103d 207f e9bc 4f0e 8e3c
00000020: bf6a 21bd 286b f73c 4c86 9d3b 8cb0 f93c
00000030: b362 d73c 83eb fc3c c774 063d 7480 173d
00000040: e451 c83c 3578 52bb a70c d53c 6fa9 a4bc
00000050: c374 093d ff8c 693c 6a18 cd3c 3183 053a
00000060: cfe2 153d 33db dfbc df6e 2d3d 612f d33c
00000070: 8e7f 283d ed02 23bd 4613 f2ba 3b4e 4c3d
00000080: 773b 86bc f240 14ba 5dbf b3bc d7cb f53c
00000090: 1011 3d3d 5376 3c3d 4369 4a3c 682c 4b3d
000000a0: 5927 10bd 5d1d 7dbc 8a6e 913c 564b 513c
000000b0: 3c4b e0bc b4b6 8b3c 92ab 2f3d e742 733c
000000c0: d330 083d 38d0 8e3c fa66 57bc 3fa6 f2bc
000000d0: b0ed edbc 0d2f 9ebc a06e 033d 5fa6 4abc
000000e0: de1c c6bc 17b6 033d fc62 9dbc 54f1 9ebc
000000f0: 4b1c 833c 32f8 5a3d c551 04bd 7c2e 263d
00000100: 7472 28bd 9c1c 1e3c 0e8a 0e3d e2ef c5bc
00000110: bf97 bebc e5bc 02bb e427 8fbc dcbf b7bc
00000120: a3c7 0ebc 7ddb 463d a101 f03b af3c f3bc
00000130: 7af8 c4bc d8fc ef3c 8bfa ddbc 5b7f 253c
00000140: 30a7 f1bb e6c6 953c 81b1 e33c 571e 0b3d
00000150: cb80 8839 2fc2 a4bc a2e3 3a3d 210c 113d
00000160: c3e2 13bd be73 123d f1a6 4d3c 5315 22bd
00000170: 1cb0 553c 18f7 2fbd 293d 2bbd 00f3 52bc
00000180: 97f9 9cbc 5243 c53c 220b 68bc a5c0 973c
00000190: dfba a03c 87ee ffbc 932a 943c dc89 233d
000001a0: 04c1 cc3c ffeb a1bc 8494 bcbc 8d1a 42bc
000001b0: aadb de3c 5754 2fbb d070 5dbc 2a97 863c
000001c0: 8111 ccbc fc2b 3c3d f6cc 193d d1e9 5fba
000001d0: 0e5e 90bc 6551 4cbd 2d97 09bd 986e bbbb
000001e0: 3119 db3c ac97 f3bc 17a2 a8ba 7ec2 683c
000001f0: 061c cabc 1fbe edb9 aa50 323d fc6f 5b3c
00000200: 5dbd 21bc e3bb a03c 01e7 11bd c687 a6bc
00000210: 877a dbb9 fc86 1cbc 0c08 933c 5596 a4bc
00000220: d54f 66bc 3c61 b7bc 3eb8 4abc 820d 113d
00000230: 8965 ae3a 4f79 a23c 13d6 d3bb b8c4 e2bc
00000240: 3653 32bc ad9e b73b d39c 12ba 38c9 77bc
00000250: 4cca 223c a24f e73c b711 9cbc 68f7 533d
00000260: 8ecf b1bc 553c 72bc 6e9c b9bb 6682 a8bc
00000270: 9cae 093d d9e0 89bc ab9a 1c3c 85b0 ae3c
00000280: f164 9f3b cb9c 4abb 0ea3 d6bc 8c0c 48bc
00000290: b74b 4d3c c72a 1c3d c45b dc3b bdc0 7a3c
000002a0: 684e ac3c b849 e63c 9ff0 233d 988b e23c
000002b0: 5ced ea3b d4f5 b73b 4cd3 383b 873b 02bd
000002c0: cd60 b1bc 7f80 893c b2e4 f13b c6c5 f13c
000002d0: 5fa4 22bc b758 2cbd e595 933c 1bf1 47bc
000002e0: a987 0cbd 7fdd 00bc 02fb 8d3b 6d8e 613b
000002f0: 9fd7 8dbc 843e 973c 79b3 073d 7133 2ebb
00000300: 9d73 a7bc b6f6 0bbd 1a29 a03c d76a 373c
00000310: d731 02bd 2a0d b5bc c223 223c 3349 383c
00000320: d199 b6bc a56a 373d 87dc 2f3d 7da2 12bd
00000330: bdb6 233d 694d a6bc cefc 603c 5e82 b3bc
00000340: 0e07 5b3c fe65 24bc 5207 4d3c 44b4 05bd
00000350: e501 d23c df67 53bc f74b 34bc b50c f43c
00000360: a6de 143c 886f 383d 56ab 343d e18d 13bd
00000370: b2ed 00bc e446 f9bc d790 0ebd bb0b 8cbc
00000380: 9194 00bd 5376 5fbc 79c9 1d3d d874 99bc
00000390: 4f8f 053d cf1f 10bd 779f 993a db0f 113d
000003a0: 9467 fd3c e1ec 023d e6b4 babc ec17 d6bc
000003b0: af6f 11bd b813 3c3d 2464 c23c bb69 a7bc
000003c0: 3ecf c53c f5bc a53c 34e0 45bc 184b 863b
000003d0: d22a d1bc 6f4a 8f3a 056f 403c e1e1 8d3a
000003e0: 4fbd a1bc 5652 f83b 7e94 83bc 68c8 80bc
000003f0: 0661 bb3c 50a8 333d 41c8 e93c 4609 c73b
-0.028122343 -0.020589365 0.030886183 0.044024594 -0.012933416 0.035348237 -0.028503 0.017340807
-0.03940844 0.030202463 0.004807269 0.030479692 0.02629218 0.03087402 0.03282621 0.036987737
0.024453111 -0.0032115106 0.02600701 -0.020100323 0.03355862 0.0142548075 0.025036056 0.00050930964
0.036593255 -0.027326202 0.042342063 0.025779428 0.04113727 -0.039797712 -0.0018468879 0.049879294
-0.016385777 -0.00056554296 -0.021941835 0.030004425 0.04615885 0.04601128 0.012354198 0.049602896
-0.035193775 -0.015448895 0.017752904 0.012774309 -0.027379625 0.017054893 0.04288823 0.014847494
0.033249687 0.01743327 -0.01314711 -0.029620288 -0.029044002 -0.019309545 0.032087922 -0.0123687675
-0.024183687 0.032156076 -0.019212238 -0.019402184 0.016004702 0.053459354 -0.032304544 0.040571675
-0.041124776 0.009650376 0.034799628 -0.024162237 -0.023265718 -0.0019949016 -0.017475076 -0.022430353
-0.008714589 0.048549164 0.007324413 -0.029692022 -0.024044264 0.02929537 -0.027097007 0.010101165
-0.0073746666 0.018283319 0.027794601 0.03396448 0.000260359 -0.020112125 0.045627244 0.035411958
-0.03610493 0.03575491 0.012552009 -0.039571118 0.013042476 -0.042960256 -0.041806374 -0.0128753185
-0.019161982 0.024079952 -0.0141628105 0.018524477 0.019620357 -0.031241668 0.018086707 0.039926395
0.02499438 -0.019765852 -0.023020037 -0.0118471505 0.027204353 -0.0026753151 -0.013515666 0.016429503
-0.02491069 0.045940384 0.03754898 -0.0008541616 -0.017622974 -0.04988231 -0.033591438 -0.005719971
0.02674541 -0.029735409 -0.0012865689 0.014206527 -0.024671566 -0.00045345814 0.04353396 0.013393398
-0.009871808 0.019620841 -0.035620693 -0.020328414 -0.00041862225 -0.009553667 0.017948173 -0.020091215
-0.014057119 -0.022385232 -0.012373028 0.035413273 0.0013305406 0.019833235 -0.0064647286 -0.027681693
-0.010884097 0.0056036324 -0.00055928266 -0.015123658 0.009935927 0.028236214 -0.019051416 0.051749617
-0.021705415 -0.014784892 -0.0056644 -0.020569991 0.033613786 -0.016830849 0.00955836 0.021324405
0.004864328 -0.003091621 -0.026200797 -0.012210023 0.012530259 0.038126733 0.0067248065 0.015304741
0.02103348 0.028111324 0.040024396 0.027654454 0.0071694087 0.005614022 0.0028202115 -0.03179505
-0.021652604 0.016784905 0.007381999 0.029513251 -0.009926884 -0.042076793 0.018015811 -0.01220348
-0.034309063 -0.007865309 0.004332901 0.0034417168 -0.01731473 0.018462427 0.033130143 -0.0026580954
-0.02044087 -0.03417083 0.019550849 0.011194906 -0.031785812 -0.022101004 0.009896221 0.011247921
-0.022290142 0.04477944 0.04293492 -0.035799492 0.039969195 -0.020300584 0.013732148 -0.02191275
0.013368381 -0.010034082 0.012513952 -0.032642618 0.025635669 -0.012903183 -0.01100444 0.029791215
0.009086287 0.04502824 0.04410871 -0.03602398 -0.007869171 -0.030429311 -0.0348061 -0.017095437
-0.031391684 -0.013639051 0.038522217 -0.018732473 0.032607373 -0.035186585 0.0011720498 0.03541551
0.030933179 0.031964187 -0.022791337 -0.026134454 -0.0355069 0.045917243 0.023729391 -0.020436158
0.024146672 0.020231703 -0.01207738 0.0040983073 -0.025533114 0.0010932217 0.011745219 0.0010824763
-0.01974359 0.0075781746 -0.016062018 -0.015720561 0.022873413 0.043861687 0.028537871 0.0060741035

fc1.bias f4 [10]
00000000: 5e7c abbc 9e26 2abd 9898 623b 5b31 153d
00000010: f541 383c 41a0 0ebb 8b2d b4bc 96d2 b1bc
00000020: 0344 f83c 04ef 89bc
-0.020933326 -0.041540734 0.0034575816 0.036424022 0.011246194 -0.0021763 -0.021994373 -0.02170686
0.030305868 -0.016837604

fc2.weight f4 [2, 10]
00000000: 0f8c 7d3e 6e98 0bbd 3ea4 07be c4aa 7e3d
00000010: a8f5 813e c266 0a3e 061b 4a3d bec0 debd
00000020: e4fc e73d d260 a7be fb03 883e 8900 7cbe
00000030: dedd fb3d cd19 7fbe dd3e dabb af2f 5e3e
00000040: c1d1 4cbe e71a a5be 7c86 a03e 2526 35bd
0.2476046 -0.034080915 -0.13246247 0.062174574 0.25382733 0.13515761 0.049342178 -0.108766064
0.11327532 -0.32691056 0.26565537 -0.24609579 0.12298177 -0.24912186 -0.006660326 0.21697877
-0.2000189 -0.32247087 0.31352603 -0.04422583

fc2.bias f4 [2]
00000000: 65dd 8d3e fb92 35be
0.27707973 -0.1773185

exp_avg f4 [16, 3, 3, 3]
00000000: 7014 953c 4595 803c 928c 563c 18a0 dc3c
00000010: 2194 c73c ba07 a13c 6c55 093d 75af 043d
00000020: 882b f13c 2e97 7a3c c2a7 593c b981 103c
00000030: 5aa3 be3c 6f94 ad3c b928 703c b2a2 f33c
00000040: 1034 ec3c ac3a c63c 21ba 203a 1cc2 da3a
00000050: a85f f539 8abe 063c d8e0 113c 47c6 c03b
00000060: 4975 5e3c 9794 7d3c 346c 683c 67c3 ffbb
00000070: 3429 a4bb 1b35 59bc 1ad5 1fbc 6fc3 b5bb
00000080: c9d7 62bc d3a3 c3bb 10f6 4fb8 7ea7 dbbb
00000090: 9cd8 32bb db11 17ba 2060 e4bb f8ae 98bb
000000a0: 8a99 c1b9 3ea6 dfbb a2a3 43b8 2578 c43b
000000b0: c6ec 333a 071f b839 1aad 773b 9baa c4ba
000000c0: 7686 9cba 0219 7a3b 2a98 dfba 5964 3b3b
000000d0: 1892 1a3c 4783 9d3b 0086 923b 04d0 783b
000000e0: 1fa7 283b 53a0 953b f2eb 783b 3a04 353b
000000f0: 4ec7 463b 144f d63a f98f b53a 080b 7a3b
00000100: 26fd 373b 92aa 6c3a 1241 843b 81cb 443b
00000110: 3663 9e3a 5e57 243b 65f5 433a d816 70b9
00000120: 7e3e ba3c 5565 af3c e337 9b3c e9e0 bc3c
00000130: 6f47 b03c 8a38 9d3c 554f b13c b533 9e3c
00000140: b04d 903c b4f2 713b 1b90 c63b 8804 0b3c
00000150: 42ca 883b 3c12 d93b f936 113c 03e3 b43b
00000160: 12c4 ff3b 2f48 143c 2d3d ea3b 87bf 1f3c
00000170: f239 4f3c 7e32 063c 5a8d 303c 403d 5a3c
00000180: d6a5 233c e399 493c 5150 613c 3b2f bdbc
00000190: 2130 9bbc b75f 74bc 9c4f b2bc 68fc 8ebc
000001a0: 201d 66bc f3f9 a1bc 5e43 81bc fa92 5dbc
000001b0: afef c93c 5d1e 803c 4a91 3b3c be1a ba3c
000001c0: e31e 213c a727 723b 253b 7f3c 9a06 3b3b
000001d0: 4343 20bb 1fcf 57bc 12f8 b5bc 15d6 d9bc
000001e0: fbde 79bc 093b e5bc 4d20 0abd 3fd2 b3bc
000001f0: 64c7 0fbd 42c6 24bd d3c7 0fbd 9ac6 2fbd
00000200: 234c 43bd c57e 13bd 28d4 40bd 2572 5bbd
00000210: a5ea 2cbd 51b8 5cbd 02e8 72bd ae49 56ba
00000220: 062a 90b9 3ec9 93ba 8628 4e3b 1477 f739
00000230: 4550 d4ba 5bb7 d63a 393f 80ba b1ae a2ba
00000240: e01e 573c b60e 633c 78e6 453c 8bc1 8d3c
00000250: 7857 743c 82dc 3f3c ce63 823c 22f0 623c
00000260: b900 503c 85d7 263d 9a1b 273d 0557 1f3d
00000270: a059 363d 8d0f 2a3d 2fac 1e3d cf23 2f3d
00000280: 19f5 243d 71c9 203d 1369 02bb a9a8 edba
00000290: 49bb ccba 915d 00bb 1cac 03bb 8ce2 02bb
000002a0: 20a2 20bb 20bc 35bb 8614 2dbb 2233 a8b9
000002b0: 6d33 0cb9 fc3d 4c38 1790 dfb8 e38a d6b8
000002c0: d312 37b9 9325 bfb9 66f7 2aba 0c66 1eba
000002d0: e427 9f3a 4deb 523a ea2d 393a 0131 af3a
000002e0: 9d90 1e3a 0deb 9939 7d86 543a a5b1 4db9
000002f0: e3c1 c5b9 bf26 0c3e f141 0e3e d8ff 093e
00000300: 7639 033e e33d 033e ffac fc3d be4a e03d
00000310: d2c0 ec3d 7633 ee3d c16d d23c 7d4f bb3c
00000320: 0374 893c 892f 973c 838f 633c c8ee e83b
00000330: d923 1a3a 193b 4a3b fd71 093b 90bf dabd
00000340: b8f2 d9bd 349e e1bd 5e0e e8bd aee2 ebbd
00000350: 3c1f f5bd 8c13 03be 49f2 febd d612 febd
00000360: 0416 b9bb d248 b4bb 00ac c4bb b978 b5bb
00000370: d53f a7bb 9a8a abbb fd28 8ebb 1878 72bb
00000380: 2088 81bb 5271 bdbb 8740 b0bb 9629 aabb
00000390: 8a1a b5bb 1ff6 9dbb 53da 8ebb 1fa7 84bb
000003a0: a690 4bbb c313 3dbb 3b04 a63a 9b9d c33a
000003b0: b711 b53a 0d37 cc3a b151 f53a 615d f83a
000003c0: 26ca 403b aea6 563b 90cb 423b e130 b4bc
000003d0: 6656 a5bc be6a a3bc 0d07 c2bc 3c3c aebc
000003e0: 2593 adbc 49e3 b9bc e256 a7bc 0327 aabc
000003f0: 674e d2bc 31ce c4bc 0027 c0bc 12bb dcbc
0.018198222 0.015696177 0.013095038 0.026931807 0.024362626 0.019657005 0.03352873 0.03239389
0.029439703 0.015294833 0.0132846255 0.008819991 0.023271251 0.021188943 0.014658147 0.029740665
0.02883342 0.024197899 0.0006131251 0.0016689929 0.0004680131 0.008224139 0.008903705 0.0058830115
0.013577768 0.015477321 0.014185954 -0.007805276 -0.0050097946 -0.01325729 -0.009755397 -0.005546979
-0.0138453925 -0.005970457 -4.958181e-05 -0.0067033162 -0.0027289754 -0.00057628535 -0.006969467 -0.00465953
-0.00036926224 -0.0068252375 -4.6644018e-05 0.0059957677 0.000686359 0.00035118332 0.0037792386 -0.0015004458
-0.0011941928 0.0038161878 -0.0017058898 0.0028593747 0.0094342455 0.0048069092 0.0044715405 0.0037965784
0.0025734378 0.0045662313 0.0037982431 0.0027620927 0.0030331197 0.0016350471 0.0013852111 0.0038153548
0.0028074472 0.00090281025 0.0040360773 0.0030028524 0.001208401 0.002507649 0.00074752263 -0.00022896694
0.022734877 0.021410624 0.018947547 0.023056464 0.021518437 0.019191999 0.021644274 0.019311765
0.01761517 0.0036918344 0.006059659 0.008484967 0.0041745016 0.006624488 0.008863204 0.005520226
0.007805356 0.009050413 0.007148406 0.0097502535 0.012648093 0.008190749 0.010775888 0.013320267
0.009988269 0.012304756 0.013752059 -0.02309381 -0.018943848 -0.014915398 -0.021766476 -0.017454341
-0.01404503 -0.019772505 -0.015779193 -0.0135238115 0.024650423 0.015639478 0.011448214 0.02271783
0.009834024 0.0036949904 0.015578066 0.002853787 -0.0024454154 -0.01317194 -0.022213016 -0.02659134
-0.015250917 -0.027982252 -0.03372221 -0.02195084 -0.035102263 -0.040228136 -0.035102677 -0.04291401
-0.04768003 -0.03600957 -0.047077328 -0.053575654 -0.042215962 -0.053886715 -0.05930329 -0.0008174431
-0.0002749713 -0.0011275185 0.003145726 0.0004720023 -0.0016198239 0.0016381548 -0.0009784467 -0.0012411681
0.01312992 0.013858488 0.012078874 0.017304203 0.014913432 0.011710288 0.015916731 0.013851197
0.012695485 0.04073288 0.040797807 0.038901348 0.044519067 0.041518737 0.038738426 0.04275876
0.040272806 0.03925461 -0.0019899055 -0.001813193 -0.001561978 -0.001958702 -0.00200916 -0.0019971458
-0.0024510697 -0.002773054 -0.0026409938 -0.00032081554 -0.00013370598 4.8695118e-05 -0.000106603075 -0.00010230185
-0.00017459253 -0.00036458354 -0.00065218506 -0.0006042428 0.0012142626 0.0008045927 0.00070640317 0.0013366045
0.0006048771 0.0002935756 0.00081071985 -0.00019616501 -0.00037719225 0.13686655 0.13892342 0.13476503
0.12814888 0.12816577 0.12337684 0.10951756 0.11560215 0.11630909 0.0256871 0.022865051
0.016778952 0.018455284 0.013889196 0.007108543 0.00058799755 0.003085798 0.0020972483 -0.10681069
-0.10641998 -0.11016503 -0.11330865 -0.11517845 -0.11968848 -0.12800425 -0.12448556 -0.124059364
-0.0056483764 -0.005501845 -0.0060019493 -0.005538073 -0.005104045 -0.0052350285 -0.0043383823 -0.003699785
-0.003952995 -0.005781331 -0.005378786 -0.0051929457 -0.0055268453 -0.0048205997 -0.0043595224 -0.0040482427
-0.003106156 -0.002885089 0.0012666056 0.001492429 0.0013814484 0.0015580371 0.0018716363 0.0018948728
0.0029417365 0.0032753157 0.0029723383 -0.021995964 -0.0201828 -0.01994836 -0.023685003 -0.021268956
-0.021188328 -0.022691386 -0.020427171 -0.020770555 -0.02567215 -0.024024101 -0.023456097 -0.02694467
