Lab5/model_25_0.01.pth (torch, 378889 bytes, 54 tensors)

layer1.0.weight f4 [16, 3, 3, 3]
00000000: 7dce 803d 9e39 27bd 49b6 523d 1a0f 03be
00000010: 64e3 df3d 1f71 47be ee1c 16be 896a 0bbd
00000020: 4e2b e5bd 9547 d3be b23e 90be a23c d7be
00000030: 2fe6 45be ad1e 97be 8c2f 75be e864 bebe
00000040: 2351 c8be 849e 68be 9e64 9bbc f0b3 a3bd
00000050: 2c4a a3be 8729 99be e06f 1ebe 4a0f d1bc
00000060: f023 d8bd 3dbd c33c 80a2 a3bd 43a7 0b3d
00000070: 7ede c2bd f13b 673e a798 ecbd bf95 cc3c
00000080: 13b3 bb3d f669 bdbe 728d 8fbe 4161 bebd
00000090: e1bb 5ebd 839e 2d3e 9863 7c3d 16cb 8fbe
000000a0: 65a7 83be 04c0 4f3d 84eb cbbe 8ba6 8abe
000000b0: be34 e7bc fdc3 103f 5ceb e63e 2161 9f3e
000000c0: 9850 a83e e274 903e 8209 d73e d29a 663e
000000d0: be4f 21bd ecb7 9f3e 12b5 68be 9932 12be
000000e0: da06 9abe 51ed 55be ae32 18be 0a27 89be
000000f0: 047b a6be df8a 97be fdfa c0bd 81ea 5dbe
00000100: fc56 44bd 22c0 5cbe b7d0 40be 77f6 95bd
00000110: 762b 25be 3402 b0be b060 c83d 3566 18be
00000120: d99a 40be 2d6c adbc 1f5f 7fbe 15ce 51bc
00000130: 789a 6c3d 13bb 06be f130 3cbe 2022 1bbd
00000140: f828 53be 13c2 c6bd e400 193c e0ed 5bbe
00000150: c3b0 063d be0d 083d 78b0 9bbe 471c fd3b
00000160: 616e 8bbe 63be d1bd 5f89 b6be 75a3 b3be
00000170: e9e4 83be 8aa5 ccbe 6909 77be 1bc8 72be
00000180: 7df7 e0be c6c3 b0be 682c 5dbe 9f49 363e
00000190: 3be5 a33e 57bb 3d3e f029 b53e b9c9 b93e
000001a0: 2345 943e 964f 603e ec32 1f3d 49c9 913e
000001b0: 65e6 443e 09af 873e a8d8 4b3e 0c66 053e
000001c0: acac 703e 22e9 933e 504b c63e 1c57 733e
000001d0: 06ff 833e a2a7 39bc 8170 c43c d964 3ebe
000001e0: 6fd1 f5bd 43a1 403d 9160 8b3b ca76 74be
000001f0: f7e0 a63d c821 fe3c 98be 213d 6bf1 db3d
00000200: 8e18 ab3d e7c2 8d3e d6ed 263d 8295 783e
00000210: 0b8c 633e 4cbc 723e 54ca 433d 0177 853d
00000220: a617 1abd 030d 2b3e 1aed 99bc 8230 86bd
00000230: e555 193e 037c ba3b af0d b4bd 0527 a13d
00000240: d775 f2be be34 9cbe d89a 9abe 0fe2 02bf
00000250: 30f3 06bf 4729 f7be 0c9e babe 582d 57be
00000260: e453 77be 14b1 2d3e dc11 ce3d e4fb 98bc
00000270: c8f8 863e b620 b6bb 4ed9 743e 4b25 043e
00000280: d82a 2f3e 4656 f83b 607b 0fbe 6547 77be
00000290: b14b 8fbe 3363 9c3d 2f52 1bbe 4173 313d
000002a0: 46c7 45be a11b 5bbd 860b 14be c4db ed3d
000002b0: 4697 563e 66a5 8f3e e27a 193e 2c7d a13e
000002c0: 7ffd 7f3e b2a8 733e c31e f73d c447 8a3e
000002d0: 11f5 1ebe 1408 87be 586d 19be 4491 08bb
000002e0: 3d98 82be 00b2 c3bd 3477 57be 2afc 7dbe
000002f0: dfaa 68be 3ef0 c63e 45b0 f63e 7ff3 fb3e
00000300: 526b 053f 6bec 0c3f 1fff 143f 0edb 9f3e
00000310: 2f0d 3a3f a245 3d3f 9590 82bd a755 b0bd
00000320: 5532 353e e361 9dbd 4cc2 e0bd e824 08bd
00000330: 4ddd 253d 5e81 f53b 8ea4 fb3c d402 b8bd
00000340: 9570 153e 438e 28be fd43 1bbe 4ef1 aa3d
00000350: 1b3e 55be bdbb e63c c176 1abe ea82 02bd
00000360: 6b14 a43e 5475 fa3e fa75 ef3e 4514 03be
00000370: edc5 d0bd 3758 4fbc 73a4 febd 7975 fbbe
00000380: 9489 90be 6123 933e b8f6 d43e d515 a63e
00000390: d98f efbd 800c 9bbd 5ef7 96be 3f05 f6be
000003a0: 0397 12bf 42f5 a0be cf9f 883e 540f ff3e
000003b0: 3d0b d63e fd8d 353e 8f4f cf3c 671f a0bd
000003c0: 6cb1 97bd 58de cebe 1433 75bc f542 f33d
000003d0: b70f d3bd 64a7 bdbc 1213 90bd 13fd 6e3e
000003e0: 4ab6 533e 884e 07be 48fe 4bbd 516b 393e
000003f0: beb2 fd3d a755 02be f60c b03d ef09 a13d
0.062893845 -0.040826432 0.051443372 -0.1279873 0.10932043 -0.19476746 -0.14659473 -0.034037147
-0.111899 -0.4126555 -0.28172833 -0.42038447 -0.1932609 -0.2951559 -0.23943919 -0.3718636
-0.39124402 -0.22716719 -0.018968876 -0.07993305 -0.31892526 -0.29914495 -0.15472364 -0.025519986
-0.105537295 0.023893947 -0.07989979 0.03409506 -0.09515093 0.2258146 -0.115525536 0.024973748
0.09165015 -0.36994904 -0.28037602 -0.092958935 -0.054378394 0.16954999 0.061618418 -0.2808463
-0.2571365 0.05072023 -0.39828122 -0.27080187 -0.028223392 0.56549054 0.4510144 0.3112879
0.32873988 0.28214175 0.4199944 0.22519997 -0.03938269 0.3119501 -0.22725323 -0.14277114
-0.30083352 -0.2089131 -0.14863083 -0.26787597 -0.32515728 -0.29598138 -0.09422872 -0.21671487
-0.047934517 -0.21557668 -0.18829618 -0.073224 -0.1612986 -0.3437668 0.09784067 -0.14882739
-0.1880907 -0.021169746 -0.2493863 -0.012805481 0.0577645 -0.131573 -0.18378045 -0.03787434
-0.20621097 -0.097049855 0.009338591 -0.21477461 0.032883417 0.03321623 -0.30408072 0.007724318
-0.2723265 -0.102413915 -0.3565168 -0.35085645 -0.25760582 -0.39970046 -0.24124683 -0.23709147
-0.4393882 -0.34524363 -0.21598971 0.17801522 0.32010826 0.18528496 0.35383558 0.36286715
0.28958997 0.2190536 0.038866922 0.2847388 0.19228514 0.2650073 0.19906867 0.13027209
0.23503369 0.28888804 0.38729334 0.23763698 0.25780505 -0.011331471 0.023979427 -0.18593158
-0.12002837 0.04702879 0.004253455 -0.2387344 0.081483774 0.031021968 0.039488405 0.10739406
0.08354293 0.2768776 0.04075416 0.24275783 0.22221391 0.23704642 0.047800377 0.06516839
-0.03762021 0.16704182 -0.018789817 -0.06552221 0.14974172 0.005691053 -0.087916724 0.078687705
-0.4735553 -0.3050899 -0.3019626 -0.5112619 -0.52714825 -0.4827368 -0.36448705 -0.21013391
-0.24153095 0.16962081 0.10062 -0.018674798 0.2636168 -0.0055580987 0.2391102 0.12904851
0.17106187 0.007578644 -0.14011908 -0.24148329 -0.27987435 0.07636108 -0.1516807 0.043322805
-0.19314298 -0.053493146 -0.14457521 0.116141826 0.20956144 0.28055876 0.14988282 0.3154081
0.24999045 0.23794821 0.12066414 0.27007878 -0.15523173 -0.2637335 -0.14983118 -0.0020838538
-0.25506774 -0.09555435 -0.21041566 -0.24803224 -0.22721432 0.38855165 0.48181358 0.4920921
0.5211688 0.55048245 0.58201784 0.31221813 0.72676367 0.73934376 -0.06375233 -0.08610087
0.17694981 -0.07684686 -0.10974559 -0.03323832 0.040494252 0.0074922284 0.030718114 -0.089849144
0.14593728 -0.16460519 -0.15162654 0.083468065 -0.20824473 0.028165692 -0.15084364 -0.03186313
0.32046828 0.4891764 0.46769696 -0.12800701 -0.10194001 -0.012655309 -0.1243371 -0.49113062
-0.28229964 0.2873793 0.4159448 0.32438532 -0.11697359 -0.075707436 -0.294856 -0.48050877
-0.57261676 -0.31437117 0.26684424 0.49816382 0.4180545 0.17729945 0.025306491 -0.078184895
-0.074068874 -0.4040401 -0.014965791 0.118780054 -0.10305732 -0.023151107 -0.070348874 0.23338728
0.20675007 -0.13213551 -0.04980305 0.18107344 0.12387608 -0.12727986 0.08596222 0.07863223

layer1.0.bias f4 [16]
00000000: 9f09 0fbd 1ffb d2bd 42b4 25be 053a 2a3e
00000010: 7c3d b03c 70a4 493d 7f95 723e e80a c1bc
00000020: 32aa f93c c33c e9bd 9330 03be 3035 26be
00000030: 292f f23c 7a73 373c d5c3 d1bd 7413 1f3e
-0.034921285 -0.10301804 -0.16182044 0.16623695 0.021513693 0.049229085 0.2368984 -0.02356477
0.030476663 -0.113885425 -0.12811498 -0.16231227 0.029563503 0.011196965 -0.1024243 0.15534765

layer1.1.weight f4 [16]
00000000: 3062 963f c110 543f b264 823f 3f01 8f3f
00000010: 5e58 843f 0869 853f c038 5f3f 28f9 913f
00000020: 4492 ab3f e4e3 693f 506e 793f 3c18 953f
00000030: 870c aa3f 7499 893f 87bd 6b3f b9f7 633f
1.1748714 0.82838064 1.018698 1.1172255 1.0339468 1.0422678 0.8719597 1.1404161
1.3404012 0.9136336 0.9743395 1.1648021 1.3285073 1.0749955 0.9208607 0.8904987

layer1.1.bias f4 [16]
00000000: 8c36 563d 935b 903e 7d10 a7be 0e78 46be
00000010: 0ca3 1bbe 49e9 e5bd 6e48 1bbe 09ce eb3e
00000020: 5384 8c3e 4cdc aebe 3713 c13c 3089 cabe
00000030: b343 423e 2cce 92be b803 89be 8130 52be
0.052298114 0.28194866 -0.32629767 -0.19381735 -0.15198916 -0.11226136 -0.15164348 0.4605563
0.27444705 -0.34152448 0.023568733 -0.3955779 0.18971138 -0.28672922 -0.2676065 -0.20526315

layer1.1.running_mean f4 [16]
00000000: 1d46 06c0 a42c 843e 2b95 14c0 b807 69bf
00000010: 6313 c63f 82a4 8ebf 0704 cfbd 5618 0e40
00000020: 84a1 ac3d 0a84 75bf d547 64bf 3742 adbf
00000030: 8a46 4fbe bf34 473f 649a af3f b8b9 9c3f
-2.0980294 0.25815308 -2.3216045 -0.910274 1.5474666 -1.1143954 -0.1010819 2.2202353
0.08429244 -0.959046 -0.89172107 -1.3535832 -0.20241752 0.7781486 1.3718991 1.2244177

layer1.1.running_var f4 [16]
00000000: 9645 923f 6561 743e 468d 933f d56b 873e
00000010: f61c 1b3f 83fa a53e bcdf c43d e4a4 8f3f
00000020: 8c99 313d c674 f23e de36 923e 6d1d ad3e
00000030: d75c 573d 906e 513e d231 5c3f a022 023f
1.1427486 0.23865278 1.1527488 0.26449457 0.60591066 0.32417688 0.096129864 1.1222196
0.043359324 0.47354716 0.28557485 0.33811513 0.052578773 0.20452332 0.8601352 0.50834084

layer2.0.weight f4 [32, 16, 3, 3]
00000000: 9ca3 373e 0c01 d23e 328d 2d3e b08c 163e
00000010: ab1b 1d3e 2032 413e 029b e53d 0fff 3a3e
00000020: c1df 463e fef7 e4bd 3c47 57bd d52b 63bd
00000030: a556 a0bd e8a7 02be 3e9b dbbc 9a52 26be
00000040: 9beb 3fbd 0255 2e3d 5ddc 09bd 6193 b93e
00000050: f71d b63e 9bef f53c 3dfa b23e ab2e 1e3e
00000060: 3886 e23c f0ee 843e a9c7 41bc 0676 823d
00000070: 3c60 913e 89f0 093e 1050 d8bb d4e0 873e
00000080: 4dce 9e3c fd4f ca3d 4044 573e c0bf b5bb
00000090: d907 cf3c 7b6e 0cbe 9752 aabd 8e39 803c
000000a0: a426 04be f687 a03d a914 8bbc a671 0fbe
000000b0: 8cef 34bd 3da6 1ebd dd16 c73d 03a0 023e
000000c0: 4bfb dd3c 0a35 3d3d d262 c23d d09d cebd
000000d0: 7cf9 e9bc 5194 eb3d 1e38 9abd d76b 043e
000000e0: 4470 033e e768 163c f1a6 8b3c 3ca6 d03d
000000f0: 7c08 96ba 8670 eb3c 2e93 b33d 00dd 5c3d
00000100: 044e 75be 7c49 af3d 82bc 70bd e7de 83be
00000110: dfbc ee3d 06e2 3e3b 1c87 4dbe 810e c03c
00000120: c981 ba3c ec34 e7bd eb89 41be e75b f6bd
00000130: c970 3ebe 7847 67be 9181 50be 59a9 29be
00000140: ac2a 4dbe a902 963d bba6 9a3e 702b a33e
00000150: d9b6 58bd 984d 583e f644 eb3d 3c62 813c
00000160: 5007 5f3e db05 6fbd a230 5b3c 5792 2b3e
00000170: 2c2d c73d 8511 023e e79a a23d 6893 4d3d
00000180: c4cf a33c 828d ae3d 0824 953d 8181 7c3d
00000190: 2e82 df3e 7643 903e ccb2 c03d bbeb 533e
000001a0: d26f 703e b9c4 a4bc 7946 743e 7d21 013e
000001b0: fb72 d93b c622 62bd e783 bcbd 8ae0 dcbd
000001c0: 903e 33be 008e bcbd ae53 29bc 5acb f7bd
000001d0: f135 afbd cdfd 37bd 3bf9 2e3d 9c79 2f3d
000001e0: ab03 5d3c 3182 02be da92 923d a6ea 0b3b
000001f0: 6bc0 0fbc 8585 1bbd a32b 49bd 4457 213d
00000200: f2f9 2d3e fbf9 67bd cb54 053c 541b 213c
00000210: 8f6e cabd 5fa7 67bd 52ab 90bc 0065 eabd
00000220: b10a 21be 0a22 dbbc 3314 f9bd 61d6 21be
00000230: 13dd ccbd bab7 20be 5618 d9bd 6e8a 16bd
00000240: 8326 1a3d 9ebe 683e 5bf1 f83d 4e1f e23d
00000250: eefc 0e3d 1db9 593d 7685 d53d 7243 693c
00000260: 0f38 df3d 2cd1 0bbd 3ada bfbd de62 88bd
00000270: 3213 2cbe 68ea 29be 0068 01be fc82 12be
00000280: ff1e 8dbe a0b6 3dbe 046b 103e b5cc fd3d
00000290: 0e4d 6d3e f915 663d 0537 2c3e 5617 593e
000002a0: 846d 1e3e 18a1 6b3e a59e 803d 5c8a f53c
000002b0: ff1f 293e 8258 983d 86cf 12bc 184d c53c
000002c0: 5bcc e33d 2dac 153a d604 413d 56da dfbd
000002d0: c49b 4cbd 8101 66bd 69af 89bd dc31 5ebd
000002e0: 2106 bdbd f48c 71bd 0975 02be 7c39 b6bd
000002f0: 451b 89bd 51ce 12be 2a46 1dbe 222b be3c
00000300: 2da9 1ebe 8dc0 13be 9bca c8bc e675 69be
00000310: 3589 babd 76ed c1bd bc26 cfbc 5f27 e13c
00000320: 20a4 a83d 3c9c 3a3c 20fc 6f3d b9d3 c33d
00000330: 9c6b d6bc 41e5 113e 8be7 2a3e 1123 ffbd
00000340: f154 8dbe 0ba0 10be dca0 51be d5c7 64be
00000350: 89e2 c8bd c4cc 2bbe 03b6 49be 42aa 1bbe
00000360: 9184 56bd 4f95 083e e526 133e 777b a7bd
00000370: 1497 693d 019a 193d a21f 04be 4e68 8abd
00000380: 10f2 18be cb0f 5dbd ec88 8b3b 5a07 2e3d
00000390: 6c30 cdbd 8cb4 1fbd ca59 b2bd 9dcf f2bd
000003a0: 3a19 cfbd 6a69 e0bd 794d 6dbd 8d22 24bd
000003b0: 5eda fabd 7dc4 1cbe 68ec 59bd 08e7 42be
000003c0: 946f 02be a50c 29bd 41d8 87bd 1990 e43d
000003d0: 91da 073e 3ae9 993e 0f54 ce3d 0915 273e
000003e0: 8b23 0e3e a24e 263e 6690 7a3e f6f6 4b3e
000003f0: 879c e5bd eaa5 8e3d 1c68 653d c1ed 52bd
0.17933506 0.41016424 0.16948393 0.14702106 0.15342586 0.18866777 0.11211206 0.1826136
0.19421293 -0.11180113 -0.05255817 -0.055461723 -0.07829026 -0.12759364 -0.026807424 -0.16242447
-0.04685555 0.04256154 -0.03365742 0.36245254 0.35569736 0.03002148 0.34956542 0.1544749
0.027651891 0.25963545 -0.011827388 0.063701674 0.28393734 0.13470663 -0.006601341 0.26538718
0.019385481 0.09878538 0.21022129 -0.00554654 0.025272297 -0.1371402 -0.08316534 0.015652444
-0.12905365 0.078384325 -0.016977625 -0.14008197 -0.044173762 -0.038732756 0.09721158 0.12756352
0.027097365 0.04619316 0.09491505 -0.10088694 -0.028561346 0.115028985 -0.07530235 0.12931763
0.12835795 0.009180284 0.017047377 0.10187957 -0.001144662 0.028740179 0.08768307 0.0539217
-0.23955542 0.08558938 -0.058773525 -0.25755998 0.11657118 0.002912642 -0.20071071 0.023444416
0.022766965 -0.11289391 -0.18900268 -0.12029248 -0.18597712 -0.22585857 -0.20361926 -0.16568507
-0.2003581 0.07324726 0.3020533 0.31869078 -0.052908752 0.2112335 0.11487763 0.015793912
0.21780133 -0.058355194 0.013378294 0.16755043 0.09725413 0.12701996 0.079397015 0.050189406
0.019996531 0.08523084 0.07282263 0.061646942 0.43654007 0.2817647 0.09409103 0.20695393
0.23480156 -0.020113336 0.23855008 0.12610431 0.006636021 -0.055208944 -0.09204846 -0.10785015
-0.17504334 -0.09206772 -0.010334892 -0.12099333 -0.085552104 -0.044919778 0.042718153 0.042840585
0.013489644 -0.12744977 0.07156916 0.0021349578 -0.008773903 -0.03796913 -0.04911388 0.039389864
0.16989878 -0.056634884 0.008137892 0.009833176 -0.09884369 -0.056556102 -0.017659817 -0.114450455
-0.15726735 -0.02674963 -0.12162056 -0.15804435 -0.10003104 -0.15695086 -0.10600345 -0.03675311
0.037634384 0.22728965 0.1215541 0.11041127 0.03490918 0.053155053 0.10425846 0.014237272
0.10899364 -0.03413503 -0.09367795 -0.066594824 -0.16804197 -0.16593325 -0.12637329 -0.14307779
-0.2756271 -0.18526697 0.14103323 0.123925604 0.23173925 0.0561733 0.16817863 0.21200308
0.15471464 0.23010671 0.06280259 0.029973201 0.16516112 0.074387565 -0.00896061 0.024084613
0.11122962 0.0005709555 0.047123753 -0.10930316 -0.049953237 -0.056153778 -0.0672291 -0.05424677
-0.092296846 -0.058972314 -0.12739958 -0.08897683 -0.066946544 -0.14336516 -0.15358797 0.023213927
-0.15494223 -0.14428921 -0.024510672 -0.22798881 -0.091082014 -0.0946912 -0.025287025 0.027484594
0.08234429 0.011389788 0.058590055 0.09561867 -0.026174359 0.1424761 0.16689889 -0.1245786
-0.27603868 -0.14123552 -0.20471519 -0.22341855 -0.09808833 -0.1677733 -0.19698338 -0.15201667
-0.05237252 0.13338207 0.14370306 -0.08177846 0.057028845 0.037500385 -0.12902692 -0.06758176
-0.1493609 -0.05397014 0.0042582657 0.04248748 -0.10019001 -0.038990542 -0.08708532 -0.11856005
-0.101122335 -0.10957606 -0.05793521 -0.040072013 -0.122486815 -0.1530933 -0.05320397 -0.19033444
-0.12737876 -0.041271824 -0.06633044 0.11160297 0.1326697 0.3006075 0.10074627 0.16316618
0.13880746 0.16240934 0.24469146 0.19918427 -0.11211496 0.06965239 0.05600749 -0.05149627

layer2.0.bias f4 [32]
00000000: 4d99 e43c 665d 05bd dfff 9b3c e57d 233d
00000010: ce71 1c3d a704 4fbc 7d3c 743d 70c0 19bd
00000020: ccb2 05bd 4a5b 6d3d 8612 90bd db52 1f3c
00000030: de62 b73d b7c0 91bd 10b5 b3bd 1033 f3bb
00000040: 2c14 083a 7ffe 1a3c 565b 7ebd 526f 14bd
00000050: bbdf cdbc b892 48bc 0c90 bcbd 740f 0ebd
00000060: 07b1 ccbd 1699 02bd f1e1 9d3d 9382 4fbd
00000070: 17df d9b8 0066 6d3d e139 f13c 723e debc
0.02790513 -0.032559775 0.019042907 0.039914984 0.03819447 -0.012635387 0.059628 -0.03753704
-0.032641217 0.05794839 -0.07034783 0.009724344 0.08954404 -0.071168356 -0.08774769 -0.0074218586
0.0005190994 0.009460091 -0.062098823 -0.036238976 -0.025131097 -0.012242012 -0.09207162 -0.034682706
-0.09994703 -0.031884275 0.077091105 -0.050661635 -0.0001038892 0.057958603 0.029446544 -0.027129386

layer2.1.weight f4 [32]
00000000: a224 6a3f a714 543f 6ef1 5e3f 0fb0 9d3f
00000010: b5b8 973f 94d7 623f b63e 8c3f c23d 493f
00000020: 2144 8c3f 241e 7c3f cd98 913f da36 323f
00000030: 803b 9e3f c739 863f 01dd 8c3f 53c7 a03f
00000040: 271a 743f 9219 aa3f 0cf3 6e3f ca91 843f
00000050: eb0e 8a3f 6842 893f 4b8a 5c3f 250f 553f
00000060: d40d 823f b79b 8d3f f73f 903f ebde 4e3f
00000070: 5915 653f 5eeb 9d3f ad3a b43f 56a4 3c3f
0.9146215 0.8284401 0.8708714 1.2319354 1.1853243 0.88610196 1.0956638 0.7860986
1.0958291 0.9848349 1.1374756 0.69614947 1.2361908 1.0486382 1.1004945 1.2560829
0.95352405 1.3289053 0.9333961 1.0356991 1.0785803 1.072339 0.8614852 0.83226234
1.016047 1.1063145 1.126952 0.80808896 0.894857 1.2337453 1.4080406 0.73688257

layer2.1.bias f4 [32]
00000000: 24f6 63bd 7e32 e93c 6169 6fbd 5851 613e
00000010: 5a21 da3d abd0 63be c909 bbbe a21a 8fbe
00000020: 1ba2 53bc 71ea 83be f5c8 5fbd bfa0 acbd
00000030: 0d8c e4bd 39c5 93be e4d2 14be 4daf fe3c
00000040: aeca 2abc 3f33 ecbc 9c27 fabd 96eb 48be
00000050: 20b6 90bd 067c cb3e f432 f0be 1df7 4abe
00000060: 6952 cbbe c202 5c3d ebb4 b6be 784f 8bbe
00000070: b22a 493e 718b 0bbc b682 88be b4b2 88bd
-0.05565466 0.02846646 -0.058450107 0.22003686 0.106508926 -0.2224757 -0.36530903 -0.27950007
-0.012917067 -0.25764802 -0.054635007 -0.084290974 -0.11159525 -0.28861406 -0.14533573 0.03108945
-0.010424299 -0.02883303 -0.12214586 -0.19621119 -0.070659876 0.3974306 -0.46913874 -0.19820829
-0.3971131 0.053713568 -0.35684904 -0.27209067 0.19645193 -0.008517132 -0.26662225 -0.0667471

layer2.1.running_mean f4 [32]
00000000: b407 883e 18f0 16c0 5e07 16c1 953e 16be
00000010: 8141 c1c0 173f b4c0 0619 f940 0f3a 97c0
00000020: a32d 4140 b64f b2bf 5179 4940 e07c 82bf
00000030: bbd8 de40 a06f d8c0 15ea 87bf f350 36c1
00000040: fb74 e1c0 b45b ab40 f5bb b2c0 eb3b 12c1
00000050: d8e5 26c1 a822 e63f fb46 e9c0 905a 5cc0
00000060: 3a70 0bc1 daee 673f 121e fe40 e63b a140
00000070: 6f3d 683e 5cf2 8c40 24ee b6c0 231f 02c1
0.26568377 -2.3584042 -9.376799 -0.1467231 -6.039246 -5.6327014 7.7843046 -4.725837
3.0184104 -1.3930576 3.1480296 -1.0194359 6.9639564 -6.763626 -1.0618311 -11.394763
-7.04553 5.354944 -5.585444 -9.139628 -10.431114 1.7979326 -7.2899146 -3.4430275
-8.714899 0.90598834 7.9411707 5.038562 0.22679685 4.404585 -5.71657 -8.132602

layer2.1.running_var f4 [32]
00000000: 4c83 d741 1525 4741 0b0f 9d41 be0f c841
00000010: 1a9c 5941 6947 7d41 22c4 c741 d131 2741
00000020: 70c5 7b41 4ad8 c041 f19b 4841 6652 b341
00000030: eedc 4341 21e0 1741 c36d db41 8211 1242
00000040: 230c af41 1b12 8441 5cb4 a940 6658 8441
00000050: dff1 3942 f25a 7741 bf4a 8a41 4087 ba41
00000060: a347 4d41 ea61 c041 b6b1 9a41 cf1d 9241
00000070: 86d7 1a42 9400 7041 9711 cd41 f176 5741
26.93911 12.446553 19.632345 25.007687 13.600611 15.829934 24.970768 10.449662
15.7357025 24.10561 12.538072 22.415234 12.241438 9.492219 27.428595 36.517097
21.880926 16.50884 5.3032665 16.543163 46.486202 15.459703 17.286497 23.31604
12.829989 24.04781 19.336773 18.264555 38.710472 15.000141 25.633589 13.466538

layer3.0.weight f4 [64, 32, 3, 3]
00000000: 3de6 5dbc 715c 6cbd b47d be3d 9cb1 93bd
00000010: 52b5 423d 739a 8e3c cb61 133d 3f72 04be
00000020: 8a3d a53d ff5f 473d d368 ccbd 5f13 6ebe
00000030: 1735 b03c 399b ea3c 89cd 4f3d 528e 853a
00000040: c7d1 72bd 7c2e 7cbd 6974 f23d 0317 263e
00000050: 0483 3e3e f6c2 9a3d 8c06 a23d cca8 bd3d
00000060: 9000 893c 42f0 383d 39c4 e23c 6148 213d
00000070: 0206 8cbd 3070 9ebd 36e8 c2bd e15f 813c
00000080: 9a3c 42be e719 1fbe 18f1 d8bd d4c5 71be
00000090: aff8 80bd 3d2f 05be 3381 843b 9553 f5bd
000000a0: 3350 2cbe e23f f9bd 4eef 5abe b643 b0bd
000000b0: be84 ddbb c8d4 d7bc b2f7 c13c 0cdb 873d
000000c0: f35b 003d b816 3dbb 48a1 023d 2686 123e
000000d0: f181 94bc 4b8a 553d 089e 91bd 5ada 39be
000000e0: 8a88 bdbd 9318 91bd aeb0 edbd 5957 bebd
000000f0: 7308 973c 0592 59bd 3cab 2ebd 3bad cabd
00000100: 5098 f5bc c2b7 95bd 0cde 04bd e94f 913d
00000110: 8ace 4ebc d74b 38bb ebef e0bb d377 0e3d
00000120: 9a9d a5be 709b ccbe 4e63 adbe 0bf1 02be
00000130: 5a2f 50bd b46c 94bd 86cf bc3c acb1 aebd
00000140: 1a6c d3ba 17a6 99bd acdc f3bd b59e 84bd
00000150: 4460 7c3d f6a5 debc 5614 d73b e654 8abd
00000160: 7c40 9f3d 6408 a1bd 6f9c dcbd 8da0 44bd
00000170: 3122 9cbd 2679 b6bd b962 f3bd 2c55 48bd
00000180: 211a c5bd dc14 dabd 0ae2 32be 5fc7 21bd
00000190: 68e5 dc3b 3c8a 033e 8d99 9cbc 344d 123c
000001a0: 92ff 623d 9a7c 4ebc 1e57 a1bd 3be5 963c
000001b0: b1bf cbbe 3f55 cabe a63c c1be 5d14 2abe
000001c0: c45a 15be bf1e 54be 8728 eabd 7a56 08be
000001d0: 819e 6cbe 6fdb 1c3d 541e c33d a6d6 adbb
000001e0: 6d71 2abc 8a62 0dbb 77e5 d1bd 67f7 74bc
000001f0: 17ae 11be dd15 20be 2f55 28bd 5dd1 82be
00000200: 96fa e8bd e361 94bc fc57 c4bc 658d e03b
00000210: fbd3 47be 94eb 2ebe de5c d6bc 1db8 a8bd
00000220: 480a d5bd d0d3 27bd 1f7c 19be ef85 bebd
00000230: 2a4e 44bd ef4c 29bd eb05 fcbd 6c29 0cbd
00000240: ab97 843c d33d 863d 0281 f73d 6b12 693d
00000250: 2206 c43c 4226 9e3d 6315 c63d 7c08 963c
00000260: 40d5 f63d d963 40be aa21 45be 2b20 b7bd
00000270: 7217 36be 63d6 d7bd 6366 0cbe d574 8abe
00000280: 2fe5 3dbe ad30 43be 5724 83be 14ac 7abe
00000290: 67a1 d9bd 2750 18be dd9e 20be b21c d8bd
000002a0: c116 1dbd 9464 8fbd 878e 313c 7867 c43d
000002b0: 0c95 acbc 48b0 b53b c082 083d a056 9c3b
000002c0: 4268 bb3b f059 80bd 739f 15bc 64a8 68bd
000002d0: c144 e43d fbdc 413e 7d33 013e 0b1c 7f3d
000002e0: 2f59 8f3d 28b5 bb3d c04d 08bc f248 6b3c
000002f0: e470 ce3c 4f11 0bbe 02ac 3fbe 8623 c03c
00000300: ec8b 14be 6274 83bd f009 a3ba ec77 16be
00000310: 8b69 e4bc 15d1 213d d7b0 0fbc c93a 9ebd
00000320: b320 ffbc 9f0f 99bc 292c 58bd 905e dd3c
00000330: cb38 c3bc dfef b3bd 031e 01bd 9f33 723c
00000340: 382c 45bc 02d9 b1bb 6b06 64bd 7765 7d3d
00000350: 5189 913d 75b7 9f3c 67a0 383d f6ec 093e
00000360: 4b3e 723d 3262 8e3d 98ee 893d 8c42 f9bc
00000370: 7d1b 62bc 845d 00bd 899b 3bbd 1d62 21bd
00000380: 8ab5 433c 12a1 9abd 330e afbc b686 ba3b
00000390: c35f 7ebc 2bf4 c03d ba74 003e 806f ba3d
000003a0: d70c 0b3e 0736 013e 1011 0fbe f303 86be
000003b0: 4fae a4be a4f3 26bd 16cf 71be 0d30 8abe
000003c0: 34e7 26be 1a6f 09bd feb8 49be 36ee e0bd
000003d0: 1ec6 c8bd ef21 e73d 8ef1 28be 4919 90bd
000003e0: f40d 353e f995 ecbd 9c26 bfbc 81f9 f83d
000003f0: eea6 dc3d 3726 84be f8f7 30bd fc07 d4bc
-0.013543663 -0.057705346 0.0930132 -0.07211611 0.0475362 0.017407632 0.035981935 -0.12934206
0.08068378 0.048675533 -0.09980931 -0.23249577 0.02150969 0.028638469 0.050733123 0.001018951
-0.05928209 -0.06156777 0.1183861 0.16219716 0.18604666 0.07556717 0.07911405 0.09260711
0.016723901 0.045151003 0.027681457 0.039375667 -0.068370834 -0.07736242 -0.09516947 0.015792789
-0.1896843 -0.15537225 -0.1059286 -0.23610622 -0.06297433 -0.13006301 0.004043722 -0.11978833
-0.16827469 -0.12170388 -0.2138035 -0.08606665 -0.006760209 -0.02634658 0.02367768 0.06633577
0.03133769 -0.0028852653 0.03189209 0.14308986 -0.018128367 0.05213384 -0.0711022 -0.18149701
-0.092545584 -0.07084765 -0.116059646 -0.09294004 0.018436646 -0.05311777 -0.04264377 -0.09896322
-0.029979855 -0.0731044 -0.032438323 0.0709532 -0.012622485 -0.0028121376 -0.006864538 0.034782242
-0.32346803 -0.3996234 -0.33864826 -0.12787263 -0.050826408 -0.07247296 0.023048174 -0.08529982
-0.0016130239 -0.07502382 -0.11907324 -0.064755835 0.061615244 -0.027178746 0.0065637035 -0.06754474
0.07775971 -0.078629285 -0.10772025 -0.048004676 -0.07623709 -0.08909826 -0.11884064 -0.04890935
-0.09624124 -0.1064851 -0.1746904 -0.039496776 0.0067412145 0.12845701 -0.019116187 0.0089295395
0.055419512 -0.0126029495 -0.078779444 0.018419852 -0.39794686 -0.39518163 -0.37741584 -0.1660933
-0.14585406 -0.20714854 -0.11433511 -0.13314238 -0.2310734 0.038295206 0.09527269 -0.005305129
-0.010403019 -0.0021573626 -0.10248845 -0.014951563 -0.14226566 -0.1563334 -0.041096862 -0.25550357
-0.113759205 -0.018113082 -0.023967735 0.006852793 -0.19514458 -0.17082053 -0.02616733 -0.08238242
-0.104023516 -0.040973485 -0.14988755 -0.093028896 -0.047926106 -0.041333135 -0.12305816 -0.03421919
0.016185602 0.06554761 0.12085153 0.05690233 0.023928706 0.07722141 0.09672048 0.018314593
0.12052393 -0.18788089 -0.19251123 -0.089416824 -0.17782381 -0.10538938 -0.13710932 -0.2704226
-0.18544458 -0.19061537 -0.25613663 -0.24479705 -0.10626488 -0.14874326 -0.15685602 -0.10552348
-0.038351778 -0.07001606 0.010837204 0.095900476 -0.021067165 0.005544696 0.033327818 0.0047710687
0.0057192156 -0.06267154 -0.009132254 -0.056801215 0.11145926 0.18931954 0.12617297 0.062282603
0.06999432 0.09165412 -0.008319318 0.014360653 0.025200315 -0.13580821 -0.1871796 0.023454439
-0.14506501 -0.06418683 -0.0012438875 -0.14694184 -0.027882358 0.039506037 -0.008770189 -0.07726056
-0.031143522 -0.018684207 -0.05277649 0.02702263 -0.023830792 -0.08785986 -0.031522762 0.014782815
-0.012034468 -0.0054274807 -0.055670183 0.061864343 0.07106269 0.019496659 0.045074847 0.134693
0.05914144 0.06952323 0.06734961 -0.03042724 -0.013800499 -0.031339183 -0.045802627 -0.03940021
0.011945138 -0.07550253 -0.021369075 0.0056923283 -0.015525761 0.09421571 0.12544528 0.09103298
0.13579117 0.12618266 -0.13971353 -0.26174888 -0.32164237 -0.040759698 -0.23614153 -0.26989785
-0.16299134 -0.03355322 -0.19699475 -0.10982935 -0.09803413 0.11285769 -0.16498396 -0.07036073
0.17681104 -0.115520425 -0.02333384 0.12156964 0.10774027 -0.25810406 -0.04320523 -0.025882713

layer3.0.bias f4 [64]
00000000: 03bb 373d a7ec 50bc eef6 ae3c 6aa4 ee3c
00000010: 614c 4f3d 1dca 603c 4359 ea3b 7012 00bd
00000020: 64b2 083c dd32 b039 0f1b 5c3d a945 f63c
00000030: f945 c73b b36d 803d 96e2 483c bbaf b83a
00000040: 941f c63c aaf5 6cbc 59dc d73c b5ed 12bc
00000050: e74d dbba 6071 833c acbf 66bd 7880 37bc
00000060: 6bc9 183d 44e5 813d b7c5 fbbc 1a93 3ebd
00000070: 859f 3dbc 3a60 8ebc 4c59 133d bfb9 6dbc
00000080: 72e1 e73c dad1 72bc a01e a43c 4262 64bd
00000090: ba60 f93c a44e 383d 5b8c a13b e754 8abd
000000a0: 99fb d1bc 4c03 5f3d a69b bfbb 0bda 51bc
000000b0: 426b 493d 6737 d23c c66f 7b3c 22c7 1ebd
000000c0: 0b7a c7bc 8b3a 113d 8058 e9bc c9c7 23bd
000000d0: 7e86 d5bc 0b41 ccbc acc9 51bd ca1d 5c3c
000000e0: 176b 75bc cce8 3b39 5ebf 0c3d dad4 783c
000000f0: 5121 4d3c 873b c0bb 2437 303d 8c17 5dbc
0.044856083 -0.012751735 0.02135798 0.029131133 0.05060995 0.013720063 0.007151754 -0.031267583
0.008343313 0.00033607232 0.053736743 0.030062513 0.0060813394 0.062709235 0.012261054 0.0014090458
0.02418498 -0.014462868 0.026350187 -0.008967807 -0.0016731591 0.016045272 -0.056335136 -0.011200063
0.037301462 0.06342557 -0.030733926 -0.046527006 -0.011573677 -0.017379869 0.035973832 -0.014509617
0.028305743 -0.01482054 0.020034134 -0.05575777 0.03044163 0.044996873 0.0049300618 -0.06754475
-0.025632666 0.054446504 -0.005847412 -0.012808333 0.049174555 0.025661184 0.015346473 -0.038764127
-0.024350187 0.03545622 -0.028484583 -0.03998545 -0.026065107 -0.024933359 -0.05121772 0.013434837
-0.0149791455 0.00017920433 0.03436219 0.0151874665 0.01252015 -0.005866471 0.043021336 -0.013494384

layer3.1.weight f4 [64]
00000000: b21d 183f 1ef4 5f3f a95e 5e3f a90e 013f
00000010: 21a3 903f 2f51 433f cbbe 173f 27b6 2e3f
00000020: dcd9 803f a691 0e3f 5ed6 493f 484d 323f
00000030: 274e 0a3f 2b10 523f 1a02 073f deae e33e
00000040: c980 eb3e e450 753f 05f7 2b3f b9a9 7a3f
00000050: 07e3 1d3f b4e6 3a3f c9af 103f 97c2 8c3f
00000060: 0f5f 7b3f d8b6 3f3f e5f8 5c3f 2113 123f
00000070: 1c83 4b3f 60c4 563f c273 663f 7c44 233f
00000080: abfe f43e e162 3b3f 1ace 263f 84de 8d3f
00000090: 55d4 073f a21a 723f 7d13 573f 7122 1f3f
000000a0: a7cb 633f 6f1b 683f b27d 3b3f 1f02 f53e
000000b0: 236a 2b3f 6686 1a3f 02d4 2a3f a266 903f
000000c0: f6e2 333f 4d8e 303f 584c 473f 847b d53e
000000d0: a3cd 4a3f a68b d83e febc 523f 67eb 403f
000000e0: 9533 153f 10fe 373f a697 203f 5b1d 343f
000000f0: 7eb0 373f 4d94 0b3f 5bbb 073f 8ecf 163f
0.5942031 0.8748187 0.8686319 0.50412995 1.1299783 0.7629575 0.592755 0.6824669
1.0066485 0.5569099 0.78842723 0.6964917 0.540255 0.8205592 0.5273758 0.4446935
0.45996693 0.95826554 0.67173797 0.97915226 0.6167454 0.73008275 0.56518227 1.0996884
0.9819192 0.7488837 0.8631728 0.5706044 0.7949693 0.83893394 0.9002038 0.63776374
0.47850546 0.7319775 0.65158236 1.1083531 0.5305837 0.9457189 0.8401411 0.6216193
0.88982624 0.9066686 0.7323867 0.4785318 0.66958827 0.60361326 0.6672975 1.1281321
0.7026819 0.68967134 0.77850866 0.41695797 0.79220027 0.42294043 0.8231963 0.75359195
0.5828183 0.71872044 0.627314 0.7035729 0.7175368 0.54523164 0.53020257 0.58910453

layer3.1.bias f4 [64]
00000000: cc05 ddbe 4b3e e9be 5d81 b8be dc6b ecbe
00000010: 19ad 02bf 86d3 33be 6ffd e7be 94d3 cdbe
00000020: 3bd1 77be 0f0e b2be d4c7 c9be d1c8 1bbf
00000030: e7ab 86be 6a37 edbd 6402 bebe 8ed7 07bf
00000040: 8fd2 01bf dbf4 d9be 03d9 9bbe b404 b4be
00000050: 6330 e5be 5454 4dbe 6c58 d1be 5cd8 b8be
00000060: 6484 71be 9460 a5be f7c5 40be 592e fbbe
00000070: 1d2c a6bd 42a7 67be 38ff 90be 5824 b8be
00000080: 5dbc 14bf a383 51be 6a9f 91be 2ec5 acbe
00000090: bcf7 ecbe 80ee b6be e797 d0be 31b8 9dbe
000000a0: 82e3 23be e117 d9be c0a8 e9be ac25 b0be
000000b0: 5464 eabe e9db 11bf 9f80 a0be 3e37 bcbe
000000c0: dce9 ccbe 6a1f f0be 95f7 f4bd 8918 10bf
000000d0: 26eb d1be 852f 16bf b62a c2be 0a42 9cbe
000000e0: 7f0f 16bf 1060 d6be e631 fcbe c0f7 78be
000000f0: 970b 84be 6705 bdbe 8de5 b8be 79c1 d8be
-0.43168485 -0.45555338 -0.36036196 -0.4617604 -0.51045376 -0.17561159 -0.45310542 -0.40200484
-0.24200909 -0.3477635 -0.3941027 -0.60853297 -0.26303026 -0.11582835 -0.371112 -0.53063285
-0.5071191 -0.42569622 -0.30439004 -0.35159838 -0.4476348 -0.200517 -0.40887773 -0.3610257
-0.2358566 -0.32300246 -0.18825518 -0.49058798 -0.08113883 -0.22622398 -0.28319716 -0.35965228
-0.5809992 -0.20460372 -0.28441936 -0.33744186 -0.46282756 -0.35728836 -0.40740892 -0.3080459
-0.16004756 -0.4240103 -0.4563656 -0.3440374 -0.4577967 -0.5697618 -0.3134813 -0.36760896
-0.4002217 -0.46898967 -0.11961285 -0.5628744 -0.40999717 -0.5866626 -0.3792321 -0.30519134
-0.58617395 -0.41870165 -0.4925682 -0.24313259 -0.25790092 -0.36918184 -0.36112633 -0.42335108

layer3.1.running_mean f4 [64]
00000000: cd06 1dc1 e5b3 c8c0 bd70 7140 466c 8640
00000010: 3c04 0a41 5aa9 ac40 8714 1cc1 6d80 ec3f
00000020: ca50 a140 eb33 f5bf cd40 0fc0 68c2 00c1
00000030: 8d8e aa40 b49b 73c0 8780 b1bf 1c79 a9c0
00000040: 44bb 3140 d783 29c1 9653 a9bf aaed 5040
00000050: 5b38 83c0 7592 e0bf f78e 71be 60d0 2fc1
00000060: 5edb 89c0 3f2b 4440 b18f 1b40 9fe6 023f
00000070: da7d d53f 26a8 3a3f 07f4 4cbf 0759 373f
00000080: 7a13 05c1 3b68 a740 de5e 37c1 1d67 2cc1
00000090: 6c51 38bf 6e97 86c0 5904 c7bf 4f96 eebe
000000a0: 70f5 a940 0474 43c1 8824 86c0 d4d5 a3c0
000000b0: 0005 7e3f 3f6f 3cc0 5ae7 f9bf 7333 0dc1
000000c0: 34e1 1c41 9088 f9c0 e479 08bf eb5e efc0
000000d0: 86e8 57c0 d7b7 14c1 d03f b640 529a 5f40
000000e0: e825 81c0 4f3a 2a40 9bdc bec0 e6f6 0341
000000f0: e6bc 6ec0 10a8 d240 5bb0 ee3f ab1e 0bc1
-9.81416 -6.27196 3.772506 4.200717 8.626034 5.395673 -9.755012 1.8476692
5.041112 -1.9156469 -2.2383301 -8.047462 5.329901 -3.8063784 -1.3867348 -5.296034
2.7770548 -10.594687 -1.3228633 3.2645059 -4.1006293 -1.7544695 -0.23589693 -10.988373
-4.308028 3.0651395 2.4306452 0.5113315 1.6679032 0.72912824 -0.80059856 0.7162022
-8.317255 5.2314734 -11.460661 -10.775174 -0.7199924 -4.205985 -1.5548202 -0.4659905
5.3112106 -12.215824 -4.1919594 -5.119852 0.9922638 -2.94429 -1.9523728 -8.825061
9.804981 -7.79792 -0.5331099 -7.4803367 -3.373567 -9.294883 5.6952896 3.493794
-4.035877 2.6598089 -5.9644294 8.247778 -3.7302794 6.5830154 1.864757 -8.694987

layer3.1.running_var f4 [64]
00000000: 1864 0a42 6af5 6d42 a8f9 1142 314e ce41
00000010: d6fe 1942 7dd7 1442 854f 1942 6247 e141
00000020: eff6 1042 549b c841 d468 8842 2452 f541
00000030: 39d3 7642 fc41 8342 0e8b ef41 a006 b941
00000040: 8d34 7041 3fdd 5f42 28a4 8841 151d f541
00000050: 90ad 1e42 8d13 3242 5240 dc41 fc3d 7e42
00000060: fc99 8042 c8c9 3142 d27f 1c42 5941 1642
00000070: 2bbd 4b42 385e 1a42 2a73 de41 52fa 3742
00000080: 55a5 6e41 8e6e 5042 dd4f b341 8902 6c42
00000090: 7280 bc41 f93c 7442 9530 7a42 fa23 bd41
000000a0: 0726 2442 d43f 6342 2f3d bc41 8364 9f41
000000b0: 18aa c941 9ab4 8441 e721 2b42 9427 a342
000000c0: 6b4d e241 40c6 a541 65da 4242 47c2 7841
000000d0: 2ec2 9841 3e7d c841 34d3 b641 cca2 f441
000000e0: 908f 8e41 8ab3 0d42 f881 1c41 ac42 0242
000000f0: 3377 4542 16d6 2442 4f25 0142 719f d641
34.597748 59.489662 36.493805 25.78818 38.498863 37.210438 38.327656 28.159855
36.241146 25.075844 68.20474 30.665108 61.706272 65.628876 29.942898 23.128235
15.01283 55.96606 17.080154 30.6392 39.669495 44.519093 27.531406 63.56053
64.30075 44.447052 39.124825 37.563816 50.934734 38.59201 27.806232 45.994453
14.915364 52.107964 22.413996 59.002476 23.562717 61.059544 62.547443 23.642567
41.037136 56.812332 23.529875 19.924078 25.208054 16.588184 42.783108 81.5773
28.287802 20.721802 48.713276 15.547431 19.094814 25.061153 22.853127 30.57949
17.820099 35.42533 9.781731 32.56511 49.366405 41.20907 32.286434 26.827852

fc1.weight f4 [10, 576]
00000000: 0f46 52bd 1b8d b9bb dd80 50bd b005 1f3b
00000010: c19f 12bd ba76 a5bd d0a0 a4bd b844 86bd
00000020: 5675 85bd 1215 9bbc 6f6c 8abd 884b f5bd
00000030: 84d2 9cbd f04a d9bb b637 dabd 053d 15bd
00000040: f83f e6bc 544e 18bd 4c5a a5bd cd29 1dbd
00000050: 9261 90bd 5e60 2dbd 21f2 1d3a 91b7 9b3c
00000060: 4e5b 923c cd92 a5bd c827 25bd eae2 8abd
00000070: 4513 32bd 30dc 90bd 986d b2bd 6509 2c3d
00000080: 166e 04bd e978 51bd 43f1 6cbd d9ba 34bd
00000090: 462e c0bb 80cc 3bbd 025b afbb ab3c 09bb
000000a0: df6b a33a 1061 403d a947 10bd c58a adbd
000000b0: f77f 49bd 12e6 823c 22a5 0dbc c121 e8bb
000000c0: cb1a f63c 7c95 ebbc cde7 9bbc ff9d 37bd
000000d0: 5da5 d3bc 97d1 b13b 782b 77bd b1db 0e3c
000000e0: cd8d ee3c e4f5 2abc 2c97 cdbb 3fa0 503c
000000f0: 481a 2f3c 3081 47bd d3c1 50bd 27cc debc
00000100: e4ff b8bd 6758 9e37 8a4b 32bd c4bb 12bc
00000110: 0275 a53a 7d22 28bc 3c88 3f3c bc9c 153d
00000120: c839 8dbd 364c 63bc 8176 283d a686 db3c
00000130: ebab 6abc 8508 4abd 0a39 26bd f765 9fbd
00000140: 00cb 22bd 2bcf 21bd 47c1 63bd 44a5 56bd
00000150: 3542 09bd 19db 633c eacd 7bbd 59bb 6e3b
00000160: 1d28 24bd 3bbe 20bd 7289 323d 5db1 93bc
00000170: b708 54bd 2385 0ebd 66be 5abd c267 8dbd
00000180: d411 31bd 52aa 693b e4cc b7bc b6bc b7bd
00000190: e209 79bd ba73 a83c c112 f2bc 1f59 70bd
000001a0: fb5d c4bb 5480 08bd 0f26 15bd d36b fcbc
000001b0: 22f7 753b 8be1 f8bb 135b 79ba aa48 f13c
000001c0: d4c4 673c 0465 813b 53c0 1dbd d8d0 9b3b
000001d0: 9357 273d 5180 1c3d c10f 9c3d e79c 17bd
000001e0: a26f 82bd 1e3f 1eb9 9063 c1bd 22bc 87bd
000001f0: a36a 7fbd 42b6 71bc 52c6 7cbd 4108 37bd
00000200: f048 1abd 66eb 693c 3c60 ffbb 391c 95bd
00000210: 9313 c7bb 5112 563c 1111 32bc 8008 58bd
00000220: 60c0 22ba 2c9e a3bd 2de5 dcbc 9edc 873c
00000230: cf2a 16bd 4f47 96bd d492 7abd 907f 14bc
00000240: c93b b1bc ddfd dabc 267b ba3c be65 d8bc
00000250: e7f8 af3c 4de1 54bd 2082 8ebd 70dc 7bbd
00000260: 4d55 45bc 9d80 38bd 66d1 c3bd a24b 2ebd
00000270: 1d09 f4bc 7dc9 1fbd 4050 40bc 4689 48bc
00000280: d83b bf3c 9a8d f8bb 925b 32bc 877c 46bd
00000290: 4c14 e3bb fa2e eabd 6d7f 233c f658 8d3c
000002a0: 9296 2dbc bb4a a4bd 91e9 30bd f635 783d
000002b0: 8b8d 4dbd 63e3 023d 5bfa 1ebd 3ab7 9a3c
000002c0: 236f e6bc dcd3 83bd 7197 78bd 2f8e f5bc
000002d0: 3482 94bb 0020 c4bc be44 10bd e3c8 30bd
000002e0: 8838 973c 6b4c 8bbd 470d d7bc 8b66 a1bd
000002f0: bc50 88bd b7fb 2abc 4752 5bbd a1af 3ebd
00000300: f697 c2bc 2e58 c2bb a8bc 8fba 38d1 0fbd
00000310: b4a3 5dbd 5012 ecbc 363c 253c 86fc d0bd
00000320: 99f2 4abd 3b16 8dbc a41f acbd a65e 2fbd
00000330: b863 f4bb 0a11 85bb 5dd0 1f3c 41ad 46bd
00000340: 53fb 98bd d86d 87bd 54ce 69bd de78 5cbd
00000350: 830d 9abc bcec afbd db90 e6bc d2d0 fdba
00000360: 3a3d 0abd e6a0 1cbd aeb2 f4bc 982a ccbc
00000370: be95 1cbd c2b8 333c bf30 1fbc 28cf 02bd
00000380: 8146 bebd e587 38bc 51a4 e9bc 591c 74bc
00000390: ee05 9839 f44c 2e3c e9bd 093c 93a8 4bbd
000003a0: 8ca9 24bc 4773 0f3c a9fd 903c 4dcd eebc
000003b0: d2e7 17bd 03f3 283d 8b91 b4bc 9655 e53a
000003c0: 9539 15bd e1e8 abbd 55b8 4bbd 7582 63bc
000003d0: b06f 96bd 4ea6 533c 5688 d1bc 23d1 1abd
000003e0: 4e85 ccbd b415 14bd 7030 5fbd 549b 76bc
000003f0: a346 6f3d 5208 003d e5b7 ca3c f844 0bbc
-0.051336344 -0.005662573 -0.050904144 0.0024264865 -0.035796884 -0.08079286 -0.08038485 -0.06556076
-0.06516521 -0.018930946 -0.06758963 -0.11977297 -0.0765734 -0.0066312477 -0.10655157 -0.036435146
-0.028106675 -0.037184075 -0.080738634 -0.038369942 -0.0704986 -0.04232823 0.0006025155 0.01900843
0.017865803 -0.08084641 -0.04032114 -0.06781562 -0.043475408 -0.070732474 -0.087123096 0.042001147
-0.03233155 -0.0511407 -0.057847273 -0.044123504 -0.005864891 -0.045849323 -0.005351425 -0.0020940702
0.0012468061 0.046967566 -0.03522459 -0.08473734 -0.049194302 0.015978847 -0.008645328 -0.007084102
0.030042073 -0.028757803 -0.01903143 -0.04482841 -0.025835687 0.0054265964 -0.06034419 0.008719371
0.02912035 -0.010434601 -0.0062741246 0.012733518 0.010687418 -0.048707187 -0.050966095 -0.027196957
-0.09033182 1.8876233e-05 -0.04352907 -0.0089559 0.0012623372 -0.010262129 0.011690196 0.036526427
-0.068957865 -0.013873151 0.04112864 0.026797604 -0.014323215 -0.04932453 -0.04058174 -0.0778312
-0.039744377 -0.03950421 -0.055604246 -0.052403703 -0.033510406 0.013907217 -0.06147567 0.0036427586
-0.040077318 -0.039243918 0.04358811 -0.01802891 -0.051766124 -0.034794938 -0.053404234 -0.06904556
-0.043229893 0.0035654497 -0.022436567 -0.08971541 -0.06080044 0.020562995 -0.029549958 -0.058678742
-0.0059926487 -0.03332551 -0.03641325 -0.030813133 0.0037531336 -0.007595246 -0.00095121673 0.029453594
0.014146049 0.0039488096 -0.038513493 0.0047551207 0.040855 0.03820831 0.07620192 -0.037014868
-0.063689485 -0.00015091567 -0.09442818 -0.0662768 -0.062357556 -0.014752926 -0.06171257 -0.044685606
-0.037667215 0.014277315 -0.0077934545 -0.07280774 -0.0060753315 0.01306589 -0.010868327 -0.05274248
-0.00062084757 -0.07989153 -0.026964748 0.01658469 -0.03666192 -0.0733782 -0.061175182 -0.009063616
-0.021634953 -0.02673238 0.0227638 -0.026415702 0.02148099 -0.051972676 -0.06958413 -0.061489522
-0.012044263 -0.04504453 -0.09561424 -0.042552598 -0.029789502 -0.039010514 -0.011737883 -0.01223976
0.023343965 -0.0075852396 -0.01088609 -0.048458602 -0.00692991 -0.11434741 0.009979111 0.017254334
-0.010594981 -0.08022066 -0.043191496 0.060598336 -0.050183814 0.031955134 -0.038812976 0.018886197
-0.028129166 -0.06436893 -0.0606913 -0.029975025 -0.004532123 -0.02394104 -0.035221808 -0.04316033
0.018459573 -0.06801685 -0.026251448 -0.07880887 -0.06656024 -0.01043599 -0.053545263 -0.04655421
-0.023754101 -0.005930922 -0.0010966258 -0.035111636 -0.054111198 -0.028817326 0.010085156 -0.10204415
-0.049547765 -0.017222514 -0.084044725 -0.042814873 -0.0074581765 -0.004060869 0.0097542675 -0.04850507
-0.07469811 -0.06612748 -0.057081535 -0.053826205 -0.018805271 -0.085900754 -0.028145244 -0.0019364601
-0.033749796 -0.038239382 -0.029870357 -0.024922654 -0.038228743 0.010969343 -0.009716212 -0.03193584
-0.09290791 -0.0112628685 -0.028520735 -0.014899337 0.00028996117 0.010638464 0.0084070945 -0.04972131
-0.010050189 0.008755512 0.01769908 -0.02915063 -0.037086315 0.04124738 -0.022042057 0.001749682
-0.036431868 -0.083940275 -0.04973634 -0.013886084 -0.073455215 0.012918068 -0.025577705 -0.037797105
-0.09986363 -0.03615351 -0.054489553 -0.015051682 0.058416974 0.031257935 0.02474589 -0.00850033

fc1.bias f4 [10]
00000000: 642b 8dbb ad15 d6bc 02bc 8cbd 0911 e3bb
00000010: 6e73 8ebd a0a9 02bd c606 48bd fa41 0abd
00000020: c0db 76bd 7237 503d
-0.004308151 -0.026133383 -0.06871797 -0.006929521 -0.0695561 -0.03190005 -0.048834585 -0.033754326
-0.060268164 0.050834127

fc2.weight f4 [2, 10]
00000000: d889 37be ccc9 e03c d46b 813d aa14 84be
00000010: 5470 6fbe 79e0 9dbd cb1c 323e d325 843d
00000020: ca66 803e f39e c4bd 43f3 1e3e 8599 5dbe
00000030: 4d53 ac3d eae0 e7bd f88f 9a3c 735c 80be
00000040: cdfc d93d 4e8f f83d 28e2 b43e 69d0 89be
-0.17923677 0.027439974 0.06319395 -0.25797015 -0.23382694 -0.077088304 0.17393796 0.06452527
0.25078422 -0.0960063 0.15522484 -0.21640594 0.08414326 -0.11322196 0.018867478 -0.25070533
0.10643921 0.12136708 0.35328794 -0.26916817

fc2.bias f4 [2]
00000000: ee91 523e 02ba 93be
0.2056348 -0.2885285

exp_avg f4 [16, 3, 3, 3]
00000000: 632c 8f3a 0f52 853a 2379 803a ed26 893a
00000010: 7fce 6d3a bf4f 523a 0102 983a 0c3f 833a
00000020: 8b5a 593a bac3 d437 e868 91b7 712d afb7
00000030: a266 a2b7 d62f 03b9 ccff 44b9 838c e038
00000040: 7030 42b7 d674 11b9 bb2b 2cb9 577d 41b9
00000050: 2a0a 28b9 bff4 5db9 2d0d 92b9 af1d a4b9
00000060: e3ee d4b8 81a2 34b9 2a20 89b9 9869 173b
00000070: a4ae 163b d88c 133b 8c43 1c3b 5880 1c3b
00000080: a91c 1d3b 8d90 1f3b d59e 1b3b 3db2 1b3b
00000090: 3f2b c23a f824 c33a ab71 bb3a eae6 c43a
000000a0: 0baf c73a dc4e c83a b467 c43a ed04 be3a
000000b0: a473 bd3a d837 593a 98fa 593a 0f76 443a
000000c0: 1c49 613a 5476 623a 3839 5c3a ec5e 633a
000000d0: 7cbb 533a 64f3 493a 4bc3 b339 9856 a639
000000e0: 3a87 a739 011d a039 274e 7f39 cf6e 6a39
000000f0: 1484 d339 bf25 ac39 c9c3 8d39 8433 a6b6
00000100: 8940 55b6 03d0 ef37 a404 25b8 5312 9db8
00000110: 6994 82b8 c91c a238 b170 fe37 7d03 8d36
00000120: 95d2 f0b9 03ea e5b9 bbfd cbb9 0b47 fcb9
00000130: 4f2d 00ba 7401 f1b9 6f30 bdb9 40be c3b9
00000140: cef1 c7b9 7de3 2b3b 7462 273b 8105 293b
00000150: e1c5 273b a510 1d3b 1c68 173b ea49 363b
00000160: c939 283b 5efa 1b3b cce1 da38 9398 1f39
00000170: 193b 9939 5d62 3a38 9ba6 69b7 bab2 0538
00000180: 60b7 a039 ea4d 5539 17e4 2439 bfd9 423a
00000190: fdfa 5b3a dd25 813a 3228 383a 5227 3f3a
000001a0: c00c 4d3a d0ba 753a ca23 793a cb72 6f3a
000001b0: 4004 6e39 3c6d 5839 d55f 5e39 1cf8 bd39
000001c0: 93d4 a739 95ca a439 84a0 ba39 1e3d a839
000001d0: 9b9e a739 f34d baba 8e7d bdba 41ea c1ba
000001e0: 55c7 a2ba 81fa a7ba 2b1b adba ecb0 9fba
000001f0: 6b38 a4ba 7bfc a7ba ec0e bcba 576b c0ba
00000200: 9e21 c1ba 27e6 a3ba b502 a9ba d7f2 aaba
00000210: 84b8 9eba 314f a2ba 85fb a3ba 803c 003b
00000220: 850e 013b 45be 023b feb6 043b c57d 063b
00000230: 0b73 083b 8fc9 0f3b 3911 123b 4c4f 113b
00000240: f42d 2839 d6c9 2e39 0234 4239 b512 6639
00000250: 8114 8039 bf11 8e39 d493 cb39 4501 de39
00000260: 4d1c d639 7ba0 eab8 52c7 8db8 20a7 8fb8
00000270: d2b6 a8b8 c702 bcb7 ba30 96b7 03ea 1438
00000280: d56b de38 2ad7 a338 3de8 3dba dd0a 70ba
00000290: 5cc8 93ba 47a3 46ba d1dc 67ba 6b0a 8fba
000002a0: 7296 4bba aa40 5bba 9f49 83ba 4a3e 8dba
000002b0: 6a2c a9ba 487d c8ba 1597 8aba 34a6 9eba
000002c0: d8f7 baba b891 86ba 62b4 90ba 1ce6 a7ba
000002d0: 4844 0bba 2663 39ba 79b3 6bba d067 f3b9
000002e0: 7b06 18ba 0243 45ba 29f0 d3b9 4980 eeb9
000002f0: ba2d 18ba c9e2 d9b9 e95f e0b9 5af8 e7b9
00000300: 7e72 93b9 5b54 a8b9 20f9 bfb9 914a 95b9
00000310: 199a a4b9 c489 b8b9 9026 a4ba 4606 a9ba
00000320: e061 b1ba a84c 8fba 65c8 96ba 63fa a2ba
00000330: 63bd 8dba 2be8 93ba a5ef 9dba 90f8 80ba
00000340: 7971 84ba 66f9 85ba 4176 57ba 1292 62ba
00000350: c32e 6eba 3f16 50ba 9bd8 56ba 2f02 61ba
00000360: 9685 413b 8fe2 383b 788e 143b a1f6 9c3b
00000370: 0c5f 9c3b a838 863b 5ed8 cc3b 8bfb c73b
00000380: 3f88 af3b 0afa e73b 7a77 e23b 6ca7 cf3b
00000390: c013 0d3c 311f 0c3c cf6c 003c 13ab 213c
000003a0: e800 1e3c ef82 113c aa43 3a3c 7464 363c
000003b0: 55b4 2b3c e3bf 4e3c 3e34 4b3c e8b1 3e3c
000003c0: fd95 5f3c 6295 593c 503d 4b3c cd67 0c3a
000003d0: b84e 0f3a d73b 0d3a 564f 133a e1ce 143a
000003e0: f25b 103a 1c65 1c3a c45b 1c3a 8e11 163a
000003f0: 4dc6 c8b9 83b0 c9b9 c70d d4b9 d664 bab9
0.0010923262 0.001017155 0.0009801727 0.0010463871 0.0009071603 0.00080227474 0.0011597277 0.0010013296
0.0008291385 2.5363512e-05 -1.7334198e-05 -2.0882786e-05 -1.9359697e-05 -0.00012510954 -0.00018787308 0.00010707325
-1.1574579e-05 -0.00013871802 -0.00016419489 -0.00018452607 -0.00016025515 -0.00021167377 -0.00027857107 -0.00031302634
-0.00010153444 -0.00017226675 -0.0002615464 0.002310371 0.0022992278 0.002251437 0.0023843972 0.002388021
0.0023973382 0.0024347634 0.0023745794 0.0023757361 0.0014813914 0.0014888337 0.0014300843 0.0015022431
0.0015234662 0.0015282291 0.0014984519 0.0014497318 0.0014454019 0.00082862144 0.00083152344 0.0007494399
0.0008593963 0.0008638848 0.000840086 0.0008673507 0.00080769486 0.00077038095 0.00034287045 0.00031726505
0.00031953474 0.00030539188 0.00024347809 0.00022357258 0.00040343462 0.0003283452 0.00027039487 -4.9531827e-06
-3.1777038e-06 2.8587883e-05 -3.9343387e-05 -7.4897565e-05 -6.2265266e-05 7.7301236e-05 3.0331636e-05 4.2025335e-06
-0.00045933263 -0.00043852636 -0.0003890822 -0.00048118117 -0.0004889564 -0.00045968185 -0.00036084975 -0.00037335046
-0.00038136396 0.0026228123 0.002554086 0.0025790634 0.0025600123 0.002396622 0.0023102826 0.0027815052
0.0025669208 0.0023800354 0.00010437108 0.0001522026 0.00029226465 4.4437464e-05 -1.3926673e-05 3.1876123e-05
0.00030654203 0.00020342288 0.00015725229 0.00074329594 0.0008391587 0.0009853203 0.00070250325 0.0007291931
0.00078220293 0.00093738455 0.0009503929 0.0009134232 0.00022699032 0.00020640058 0.0002120727 0.00036233745
0.00032011102 0.00031431453 0.00035596278 0.00032088993 0.00031970892 -0.0014213905 -0.0014456974 -0.0014794545
-0.0012419025 -0.0012815745 -0.0013206949 -0.0012183464 -0.0012529021 -0.0012816334 -0.0014347709 -0.0014680427
-0.001473475 -0.0012504504 -0.0012894484 -0.0013042343 -0.0012109433 -0.001238322 -0.0012510872 0.001956731
0.0019692492 0.0019949835 0.0020250673 0.0020521742 0.0020820524 0.0021940207 0.0022288098 0.0022172509
0.00016038847 0.00016669123 0.00018520656 0.00021941478 0.0002442934 0.00027097572 0.00038829318 0.00042344086
0.00040838346 -0.00011187881 -6.76053e-05 -6.849901e-05 -8.044917e-05 -2.241264e-05 -1.7904084e-05 3.550389e-05
0.0001060587 7.812523e-05 -0.0007244384 -0.0009156892 -0.0011274922 -0.0007577431 -0.0008844855 -0.0010913139
-0.00077662535 -0.00083638227 -0.0010016448 -0.001077601 -0.0012906913 -0.0015296126 -0.001057359 -0.0012103976
-0.0014264537 -0.0010266816 -0.0011040086 -0.0012809667 -0.0005312604 -0.0007071964 -0.0008991282 -0.00046425918
-0.00057993055 -0.00075249386 -0.0004042399 -0.00045490477 -0.00058051536 -0.00041558433 -0.00042796068 -0.0004424479
-0.00028123328 -0.00032106307 -0.00036615971 -0.0002847505 -0.0003139533 -0.00035197858 -0.00125237 -0.0012895546
-0.0013533197 -0.001093288 -0.0011503814 -0.001243424 -0.0010813888 -0.0011284401 -0.0012049569 -0.0009839702
-0.0010104618 -0.0010221421 -0.00082192203 -0.0008642982 -0.00090859475 -0.0007937885 -0.0008195729 -0.0008583394
0.0029529086 0.0028211211 0.0022667926 0.0047901426 0.0047720727 0.0040961094 0.006251379 0.0061029843
0.005356818 0.0070793675 0.0069112154 0.006337097 0.008610666 0.0085523585 0.007838442 0.009867447
0.009643771 0.008881315 0.011368671 0.011132348 0.010480006 0.012618992 0.012402592 0.011639096
0.0136466 0.013280245 0.012404755 0.00053560437 0.0005466747 0.000538764 0.0005619427 0.00056765793
0.0005506865 0.0005965994 0.0005964602 0.0005724662 -0.00038294718 -0.0003846922 -0.00040446056 -0.00035551813
