Lab5/model_25_0.0001.pth (torch, 379043 bytes, 54 tensors)

layer1.0.weight f4 [16, 3, 3, 3]
000000 68 0f 31 3d 8f 52 1e be 06 d8 af 3d f1 5f dd 3d
       0.043227583 -0.15461181 0.08586125 0.10809315
000010 cd c5 40 3e 0e 7d 44 bb db 53 81 bd 9a 21 f3 bd
       0.18825455 -0.0029981765 -0.06314822 -0.11871643
000020 11 0c 2e 3e 75 c7 16 3e 18 e4 f4 3d 3a 59 2a 3e
       0.1699679 0.14724524 0.11957568 0.166356
000030 e4 2f c3 3c e6 1e eb bd 09 4d a7 3d 63 50 2b be
       0.023826547 -0.11480503 0.0816899 -0.16729884
000040 4e d8 38 be 10 26 fa 3d bb 6f 97 3d 3a e0 f1 bd
       -0.18051264 0.12214291 0.07394358 -0.11810346
000050 c1 25 16 be df f6 04 be 1d 85 b8 bb 92 3c 0c be
       -0.1466284 -0.12984799 -0.0056311027 -0.1369498
000060 39 1f 26 3e f0 cc e5 bd e7 d8 37 3e 45 23 76 bd
       0.16222848 -0.11220729 0.17953835 -0.06009223
000070 f8 10 08 3d 09 c3 4c 3d 43 ef fb 3c 62 e7 08 3e
       0.033219308 0.049990688 0.030753737 0.13369516
000080 d0 5e 84 3d 4a a6 ae bd b0 9f c9 bd 94 0b 19 be
       0.064633965 -0.08527811 -0.09844911 -0.14945823
000090 35 ea 8d bd b3 a3 33 be c0 fe ac 3d db 4b 2f 3e
       -0.06929437 -0.17542915 0.08447027 0.1711878
0000a0 55 05 a2 bd 9a 52 19 bd b4 78 df 3d 84 e3 44 3e
       -0.07911173 -0.03743229 0.10911694 0.19227415
0000b0 2c 4b 00 be db dd 26 be ef e9 e6 bd 99 3c 60 3c
       -0.12528676 -0.16295569 -0.11275088 0.013686323
0000c0 f6 38 c6 bd 1d 9a 04 be 00 74 0d be 74 e9 8e 3d
       -0.09678833 -0.12949415 -0.13813782 0.069781214
0000d0 0e c5 30 3d b1 b8 02 be ec da b0 3d 7b 5c 26 be
       0.043156676 -0.12765767 0.08635506 -0.16246216
0000e0 d9 7f ed bd 19 3f 48 bd 70 4c 01 be cc 5b 08 3e
       -0.11596651 -0.0488883 -0.12626815 0.13316268
0000f0 c0 da 92 bc c7 d9 d2 3d 0a 81 09 3e 7a 9d df bd
       -0.017926574 0.10295444 0.13428131 -0.10918708
000100 1e 28 60 3b bc ed d5 bc af 6b fc bd 2f 06 7a bd
       0.00342036 -0.026114337 -0.123252265 -0.061041053
000110 22 cf 0f 3d 9f 88 6e bc 6c bc 3d be fd 09 55 3b
       0.035109647 -0.01455894 -0.18528908 0.0032507174
000120 98 cd 0c bc 87 42 1c 3e fd 82 7e bd e3 68 5c bb
       -0.008593939 0.15259753 -0.06213664 -0.0033631853
000130 b8 cb 1a 3e c6 fb 56 bd 35 3d 0a be d6 4f aa bd
       0.15116775 -0.052486204 -0.13499911 -0.08316009
000140 80 58 c9 3d 42 69 b1 bd a0 71 07 3d f9 fb d9 3d
       0.09831333 -0.086626545 0.033067346 0.10643763
000150 60 ca 51 bc 6c b3 3d 3e 79 2e 0e 3e 0a c1 91 bd
       -0.012804598 0.18525475 0.13884915 -0.071168974
000160 3a 15 80 3d 43 aa 90 3d 2d 07 81 3d 7f 65 2a 3e
       0.06254049 0.07063725 0.06300197 0.1664028
000170 ae 59 0d 3e 0b e9 b3 bd 9d 0c 0a 3e 7e 0f 80 bd
       0.13803741 -0.08784684 0.13481374 -0.06252955
000180 28 b4 2a be d2 ca ad 3c d8 c8 2c 3e db 9a 3f be
       -0.16670287 0.021214876 0.16873491 -0.18711416
000190 7a e4 99 3c 75 ee 91 3d ea 58 be 3d 0e 28 43 3e
       0.018785704 0.0712556 0.09294303 0.19058248
0001a0 26 30 7a bd e7 d2 22 bd d0 66 79 bd 9c 23 7c 3c
       -0.061081074 -0.039751913 -0.060889065 0.015389349
0001b0 43 20 36 be 0f d9 5e bd 87 9c 4c 3d 0d 17 af bd
       -0.17785744 -0.054406222 0.049953964 -0.085493185
0001c0 46 75 03 bd 69 ec 52 bd e4 ce 16 3e 7b 7a 34 be
       -0.032094263 -0.05149499 0.1472736 -0.17624848
0001d0 ed a9 1c be 19 9e 03 be 2b 26 e6 3d 08 52 0b 3e
       -0.15299197 -0.12853278 0.11237749 0.13605511
0001e0 b2 04 0c be 53 c1 22 be 29 b8 b8 3d fa e4 df bd
       -0.13673666 -0.1589406 0.09019501 -0.10932346
0001f0 10 49 54 bc 8b 4c 12 be 45 34 a3 bd ac 3e 37 be
       -0.012956873 -0.14287011 -0.07968954 -0.17895001
000200 19 6b 12 3d 70 38 a3 bc 20 4e a3 3c 7f d9 92 bd
       0.035746668 -0.019924372 0.019934714 -0.0717039
000210 0b f1 36 3e a5 65 3f bd a8 18 bf bd 43 fb 96 bd
       0.17865388 -0.046727795 -0.09330875 -0.07372143
000220 11 45 23 3e ef ec cb 3d 48 a2 f5 3d 1b 2b c9 bd
       0.15944315 0.09957301 0.11993843 -0.09822675
000230 9d 1d 8c 3d 1a b4 32 be ca 07 b4 3d 98 f7 91 3d
       0.06841586 -0.17451516 0.08790548 0.07127303
000240 f6 4a 8d 3d 5e 7b 7c bd a1 f4 15 bd 62 1e e0 bd
       0.06899063 -0.06164109 -0.03661025 -0.10943295
000250 d5 07 9f bd 49 94 3a be c0 c3 85 bd 08 de cd 3d
       -0.07765166 -0.18220629 -0.06531477 0.10052115
000260 49 53 64 3d b7 41 2c 3e 16 f9 26 be 48 7c 24 3d
       0.05574349 0.16821943 -0.16305956 0.040157586
000270 96 11 5a 3d 01 8b a0 3d e0 a9 2f bd 7a fa 9c 3d
       0.053239428 0.07839013 -0.042886615 0.07664962
000280 a0 0a 0c 3d bc 1c 24 3d f9 b1 14 bd af 47 0e b9
       0.03418982 0.040066466 -0.03630254 -0.0001356888
000290 bb a7 87 3d 19 eb be 3d 91 a2 12 3e 02 13 41 3d
       0.06623789 0.09322185 0.14319827 0.047137268
0002a0 1f b3 2d 3e 78 21 15 3e 87 bb 64 38 ab f1 d9 bc
       0.1696286 0.14563549 5.4534084e-05 -0.026604494
0002b0 ac 90 ec bd 99 0e 11 bd 5b ca 87 3c d3 4d 2f 3e
       -0.115510315 -0.035414312 0.016575983 0.17119531
0002c0 2e 0c 06 be 16 6b 2b 3d 70 cf 07 3d cc a8 f9 3d
       -0.13090584 0.041850172 0.033156812 0.121903986
0002d0 07 66 30 3e 4f 4a 37 3d cd 47 df 3d 60 04 23 bd
       0.1722642 0.0447486 0.10902367 -0.039799094
0002e0 ba 77 bf 3b ab a7 19 3e ad e5 9d 3d f5 cb 33 3d
       0.00584313 0.15005367 0.07709823 0.04389568
0002f0 d3 a3 9c 3b c7 26 0d 3e eb f9 22 3b 8d 23 f2 3d
       0.0047802716 0.13784324 0.00248682 0.11823187
000300 61 a8 c9 bd e3 df 2e be 81 a8 22 3e 29 11 94 3d
       -0.09846569 -0.17077594 0.15884592 0.072298355
000310 be d9 29 be 47 27 26 3e 0e 79 08 be 6a 78 2e be
       -0.16586968 0.1622592 -0.13327429 -0.17038122
000320 45 83 c9 bd 39 30 35 3e b1 79 21 3d 80 ee cc bd
       -0.09839491 0.17694177 0.039422695 -0.10006428
000330 ee 19 cc bd 61 a3 27 bd bd 08 e5 3d 4a 90 15 3e
       -0.09965883 -0.040927295 0.11183307 0.14605823
000340 45 aa cd bc 84 79 98 bd 53 bf 83 3d de 82 31 bc
       -0.025105605 -0.07445052 0.064329766 -0.010834424
000350 8d b5 14 be 9e c6 00 3e 4c 3c 5e 3d 41 80 0c 3d
       -0.14522381 0.12575766 0.054256722 0.034302
000360 f0 5b 75 bd d7 26 03 bd 18 08 3a be 57 d2 43 be
       -0.05990213 -0.032019462 -0.1816715 -0.19123207
000370 c3 91 37 3e b7 87 98 bc 32 e4 48 bd ad cf 33 3e
       0.17926697 -0.018619401 -0.04904575 0.17559691
000380 cf b2 e4 3c 5d 27 bd bd 7a d1 a8 bd 81 6d 00 be
       0.027917294 -0.092360236 -0.082430795 -0.12541772
000390 43 76 ed bd e8 20 a1 bd c1 40 6b bd d5 c2 9d bd
       -0.11594822 -0.078676045 -0.0574348 -0.07703177
0003a0 ab 55 82 3d 02 d3 fc bc 62 4c 08 be a4 ee 3b be
       0.06363996 -0.030862335 -0.13310388 -0.18352753
0003b0 a4 83 69 3c 17 3d 41 be 76 15 db bd f4 9f e5 3d
       0.014252577 -0.1887096 -0.10697453 0.11212149
0003c0 b2 37 a0 bd 37 48 ad bd 4b ef de 3d df f0 98 3d
       -0.07823123 -0.084610395 0.10885485 0.074678175
0003d0 b0 cf 1c 3e c0 de f0 3d 73 8d d8 bd b3 c5 9e 3c
       0.15313601 0.11761236 -0.10573854 0.01938138
0003e0 f2 e0 08 be a5 24 23 3d 16 f0 7e 3d 62 be 24 be
       -0.1336706 0.03982987 0.062240683 -0.1608825
0003f0 c3 4c 53 bd 7e a6 e9 bc 2b ce e5 3c ba 11 52 3d
       -0.051586878 -0.028521772 0.02805241 0.051286437

layer1.0.bias f4 [16]
000000 5b 08 0e 3c da f4 5d bd 7b f3 c8 3c 58 97 8b 3d
       0.008668984 -0.054188587 0.024530163 0.06815976
000010 4a ce e4 bd 32 3b 78 3d a4 ce 23 3d 83 e6 13 3c
       -0.11172159 0.060603328 0.03999199 0.009027126
000020 e0 0a 61 3d e3 2f 2d 3d de 55 29 be 2e 99 fe 3d
       0.05494201 0.042281996 -0.16536662 0.124315605
000030 70 37 c3 3c f2 96 a7 3c 06 2d 1f be 32 c4 41 3d
       0.023830146 0.020457719 -0.15544519 0.047306247

layer1.1.weight f4 [16]
000000 97 7b 80 3f 9a 04 80 3f 75 ce 7f 3f d9 06 80 3f
       1.0037717 1.0001404 0.99924403 1.000209
000010 63 58 80 3f 95 88 7e 3f 5b b2 7f 3f 39 b3 7e 3f
       1.0026973 0.9942716 0.99881524 0.9949222
000020 ee 0e 7f 3f 5a 6d 80 3f fd 8f 7f 3f 9b be 7e 3f
       0.99632156 1.0033371 0.99829084 0.9950959
000030 db 99 80 3f f0 a4 7e 3f 46 1e 80 3f 8f 69 81 3f
       1.0046953 0.99470425 1.0009239 1.0110339

layer1.1.bias f4 [16]
000000 69 2f bc 3b 22 cd 10 3b 96 35 2c bb c3 df 96 bb
       0.0057429564 0.0022094925 -0.0026277057 -0.004604311
000010 60 0d 2d 3b 3a f4 f9 bb a3 8a bb 3b a9 8a 57 3c
       0.0026405677 -0.007627991 0.005723314 0.013155618
000020 76 29 91 bb 04 2b ac 3b df df 98 bb c3 27 21 bc
       -0.0044299914 0.0052541513 -0.0046653594 -0.00983614
000030 73 fd 17 bb ff 13 61 3a ad 94 81 b8 8b b9 9a 3c
       -0.002319184 0.00085860485 -6.178892e-05 0.018887302

layer1.1.running_mean f4 [16]
000000 f7 bc 1e 3e a6 73 a2 be bc 6f 4e be 0b 1b 01 3f
       0.15501772 -0.31728858 -0.20159811 0.5043189
000010 db 16 2e bf a9 f1 26 3e de a1 25 3f 02 50 18 3d
       -0.68003625 0.16303124 0.64700115 0.037185676
000020 75 70 0a bf cc 41 82 bd 47 34 52 be a3 cc 6b 3e
       -0.54077846 -0.06360206 -0.20527755 0.23027281
000030 c3 fa 02 3f 54 75 74 3e 57 5b e6 be d8 43 43 bc
       0.5116388 0.23872882 -0.44991562 -0.011918031

layer1.1.running_var f4 [16]
000000 5c 4c 9e 3b 18 78 ed 3c 15 30 45 3c 4d 7b 32 3d
       0.00483088 0.02898793 0.012035389 0.04357462
000010 17 89 9c 3d 96 1f 98 3b 82 88 c5 3d 8d 98 a8 3a
       0.07643335 0.004642437 0.096451774 0.0012862846
000020 82 a1 ca 3d 46 f6 65 3b a9 ea 4c 3b 20 f3 4c 3b
       0.098940864 0.0035089417 0.0031267798 0.0031272843
000030 4a 97 76 3d fa 63 3a 3c 00 7a bc 3c 35 91 ff 3a
       0.060202874 0.011376375 0.023007393 0.0019498231

layer2.0.weight f4 [32, 16, 3, 3]
000000 4c ec cb 3b 3c 18 a7 3c 68 d5 39 bd c7 52 0b bd
       0.006223237 0.020397298 -0.045369536 -0.03401449
000010 64 84 c4 bc a7 74 2a 3d 48 0d 27 3d 5b ac c9 bc
       -0.02398891 0.041615155 0.04078415 -0.024618318
000020 d2 a1 84 3d c5 a2 11 3d 32 f0 f5 3c e5 66 36 bc
       0.06476177 0.03555562 0.03002176 -0.01113293
000030 39 b4 9c bd 5e 05 8d 3d ea 09 62 3d ad 09 41 bd
       -0.07651562 0.06885789 0.055185236 -0.04712837
000040 59 63 92 bd 1c 75 0e bd 7b 5a 79 bc 8c c2 71 bd
       -0.07147855 -0.034779653 -0.015219326 -0.059023425
000050 73 f1 93 3d 56 4a eb 3c 77 a7 9f bd 15 eb 74 3a
       0.07223787 0.02872197 -0.07795613 0.0009342891
000060 96 5e 45 3c 96 8e 33 bd 32 b2 12 3d 69 21 55 3c
       0.012046477 -0.043837152 0.03581447 0.013008454
000070 07 41 20 bd e0 c1 4d bc 48 4f 18 3d fa 83 aa 3c
       -0.039124515 -0.01255843 0.037184983 0.020814884
000080 bc 1b 91 bd d1 49 8a bd b0 62 73 3d 92 69 4d 3d
       -0.07085368 -0.067523606 0.059420288 0.050149508
000090 08 48 ce bc 59 a9 fe bc 19 58 8f bd 78 09 86 bd
       -0.025180832 -0.03108661 -0.06999225 -0.06544775
0000a0 99 59 8f 3d 4c 5b 24 bd d7 4b 7c bb c8 5f f1 bb
       0.06999511 -0.04012613 -0.0038497353 -0.0073661543
0000b0 8f 35 a1 bc bf 2a 60 3d 59 1e 2d bd 13 da e2 bc
       -0.019678859 0.054728266 -0.04226527 -0.027691877
0000c0 ba 12 8c bc fb 15 a0 bd c2 6a 42 bd f1 ee 98 bd
       -0.017098773 -0.078166924 -0.047465093 -0.074674495
0000d0 08 70 bb ba 73 76 8f bd 7d 41 24 3d 2d 54 56 bd
       -0.0014300356 -0.07005014 0.040101517 -0.05232637
0000e0 c7 a7 01 3d 96 09 9d bd c7 4e 8b bc 01 78 0e bd
       0.031654146 -0.07667844 -0.017005337 -0.034782413
0000f0 23 af 55 bd a4 4f 93 3d 12 47 51 bc 53 af 03 3d
       -0.052168977 0.071929246 -0.012773292 0.032149624
000100 51 11 29 3d 54 73 e3 3c 11 76 e5 3c 6f d8 8a bc
       0.04127628 0.027764954 0.0280104 -0.016948907
000110 17 83 8f 3d 74 db 50 bc 26 fb 4f bd 2b a2 35 bd
       0.07007425 -0.012747634 -0.050776623 -0.04434411
000120 80 8b 8f 3d b7 35 b0 ba f7 46 27 3d 4b 5c 8a bd
       0.070090294 -0.0013443743 0.04083916 -0.06755885
000130 1b 68 8c bd cd 52 d7 3c fb 9a 52 3a 9a 6c 7f 3c
       -0.06855794 0.0262846 0.0008033958 0.0155898575
000140 bf c9 58 bd 06 c5 d3 3c 3b 3d c3 3c f4 d2 8b 3d
       -0.052926775 0.025850784 0.023832908 0.068273455
000150 58 31 4b 3d 12 20 dd bc 84 b7 8f bd 0f e1 97 3d
       0.049607605 -0.026992831 -0.07017425 0.074159734
000160 5e 70 b8 bc f2 18 b1 bc aa 15 9b bd cc ee 0a 3d
       -0.022514518 -0.02161834 -0.075724915 0.03391914
000170 ac 6a 87 bd 8c 4e 00 bd eb f3 3b bd 5f e5 96 3c
       -0.06612143 -0.031324908 -0.045886915 0.01841992
000180 39 9c 9a 3d 36 e6 90 bd c0 91 f4 bc 52 ac 9c bd
       0.07549328 -0.07075159 -0.029854655 -0.07650055
000190 4b 6a 56 bd ef 79 2a 3d 34 ec 7f bd d6 b8 8c 3d
       -0.052347463 0.04162019 -0.06248112 0.06871192
0001a0 d5 5b 49 3d 86 8c 6c bd ef 6f b1 3c 84 2a 62 3d
       0.049159843 -0.0577512 0.02165982 0.055216327
0001b0 87 ce 48 bd 84 5e b0 3c 7c c2 03 bd 41 5b 24 3d
       -0.049025085 0.021529444 -0.032167897 0.04012609
0001c0 15 8b 1d bd b6 19 60 bd e1 73 a9 bc 95 c9 43 3b
       -0.038462717 -0.05471202 -0.020685138 0.002987479
0001d0 ab 57 0a bb 48 19 2c 3d 95 95 fd 3b d0 5a 11 bd
       -0.0021109383 0.042016298 0.007738779 -0.035486996
0001e0 c2 ab 44 3c d5 fd 46 bd 20 b9 fd ba 1b a1 a1 3c
       0.012003841 -0.048581917 -0.001935754 0.019730141
0001f0 81 ef 88 3c 3a ef c7 3c b9 d7 1a 3d 8d d0 43 3d
       0.016715767 0.024406064 0.037803385 0.04780631
000200 e0 b5 16 3d 9e 88 5b bd f2 85 4f bd 7c ba 4e bd
       0.036794543 -0.053597085 -0.05066485 -0.050470814
000210 d7 06 44 bd 88 80 80 bd 41 42 9d bd ba 5a a8 bd
       -0.047858085 -0.062745154 -0.076786526 -0.0822043
000220 f2 e2 52 3d 26 40 e6 3c 7b 95 a8 3d e2 9e 69 bd
       0.051485963 0.02810676 0.08231636 -0.057036288
000230 79 c4 57 3c e5 e4 73 3d d0 ca 63 bb 01 70 b4 bc
       0.013169401 0.059544463 -0.0034758337 -0.022026064
000240 97 91 7e 3c a7 88 cb bc ce 58 ad bd 90 8b 69 3d
       0.015537641 -0.024845434 -0.08464204 0.057017863
000250 77 bd 0b 3d b8 70 4b 3b 1b e3 2b 3d 63 1f dc 3c
       0.034116235 0.0031042527 0.04196463 0.026870435
000260 6f 33 01 3d d1 b8 f3 3c bf e7 8a 3d f8 e0 d4 3c
       0.03154319 0.029751213 0.06782483 0.02598618
000270 66 22 87 bd d8 a0 e1 3c 53 5b 77 bc 25 70 84 3d
       -0.06598358 0.027542517 -0.015097457 0.06466702
000280 f8 14 44 bd bd a5 94 3d 16 38 fd 3a b1 df 85 bd
       -0.04787156 0.072581746 0.0019319083 -0.065368064
000290 6f bb 85 3d d3 1d 80 3b c5 31 31 bd 79 cf 86 3d
       0.06529891 0.0039098053 -0.043260355 0.06582541
0002a0 f2 81 2a bd 3e e3 9b bc 25 c0 0b bc b0 91 12 3d
       -0.04162783 -0.019029256 -0.008529698 0.03578347
0002b0 13 27 a1 bc 9e d0 8b 3d a6 01 42 bd 3a d9 95 3d
       -0.019671952 0.068269 -0.047364853 0.07316823
0002c0 f5 3d 9a 3d 2b a5 8b bd a6 04 57 3d b6 a4 fb bc
       0.075313486 -0.06818613 0.052494667 -0.030718189
0002d0 f6 14 b0 bc 42 ec 49 3d 3e 79 4f bd e9 99 80 bc
       -0.02149437 0.04929758 -0.050652735 -0.01569839
0002e0 94 6d 95 bc 81 e3 b7 ba 6f 3a af 3c e2 13 a5 3b
       -0.018240727 -0.0014029593 0.021390168 0.0050377706
0002f0 90 35 61 3d cd c7 01 bd a8 d8 8d bd 3b 00 8e bd
       0.05498272 -0.031684685 -0.069260895 -0.06933638
000300 58 d6 2f ba de 54 14 bd ca 43 9a bc 7d e7 e6 3c
       -0.000670766 -0.03621375 -0.018831152 0.028186554
000310 5b 1a 55 bd 05 3b e1 3c a7 fb 9a bd d9 fe 8d bd
       -0.052027088 0.027493963 -0.0756753 -0.06933374
000320 ab 04 9d bd f6 d4 89 bd 87 aa 9e 3d 85 72 54 bd
       -0.07666906 -0.06730072 0.07747369 -0.051867027
000330 56 30 30 3d 79 ff 70 3d 32 61 6e 3d 53 0c a5 bc
       0.043014847 0.058837388 0.05819816 -0.020147478
000340 a1 21 8b 3c a0 ea d2 bc b3 1d a3 3d 46 93 54 3c
       0.016983809 -0.025746644 0.07964649 0.012974566
000350 57 44 09 bd 8b ba 45 bd 4d c7 9e 3c c3 9c 53 3d
       -0.03351244 -0.048273604 0.019382143 0.05166317
000360 bf af 5f 3d f0 5b 89 bd cb 40 c8 bb 3b df 61 3d
       0.054610964 -0.06706989 -0.0061112395 0.05514453
000370 7d 8c 66 bd 0a bc 72 3d 5c 36 3e 3d d3 09 73 3d
       -0.056286324 0.05926136 0.04643856 0.05933554
000380 41 06 93 bc 1a 48 90 bd ab c0 65 3c 48 9b 08 3d
       -0.017947318 -0.07045002 0.014022986 0.033351213
000390 01 7c af bd d1 05 fe 3c 4a 3f 75 3c 01 08 f6 bc
       -0.08568574 0.031008633 0.014968703 -0.030033113
0003a0 b8 dc 5b bd 05 e8 86 bd ab 7d 8b bd 76 9a 2f bd
       -0.05367729 -0.06587223 -0.06811079 -0.042871915
0003b0 c9 ef a4 3d fe 79 40 bd 03 ce f9 3c 8c 56 68 3d
       0.08053548 -0.04699134 0.030493742 0.056723163
0003c0 48 29 94 3c a9 6b 4b bd a8 32 95 3d 7f e2 3e 3d
       0.01808609 -0.04966322 0.072850525 0.046602722
0003d0 d7 42 ce 39 a3 16 70 3d f2 67 9f bd f8 04 e2 bb
       0.0003934118 0.058615338 -0.07783498 -0.006897565
0003e0 33 21 9a bd ce 46 97 bd 33 85 c1 bc 19 22 b0 bd
       -0.075258635 -0.07386552 -0.023623085 -0.086002536
0003f0 b9 cb 3b 3d 04 c5 f2 bb 99 32 04 bd e8 bc 71 3b
       0.045848582 -0.00740874 -0.032274816 0.0036886279

layer2.0.bias f4 [32]
000000 6d cb 87 bd d0 a1 05 3c 2d 0e 63 bd a6 75 42 bc
       -0.06630597 0.008156255 -0.05543344 -0.01186887
000010 a2 df 98 3b 97 01 e9 3c e5 9a 02 3d f1 e0 b8 3c
       0.004665331 0.02844314 0.031886 0.022568198
000020 f3 9c 4c bd 70 ce 9d bb 3a 4f 10 3d fc 3d 34 3c
       -0.049954366 -0.004815869 0.035231806 0.011001106
000030 3f a1 80 3d ab 0c 95 bd 9b 7b 84 bd 74 87 35 3c
       0.06280755 -0.07277807 -0.06468888 0.011079658
000040 2d b9 16 3c 45 7d 87 3d 58 c3 80 bd cb 8c dc bc
       0.009199423 0.0661569 -0.06287259 -0.026922604
000050 48 4c a4 bc d8 5f ab bd 29 b6 61 bd 48 a6 12 bd
       -0.020055905 -0.0836789 -0.055105362 -0.03580311
000060 92 46 5b 3d 48 9e 93 bd 16 9d 73 3d 36 80 24 3d
       0.053534098 -0.07207924 0.05947598 0.040161334
000070 08 ad 86 bd 4f 58 53 3d 7d 12 a8 bd 49 3b f7 bc
       -0.06575972 0.05159789 -0.08206651 -0.030179637

layer2.1.weight f4 [32]
000000 11 7d 80 3f 50 30 7f 3f bf 60 7f 3f 8b b4 7e 3f
       1.0038167 0.99683094 0.99757 0.99494237
000010 42 f4 7f 3f 84 6e 7e 3f 87 80 80 3f f5 3e 80 3f
       0.9998208 0.99387383 1.0039223 1.0019213
000020 f1 69 80 3f 71 97 7f 3f 11 4b 80 3f 76 32 7f 3f
       1.0032331 0.99840456 1.0022908 0.9968637
000030 02 76 7f 3f ea 91 7f 3f 9b 67 80 3f 3d 68 7e 3f
       0.9978944 0.9983202 1.0031618 0.99377805
000040 63 80 80 3f 6c 4e 81 3f a4 2b 80 3f 2f 70 7f 3f
       1.003918 1.0102057 1.0013318 0.99780554
000050 a3 dd 7d 3f d9 5a 7f 3f 10 29 80 3f dc ec 7e 3f
       0.99166316 0.99748 1.0012531 0.9958017
000060 41 5b 80 3f ea 37 80 3f e1 cb 7f 3f 0c ea 7f 3f
       1.0027848 1.0017064 0.9992047 0.999665
000070 4a 77 80 3f 86 2a 80 3f 06 a1 80 3f 61 28 7f 3f
       1.0036404 1.0012977 1.004914 0.9967099

layer2.1.bias f4 [32]
000000 5e b1 39 bb 88 3b ab bb bf 93 09 3b 19 7a b2 bb
       -0.002833448 -0.0052256025 0.0020992605 -0.005446684
000010 a9 5f a7 ba e6 2b cb bb 8b 2f 06 39 ff 4d f1 3a
       -0.0012769598 -0.0062003015 0.00012796947 0.0018410085
000020 1a ee 20 bb 3c 35 80 3a 94 46 8c 3a 8c 3c f0 bb
       -0.0024555982 0.000978149 0.0010702186 -0.0073314365
000030 45 f4 05 3b 84 64 64 bb f1 78 1c 3b 44 5c 0d bc
       0.0020439785 -0.003484995 0.0023875798 -0.008627955
000040 1c 58 ac b8 e3 12 d3 ba fd c7 41 3c 43 a1 a0 ba
       -8.218011e-05 -0.0016103651 0.011827466 -0.0012255091
000050 0b ac ce ba ee ba 0b 3b a8 0c a2 3b d4 9f bc ba
       -0.0015767826 0.0021321136 0.0049453564 -0.0014390894
000060 d3 31 00 3b 01 bd 6d bb 1b a3 b1 bb 7a 98 a6 3b
       0.0019560948 -0.0036275985 -0.005421055 0.0050840946
000070 96 09 04 3c 5c 4b 2e 3b 1c 88 44 3c ab 46 a2 bb
       0.008058926 0.002659521 0.011995342 -0.004952272

layer2.1.running_mean f4 [32]
000000 11 89 02 bf d1 3c 41 3c 8d f4 d4 bd 86 74 18 be
       -0.50990397 0.011794285 -0.10398207 -0.148882
000010 5c fa 64 3e 55 ea d1 3e b6 43 64 3b 69 c9 64 be
       0.2236113 0.40999094 0.0034830398 -0.22342457
000020 a1 cc 0d 3f 8a 98 81 3e ae 99 03 be cc 11 d5 3d
       0.55390364 0.2531169 -0.12851593 0.10403785
000030 43 0c 01 be 30 e9 a2 be 99 a2 5e be 0c 56 56 3e
       -0.12602334 -0.31818533 -0.21741714 0.20931262
000040 d9 36 17 bf 37 8f cb 3e f1 05 a1 be 63 15 2c be
       -0.59068066 0.39757702 -0.31449845 -0.16805033
000050 34 3c bf bd 77 bf a1 3e 7c 6d 06 be 4d 08 c6 be
       -0.09337655 0.3159139 -0.13127702 -0.38678208
000060 72 45 af bd 41 ce 4f 3e bb 8e 1d bd 63 a7 96 3d
       -0.085581675 0.20293523 -0.038466197 0.07356145
000070 52 e2 3a bf b7 1a ef bc 9c ef 64 be dc 90 36 be
       -0.7300159 -0.029187543 -0.22357029 -0.17828697

layer2.1.running_var f4 [32]
000000 b4 b9 a6 3d 08 76 a5 3d 0a 15 0f 3d 65 6d fc 3d
       0.08140889 0.08079153 0.034932174 0.12325553
000010 ed 70 ab 3d b0 8b ac 3e 9b 57 14 3d 01 02 51 3e
       0.08371148 0.33700323 0.03621636 0.2041092
000020 13 e8 52 3e 77 b2 93 3d 8b 51 88 3d bd 13 e6 3c
       0.20596342 0.07211774 0.06656178 0.028085584
000030 7d 21 7e 3d 35 75 90 3d ce 97 b9 3d 20 2f bf 3e
       0.062043656 0.070536055 0.090621576 0.3734064
000040 9c c8 68 3e 83 a2 dd 3d 77 79 66 3d 2e a3 7e 3e
       0.22732776 0.10822012 0.05626818 0.24866936
000050 03 cd 1f 3e f6 cd cb 3d 5e 61 73 3e 13 2a 93 3d
       0.1560555 0.09951393 0.23767611 0.071857594
000060 03 b7 d9 3c 50 ed 12 3e 1c 8f 14 3e f2 4a 41 3e
       0.026576525 0.1434834 0.14507717 0.18876246
000070 99 ee 10 3e bc b7 b5 3d 04 96 1a 3d 0c f6 87 3d
       0.14153518 0.08872935 0.037740722 0.066387266

layer3.0.weight f4 [64, 32, 3, 3]
000000 8a d0 97 bc 05 bc 85 bc 95 13 dc bc 2f dc 89 3c
       -0.018532056 -0.016325006 -0.026864806 0.016828625
000010 00 25 0a bd f7 0b c6 bc d7 42 70 bd 1c f6 bf bb
       -0.033726692 -0.024175627 -0.058657493 -0.005858196
000020 43 5c c8 bc d1 0c 38 3d 69 15 eb 3c 4c 44 cd bc
       -0.024458056 0.044934098 0.028696733 -0.02505698
000030 11 1f b6 bc df 28 d9 bc 9e 4a 96 3c 21 1e e5 bc
       -0.02223161 -0.026508747 0.018346127 -0.027968468
000040 87 97 2a 3c cd 44 32 bd f8 4f 8b 3c ae f7 6f bd
       0.0104121035 -0.043522645 0.017005906 -0.058585815
000050 7e e9 47 3d 6e 3b f7 39 ab 0b 5f bd 01 da 6f 3c
       0.04880666 0.0004715579 -0.054454487 0.0146393785
000060 5b f3 0b bd ee 8b 77 bd cd b9 b3 3c b1 7c 12 3d
       -0.03416763 -0.06043618 0.021939183 0.035763446
000070 00 49 1b bc 82 35 22 bd 5b 6e a5 3c 37 d9 34 bd
       -0.009477854 -0.03960181 0.020194223 -0.044152465
000080 49 56 0f 3d 79 2b e9 bc e5 ab 4d 3c 39 c1 4a bd
       0.034994397 -0.028463112 0.01255319 -0.049500678
000090 d5 d0 50 bd ad 52 35 bd 44 5d e8 bb a1 bc 20 bc
       -0.050980408 -0.0442683 -0.0070911963 -0.009810598
0000a0 96 45 18 bd b1 e0 4c bd 3b 2f b0 bc 8e 50 ee 3c
       -0.037175737 -0.05001897 -0.021506896 0.029091146
0000b0 fe 55 03 3b b4 88 f9 3c 16 12 08 bd 24 58 0d 3d
       0.002004027 0.030460693 -0.033220373 0.034507886
0000c0 60 73 c8 ba 99 33 ac 3c 12 6a d4 3b 89 73 73 3c
       -0.0015293173 0.021020697 0.006482371 0.014859089
0000d0 ca 25 ba bc 1d f2 db 3c 69 f8 38 bd b8 02 04 bd
       -0.022723097 0.026848847 -0.045158777 -0.032229155
0000e0 7b ee 20 bd 2d cf 43 bc 02 20 20 bc e4 ee 50 bd
       -0.039289933 -0.01195125 -0.009773256 -0.051009074
0000f0 fa 40 23 3d e0 7d ae bc 7c 30 82 bc b2 27 28 3d
       0.03985689 -0.021300256 -0.01589226 0.04105348
000100 d9 59 26 bd e5 2e e6 3c e9 4c 58 3b 3c 16 56 bd
       -0.04061303 0.028098533 0.0033004826 -0.052267298
000110 a2 f0 31 bd 9d 94 21 bc f8 6b 5e bc cb 30 45 3c
       -0.043442376 -0.009862092 -0.013575546 0.012035559
000120 eb 2f f2 bc 21 f6 5e 3d d2 b6 2f 38 88 a8 56 3d
       -0.029563865 0.054433946 4.1893516e-05 0.052406818
000130 29 b4 b5 3b bd 5a 64 3b 22 67 2d 3d ec 62 43 bc
       0.0055451584 0.0034844123 0.042334683 -0.01192544
000140 de 1c 4b bd fe aa 11 3d 38 99 60 bd 47 86 14 3d
       -0.049588077 0.03556346 -0.05483362 0.03626087
000150 d5 7e 9d bc 29 0a 40 3d c6 e7 57 3d b8 20 04 3d
       -0.019225517 0.04688469 0.05271127 0.032257766
000160 54 30 0b 3d c5 4e 81 3c 91 ec bd 3c f7 cf 12 3d
       0.033981636 0.01578463 0.023184093 0.035842862
000170 d2 a5 6e bd 0f f9 83 bc 6e 8e 1c bd 2a ab 25 3d
       -0.058263607 -0.016109971 -0.03822177 0.040446438
000180 5c 5c 5e bd fc 65 98 bb 27 e5 6b 3d 93 82 2c 3d
       -0.0542873 -0.0046508294 0.057591584 0.042116713
000190 a4 e1 61 bd ed fb 8f bc de 52 64 3c 97 51 51 3b
       -0.05514683 -0.017576182 0.013935773 0.00319395
0001a0 73 74 eb 3b 0c 69 07 3d fd b3 b2 3c fe f5 fa 3c
       0.0071855127 0.033059165 0.02181434 0.030634876
0001b0 6b cf 1a bb d7 4f b9 3c 78 05 82 3c 55 13 70 bd
       -0.0023622166 0.022621078 0.015871748 -0.058612186
0001c0 57 db 7f bc 37 85 41 bd f9 61 03 3d cb c3 da 3b
       -0.01561626 -0.047246184 0.032075856 0.0066761724
0001d0 68 41 45 3c 3b e5 d0 bc 45 b1 3a 3d 26 4a 37 bd
       0.01203952 -0.02549993 0.045579214 -0.044748448
0001e0 6f 3c 72 bd fa 9e c4 3c 72 6b ef 3c 58 fa 76 bd
       -0.059139665 0.024001587 0.029226039 -0.06029734
0001f0 36 86 eb bc d0 2f 74 bd fe 1d dc bc d5 53 3b 3d
       -0.02875052 -0.05961591 -0.02686977 0.045734245
000200 a0 ca 65 bd 6f 18 83 bc ab 67 14 bb 98 70 69 bb
       -0.05610144 -0.016002862 -0.0022644799 -0.003562009
000210 f4 13 3b bd 6e 99 b6 3c cb ab e9 bc ce b9 64 bd
       -0.045673326 0.022289958 -0.0285243 -0.05584126
000220 6e 65 3e bd e5 e1 e0 bc b9 07 de 3b 6f ff 21 3d
       -0.04648345 -0.027451465 0.006775823 0.03955024
000230 dc c6 1f 3d c5 30 65 bd ab d3 66 3d e0 3e ad 3a
       0.039008006 -0.055954713 0.056354206 0.0013217591
000240 d5 44 48 3c a6 c0 d4 3c 40 6f 11 bd ad 50 97 bc
       0.012223442 0.025970768 -0.035506487 -0.018471086
000250 b3 81 eb bc 63 9c f6 bb 94 de a2 3c 89 b5 e9 3c
       -0.028748369 -0.007525967 0.019881524 0.028528946
000260 43 46 58 3d d5 ba 03 bd 17 b8 c9 bc fb d2 62 3d
       0.05280138 -0.0321606 -0.024623914 0.055376988
000270 c8 05 2f 3d 13 9d 45 bd b9 98 52 3c 1b 5c 3a bc
       0.042730123 -0.0482455 0.012853795 -0.011374499
000280 5f 6e 43 bd 6b 20 94 3c 7f d4 8c 3c 35 a4 32 3d
       -0.04771268 0.018081864 0.01719117 0.04361363
000290 11 11 a3 bc 4d 9c 9b bc 2a c1 3b bd 2c 08 20 bd
       -0.019905599 -0.018995428 -0.045838512 -0.039070293
0002a0 d6 41 25 b9 a1 f7 20 bd 8f db 46 bc 31 ac 6b bd
       -0.00015760152 -0.039298657 -0.012137308 -0.05753726
0002b0 f4 17 f2 bc cb 38 3c 3d b4 3b 1a 3d 38 92 e1 bc
       -0.029552437 0.0459526 0.037654594 -0.027535543
0002c0 ef 90 cd bc 6e bb af bc 28 48 f9 bc bc 76 7b bc
       -0.025093524 -0.021451678 -0.030429915 -0.015348133
0002d0 e9 be de bc a3 6e 84 3c 68 3d 48 3b b3 09 07 bd
       -0.027190642 0.016166037 0.003055418 -0.032968234
0002e0 94 11 39 3d 6e 4f 10 3c 36 57 26 bd 76 b6 6c bd
       0.04518278 0.008808 -0.040610515 -0.057791196
0002f0 02 5a 93 3a 2d ab 62 3d b6 b5 1e bc 1b 3a 19 bd
       0.0011242034 0.055339027 -0.009686878 -0.03740893
000300 45 54 e6 bb 22 b1 82 bc 8b 92 65 3d 19 78 e2 bc
       -0.0070290887 -0.015953604 0.056047957 -0.027645158
000310 06 65 39 3b 0f e2 1d bd 20 76 49 bd cf 70 44 bd
       0.0028288974 -0.038545664 -0.04918492 -0.047959145
000320 4c cf 29 ba 6e c4 38 3c 2c 7c 4b bc 9b 15 63 bc
       -0.0006477728 0.011277301 -0.012419742 -0.013860132
000330 d9 89 5c bd d4 36 58 bd ed f1 e1 3c f1 12 8a 3c
       -0.0538424 -0.052786663 0.02758118 0.016854735
000340 97 c4 8b bd b8 72 4f bd ad 58 27 3c 4a 14 84 bd
       -0.06824606 -0.050646514 0.010214013 -0.06449182
000350 ba e5 82 3c 29 ce 7d bd c8 49 ca bb a2 1d a2 ba
       0.015978683 -0.061964188 -0.006173346 -0.001236845
000360 bf 7e cb 3c a1 e1 d9 3c b7 09 66 bd 72 4d 36 bc
       0.02484071 0.026596846 -0.05616161 -0.011126863
000370 c9 70 27 bd 6f 76 1f 3d 80 b8 5d bd ee 7d 67 bd
       -0.040879045 0.038931306 -0.05413103 -0.05651658
000380 89 5e 24 bd 97 8e 5d 3d 32 76 52 3d f6 6c 31 bd
       -0.04012922 0.054091062 0.05138225 -0.043316804
000390 85 07 b7 3b f8 76 11 bd 71 03 50 3c ff e6 4d 3d
       0.005585613 -0.035513848 0.012696133 0.050269123
0003a0 67 ad 09 3d db 2d be 3b 92 ed 92 bc 0b b9 dd 3c
       0.033612635 0.0058038062 -0.017935548 0.027065774
0003b0 86 3f 62 3b 5b b8 18 3d d6 7f cf 3c 9b b5 06 bc
       0.0034522726 0.03728519 0.025329512 -0.008222009
0003c0 14 9e 5a 3d ff e1 45 bd a8 e6 f7 3b cd 30 e7 3c
       0.05337341 -0.04831123 0.007565338 0.028221512
0003d0 c3 1e 16 bd 82 f3 21 3d f5 c9 4d 3d b7 96 30 3d
       -0.03665043 0.039538868 0.05024143 0.043112483
0003e0 de ed af ba 2f 63 c2 bc 38 c3 03 3c 2e 9f a0 3c
       -0.001342233 -0.023728935 0.008042149 0.019607153
0003f0 56 b1 7e bd 62 5b 86 bd f8 74 fd bc 8b 63 aa bc
       -0.06218084 -0.06560399 -0.030939564 -0.020799419

layer3.0.bias f4 [64]
000000 a3 f3 8c 3c 44 2f 3b 3d 99 ca 12 bd 5b e8 45 3d
       0.017206019 0.045699373 -0.035837743 0.048317295
000010 53 82 3e 3d ce ca cd 3b 95 75 f4 3c 56 8f 08 bd
       0.046511006 0.0062802797 0.029841224 -0.03333982
000020 58 50 b7 bc 91 e9 f9 3c ef f3 0d 3d 02 9f 8b bc
       -0.022377178 0.030506881 0.03465646 -0.017043594
000030 9e 2d d3 bb 7f c0 f6 3b 01 53 e8 3c c1 92 66 bd
       -0.006444647 0.0075302715 0.028359892 -0.0562923
000040 64 52 ff bc a9 26 09 3d 02 95 9d bc 4a f1 43 3c
       -0.031167217 0.033484135 -0.019236092 0.011959383
000050 95 5a f4 ba cf 5d 09 3c 88 51 25 3d ab bf 57 bd
       -0.0018642718 0.008384182 0.040360957 -0.052673023
000060 38 04 d0 bc 3a a7 f6 ba 16 ec 62 bc b7 e0 6e bd
       -0.025392637 -0.0018818148 -0.013850233 -0.058319774
000070 c9 9e a8 3c cb 83 97 3c d5 58 53 bc 05 c9 69 bd
       0.020583527 0.018495461 -0.012899597 -0.057076473
000080 fc 52 d2 3b d5 3d ea bc fa 43 c1 bc 6c c3 57 3d
       0.006418584 -0.028593937 -0.023591984 0.052676603
000090 af 04 76 bc ea 12 ea 3b 7d 5b 28 bc 03 71 a3 3c
       -0.015015765 0.007143368 -0.010275719 0.01995135
0000a0 44 d4 85 3b 8a bc e5 3b 98 52 0c bc 8d 59 d1 3b
       0.004084142 0.007011001 -0.008564614 0.006388849
0000b0 0b 38 d9 bc 7a c4 39 3c ba 4c 32 bd 6d 54 ca bc
       -0.026515981 0.011338348 -0.043530203 -0.02469846
0000c0 1f 89 03 bd 61 ea 3f 3b c1 9c ba bc 44 16 3e bd
       -0.03211319 0.0029283988 -0.022779824 -0.046407953
0000d0 84 1c 0d 3c 9d b2 00 bd c5 0d c8 3c fa f7 d3 3c
       0.008612756 -0.03142034 0.024420628 0.02587508
0000e0 b4 cb 28 3d 98 7d 66 3d c6 bc 2b bd 65 ed e0 bc
       0.04120989 0.05627212 -0.041928075 -0.027456949
0000f0 5b 01 13 bd 53 c0 4d 3d 0f b7 41 3d 1d 65 31 3d
       -0.035889965 0.050232243 0.04729372 0.04330932

layer3.1.weight f4 [64]
000000 2d 97 7e 3f b2 28 80 3f 12 ab 80 3f 8e 11 80 3f
       0.99449426 1.0012419 1.0052207 1.0005357
000010 57 7c 7f 3f 8d d3 7f 3f 5d 9c 80 3f 5b 77 7f 3f
       0.997991 0.99932176 1.0047718 0.99791497
000020 f6 de 80 3f b6 be 7e 3f c6 99 80 3f 38 07 80 3f
       1.0068042 0.9950975 1.0046928 1.0002203
000030 59 5f 80 3f 3f be 7f 3f f3 a4 80 3f 50 52 80 3f
       1.0029098 0.9989967 1.0050339 1.002512
000040 77 01 81 3f 4f cc 80 3f c8 95 80 3f 82 35 80 3f
       1.0078572 1.006235 1.004571 1.0016329
000050 ec d4 80 3f 5b 81 7e 3f d9 fb 7e 3f 8a 2c 80 3f
       1.0064979 0.9941613 0.9960304 1.0013592
000060 01 40 7e 3f 0f 96 80 3f 18 60 80 3f 6f 63 80 3f
       0.9931641 1.0045794 1.0029325 1.0030345
000070 9b 55 80 3f da 9b 80 3f 04 2f 80 3f a7 6a 7e 3f
       1.0026125 1.0047562 1.0014348 0.9938149
000080 b2 71 80 3f d7 bf 7f 3f 57 55 80 3f 53 b1 80 3f
       1.0034697 0.999021 1.0026044 1.0054115
000090 de 87 80 3f ef 60 80 3f 71 8a 80 3f 47 bb 80 3f
       1.0041463 1.0029582 1.0042249 1.0057153
0000a0 0b be 7f 3f b9 ae 80 3f 60 1f 80 3f f4 b7 80 3f
       0.9989936 1.0053321 1.0009575 1.0056138
0000b0 13 5d 80 3f 93 ee 7f 3f 03 68 80 3f d0 6a 80 3f
       1.0028404 0.9997341 1.0031742 1.0032597
0000c0 ec e6 7f 3f b8 a5 7f 3f 06 76 80 3f f2 17 80 3f
       0.99961734 0.9986224 1.0036018 1.0007308
0000d0 6b 40 80 3f b7 34 80 3f 49 8b 80 3f 5d 29 80 3f
       1.0019659 1.0016087 1.0042506 1.0012623
0000e0 f7 ab 7f 3f d9 1e 80 3f b2 6f 7f 3f b6 6b 80 3f
       0.9987177 1.0009414 0.9977981 1.0032871
0000f0 c8 80 80 3f 0d 0d 80 3f 90 4d 7e 3f dc ca 7e 3f
       1.0039301 1.0003983 0.993371 0.9952829

layer3.1.bias f4 [64]
000000 bd 12 9e bb e2 01 8e 3a 2c 6b 88 3a 11 0f 25 3b
       -0.004824011 0.0010834301 0.0010407916 0.0025185982
000010 5c 24 9c bb 29 24 22 3b 12 a0 99 3b f0 3a c7 bb
       -0.0047650766 0.0024740791 0.0046882713 -0.006080024
000020 70 2a 81 3b ce f7 4d bb b7 22 ca 3a ae 71 d6 3a
       0.0039418265 -0.003142822 0.0015421723 0.0016360783
000030 97 4d 76 bb c6 fc 52 3a ad 76 d6 3a 46 dc ef ba
       -0.0037582868 0.00080485304 0.0016362272 -0.00182999
000040 ce 6e 83 3b 3b a2 94 3b 1b 96 5b ba b6 e5 d9 ba
       0.0040110117 0.004535941 -0.00083765545 -0.0016624245
000050 39 a5 c0 ba 4f 72 6d bb a2 0e 19 bb 4f 28 f4 39
       -0.0014697678 -0.0036231463 -0.002335467 0.0004656934
000060 d4 d8 ae ba 34 34 9c 3b 28 8b aa 38 e5 e7 68 3b
       -0.0013339766 0.0047669653 8.1321516e-05 0.003553861
000070 1d 76 f1 39 59 f5 77 b9 4e cb 08 39 ca 75 48 bb
       0.00046055103 -0.00023647155 0.00013045708 -0.0030587786
000080 93 0a 69 bb a8 df 40 ba a9 6f ab 3b d4 33 bd 39
       -0.0035559281 -0.0007357546 0.005231817 0.00036087504
000090 0b 23 82 3b 93 bb a5 38 a2 02 a4 ba e9 f1 3e 3b
       0.0039714626 7.9027515e-05 -0.0012512992 0.002913589
0000a0 22 de 24 bb c2 75 86 3b ee f6 61 bb cc 03 56 3b
       -0.0025156816 0.0041033933 -0.0034479457 0.0032656072
0000b0 16 66 9b ba 9a 76 b0 bb df b6 03 3b 0b 3f 86 3b
       -0.0011855986 -0.005385232 0.0020098013 0.004096871
0000c0 d4 f5 a3 3b 18 ff 16 bb e5 d4 90 ba 08 89 b1 3a
       0.00500367 -0.0023040231 -0.0011049776 0.0013544867
0000d0 63 11 9b b9 7a 52 8e 3b 0f 81 7b 38 1b 29 79 ba
       -0.00029576858 0.004343328 5.996326e-05 -0.00095047214
0000e0 7c 86 c6 36 f5 43 8d 3a 24 1a 83 ba 21 fb ba 3a
       5.916516e-06 0.0010777699 -0.0010002297 0.0014265516
0000f0 e5 43 8d ba 93 60 e5 ba 67 9a e3 bb 8c d0 bc bb
       -0.001077768 -0.0017500095 -0.0069458964 -0.0057621654

layer3.1.running_mean f4 [64]
000000 b2 02 86 bf 84 af 02 3d 9a e4 8f 3d 84 85 f9 3c
       -1.0469573 0.031905666 0.07026024 0.030459173
000010 9b 94 37 3c db e4 28 be 81 05 c0 3e b2 a2 3b 3d
       0.011204864 -0.16493551 0.375042 0.045809455
000020 2e f6 08 bf f7 6b 49 bc 53 1f 53 3e 84 82 8c 3e
       -0.5350064 -0.012293807 0.20617418 0.27443326
000030 72 ba 68 bd d6 e4 fc bd bd d8 05 3f 44 db 3b bf
       -0.056818433 -0.123483345 0.5228384 -0.7338145
000040 75 5c bc be 99 f8 fa 3e be ab 3c bd 9f f8 d7 be
       -0.3678929 0.4901779 -0.046062224 -0.4218187
000050 0e ab 31 bd ac da c2 3d be de a4 bc d1 20 84 3e
       -0.04337602 0.095143646 -0.020125743 0.25806287
000060 17 b4 aa 3a 00 8c 87 3e bd e9 ea be 03 3d a9 3e
       0.0013023642 0.26474 -0.45881453 0.3305436
000070 69 ba db be b3 f2 c4 be 37 c1 b7 be 7e 11 73 3f
       -0.42915657 -0.38466415 -0.358896 0.94948566
000080 58 d3 14 bf 79 c0 74 3f 97 9d f5 bd dd 54 54 3e
       -0.58134985 0.9560619 -0.119929485 0.20735498
000090 d0 ee 1a be 41 fc 1e be 4f fc 3c 3e b6 9c 0c 3f
       -0.15130162 -0.15525915 0.18455623 0.5492662
0000a0 8d c1 8c be 14 8d c9 bd 3e de ac 3e 3b ab db 3d
       -0.27491418 -0.09841362 0.33763307 0.10726019
0000b0 b7 bf 5a be c9 92 de bd 2e 66 a3 bc dd ad ef 3e
       -0.21362196 -0.10867841 -0.019946184 0.46812335
0000c0 5e 29 44 3e 94 49 1e bf 2f 1e 82 be 0c d2 e5 3d
       0.19156405 -0.6183102 -0.25413653 0.11221704
0000d0 1d 00 5a 3e 28 2b be 3c 0e 04 80 bf fd ee b7 bd
       0.21289106 0.023213938 -1.0001237 -0.0898113
0000e0 7f 4f ba 3e 99 45 ff 3d cc 00 e5 be c9 1b 1d bf
       0.36388776 0.124644466 -0.4472717 -0.6137052
0000f0 40 c6 8d 3e 7b 46 6d 3c 1d 81 78 bf 05 54 08 bf
       0.27690315 0.014482136 -0.9707201 -0.53253204

layer3.1.running_var f4 [64]
000000 7b 60 8b 3e 25 3c 25 3e f8 34 7c 3e bc 56 0a 3e
       0.27222046 0.16136225 0.24629581 0.13509649
000010 ea 24 2c 3e f3 65 8d 3e d4 15 69 3e a8 73 27 3e
       0.16810957 0.27616844 0.22762233 0.16352713
000020 6e 3f 49 3e ff df 45 3e 01 13 f9 3d 8f 46 29 3e
       0.19653103 0.19323729 0.12161828 0.16530822
000030 42 88 03 3e ae 80 ae 3e e7 82 f2 3d 19 e6 4c 3e
       0.12844947 0.3408255 0.11841374 0.2000965
000040 27 e0 a9 3e e9 f2 4c 3e cc cc 61 3e fb 9d fd 3d
       0.33178827 0.20014538 0.2205078 0.12383648
000050 d0 51 07 3e 4e c7 4b 3e 2a 5c 4b 3e 6d 67 88 3e
       0.13214803 0.19900247 0.19859377 0.26641408
000060 e4 77 08 3e 0e 8d 09 3e 37 7e 24 3e f8 9e 0a 3e
       0.13326985 0.13432714 0.16063772 0.13537204
000070 70 f7 f8 3d 60 fa 39 3e 4a d7 ca 3e 48 91 20 3e
       0.1215657 0.18161917 0.39617378 0.1568042
000080 8c e2 1d 3e d8 9c 50 3e 0e b0 31 3e 46 e9 28 3e
       0.15418452 0.20372331 0.17352316 0.16495237
000090 58 c8 25 3e dd 22 45 3e 6a eb 57 3e f5 e5 28 3e
       0.16189706 0.1925158 0.21085897 0.16493972
0000a0 69 57 45 3e 3c ef 35 3e fc 78 21 3e bb 3f 36 3e
       0.19271626 0.17767042 0.15768808 0.17797749
0000b0 21 8d 09 3e 8f 40 7a 3e c5 0a 13 3e a8 f1 39 3e
       0.13432743 0.2443869 0.14359577 0.18158591
0000c0 3a a5 3c 3e 51 3d e3 3e bc d2 da 3d f1 c9 8a 3e
       0.18422404 0.44382718 0.10684726 0.27107194
0000d0 9b 3a 71 3e 1a e0 3e 3e 47 76 6e 3e 98 e6 42 3e
       0.23557512 0.18640175 0.23287307 0.19033277
0000e0 55 3a 3c 3e b6 de 51 3e be 36 43 3e 81 ff 8c 3e
       0.18381627 0.20495114 0.19063851 0.27538684
0000f0 08 9d 08 3e c8 35 c2 3e a4 d1 27 3e ad e8 88 3e
       0.13341153 0.37931657 0.16388565 0.26740018

fc1.weight f4 [10, 576]
000000 26 56 ba 3b 60 aa 2e 3d 65 14 96 3c c6 73 21 3c
       0.005686539 0.04264295 0.018320272 0.009854263
000010 6a a8 d3 3c d2 3a 3a 3b 00 e2 3d 3d 05 53 23 3d
       0.025837142 0.0028416407 0.04635811 0.039874095
000020 c6 2d 63 3c 7a 2e 96 bc ab 79 a6 3c 1e df ca bc
       0.013865894 -0.018332709 0.020321688 -0.024764594
000030 0d 34 28 bd c7 6e be 3c 7d 54 24 bd a9 8c 8e bc
       -0.041065264 0.023246182 -0.040119637 -0.017401056
000040 ce 77 15 3b bb d6 c4 3b 70 87 11 3d f5 df c4 3b
       0.0022807005 0.006007043 0.035529554 0.006008143
000050 b6 b1 a8 3c 2d e9 cf 3c c4 25 a2 3b 77 f6 d4 bc
       0.020592552 0.025379742 0.0049483497 -0.02599643
000060 57 92 4a 3d 34 8c 01 3d 55 7d e6 ba ed 79 18 3d
       0.049455967 0.03162785 -0.0017584959 0.037225652
000070 11 1b 0d 3d b9 2b 8e 3c c8 b3 9e 3c c6 3e 04 3d
       0.03444964 0.017354833 0.019372836 0.032286428
000080 9a a0 2f bb e8 98 c3 3b f7 63 da bc e3 eb 04 3d
       -0.0026798607 0.0059691556 -0.026658995 0.03245152
000090 ea 15 cb 3c 59 db f7 3a ea 94 15 3d 18 c2 14 bc
       0.024790723 0.0018909975 0.03651897 -0.009079479
0000a0 b4 71 fb 3c 67 06 0a 3d d9 01 11 3d 9e ec 23 3d
       0.030693866 0.033697512 0.035402153 0.040020578
0000b0 a8 a2 02 3c 5d e4 92 bc 40 72 c9 bc 08 09 68 ba
       0.007973351 -0.017931158 -0.024590611 -0.00088514434
0000c0 ef b1 33 bd 95 a3 e9 bc 9a df e4 bc 95 a1 22 bd
       -0.043870863 -0.028520385 -0.027938653 -0.039704878
0000d0 77 39 03 3c 99 82 66 3c 51 94 25 bd 41 bd e5 bc
       0.008009306 0.014069223 -0.04042465 -0.028044345
0000e0 1e 92 99 3b 4c dd b6 3c ac 5c 0e bd ef 99 99 3b
       0.004686608 0.02232232 -0.034756348 0.00468754
0000f0 7f 2b 4a bc 36 cc 2b 3c 28 9f c9 3c 49 42 b3 bb
       -0.012339472 0.010485699 0.024612024 -0.0054705483
000100 29 c5 fb 3a 20 eb 90 bc 9f 8c 01 bd 38 3d df bc
       0.0019208539 -0.017690241 -0.031628247 -0.027250871
000110 07 64 6e bc 11 25 0a 3d f9 b8 2c 3c b5 8d 69 bc
       -0.014550216 0.033726756 0.010542148 -0.014254977
000120 a3 44 9f 3c cb 4d 3e 3d 5a 1c 0d bc 02 ae 7d ba
       0.019441908 0.046460908 -0.008612717 -0.0009677113
000130 f2 74 8b bb 9c 99 b7 3c 24 de af 3c 1d f8 1a bd
       -0.0042558843 0.022412114 0.02146823 -0.037834276
000140 3a 2f 07 bd 6a 89 01 bd 8c 87 fa 3b d2 d6 1b 3d
       -0.033004023 -0.03162519 0.007645553 0.038046665
000150 b9 f0 ea bc 4b e7 00 bd 49 02 1c 3d d9 7d aa bc
       -0.028679239 -0.03147058 0.038088117 -0.020811962
000160 a6 00 3e 3c 52 a6 13 bc 3f 5b 1d bd aa 05 4a 3c
       0.011596834 -0.009011822 -0.038417097 0.012330452
000170 1b 8b ae bc 6b 5c 36 3c c1 4a bc bc 0a 21 09 bd
       -0.021306565 0.011130433 -0.022984864 -0.033478774
000180 5f 07 ed 3c 54 62 cf bc e3 1d 31 bd ee bc ae 3b
       0.028934179 -0.025315441 -0.043241393 0.005332581
000190 49 55 e5 3c 77 d5 64 3b 3a 40 01 3d a1 a3 f6 3a
       0.027994769 0.0034917274 0.03155539 0.0018817076
0001a0 e1 c5 75 bb f9 c2 81 bc 9a 97 09 bd 51 ac 09 3d
       -0.0037501978 -0.01584004 -0.033591844 0.0336116
0001b0 49 76 17 3d b8 e9 fd 3c a9 1b 28 3c 96 64 7e bc
       0.03697804 0.030995235 0.010260501 -0.015526911
0001c0 fe 85 19 3d 91 df e2 bb d1 47 69 3c d2 6a 25 bd
       0.0374813 -0.006923624 0.014238314 -0.040385075
0001d0 71 64 91 bc 2b 7e 3c bc 83 c9 68 bc d0 3c 87 ba
       -0.01774809 -0.01150469 -0.0142082 -0.0010317806
0001e0 4b af 19 3d 18 69 07 bd ce 67 ac 3c d9 59 b2 3c
       0.037520688 -0.03305921 0.021045592 0.021771358
0001f0 97 f7 4f ba 36 aa 09 bd a9 bc 0a 3d 1c 97 00 bd
       -0.0007933317 -0.03360959 0.033871327 -0.03139411
000200 8b ea bb bb c4 1c a5 bc f1 33 fe bc 5d 85 25 bd
       -0.005734747 -0.020155318 -0.031030627 -0.04041039
000210 26 33 cf bc dc 59 c9 3c 7e db 72 3c aa ae 93 3b
       -0.025292944 0.024578981 0.014822839 0.0045069056
000220 15 cd 0d 3c 9c 4a 67 bc 90 61 d1 3b 19 2c cf bc
       0.008654852 -0.014116909 0.006389804 -0.025289582
000230 ef ce cd 3c d4 7f 6b 3b fc 1e 9a 3c e1 97 b2 3c
       0.025123088 0.0035934346 0.018813603 0.021800937
000240 83 b4 fb 3c 01 3b 55 3c fc 48 45 3a 5d 3a f2 3b
       0.030725723 0.013014556 0.0007525829 0.0073922114
000250 04 54 e7 3c aa 5b 2d 3d ca 66 d3 bc bd f2 c9 3c
       0.028238304 0.042323746 -0.02580585 0.02465188
000260 28 f6 a2 3c 45 42 97 3c ce c4 25 bd c4 d3 a4 bc
       0.019892767 0.018464217 -0.04047089 -0.020120509
000270 5c a5 22 bc 69 b1 df 3c 9c 1e 23 3d 6f 64 31 bc
       -0.00992712 0.027306275 0.039824113 -0.010827168
000280 bd 4f 7c ba f2 da be 3b 48 64 f7 3c c8 6e fc bb
       -0.0009624919 0.00582444 0.030199185 -0.007703636
000290 f8 e5 a3 bc 8f 9d d6 3c 47 c7 c3 bc 30 4d e7 3c
       -0.020007119 0.026198177 -0.023898734 0.028235048
0002a0 ba b4 ff 3c 14 98 26 bd de 13 56 3c 02 a0 cf bc
       0.031214107 -0.040672377 0.01306626 -0.025344852
0002b0 f5 6b cd bc a6 e4 30 bc f2 61 0f 3d 97 73 8b bb
       -0.025075892 -0.010796702 0.035005517 -0.0042557227
0002c0 79 df 91 bb 97 5e 36 3a 3d e2 d7 bc 53 63 c5 3c
       -0.004451689 0.0006956844 -0.026352996 0.024095213
0002d0 1b b6 2b bc ce 5a 4f bb 27 10 aa bc 9c d5 37 bc
       -0.010480429 -0.0031639817 -0.020759655 -0.011220362
0002e0 9b 99 e3 3c 79 13 25 bd 2c d8 17 bd a3 66 ae 3b
       0.027783206 -0.040301774 -0.037071392 0.005322294
0002f0 98 79 6d bb b3 ba 6b bc 62 ab 06 3d fe 68 24 bc
       -0.0036235806 -0.014387774 0.032878287 -0.010034798
000300 b5 fe 39 3c 55 73 14 3d 7c ee 11 3c 96 40 d6 bc
       0.011352231 0.0362428 0.008906957 -0.026153844
000310 6a e2 af bc a3 50 da 3c cf 44 a3 3c 57 0d 06 3d
       -0.021470267 0.026649779 0.019930271 0.032727566
000320 55 d9 fc 3c 8e 94 9c bc 5b f3 cb 3c 72 85 16 3d
       0.03086535 -0.019113805 0.024896314 0.036748357
000330 63 af f3 3c 10 e8 f3 3c a3 ba cd bb 49 84 02 bc
       0.029746717 0.029773742 -0.0062783523 -0.00796611
000340 65 02 b3 3b 3f 8f 70 3b 94 95 72 ba 04 e8 be 3b
       0.005462932 0.0036706475 -0.0009253856 0.0058259983
000350 36 e7 1c bd 0c d5 bc 3c 2a ac 38 3c 85 61 20 bd
       -0.038306437 0.023050807 0.011271516 -0.039155502
000360 f2 44 f2 3c c6 f2 77 3c 92 52 8e bc 13 28 dd bb
       0.029573891 0.015133565 -0.017373357 -0.006749162
000370 61 58 1d 3d f5 38 49 3a 02 66 86 3a f6 49 72 bc
       0.038414363 0.0007676029 0.0010253789 -0.0147881415
000380 0f 81 c5 bb 43 56 1a 3d 94 7b c0 3b c0 d2 4d bc
       -0.006027348 0.03767992 0.0058741067 -0.012562454
000390 31 8d b2 bc 29 4d 25 3d c0 16 86 3c 4f c5 10 3d
       -0.021795841 0.04035679 0.01636827 0.03534442
0003a0 29 7c 8f 3c f2 d0 3b 3b 51 c4 d7 3a e8 dc 4f 3c
       0.017515259 0.0028658477 0.0016461705 0.0126869455
0003b0 81 94 f9 bc f7 78 ab bc af 57 1d 3d 5d 03 67 bc
       -0.03046632 -0.020931704 0.0384137 -0.014099923
0003c0 22 86 c8 3b a3 16 e0 bb ba 21 fc bc ec 3b 1a 3d
       0.0061195055 -0.006838636 -0.0307778 0.037654802
0003d0 cc e5 09 bc 85 44 81 bc 57 c2 4e bc 5a cd 31 bc
       -0.008416604 -0.015779743 -0.012619576 -0.010852182
0003e0 01 b1 7e 3c fa 8f cd 3c d3 71 02 bd c6 34 aa 3c
       0.015545131 0.025093067 -0.031846832 0.020777117
0003f0 2a 9a 23 3d 5c 28 87 3c 93 8f 1c bd b6 e1 20 3d
       0.039941944 0.016498737 -0.03822286 0.039277755

fc1.bias f4 [10]
000000 5b f2 0a 3d 79 e5 17 bd cf 81 84 ba a9 1f 22 3d
       0.033922534 -0.037084077 -0.0010109487 0.039580975
000010 15 ba 9b 3c a1 7a 0e 3d cb 24 88 b8 10 19 7a 3c
       0.01900963 0.034784917 -6.4918386e-05 0.015264764
000020 b0 bf 8a 3c 22 a6 cd bc
       0.016937107 -0.025103632

fc2.weight f4 [2, 10]
000000 08 aa 82 3e 9c fc f5 bd 12 85 18 be 46 8a 7b bd
       0.2552035 -0.12011072 -0.14894512 -0.061411165
000010 79 c1 85 be 45 58 67 3e 1f 67 96 3d 1d e8 85 3e
       -0.2612417 0.22592266 0.073438875 0.2615365
000020 5a 91 f0 bd 20 f9 72 3e 01 c2 2f 3e 22 5c 36 3e
       -0.117464736 0.23727846 0.1716385 0.17808583
000030 fb af 57 3e 14 8e 3b 3e a2 b1 12 bd 26 a8 79 be
       0.21063225 0.18315917 -0.035813935 -0.2438055
000040 6a 79 8e bd c1 18 c9 3d d5 92 8c 3e 77 f4 23 be
       -0.06956752 0.098191746 0.27455774 -0.16011225

fc2.bias f4 [2]
000000 bc ea 95 3e 27 65 01 bc
       0.2928065 -0.007897652
