Lab5/model_50_0.0001.pth (torch, 379043 bytes, 54 tensors)

layer1.0.weight f4 [16, 3, 3, 3]
0	0x3df20364	0.11817053
1	0x3dd63072	0.10458459
2	0x3d5c95e6	0.05385389
3	0x3e2efe68	0.17089236
4	0x3cf90e88	0.030402437
5	0xbbc8915e	-0.0061208447
6	0xbe24fd3c	-0.16112226
7	0xbe315df7	-0.17321001
8	0xbe16b695	-0.14718087
9	0x3bca3655	0.0061710277
10	0x3e079b92	0.13242939
11	0x3d4eed0b	0.05051903
12	0x3df20bac	0.118186325
13	0x3e06b00d	0.13153096
14	0xbd92760e	-0.071514234
15	0xbd13a92c	-0.036050007
16	0xbba5a648	-0.0050552227
17	0x3d64e504	0.05588247
18	0xbdea356f	-0.11435973
19	0xbe0167d3	-0.12637262
20	0x3e23ec8e	0.16008207
21	0x3e29cb5f	0.16581486
22	0x3daa6015	0.083191074
23	0xbe423e90	-0.18969178
24	0x3ce220f9	0.027603613
25	0xbd88ed2d	-0.06685863
26	0x3e25d99c	0.16196293
27	0xbd924189	-0.07141406
28	0xbddb5308	-0.10709196
29	0x3d774fd0	0.06037885
30	0xbe1bdb80	-0.15220451
31	0x3d8a152c	0.067423195
32	0x3e0bfe5f	0.13671254
33	0xbd96ebcf	-0.07369196
34	0xbd0c3b80	-0.03423643
35	0xbe0a039b	-0.13477938
36	0xbd9a9b28	-0.07549125
37	0xbe12f0af	-0.14349626
38	0xbdb9d59d	-0.090739466
39	0x3dc4816a	0.09594996
40	0xbe1b7841	-0.15182592
41	0x3def3edc	0.11681911
42	0xbc890937	-0.016728027
43	0xbe3e8d1d	-0.18608518
44	0xbcab7ff3	-0.020935034
45	0xbe0ac472	-0.135515
46	0x3d66138b	0.05617098
47	0xbe35ad66	-0.17741928
48	0xbb40761b	-0.0029367271
49	0x3e0379db	0.12839453
50	0xbde6b51e	-0.11265014
51	0xbe223041	-0.1583872
52	0x3d80d5af	0.06290757
53	0xbc189653	-0.009313184
54	0xbdc0dd89	-0.094172545
55	0x3d445148	0.04792908
56	0xbd7f2475	-0.062290628
57	0x3e255d76	0.16148934
58	0xbce5373e	-0.027980443
59	0xbb93021d	-0.004486336
60	0x3e169f6a	0.14709249
61	0x3e2b8a50	0.16751981
62	0x3dcae2fd	0.09906576
63	0xbd476f57	-0.048690166
64	0x3e367293	0.17817144
65	0xbe3001e2	-0.17188218
66	0xbe175a8f	-0.14780639
67	0xbde97145	-0.113985576
68	0x3d187bd5	0.03722747
69	0x3e2bdbbc	0.16783041
70	0xbbf49a63	-0.0074646934
71	0xbe3f80be	-0.18701455
72	0xbc737eb8	-0.014861755
73	0x3e028fc1	0.1275015
74	0xbb6fd85e	-0.003659747
75	0x3cff77d4	0.031185068
76	0xbdc35272	-0.095372096
77	0xbe47101a	-0.19439736
78	0xbdfc2a91	-0.123128064
79	0xbd47f372	-0.048816152
80	0xbe486afe	-0.19572064
81	0xbe41b6b0	-0.18917346
82	0x3e3a3d90	0.18187547
83	0xbe2a30a7	-0.16620122
84	0x3dd86d3b	0.10567709
85	0xbe398841	-0.18118383
86	0xbe17bc4e	-0.14817926
87	0x3d82584f	0.063645
88	0x3c4b92fa	0.012425179
89	0x3ddfa772	0.109206095
90	0x3c8f8fdd	0.017524654
91	0x3e30a468	0.17250216
92	0xbd9705c6	-0.07374148
93	0xbca9455b	-0.020662954
94	0xbd51f772	-0.051261373
95	0x3d10fb5e	0.035395972
96	0x3e1e688b	0.15469567
97	0x3d96e510	0.07367909
98	0x3dfadb1f	0.12248825
99	0xbe0e1465	-0.13874967
100	0xbda670de	-0.081269965
101	0xbe03d4ca	-0.12874141
102	0x3dddf81b	0.10838338
103	0x3d473990	0.04863888
104	0xbdf39479	-0.11893553
105	0x3dfa09fc	0.122089356
106	0xbd831105	-0.063997306
107	0x3d75bb11	0.059992854
108	0xbd003808	-0.031303436
109	0xbe0fa2f9	-0.14027013
110	0x3c2563e6	0.010094618
111	0x3d833d04	0.06408122
112	0xbdea68a0	-0.11445737
113	0xbde79a1c	-0.11308691
114	0xbd19de2d	-0.0375654
115	0x3cb9feb9	0.022704469
116	0xbe3cfc8c	-0.18455714
117	0xbb245c48	-0.0025079418
118	0x3e432b52	0.19059494
119	0x3e24343e	0.16035554
120	0x3e04842a	0.12941042
121	0x3dca039f	0.09863972
122	0x3e34951e	0.17635009
123	0xbb84e1b1	-0.004055225
124	0x3bfbaa10	0.007680185
125	0xbe0a9910	-0.13534951
126	0x3e389501	0.1802559
127	0xbe450097	-0.19238506
128	0xbdfd3352	-0.12363304
129	0xbdd0bd36	-0.10192339
130	0x3e30af29	0.17254318
131	0x3de6f924	0.112779886
132	0xbe2da1c5	-0.16956241
133	0xbe412c0e	-0.18864462
134	0xbdeb9f62	-0.11505009
135	0x3e24871d	0.16067167
136	0x3e20d0a3	0.15704589
137	0x3cd7efcb	0.02635946
138	0x3e01aa06	0.12662515
139	0x3e3280fe	0.17432019
140	0xbe3bf814	-0.18356353
141	0xbdea4348	-0.11438614
142	0x3d60c3de	0.054874294
143	0xbe3f019c	-0.18652958
144	0x3e005211	0.12531306
145	0xbd504f93	-0.050857138
146	0x3d026337	0.0318329
147	0xbddb2e6a	-0.10702212
148	0x3e3d6b74	0.18498021
149	0x3d707d99	0.05871353
150	0x3b89742f	0.0041947584
151	0x3e0f5f0d	0.14001103
152	0x3d8b3bc0	0.06798506
153	0xbd9fcff9	-0.078033395
154	0xbce115fe	-0.027476307
155	0x3c27a07a	0.010231132
156	0xbe17633a	-0.14783946
157	0xbe0338e7	-0.12814675
158	0xbe38f282	-0.1806126
159	0xbd4a8c7c	-0.049450383
160	0x3e28a75c	0.16470093
161	0x3dd62047	0.10455375
162	0xbd678066	-0.056518935
163	0x3e058f54	0.13042957
164	0xbc933dc9	-0.017973797
165	0x3de63445	0.11240438
166	0xbcdcc6f1	-0.026950331
167	0x3c88e420	0.016710341
168	0xbdeff9ac	-0.11717543
169	0xba31132d	-0.00067548716
170	0x3d4d4ecc	0.050123975
171	0x3dc9ee5a	0.09859915
172	0xbd0392f6	-0.032122575
173	0x3e35c2ea	0.17750135
174	0x3df05d4a	0.117365435
175	0xbde3bef9	-0.111204095
176	0x3add450f	0.0016881543
177	0x3dec1050	0.11526549
178	0xbde5203b	-0.11187788
179	0xbde569b8	-0.11201805
180	0x3e3ce70e	0.18447515
181	0x3e1418b8	0.14462554
182	0xbe04cb1a	-0.12968102
183	0xbbf3f37a	-0.007444796
184	0x3c36907a	0.011142844
185	0x3d21662e	0.039404087
186	0x3dcdd4c2	0.10050346
187	0x3e0c9ba0	0.13731241
188	0xbdd82ac3	-0.10555031
189	0xbe0dff71	-0.13866974
190	0x3e3cdf94	0.18444663
191	0x3e13d492	0.14436558
192	0xbe0e3b6b	-0.13889854
193	0xbc4a2dcb	-0.012340019
194	0x3dd743ed	0.10511003
195	0x3e3a0f5e	0.18169925
196	0xbe339ef0	-0.17541099
197	0x3da944c9	0.08265073
198	0x3cd180b9	0.025574075
199	0xbda8ced7	-0.082425766
200	0xbd7ae9ec	-0.06125824
201	0x3dedaeb9	0.11605591
202	0x3da20808	0.07911688
203	0xbdb00a6b	-0.08595737
204	0x3e2e1947	0.1700183
205	0x3e2f155a	0.17097989
206	0x3e2936aa	0.16524759
207	0xbe36624d	-0.17810936
208	0xbca2cdaa	-0.019873459
209	0x3cb2e219	0.021836327
210	0xbe16c870	-0.14724898
211	0x3b14b3d5	0.0022690196
212	0x3df3043d	0.11866043
213	0xbd9b8c8c	-0.075951666
214	0xbb99f335	-0.004698182
215	0x3d26e9d8	0.040750355
216	0xbe24a839	-0.16079797
217	0x3e1db0b6	0.15399441
218	0xbe1bb9d2	-0.15207604
219	0xbe3f0bb3	-0.18656807
220	0xbdebe422	-0.11518122
221	0x3df93115	0.12167565
222	0x3db7dd4e	0.089777574
223	0x3db6fad4	0.089345604
224	0x3cd678b2	0.026180599
225	0x3dbf7175	0.09347812
226	0xbe34663f	-0.17617129
227	0x3c8af4f9	0.016962515
228	0xbe03ccf2	-0.12871149
229	0x3d39cfc6	0.045364164
230	0xbc9c76a2	-0.019099537
231	0xbdc6f3a5	-0.0971444
232	0xbe17fc75	-0.14842398
233	0xbdbb09eb	-0.09132751
234	0x3e298517	0.16554676
235	0xbd80ea09	-0.06294639
236	0x3cc6d776	0.024272662
237	0x3bb9c2b1	0.005668961
238	0x3dfa3e1e	0.12218879
239	0x3d579475	0.052631814
240	0x3db825f8	0.08991617
241	0x3d7846a9	0.06061426
242	0xbe051113	-0.12994795
243	0xbe3c124c	-0.18366355
244	0xbc049b98	-0.008093737
245	0xbd2ad77a	-0.0417094
246	0xbd2a1a52	-0.041529007
247	0xbd931791	-0.07182229
248	0x3dba4e0d	0.09096918
249	0xbe1fc001	-0.15600587
250	0xbc178ebe	-0.009250341
251	0xbe2991fb	-0.16559593
252	0x3d9aba32	0.07555045
253	0x3c12b57d	0.008954403
254	0x3d80faf7	0.06297868
255	0x3c0e27f5	0.008676519

layer1.0.bias f4 [16]
0	0xbe3ab2f9	-0.18232335
1	0xbe1d242e	-0.15345833
2	0xbcf02808	-0.029315963
3	0x3e052d51	0.13005568
4	0x3e17f59f	0.14839791
5	0xbe3a03df	-0.18165539
6	0xbe0dd06d	-0.1384904
7	0x3e23d72b	0.16000049
8	0x3e2cc25f	0.16871022
9	0xbcf9525e	-0.030434784
10	0x3d105f0d	0.035246897
11	0x3e31e097	0.1737083
12	0xbc60c0ce	-0.013717843
13	0x3ca45653	0.020060694
14	0xbe0d91d6	-0.13825163
15	0xbe0c85af	-0.13722871

layer1.1.weight f4 [16]
0	0x3f801e26	1.00092
1	0x3f7fde9c	0.9994905
2	0x3f80869e	1.0041082
3	0x3f80edb3	1.007254
4	0x3f7f601b	0.9975602
5	0x3f7ffaa4	0.9999182
6	0x3f8064ab	1.0030721
7	0x3f7fca67	0.99918216
8	0x3f803205	1.0015265
9	0x3f7e096f	0.99233145
10	0x3f80c567	1.0060242
11	0x3f7fdb67	0.99944156
12	0x3f7def18	0.99192953
13	0x3f7eb946	0.99501455
14	0x3f7fc904	0.999161
15	0x3f7f5ebc	0.9975393

layer1.1.bias f4 [16]
0	0x3ba61fb0	0.0050696954
1	0xbbb34c9b	-0.0054717786
2	0x3b62764f	0.003455538
3	0x3c672b90	0.014109507
4	0x3b0dcc41	0.0021636637
5	0xbbbed42c	-0.0058236327
6	0x3b768ca1	0.0037620442
7	0xbb7837c4	-0.0037875036
8	0x3c78cd3c	0.01518565
9	0xbc188182	-0.009308221
10	0x3c7556b6	0.014974287
11	0xbb320349	-0.0027162603
12	0xba339243	-0.0006850103
13	0xbc09083a	-0.008363778
14	0x3c21e85f	0.009882062
15	0x3b0559e9	0.002034778

layer1.1.running_mean f4 [16]
0	0x3d39c442	0.04535318
1	0xbf3420ca	-0.7036253
2	0xbe169348	-0.14704621
3	0x3e1dd4c3	0.15413193
4	0x3b46d8bc	0.0030341586
5	0x3d0d105b	0.034439426
6	0x3e09750a	0.13423553
7	0x3ee28c04	0.44247448
8	0xbce6d623	-0.02817828
9	0xbe68d2d2	-0.22736672
10	0x3c310556	0.010804495
11	0x3f2e637b	0.68120545
12	0xbd9f15a9	-0.07767803
13	0x3f0371af	0.5134534
14	0x3e17ce08	0.14824688
15	0xbdb2b468	-0.08725816

layer1.1.running_var f4 [16]
0	0x3c691ff6	0.0142288115
1	0x3d9e3d11	0.07726491
2	0x3c8328b7	0.016010625
3	0x3b0e8c5a	0.0021751137
4	0x3c364f87	0.011127359
5	0x3c2aa3a5	0.010414992
6	0x3cc3560f	0.023844747
7	0x3c8e33c1	0.017358663
8	0x3c0d92d2	0.008640962
9	0x3c2d69d1	0.010584311
10	0x3c2beb52	0.010493116
11	0x3d8273f2	0.06369771
12	0x3b05b768	0.0020403508
13	0x3d814970	0.06312835
14	0x3cb38bef	0.021917311
15	0x3a112031	0.0005536108

layer2.0.weight f4 [32, 16, 3, 3]
0	0x3b8024ad	0.003910622
1	0xbb345f8a	-0.0027522766
2	0xbcebb340	-0.028771996
3	0x3d78af86	0.060714267
4	0x3c997a54	0.018735088
5	0xbd513881	-0.051079277
6	0x3d7fd092	0.062454768
7	0xbd0d0668	-0.034429938
8	0x3da2382d	0.07920871
9	0xbd84f948	-0.06492859
10	0xbd093451	-0.03349716
11	0xbd7e9ab7	-0.062159266
12	0xbd9a609f	-0.0753796
13	0xbb7d92c5	-0.0038692218
14	0xbd1eb28d	-0.038744498
15	0xbd8db524	-0.069193155
16	0xbd8b816f	-0.06811797
17	0x3d772487	0.06033757
18	0xbd9d69f6	-0.07686226
19	0x3d6a69ab	0.05722968
20	0x3d9daad5	0.07698599
21	0xbd47b49e	-0.048756234
22	0x3d591449	0.05299786
23	0x3ba8b1fc	0.0051481705
24	0x3c66c43b	0.014084871
25	0x3d80530e	0.062658414
26	0xbd8d17bb	-0.06889292
27	0x3cbb93d9	0.022897648
28	0x3cdbf6af	0.026851026
29	0x3c7d1ea2	0.015449198
30	0x3a80405b	0.0009784804
31	0xbc1de01c	-0.009635951
32	0xbd88ec3b	-0.066856824
33	0xbd33c0f1	-0.043885175
34	0xbcbef990	-0.02331236
35	0x3d83571a	0.06413098
36	0xbcf03f2f	-0.029327003
37	0x3da11bbf	0.0786662
38	0x3cd8d5c5	0.02646912
39	0x3d075775	0.03304239
40	0xbd206dde	-0.039167278
41	0xbd10d356	-0.035357796
42	0x3cd4d983	0.025982624
43	0x3d1547a1	0.036445264
44	0x3cf8c243	0.030366069
45	0x3c91cf23	0.017798966
46	0x3d41d44c	0.047321603
47	0xbc3d2c7f	-0.011546253
48	0xbd675817	-0.056480493
49	0xbda5e90e	-0.08101092
50	0x3c84b7c7	0.016200913
51	0x3c90aef0	0.017661542
52	0x3d2a92aa	0.041643776
53	0x3d8aca69	0.06776888
54	0x3d8f0d36	0.06984942
55	0xbd81d926	-0.06340246
56	0xbd04b87c	-0.0324025
57	0xbc191c7d	-0.009345171
58	0x3cb92a5a	0.022603203
59	0x3d01ac33	0.031658363
60	0x3ccef8ad	0.025265062
61	0xbd58235a	-0.05276809
62	0xbca5a871	-0.02022192
63	0xbbf3c8eb	-0.007439723
64	0xbda1ea77	-0.07906049
65	0xbc4da5ba	-0.012551719
66	0x3c2279a6	0.009916699
67	0xbd961b59	-0.07329435
68	0x3c3386ef	0.010957464
69	0xbd360c81	-0.04444552
70	0x3d732b29	0.059367333
71	0xbc164216	-0.00917103
72	0x3b876bb0	0.0041327104
73	0x3da49366	0.080359265
74	0xbd545611	-0.05183989
75	0xbc82b9e4	-0.01595778
76	0x3d9ee9a9	0.07759411
77	0x3d728a5a	0.059213974
78	0x3d829dbe	0.06377743
79	0x3d3cc48e	0.046085887
80	0xbd474575	-0.048650224
81	0x3ccbde85	0.024886379
82	0xbce71a9e	-0.028210934
83	0xbd016b68	-0.03159657
84	0xbd63c31a	-0.055605985
85	0xbda41861	-0.080124624
86	0x3d0946d8	0.033514827
87	0x3da17457	0.07883518
88	0xbd9b990f	-0.07597553
89	0xbd29673c	-0.041358218
90	0x3d92e561	0.07172657
91	0x3d8f69c9	0.07002599
92	0xbcc1e1c9	-0.023667233
93	0xbda04ef9	-0.07827563
94	0xbdacf153	-0.084444664
95	0xbcfe880b	-0.03107073
96	0xbc1de153	-0.009636241
97	0x3bef2f65	0.007299351
98	0x3d8ff76b	0.07029613
99	0xbd49ee70	-0.049299657
100	0xbcef112b	-0.029182991
101	0x3d9db3bc	0.07700297
102	0xbc729eee	-0.0148084
103	0x3c7a2c78	0.015269391
104	0xbda51244	-0.080601245
105	0xbd8c4073	-0.0684823
106	0xbd903472	-0.07041253
107	0x3d085644	0.033285394
108	0x3d27ca00	0.040964127
109	0x3d0eb28b	0.03483824
110	0x3da769bf	0.08174466
111	0x3c0dcb38	0.008654408
112	0xbcf7c3f8	-0.030244812
113	0xbd0b4b07	-0.0340071
114	0x3d8daec2	0.06918098
115	0x3c5db9d5	0.013533075
116	0xbd2bd098	-0.041946977
117	0xbbbaabbe	-0.005696743
118	0xbd1f6461	-0.03891409
119	0x3d7ddfc7	0.06198099
120	0xbd982524	-0.07428959
121	0x3cb52bd5	0.022115627
122	0xbbca4438	-0.006172683
123	0xbd96831d	-0.073492266
124	0x3c6ed677	0.0145775
125	0x3cb32e96	0.0218728
126	0x3d922d9c	0.071376055
127	0x3d26fb79	0.040767167
128	0xbd3e0ebb	-0.046400767
129	0xbc0a0605	-0.008424287
130	0x3d8b25f3	0.067943476
131	0xbd06fe22	-0.032957204
132	0x3c9fea8e	0.019521024
133	0x3d73d3fc	0.059528336
134	0xbbf2d456	-0.0074105663
135	0x3d6b390e	0.05742746
136	0x3d9ca710	0.07649052
137	0xbd9b9f69	-0.075987644
138	0xbbfd6fe1	-0.0077342843
139	0xbd0bb6ce	-0.034109883
140	0xbbb4f029	-0.0055217934
141	0xbd4f9b3b	-0.05068515
142	0x3c8e8465	0.017397115
143	0xbd2d7f35	-0.042357642
144	0xbc3bcda2	-0.011462601
145	0xbd03ece5	-0.032208342
146	0xbcf560a8	-0.029953316
147	0xbd2b328d	-0.041796256
148	0xbd941848	-0.07231194
149	0xbd802a26	-0.06258039
150	0xbd0f2743	-0.034949552
151	0xbd4ce348	-0.05002144
152	0xbcc4e1aa	-0.024033386
153	0x3d657bf4	0.056026414
154	0x3c5d5807	0.013509757
155	0x3c3a9688	0.0113884285
156	0x3d4be2e7	0.049776938
157	0xbb665374	-0.0035144957
158	0x3d39943d	0.045307387
159	0xbd214b48	-0.039378434
160	0xbd63090d	-0.055428553
161	0xbc91ff70	-0.017821997
162	0x3d6f9ec0	0.058501005
163	0x3c418344	0.011811081
164	0x3d1f4060	0.038879752
165	0x3d9996fb	0.074995
166	0x3da3ed61	0.08004261
167	0xbd282d0e	-0.041058592
168	0x3cb6d4dc	0.022318296
169	0xbd7f37df	-0.062309142
170	0x3da52537	0.08063739
171	0xbce0fe59	-0.027465032
172	0x3da36f96	0.07980268
173	0x3c062d55	0.008189519
174	0x38ad3f8b	8.261119e-05
175	0x3b39810f	0.0028305685
176	0x3c341f18	0.010993741
177	0x3cf58a13	0.029973065
178	0x3c0fe7d2	0.008783298
179	0xbc4edf8e	-0.012626542
180	0xbd096f4c	-0.033553407
181	0x3d2a1be0	0.04153049
182	0x3d5cc878	0.05390212
183	0x3d737bd2	0.059444256
184	0xba54f30d	-0.00081233756
185	0x3bc75003	0.006082536
186	0x3b870c6e	0.004121355
187	0xbcba5c77	-0.022749169
188	0x3c9f4630	0.019442648
189	0xbd887905	-0.06663708
190	0xbd9ad3cd	-0.07559929
191	0xbc58939b	-0.013218786
192	0x3d65c178	0.05609271
193	0x3cd200b2	0.025635097
194	0xbd53378e	-0.051566653
195	0xbd1e0c76	-0.038586102
196	0x3cad02da	0.021119524
197	0x3c4aab83	0.012369993
198	0x3c88a6bf	0.016681073
199	0xbd9df488	-0.07712656
200	0xbd7bf23b	-0.061510306
201	0x3cc4ed58	0.024038956
202	0xbd4ed802	-0.05049897
203	0x3c347c97	0.011016033
204	0xbd5e9cdd	-0.054348815
205	0xbda487f3	-0.08033743
206	0x3aabd4f0	0.0013109725
207	0xbd0da3d5	-0.03458007
208	0x3b8020d0	0.0039101616
209	0x399193d5	0.000277667
210	0xbd850d68	-0.06496698
211	0x3c21e10b	0.009880315
212	0x3b45d159	0.0030184595
213	0x3d150ee1	0.036391143
214	0xbd637bbc	-0.055537924
215	0xbd487845	-0.048942823
216	0x3d232021	0.039825562
217	0x3cc1e26c	0.023667537
218	0xbd867659	-0.06565542
219	0x3d7dea94	0.06199129
220	0xbd2e0159	-0.042481754
221	0xbd43e167	-0.047822382
222	0xbdac8139	-0.08423085
223	0xba8fc2ba	-0.0010968067
224	0x3d0bb47f	0.03410768
225	0xbcedbe7d	-0.029021496
226	0xbcb506c9	-0.022097962
227	0xbdabfef9	-0.083982415
228	0x3d49cf60	0.049270034
229	0x3bd8d58b	0.006617253
230	0x3d98cee4	0.07461336
231	0xbd06b72a	-0.032889523
232	0xbcc868bd	-0.024464006
233	0x3b6074ca	0.00342493
234	0x3c3d34dd	0.011548248
235	0x3c7af6b1	0.015317605
236	0x3d665998	0.056237787
237	0x3d832c21	0.06404901
238	0x3d5202f9	0.051272366
239	0xbd3327b7	-0.043739047
240	0x3d81aa26	0.06331281
241	0xbd841dbc	-0.06450984
242	0x3d917dac	0.07104048
243	0x3d898237	0.0671429
244	0x3d1db702	0.038504608
245	0xbcd8b4a5	-0.026453326
246	0xbd83f3cb	-0.06442984
247	0x3d8eecb1	0.06978739
248	0x3d11ff25	0.035643715
249	0x3cae442d	0.021272743
250	0x3d8fb461	0.070168264
251	0xbd87265f	-0.065991156
252	0x3ce4a7b3	0.027911996
253	0xbd82652d	-0.06366954
254	0xbd91a810	-0.071121335
255	0x3cb2a2e4	0.021806188

layer2.0.bias f4 [32]
0	0x3da77e7b	0.08178421
1	0x3d69aecf	0.057051476
2	0xbceb0045	-0.028686652
3	0x3d9312fa	0.07181354
4	0xbcf6ae3f	-0.030112384
5	0x3c7bde47	0.015372819
6	0x3d126445	0.035740156
7	0xbc5bbd8f	-0.0134118935
8	0xbd8b48a3	-0.06800964
9	0x3d0a010c	0.033692405
10	0x3cbb9d1b	0.022902062
11	0xbd12c2cf	-0.035830315
12	0xbc83dfaf	-0.016097872
13	0xbd2646d0	-0.040594876
14	0x3da957bf	0.08268689
15	0xbd7f1517	-0.062275972
16	0x3cc45a73	0.02396891
17	0x3da3dc45	0.080009975
18	0x3d683fa5	0.05670132
19	0x3d66cb36	0.05634614
20	0xbb943ff5	-0.004524226
21	0x3d7b658a	0.061376132
22	0xbc29b05f	-0.010356992
23	0x3d394264	0.04522933
24	0x3d7ed172	0.06221146
25	0xbd3bc1fa	-0.045839287
26	0xbd999898	-0.07499808
27	0xbcb7d644	-0.022441037
28	0x3c9b5101	0.018959524
29	0x3d3bb583	0.0458274
30	0xbd335f09	-0.043791804
31	0x3d26868d	0.04065566

layer2.1.weight f4 [32]
0	0x3f8082a0	1.0039864
1	0x3f7f0364	0.9961455
2	0x3f7f7f3b	0.99803513
3	0x3f821f05	1.0165716
4	0x3f7eb6c5	0.99497634
5	0x3f804865	1.0022093
6	0x3f80a34b	1.0049833
7	0x3f7e5945	0.99354964
8	0x3f7f54a5	0.9973853
9	0x3f7e77a1	0.9940129
10	0x3f7f26d0	0.996686
11	0x3f806167	1.0029725
12	0x3f7f8107	0.99806255
13	0x3f7f0ebd	0.99631864
14	0x3f7fddb7	0.99947685
15	0x3f8183b4	1.0118318
16	0x3f8024bc	1.001121
17	0x3f80085e	1.0002553
18	0x3f7e45f5	0.99325496
19	0x3f7f8ea2	0.99827015
20	0x3f7efde7	0.99606174
21	0x3f7fb4a3	0.99885005
22	0x3f7eaa85	0.9947894
23	0x3f7ea7eb	0.9947497
24	0x3f7f73d3	0.9978611
25	0x3f7f0358	0.9961448
26	0x3f7f6358	0.9976096
27	0x3f7ffa5b	0.9999139
28	0x3f7eae54	0.99484754
29	0x3f80ea25	1.0071455
30	0x3f8108ad	1.0080773
31	0x3f80a672	1.0050795

layer2.1.bias f4 [32]
0	0xba82aeed	-0.0009970345
1	0xb9ec2d9b	-0.00045047406
2	0x3a64cb52	0.0008727807
3	0x3bb43043	0.0054989173
4	0xbb083ecc	-0.0020789383
5	0x3bb7b774	0.005606586
6	0xbaf59695	-0.0018736894
7	0x3add4394	0.0016881102
8	0xbaa242d9	-0.0012379541
9	0xbbcbc07a	-0.0062180134
10	0xbb0f7942	-0.0021892344
11	0x3b7daca6	0.0038707643
12	0xbba13bb8	-0.004920449
13	0x3ba48c3b	0.0050215996
14	0xba35944e	-0.0006926701
15	0x3ba851a9	0.005136688
16	0xbac9d61c	-0.0015398893
17	0x3bcead07	0.0063072476
18	0xbb13c2fa	-0.0022546635
19	0xbb9a605c	-0.004711194
20	0xbbc6e18c	-0.0060693678
21	0xb9b1c95d	-0.00033910098
22	0xbaedf230	-0.0018153843
23	0xba1a8043	-0.0005893746
24	0xba0e5a0f	-0.000543029
25	0xbbef6ddb	-0.007306797
26	0x3b915f1b	0.0044363863
27	0xba8eebfa	-0.0010904067
28	0xbb4ed687	-0.0031560974
29	0x3c02e97d	0.007990238
30	0x3bac7922	0.0052634636
31	0x3b239639	0.0024961366

layer2.1.running_mean f4 [32]
0	0x3c8775a8	0.016535595
1	0xbe5b4fb0	-0.21417117
2	0xbe053b7a	-0.1301097
3	0xbdf101d3	-0.11767926
4	0xbea5c7f1	-0.32379106
5	0x3d46a75a	0.048499443
6	0x3ea1e9d2	0.31623703
7	0x3e9970f1	0.2996898
8	0x3d810be9	0.063011
9	0x3eb3c861	0.35113814
10	0xbf011bd4	-0.5043309
11	0x3f1e1ce7	0.6176285
12	0xbe134f9a	-0.14385834
13	0x3e21e874	0.1581133
14	0x3ee8653d	0.4538974
15	0xbeb2df4d	-0.3493599
16	0x3e565bc9	0.20933451
17	0xbdc94fd0	-0.09829676
18	0xbe2aaef1	-0.16668297
19	0x3e8f8fc9	0.28039387
20	0x3e12d5fd	0.14339443
21	0x3eec4786	0.46148318
22	0x3e36d4d6	0.17854628
23	0x3f0d5484	0.55207086
24	0x3d5d4f42	0.054030664
25	0x3ea3d500	0.31998444
26	0x3cf929a7	0.03041537
27	0x3d8ce5b5	0.06879751
28	0xbeab78a8	-0.3349049
29	0xbe671dc6	-0.22569951
30	0xbec04293	-0.37550792
31	0xbe1417fd	-0.14462276

layer2.1.running_var f4 [32]
0	0x3ccb1bf5	0.024793604
1	0x3e966b1d	0.29378596
2	0x3e58c88a	0.2117025
3	0x3d5a7384	0.05333282
4	0x3d85024a	0.06494577
5	0x3e224301	0.15845872
6	0x3d93b12f	0.072115295
7	0x3e74a07c	0.23889345
8	0x3e2ddcd6	0.16978773
9	0x3df8501d	0.121246554
10	0x3d9ae114	0.075624615
11	0x3e3171cc	0.17328566
12	0x3db684bb	0.08912035
13	0x3d9bb5a2	0.07603003
14	0x3dbc4ff9	0.09194941
15	0x3dd88f20	0.10574174
16	0x3e798de7	0.24370538
17	0x3dfd0a23	0.12355449
18	0x3d949e6b	0.07256778
19	0x3e3f8439	0.18702783
20	0x3d9c7524	0.0763953
21	0x3e38b692	0.18038395
22	0x3e844980	0.25837326
23	0x3e588b00	0.21146774
24	0x3e28e434	0.16493303
25	0x3e9ba537	0.30399486
26	0x3e3f1f24	0.18664223
27	0x3d7c1754	0.061545685
28	0x3df4c3e0	0.11951423
29	0x3e19b2cd	0.15009613
30	0x3dbd2bf5	0.092369
31	0x3d3b7eed	0.045775343

layer3.0.weight f4 [64, 32, 3, 3]
0	0xbd293f5b	-0.041320186
1	0x3cfe4c6a	0.031042296
2	0x3bb5b2cc	0.005544996
3	0xbd2f396f	-0.042779382
4	0x3c213eb8	0.0098416135
5	0xba524f67	-0.0008022696
6	0x3d1d4943	0.038399946
7	0xbd679e69	-0.056547556
8	0x3c94e8fa	0.018177498
9	0xbcdf8c31	-0.027288528
10	0x3ccddc7f	0.025129555
11	0x3c824cb8	0.015905723
12	0xbd66bc60	-0.056331992
13	0xbd51b6bb	-0.051199656
14	0x3c6d6303	0.014488938
15	0xbd0ec00a	-0.03485111
16	0xbca6bf17	-0.02035479
17	0x3d4cad5f	0.049970027
18	0xbd517bf6	-0.05114361
19	0x3d2a2e2a	0.04154793
20	0x3d783137	0.06059381
21	0xbb828a30	-0.0039837584
22	0xbb12f891	-0.002242599
23	0xbcb77b8c	-0.022397779
24	0xbbb1f47e	-0.005430757
25	0x3d16cfa2	0.036819108
26	0xba78c5dc	-0.00094899326
27	0xbd0d7683	-0.03453685
28	0xbd4ac789	-0.049506698
29	0xbb796710	-0.0038055815
30	0xbd30c03f	-0.04315209
31	0xbd6cb4a5	-0.057789464
32	0xbcfbfd9e	-0.030760583
33	0xbd5e6d8d	-0.054303695
34	0xbb0a9041	-0.002114311
35	0xbce93b6d	-0.02847072
36	0x3cb536df	0.022120891
37	0x3d480127	0.048829224
38	0x3d62bf81	0.055358414
39	0xbd50ab13	-0.0509444
40	0xbccc4dba	-0.024939407
41	0x3c29809f	0.010345607
42	0x3cc57cbe	0.024107333
43	0xbcc49746	-0.023997914
44	0xbbaf451b	-0.005348814
45	0x3d39e6a1	0.04538596
46	0xbc07835b	-0.008271064
47	0x3bc43f07	0.0059889588
48	0x3c998259	0.018738912
49	0xbb9d3cc9	-0.004798506
50	0x3bb0fef2	0.0054014856
51	0x3c060553	0.00817998
52	0x3b7302fe	0.003708064
53	0xbd821031	-0.063507445
54	0xbc7f83dd	-0.0155954035
55	0xbd27aea9	-0.040938053
56	0xbab4b1f9	-0.001378595
57	0xbc79407a	-0.015213126
58	0xbd60a89e	-0.054848306
59	0x3d43a458	0.047764152
60	0x3cb9f431	0.022699447
61	0x3c1cafaa	0.009563366
62	0xbd0fe084	-0.035126224
63	0x3c84d250	0.016213566
64	0x3d056ecd	0.03257637
65	0xbd0c1b40	-0.034205675
66	0x3c9048ac	0.017612778
67	0xbcc1bf6c	-0.023650847
68	0x3cd56698	0.026049897
69	0x3d06b926	0.032891415
70	0x3a433f8b	0.00074481283
71	0xbd5e941c	-0.054340467
72	0x3d11ee2d	0.035627533
73	0xbd5c7c9f	-0.053829785
74	0x3d1f781d	0.03893291
75	0xbd316a6f	-0.043314394
76	0x3bbc6c3d	0.0057502077
77	0x3c6c7a8f	0.014433517
78	0xbce2a75c	-0.027667694
79	0xbd60b773	-0.05486245
80	0x3c3774a3	0.011197242
81	0xbd27c11e	-0.040955655
82	0x3d64d402	0.05586625
83	0xbd332d6c	-0.04374449
84	0xbcbcd4ab	-0.023050627
85	0xbbad1c01	-0.0052828793
86	0xbc850aac	-0.01624044
87	0xbd00e620	-0.031469464
88	0xbcbcd291	-0.023049625
89	0xbd5c7cc4	-0.053829923
90	0x3cb87c8b	0.022520324
91	0xbb1bd31e	-0.0023776959
92	0x3cef70a4	0.029228516
93	0xbb202932	-0.0024438617
94	0xbd6034ae	-0.05473774
95	0x3cbc869f	0.023013411
96	0x3c032c95	0.008006235
97	0x3d51c76f	0.051215585
98	0xbd64257f	-0.05569982
99	0x3d07b029	0.033126984
100	0xbcfd8e95	-0.030951777
101	0x3cdb6fb7	0.026786668
102	0xbce88108	-0.02838184
103	0x3d1c0558	0.038091034
104	0xbd1c72d1	-0.038195435
105	0xbbbdbccd	-0.005790329
106	0xbd5e6822	-0.054298528
107	0x3bd37d0e	0.0064541167
108	0xbd51c488	-0.051212817
109	0xbd3cb830	-0.046074092
110	0xbc323fdf	-0.010879486
111	0xbcfb203e	-0.030655023
112	0xbd2a3078	-0.04155013
113	0xbcbdce12	-0.023169551
114	0xbd18361d	-0.03716098
115	0x3d3534d6	0.04423984
116	0x3c33e343	0.010979476
117	0x3d669544	0.056294695
118	0x3cbb4eb7	0.022864683
119	0xbd52aff7	-0.051437344
120	0x3c363972	0.0111220945
121	0xbd4be183	-0.04977561
122	0x3d58691f	0.052834626
123	0x3bdca943	0.0067340448
124	0xbd2dfa6e	-0.042475156
125	0x3c8bbc7a	0.017057646
126	0xbd321228	-0.043474346
127	0x3cca8247	0.024720324
128	0xbc190bcc	-0.0093411915
129	0xbcfb052e	-0.030642118
130	0x3d44d23c	0.048052058
131	0xbd468af2	-0.048472352
132	0x3cc4df18	0.02403216
133	0x3d52ee09	0.05149654
134	0xbb39ccd0	-0.0028350838
135	0xbd35e25c	-0.044405326
136	0xbc96229f	-0.018327055
137	0x3d84a39e	0.0647652
138	0x3d57dca1	0.052700642
139	0x3d4e951e	0.050435178
140	0x3d42f3e0	0.04759586
141	0xbc94e1a4	-0.018174
142	0x3d10da4a	0.035364427
143	0x3d4e524b	0.05037145
144	0xbba3533d	-0.004984288
145	0xbd6b442c	-0.05743806
146	0x3cf043a6	0.029329132
147	0xbd18c7e4	-0.037300006
148	0x3cdd9460	0.02704829
149	0xbac98508	-0.0015374729
150	0x3c882284	0.01661802
151	0x3c910e86	0.01770712
152	0x3d28e40c	0.041233107
153	0x3d185e30	0.0371992
154	0xbd2aa447	-0.041660573
155	0x3c079e75	0.008277525
156	0x3d450755	0.048102695
157	0x3cae3927	0.021267487
158	0xbc3edce4	-0.011649344
159	0xbd1ba200	-0.037996292
160	0xbcb10fe6	-0.021614026
161	0xbcae00f0	-0.021240681
162	0xbd34d4e2	-0.044148333
163	0xbca0937a	-0.019601572
164	0xbc549652	-0.012975292
165	0xbd1130c2	-0.03544689
166	0xbc2c7aa1	-0.010527284
167	0xbd44e2b9	-0.048067782
168	0xbd5fc106	-0.05462744
169	0x3d381345	0.04494025
170	0xbcbf40ca	-0.023346324
171	0x3d1cc98f	0.03827816
172	0x3d36564f	0.044515904
173	0xbce0fc07	-0.027463926
174	0xbcfc83b8	-0.030824527
175	0x3d48a2cc	0.04898338
176	0xbc688829	-0.014192619
177	0x3bb2dceb	0.0054584644
178	0xbc888952	-0.016667042
179	0xbc679bcd	-0.014136267
180	0x3d24b127	0.04020801
181	0xb9ba1c8f	-0.00035497962
182	0x3cee03e7	0.029054595
183	0xbc8cb5d3	-0.017176544
184	0xbd623a3e	-0.055231325
185	0xbd4e9d01	-0.0504427
186	0x3c640ee7	0.013919569
187	0xbd07668b	-0.033056777
188	0xbccce917	-0.02501349
189	0xbcf1600e	-0.029464748
190	0xbb1988a4	-0.0023427391
191	0x3c848ebc	0.016181342
192	0x3c1e42e9	0.009659507
193	0xbd3543cf	-0.04425412
194	0x3d15f0d9	0.036606643
195	0x3ca6ed63	0.020376867
196	0x3c6d85b7	0.014497212
197	0x3b95097c	0.0045482498
198	0xbd6a645b	-0.057224613
199	0x3c17711e	0.009243278
200	0xbc9d046e	-0.019167151
201	0x3c39606f	0.0113144955
202	0xbcfeacd4	-0.03108827
203	0x3cb79b71	0.022412987
204	0xbcd2791e	-0.025692519
205	0x3cc0184d	0.023449088
206	0x3d31138e	0.04323154
207	0x3c6d231a	0.014473701
208	0x3cd64d66	0.026159953
209	0x3b640069	0.0034790284
210	0x3ca6ba0f	0.020352392
211	0x3cbde83a	0.023182023
212	0x3d44bdac	0.048032448
213	0xbd57d778	-0.05269572
214	0x3d026715	0.031836588
215	0xbc31e41d	-0.010857609
216	0xbc8f8c52	-0.017522965
217	0x3d6e5c16	0.05819329
218	0x3b36aff9	0.0027875884
219	0x3d647cec	0.055783197
220	0xbd25cbaf	-0.04047745
221	0x3c87cb00	0.01657629
222	0xbd34c2dc	-0.044131145
223	0x3d710f11	0.05885226
224	0xbcd702b7	-0.026246412
225	0x3bd5cf44	0.006524952
226	0x3d0186cf	0.031622704
227	0x3d43d799	0.04781303
228	0x3d5f0e5d	0.054457057
229	0x3d4b78d9	0.049675796
230	0x3ce8426f	0.02835199
231	0xbd1a6a7f	-0.03769922
232	0xbd0cfa50	-0.034418404
233	0xbca9b392	-0.020715509
234	0x3b8b714b	0.004255449
235	0xbd1a65e6	-0.037694834
236	0x3d5b82ae	0.053591423
237	0x3d0d468c	0.034491107
238	0x3a12e5d7	0.0005603707
239	0xbbd8cd35	-0.0066162595
240	0x3d4e7800	0.05040741
241	0xbc83a43d	-0.016069526
242	0xbd5c45a3	-0.05377735
243	0x3ca64f27	0.020301415
244	0xbca749c3	-0.020420915
245	0xbd6a046a	-0.057133116
246	0xbc94b9a8	-0.018154934
247	0xbcbbd294	-0.02292756
248	0xbc4ae74b	-0.012384246
249	0x3b8c2de7	0.004277933
250	0x3a9ee2c0	0.001212202
251	0x3c2a691d	0.0104010375
252	0xbca560d2	-0.02018777
253	0xbc3c1ab1	-0.011480973
254	0xbba39e9e	-0.004993274
255	0xbcbf96ee	-0.023387399

layer3.0.bias f4 [64]
0	0xbd6ef111	-0.058335368
1	0x3c4cb485	0.012494211
2	0xbd323bc6	-0.043514036
3	0x3d6db6e7	0.058035757
4	0xbc5e866e	-0.013581855
5	0x3d062ceb	0.03275768
6	0x3d593048	0.05302456
7	0x3d30a7eb	0.04312889
8	0xbd370b6f	-0.04468864
9	0xbb25cc1e	-0.0025298665
10	0xbd3bb0b2	-0.045822807
11	0x3d483736	0.04888078
12	0xbcf05ed5	-0.029342094
13	0x3d6ec33a	0.05829165
14	0x3c3a7aa7	0.011381782
15	0x3d23931a	0.03993521
16	0xbd3d00c8	-0.046143323
17	0x3d678aac	0.056528732
18	0x3d27260b	0.040807765
19	0x3ccad53c	0.024759881
20	0xbc1d12bd	-0.009586987
21	0x3d370f6b	0.044692438
22	0x3d3842f6	0.044985734
23	0xbd035ae7	-0.032069113
24	0x3bc86b04	0.006116273
25	0x3c45a8dd	0.012064186
26	0x3d21b833	0.039482307
27	0xbd5c041a	-0.05371485
28	0xbd714ba7	-0.05891004
29	0xbbec9446	-0.007219824
30	0x3c12d517	0.008961937
31	0xbbf230e0	-0.0073910803
32	0x3c457779	0.01205241
33	0xbb9e45e0	-0.004830107
34	0x3d06ec90	0.032940447
35	0x3d2de5eb	0.042455595
36	0x3bb1faa7	0.0054314914
37	0xbd611ea6	-0.05496087
38	0x3d41b0f4	0.047287896
39	0xbbae5a2f	-0.0053208093
40	0x3d59b637	0.05315229
41	0x3d20be99	0.039244268
42	0x3cd756bf	0.026286481
43	0x3b80840b	0.0039219907
44	0xbc9ca2c7	-0.019120587
45	0x3d49d287	0.04927304
46	0x3ceee7be	0.029163238
47	0xbcd048c0	-0.025425315
48	0xbcd56f10	-0.026053935
49	0xbd2016ec	-0.03908436
50	0x3b6e5a97	0.0036369914
51	0xbd165817	-0.036705103
52	0x3cac83b0	0.021058887
53	0x3d26a056	0.040680252
54	0xbd4a7a54	-0.049433067
55	0x3cda6d2f	0.02666339
56	0x3d6dda07	0.058069255
57	0x3cea4c90	0.028600961
58	0xbd6e932c	-0.058245823
59	0xbcd9507c	-0.026527636
60	0xb9821fa2	-0.000248191
61	0xbc324119	-0.010879778
62	0xbd2a009f	-0.0415045
63	0xbba16c4f	-0.0049262415

layer3.1.weight f4 [64]
0	0x3f80022b	1.0000662
1	0x3f80f7db	1.007564
2	0x3f8080b3	1.0039276
3	0x3f803bfa	1.0018303
4	0x3f7fd035	0.99927074
5	0x3f811333	1.0083984
6	0x3f806adb	1.003261
7	0x3f817b3a	1.0115731
8	0x3f80c1c2	1.005913
9	0x3f80cc32	1.0062315
10	0x3f81d7c7	1.0143975
11	0x3f8134e5	1.0094267
12	0x3f8030cf	1.0014895
13	0x3f805c2b	1.0028127
14	0x3f7fcb0e	0.9991921
15	0x3f80ae7b	1.0053247
16	0x3f811e7f	1.0087432
17	0x3f80c9d6	1.0061595
18	0x3f807b6a	1.0037663
19	0x3f808b51	1.0042516
20	0x3f80a40b	1.0050062
21	0x3f809679	1.0045921
22	0x3f7fd0d2	0.9992801
23	0x3f807d62	1.0038264
24	0x3f803998	1.0017576
25	0x3f80719f	1.0034674
26	0x3f8053b6	1.0025547
27	0x3f804883	1.0022129
28	0x3f807009	1.003419
29	0x3f80eebf	1.007286
30	0x3f80d633	1.0065368
31	0x3f81047b	1.0079492
32	0x3f7e295e	0.9928187
33	0x3f803aaf	1.0017909
34	0x3f80a862	1.0051386
35	0x3f801966	1.0007751
36	0x3f7ff8e6	0.99989164
37	0x3f813130	1.0093136
38	0x3f807686	1.003617
39	0x3f805db0	1.0028591
40	0x3f80ecc8	1.007226
41	0x3f802c1b	1.001346
42	0x3f80943b	1.0045236
43	0x3f81569b	1.0104555
44	0x3f80bd97	1.0057858
45	0x3f801b03	1.0008243
46	0x3f8144c3	1.009911
47	0x3f8062d4	1.003016
48	0x3f80ba3d	1.0056835
49	0x3f8097c3	1.0046314
50	0x3f807edd	1.0038716
51	0x3f800e18	1.0004301
52	0x3f80562f	1.0026301
53	0x3f810278	1.0078878
54	0x3f80d5fc	1.0065303
55	0x3f80c033	1.0058655
56	0x3f805b82	1.0027926
57	0x3f7fe847	0.999638
58	0x3f80a346	1.0049827
59	0x3f807c4c	1.0037932
60	0x3f7f6289	0.9975973
61	0x3f80c087	1.0058755
62	0x3f7fae65	0.9987548
63	0x3f7ffc2c	0.9999416

layer3.1.bias f4 [64]
0	0xbb6cb53a	-0.0036118762
1	0x3ac2135d	0.0014806796
2	0xbb16db73	-0.0023018986
3	0x3b81abd0	0.003957249
4	0xbaf911c4	-0.0019002487
5	0x3b8b6353	0.0042537837
6	0xbadd83bb	-0.0016900221
7	0x3b993e42	0.004676611
8	0x39ea43b7	0.0004468241
9	0x3b74f913	0.0037379905
10	0x3c0e5d00	0.008689165
11	0x3b482cd2	0.0030544293
12	0x3b2d25b8	0.0026420187
13	0x3af56997	0.0018723485
14	0x3a448869	0.00074971333
15	0x3bdad6c8	0.006678436
16	0x3be427e2	0.006962762
17	0x3b6dddf1	0.0036295617
18	0x3ab7db46	0.001402714
19	0x3b710cbb	0.003678127
20	0x3b191aa8	0.0023361836
21	0x3ab62260	0.0013895743
22	0xba5ce31f	-0.00084261777
23	0x39b6ae84	0.0003484377
24	0x3a8f80a1	0.0010948369
25	0x3ada855f	0.0016671828
26	0x3b098589	0.0020984134
27	0x3aeea3f6	0.0018206823
28	0x3adac287	0.0016690054
29	0x3b280d1d	0.0025642582
30	0x3aa5fed8	0.001266445
31	0x3b3e7067	0.0029058696
32	0xbbf3f35b	-0.0074447817
33	0xb9a206c4	-0.0003090409
34	0x3886a218	6.41981e-05
35	0x3b2cb090	0.0026350357
36	0xbb99c0fe	-0.004692196
37	0x3bbb57ac	0.0057172384
38	0xba4ac260	-0.00077346526
39	0x3a418ad1	0.0007383051
40	0x3c0f46d1	0.008744911
41	0x3b8e9636	0.0043514026
42	0xbae631b4	-0.001756242
43	0x3b4f6ac4	0.003164933
44	0xba6a4805	-0.00089371233
45	0x3ba8bbc7	0.005149338
46	0x3be6275c	0.007023735
47	0xb9871ae7	-0.0002576925
48	0x3b08b62d	0.0020860538
49	0x3b4877fc	0.0030589094
50	0x3b97115f	0.004610225
51	0xbb644d37	-0.0034836063
52	0x3ba6b5ce	0.005087591
53	0x3bd08edc	0.0063646864
54	0x3bfe31c1	0.007757396
55	0x3a481091	0.0007631863
56	0x3b5aead6	0.0033404133
57	0xb9f67efa	-0.0004701538
58	0x39df57c3	0.00042599262
59	0xbadf065b	-0.0017015444
60	0xba0a00de	-0.00052644114
61	0xba54c3fa	-0.0008116361
62	0xbb2a51f3	-0.0025988787
63	0x3b0e2957	0.002169212

layer3.1.running_mean f4 [64]
0	0xbeadc156	-0.33936566
1	0xbddb096a	-0.10695155
2	0xbeb95732	-0.36199337
3	0xbe08b653	-0.13350801
4	0x3f156972	0.5836402
5	0x3e97e45d	0.29666415
6	0x3dbb0d9b	0.091334544
7	0x3ebefe38	0.3730333
8	0x3e057fa8	0.13036978
9	0x3f0d5d02	0.55220044
10	0xbb5e0221	-0.003387578
11	0x3e8587fa	0.26080304
12	0xbf1f91ad	-0.6233166
13	0xbeca12fc	-0.3946761
14	0x3f2c0e9e	0.67209804
15	0x3e86cd2d	0.26328412
16	0xbe94fdf4	-0.291
17	0xbf0c892d	-0.54896814
18	0xbd93a9b7	-0.07210105
19	0xbf476c7c	-0.7789991
20	0xbf18bca0	-0.5966282
21	0x3b828174	0.003982717
22	0xbe67c726	-0.22634563
23	0xbd8aa062	-0.06768872
24	0x3e15d8a4	0.14633423
25	0xbe3e464d	-0.18581505
26	0xbe351e33	-0.17687301
27	0x3f267576	0.6502298
28	0xbe3f089d	-0.1865563
29	0x3e2b3e89	0.16723074
30	0x3e056a65	0.13028868
31	0xbf3fac6e	-0.7487248
32	0xbed8365d	-0.42228976
33	0xbf66fdd1	-0.90231043
34	0xbe515a39	-0.20444573
35	0xbed1b3cb	-0.40957484
36	0x3e8d9df2	0.27659565
37	0xbd645352	-0.055743523
38	0xbe3395dc	-0.17537636
39	0x3e75d889	0.24008383
40	0x3ebe0231	0.37111047
41	0xbd724e45	-0.059156675
42	0x3e0b8ab1	0.13627125
43	0xbe89e7c2	-0.2693463
44	0xbee0d5cf	-0.43913123
45	0x3e828a80	0.25496292
46	0x3e88aaec	0.26692903
47	0xbee8bdf6	-0.4545743
48	0x3f311f80	0.6918869
49	0x3df875c4	0.12131837
50	0xbe581262	-0.21100762
51	0x3f04f191	0.519311
52	0xbe068dd5	-0.13140042
53	0xbe496913	-0.19668989
54	0xbf44d30b	-0.76884526
55	0x3e11e9f2	0.142494
56	0xbee94624	-0.45561326
57	0x3ec73803	0.3890992
58	0x3e6897c6	0.22714147
59	0x3e3e267a	0.18569365
60	0x3ebb78e9	0.36615685
61	0xbcbdb098	-0.023155496
62	0x3f21ea5c	0.6324823
63	0x3e7a6948	0.24454224

layer3.1.running_var f4 [64]
0	0x3e2bbee1	0.16772033
1	0x3dd7880f	0.10523998
2	0x3e6ccd53	0.231252
3	0x3ebbf1f3	0.3670803
4	0x3e36adb5	0.17839701
5	0x3df10377	0.11768239
6	0x3e21725f	0.15766285
7	0x3e15aabe	0.14615914
8	0x3e7b2870	0.24527144
9	0x3de83bbb	0.11339518
10	0x3dafa6b0	0.08576715
11	0x3dd1b1f1	0.10239018
12	0x3e6dc91e	0.23221251
13	0x3dfa1c3f	0.12212419
14	0x3de57c8a	0.112053946
15	0x3e6d8125	0.23193796
16	0x3e4d93c1	0.20075895
17	0x3e6bd06f	0.2302873
18	0x3dfb80e9	0.12280447
19	0x3e6710c8	0.22564995
20	0x3e1c1198	0.15241086
21	0x3e119f58	0.14220941
22	0x3e1c8809	0.15286268
23	0x3e27ea7c	0.16398042
24	0x3e439619	0.19100226
25	0x3ddb18b2	0.1069807
26	0x3e2288c4	0.15872484
27	0x3e52ea31	0.2059715
28	0x3e357327	0.17719708
29	0x3e24495e	0.16043612
30	0x3dfffcea	0.124994114
31	0x3e686f05	0.226986
32	0x3f000c89	0.5001913
33	0x3ebcc954	0.3687235
34	0x3e39d5fe	0.18148038
35	0x3ddd3ec2	0.10802986
36	0x3e0061ea	0.12537351
37	0x3e120ef4	0.14263517
38	0x3e84e892	0.25958687
39	0x3ea1fc7c	0.31637943
40	0x3e2e792e	0.17038414
41	0x3e4003e4	0.18751484
42	0x3e0dd0a0	0.13849115
43	0x3e39e1f7	0.18152605
44	0x3e3378e0	0.17526579
45	0x3e34c2bc	0.1765241
46	0x3e452078	0.19250667
47	0x3de8cc62	0.11367108
48	0x3e2568cf	0.16153263
49	0x3deaf9b1	0.11473406
50	0x3df86c7b	0.12130066
51	0x3e555b86	0.20835695
52	0x3e87265c	0.26396453
53	0x3dde19c4	0.10844758
54	0x3e4002dc	0.18751091
55	0x3e0b9e44	0.13634592
56	0x3e41db46	0.18931302
57	0x3e41294f	0.18863414
58	0x3e5ad7ab	0.21371333
59	0x3e1ca99b	0.15299074
60	0x3e7ccd8e	0.24687788
61	0x3db3e936	0.08784716
62	0x3e2d1db5	0.16905864
63	0x3e888834	0.26666415

fc1.weight f4 [10, 576]
0	0x3d23cd6c	0.039990827
1	0x3c4d6c2b	0.012537996
2	0x3c70ceaf	0.014697715
3	0xbcc77cbe	-0.024351474
4	0xbcf14868	-0.029453471
5	0x3cc41214	0.023934402
6	0xbb9a00bf	-0.004699796
7	0xbca6f411	-0.020380052
8	0x3bc60f33	0.0060442924
9	0xbcf5afba	-0.02999102
10	0x3d1645ba	0.03668759
11	0x3c8a721f	0.01690012
12	0xbb937566	-0.004500079
13	0xbbaec873	-0.005333954
14	0x3d2c16c1	0.042013887
15	0xbc98f20b	-0.018670103
16	0x3cf7108a	0.030159254
17	0x3d0d1ae2	0.034449466
18	0xbb91f7f2	-0.004454606
19	0x3c8b019a	0.016968537
20	0xbc7f4932	-0.015581416
21	0xbc5a4b00	-0.013323545
22	0x3c741b20	0.014899045
23	0x3cc9b6d1	0.024623306
24	0xbc021a1f	-0.007940798
25	0x3b8a2865	0.004216241
26	0x3ce063aa	0.027391274
27	0x3a8cf91b	0.0010755392
28	0x3cc0cd65	0.02353544
29	0xbd12d6f0	-0.03584951
30	0x3ce3da8a	0.027814168
31	0xbc89645a	-0.016771484
32	0xbc928e02	-0.01788998
33	0xbc9e3e07	-0.019316686
34	0x3c32119b	0.010868455
35	0x3d06c17b	0.03289936
36	0xbd07559f	-0.03304064
37	0x3ceca491	0.028887065
38	0xbbc6b227	-0.006063718
39	0xbd1c2491	-0.03812081
40	0xbd091a15	-0.03347214
41	0xbc60c231	-0.013718174
42	0x3d16dd11	0.03683192
43	0x3d15915a	0.03651557
44	0xbc81c4b5	-0.015840868
45	0xbc9207b5	-0.01782594
46	0x3d007035	0.03135701
47	0xbcd527ba	-0.02601992
48	0x3c9e19a3	0.019299334
49	0x3cad056b	0.021120748
50	0xbb829595	-0.0039851167
51	0x3cb499c6	0.022045981
52	0x3cc74051	0.02432266
53	0xbc5db4bb	-0.013531859
54	0xbc403b88	-0.011732943
55	0x3c0c45bb	0.008561547
56	0x3d3e4f25	0.046462197
57	0xbccc7eea	-0.024962861
58	0x3d1e7542	0.038686045
59	0x3c8fa7d8	0.017536089
60	0xbcfaeb47	-0.030629767
61	0xbbf7cea0	-0.0075624734
62	0x3cfcdc2c	0.030866705
63	0xbcd0f722	-0.025508467
64	0x3c37d132	0.01121931
65	0x3ca11c70	0.01966688
66	0xbd2525a8	-0.040319115
67	0x3c99ce5b	0.018775156
68	0x3b854955	0.0040675797
69	0xbd062ad3	-0.032755684
70	0xbce0b219	-0.027428674
71	0xbd3bfad9	-0.045893524
72	0xbb20b4e7	-0.0024521889
73	0x3bfcb0aa	0.0077114897
74	0x3d0458c6	0.032311223
75	0xbd0b604d	-0.034027386
76	0x3d4ab68e	0.049490504
77	0x39aada78	0.000325877
78	0x3a56314b	0.00081707974
79	0xbd022eb9	-0.03178284
80	0x3c73fc16	0.014891645
81	0xbb60428a	-0.0034219348
82	0xbc039296	-0.008030554
83	0x3d2a8778	0.0416331
84	0x3c52ebb6	0.012873581
85	0x3cde3cf2	0.02712867
86	0x3cdd8c44	0.027044423
87	0xbcdd9d8d	-0.027052665
88	0x3ce74374	0.028230406
89	0x3d0de3bd	0.034641016
90	0x3cd88a1e	0.026433047
91	0x3d5073db	0.05089174
92	0x3d268c0f	0.040660914
93	0xbcfbe3ad	-0.030748213
94	0x3c8e36ee	0.017360177
95	0xbd018651	-0.031622235
96	0xbd1fd95f	-0.03902566
97	0xbc78a803	-0.015176776
98	0x3c1325b0	0.008981153
99	0x39ccfc84	0.0003909805
100	0x3d4a476f	0.04938453
101	0x3d31880b	0.04334263
102	0x36f64dd4	7.3404317e-06
103	0xbbf43a5f	-0.0074532474
104	0xbd12c6cb	-0.035834115
105	0x3c0526f0	0.008126959
106	0x3b7c97fd	0.003854274
107	0xbbf96510	-0.0076109245
108	0xbd14c3fc	-0.036319718
109	0x3cddc7a3	0.027072733
110	0x3c8f8f2b	0.017524322
111	0xbcb9174a	-0.022594113
112	0x3d2814bc	0.0410354
113	0xb714be23	-8.865757e-06
114	0xbc74335d	-0.014904824
115	0x3aa71648	0.0012747729
116	0x3b8fcc10	0.00438834
117	0x3d337261	0.043810252
118	0xbc07b078	-0.0082818195
119	0x3cbf1da2	0.02332956
120	0xbc97c671	-0.018527241
121	0xbc4c7fd2	-0.012481647
122	0x3d2f1237	0.04274198
123	0xbc8b303f	-0.016990779
124	0x3ceab70b	0.028651735
125	0xbd17078d	-0.036872435
126	0xbcdb6f40	-0.026786447
127	0xbd17bda2	-0.037046082
128	0x3cdab9ad	0.026699865
129	0x3c92c860	0.017917812
130	0xbb00863e	-0.0019611265
131	0xbb84da43	-0.004054339
132	0x3d179219	0.037004564
133	0xbcf5a05b	-0.02998369
134	0xbd03da75	-0.03219076
135	0x3d0794d7	0.03310093
136	0x3d04b96c	0.032403395
137	0x3ccd5439	0.025064575
138	0xbd051d3b	-0.03249858
139	0xbd101e94	-0.03518541
140	0xbb2497df	-0.0025114936
141	0x3d1b154e	0.037862115
142	0xbc743c24	-0.014906917
143	0x3d1e6a13	0.03867538
144	0x3cf1826f	0.02948114
145	0x3c86691a	0.016407538
146	0x3d0ee64f	0.03488761
147	0x3bbf745e	0.0058427295
148	0x3d2e029a	0.04248295
149	0x3cea8599	0.028628157
150	0x3b782753	0.0037865236
151	0xbcd1d6b1	-0.025615068
152	0xbc7ce713	-0.015435952
153	0x3b36a20a	0.002786758
154	0xbcbfaca2	-0.023397747
155	0xbcb0c9dc	-0.021580629
156	0x3d077308	0.033068687
157	0xbb4fd1be	-0.003171071
158	0xbb5b410a	-0.0033455514
159	0x3b4bb4a7	0.003108302
160	0x3d142e95	0.036177237
161	0x3d19e4b6	0.03757163
162	0xbbca1223	-0.006166713
163	0xbc128e91	-0.008945123
164	0xbc880c19	-0.016607331
165	0xbc0b2f5b	-0.008495177
166	0xbcc40e86	-0.023932707
167	0xbbacbb48	-0.005271349
168	0x3c012eca	0.007884691
169	0xbca21ab0	-0.019788116
170	0xbc8464a9	-0.01616128
171	0x3c4a8ce0	0.012362689
172	0x3cbba0e5	0.022903869
173	0xbd12d044	-0.03584315
174	0xbd32ef88	-0.043685466
175	0xbcc75e7a	-0.024337042
176	0x3d09161c	0.03346835
177	0x3cec2758	0.028827354
178	0xbbbc7752	-0.005751529
179	0xbc6a4418	-0.014298461
180	0x3d2ebbef	0.042659696
181	0x3d39e4f6	0.04538437
182	0x3c83ae20	0.01607424
183	0x3cd39111	0.025826009
184	0x3d2b1b5a	0.04177413
185	0x3cd2cda7	0.025732828
186	0x3c106006	0.008811956
187	0xbba874c6	-0.0051408736
188	0x3d09abd3	0.03361113
189	0x3c556bc5	0.013026183
190	0x3cc2e677	0.023791535
191	0xbb83b164	-0.0040189493
192	0xbc18aefa	-0.009319061
193	0x3c20ef41	0.009822668
194	0x3cf66d4d	0.030081416
195	0x3c36ea98	0.01116433
196	0xbceafec3	-0.028685933
197	0xba498cfa	-0.00076885486
198	0x3d2ea202	0.04263497
199	0xbcde698e	-0.027149942
200	0x3d2b99b5	0.041894633
201	0x3c91432c	0.017732225
202	0x3ce3c3f9	0.027803408
203	0x3c7f55c5	0.015584414
204	0x3aab78dd	0.0013082285
205	0x3c6245b4	0.013810564
206	0xbc99788c	-0.018734239
207	0xbc560982	-0.01306379
208	0xbd3185ac	-0.04334037
209	0xbc754481	-0.014969946
210	0xbc97bbb6	-0.018522125
211	0xbd00b63f	-0.031423803
212	0x3bc6fa17	0.0060722935
213	0x3bfe16fc	0.007754205
214	0x3c60e547	0.013726539
215	0x3a976ba2	0.0011552463
216	0xbcf211f6	-0.02954958
217	0x3c414309	0.011795768
218	0xbc45196b	-0.012029986
219	0x3d321ba0	0.043483377
220	0x3c1700e3	0.00921652
221	0xbb99f36c	-0.0046982076
222	0xbc0c7be8	-0.008574463
223	0x3ce8467b	0.02835392
224	0xbc79601d	-0.015220669
225	0x3d467094	0.048447207
226	0x3d2b95da	0.041890956
227	0x3c5fb1a4	0.013653193
228	0x3cab3de4	0.020903535
229	0x3cecac45	0.028890738
230	0xbc71c7d8	-0.014757119
231	0x3d1fdf6f	0.039031442
232	0x3d31b50c	0.04338555
233	0xbd0897f3	-0.033348035
234	0x3cef877b	0.029239407
235	0x3c465946	0.012106245
236	0xbce385ab	-0.027773699
237	0x3c2e4aaa	0.0106379185
238	0x3cce844c	0.025209568
239	0x3c1b8bd6	0.009493789
240	0x3c391049	0.011295387
241	0xbcafe569	-0.021471696
242	0x3d0074c9	0.031361375
243	0xbc599950	-0.013281181
244	0x3d0d07f0	0.034431398
245	0xbcb58be4	-0.022161432
246	0xbc459055	-0.012058337
247	0xbcd7777e	-0.026302096
248	0x3c2719b7	0.010199002
249	0xbc6e1c0e	-0.014533056
250	0x3cebd375	0.028787354
251	0x3c47be46	0.012191361
252	0xbd009a1f	-0.03139698
253	0xbb89e3b5	-0.004208053
254	0x3b85451b	0.004067076
255	0xbc81c4c6	-0.0158409

fc1.bias f4 [10]
0	0xbce14622	-0.027499262
1	0xbd0d5e06	-0.034513496
2	0x3aa07e1e	0.0012244617
3	0x3c4298c4	0.0118772425
4	0xbc5c8815	-0.013460179
5	0x3d28494e	0.041085534
6	0xbcbc7a7e	-0.023007628
7	0xbc2a3adb	-0.010390009
8	0x3d222dad	0.03959434
9	0xbd0387c4	-0.032111898

fc2.weight f4 [2, 10]
0	0xbcf0bb61	-0.029386224
1	0x3e9472ab	0.28993735
2	0x3ea49631	0.32145837
3	0xbd8fc549	-0.07020051
4	0x3e9cb0a7	0.30603525
5	0x3cbf02a9	0.023316698
6	0xbe250fea	-0.16119352
7	0x3e8e04c8	0.27738023
8	0xbc4d9f3b	-0.0125501705
9	0xbe891681	-0.26774982
10	0x3e603501	0.2189522
11	0x3df039ab	0.11729749
12	0x3da2516d	0.07925687
13	0xbb2dc609	-0.0026515743
14	0x3e55b10d	0.20868321
15	0xbddec725	-0.108778276
16	0xbe066167	-0.13123094
17	0x3de0da1d	0.10979102
18	0x3e106e47	0.14104567
19	0xbe342f63	-0.17596202

fc2.bias f4 [2]
0	0xbd1a4841	-0.037666563
1	0xbe4e496b	-0.20145194

exp_avg f4 [16, 3, 3, 3]
0	0xbb9626d8	-0.0045822673
1	0xbb93aa54	-0.0045063887
2	0xbba180b9	-0.004928675
3	0xbbaa09c9	-0.0051891548
4	0xbbb16713	-0.0054138987
5	0xbbb5b8a6	-0.0055456934
6	0xbb932db9	-0.0044915345
7	0xbbac9eca	-0.0052679526
8	0xbbbbb92a	-0.0057288604
9	0xb86a72e4	-5.5896948e-05
10	0x39d908b4	0.0004139595
11	0x38e7f12a	0.00011059859
12	0xba32c005	-0.0006818774
13	0xb9fb9c48	-0.0004799089
14	0xba05848a	-0.0005093297
15	0x38840a29	6.296143e-05
16	0xb9ae6995	-0.0003326653
17	0xba28a65b	-0.00064334803
18	0xb952544c	-0.00020058564
19	0x3a103e12	0.0005502413
20	0x39e47834	0.00043577107
21	0xba3980c9	-0.00070763804
22	0xb9c8a23f	-0.00038267855
23	0xb9a378d6	-0.00031179813
24	0x38dbb80b	0.000104770144
25	0xb988ca47	-0.0002609065
26	0xba0e5f42	-0.00054310646
27	0x38569837	5.1163337e-05
28	0xb9902e25	-0.000275002
29	0xb9b06f17	-0.00033652104
30	0xba602145	-0.00085498794
31	0xba89866d	-0.0010492333
32	0xba5e0244	-0.00084689655
33	0xb805d02d	-3.190355e-05
34	0xb9b67e92	-0.00034808047
35	0xb9aa8779	-0.00032525862
36	0xba844e94	-0.0010094219
37	0xba9257bf	-0.0011165066
38	0xba30acc2	-0.000673961
39	0xbb006ef7	-0.001959739
40	0xbafae66f	-0.0019142161
41	0xbaa35ebd	-0.0012464147
42	0xba8fb1d7	-0.0010963035
43	0xba9aed53	-0.0011819996
44	0xba35d164	-0.00069358037
45	0x3aa06f87	0.0012240269
46	0x3a9d42a6	0.0011998012
47	0x3ac6a746	0.0015156053
48	0x39687bad	0.00022171317
49	0x39cce658	0.00039081532
50	0x3a85adcf	0.0010198894
51	0x3a721252	0.00092342973
52	0x3a82cca0	0.0009979196
53	0x3ac72937	0.0015194778
54	0xbc00b18b	-0.00785483
55	0xbc22a124	-0.009926114
56	0xbc41c11a	-0.011825824
57	0xbbba3226	-0.0056822477
58	0xbc05dde4	-0.008170579
59	0xbc29df15	-0.010368128
60	0xbb900be5	-0.004395949
61	0xbbd2c60f	-0.006432302
62	0xbc09b1cd	-0.008404207
63	0xbbb20e7b	-0.005433855
64	0xbbed6177	-0.0072442847
65	0xbc136fdc	-0.008998837
66	0xbb5a6c73	-0.00333288
67	0xbbb3394e	-0.0054694777
68	0xbbefe2df	-0.0073207463
69	0xbb04f1b9	-0.002028568
70	0xbb74f34d	-0.0037376464
71	0xbbaeb567	-0.0053316834
72	0x38c881b4	9.560902e-05
73	0xbafff5ac	-0.0019528172
74	0xbb8236b4	-0.0039738063
75	0x3afc50a0	0.0019250102
76	0xb9d6109c	-0.00040829636
77	0xbb25e5af	-0.0025313904
78	0x3b455e47	0.0030116008
79	0x3a9154b7	0.0011087869
80	0xba4c368d	-0.0007790111
81	0x3c5fad22	0.013652118
82	0x3c2c801b	0.01052859
83	0x3bde25ab	0.0067793927
84	0x3c0fe429	0.008782425
85	0x3bcc7b62	0.0062402943
86	0x3b426837	0.0029664168
87	0x3b778412	0.003776793
88	0x3aef6640	0.0018264726
89	0xb98e9ef0	-0.00027202768
90	0x3cad482c	0.021152578
91	0x3c9681da	0.018372465
92	0x3c74a684	0.014932279
93	0x3c7de7fd	0.015497205
94	0x3c5b1852	0.013372498
95	0x3c2aa609	0.010415562
96	0x3c23e089	0.010002264
97	0x3c08efcb	0.008357952
98	0x3bd127f7	0.006382938
99	0x3c8e1c7d	0.017347569
100	0x3c5ce541	0.013482393
101	0x3c12e5e4	0.008965943
102	0x3c5211c4	0.0128216185
103	0x3c183ac0	0.009291351
104	0x3ba3db90	0.005000539
105	0x3c0c3baa	0.008559147
106	0x3bb338e6	0.0054694293
107	0x3b04f5e4	0.0020288164
108	0xba773db4	-0.0009431497
109	0xba4768fc	-0.00076068914
110	0xb9be6c22	-0.0003632019
111	0xba9b95f4	-0.0011870251
112	0xba38ffc0	-0.00070571527
113	0xb953119d	-0.0002012909
114	0xbad31093	-0.0016102962
115	0xba9e0179	-0.0012054882
116	0xba5d8e05	-0.00084516435
117	0xbaf2d83d	-0.0018527579
118	0xbafda1d9	-0.0019350603
119	0xbae848a3	-0.0017721843
120	0xbb0569e8	-0.0020357314
121	0xbaf83148	-0.0018935585
122	0xbae5d51d	-0.0017534826
123	0xbb22bcb8	-0.0024831723
124	0xbb2809cd	-0.0025640607
125	0xbb251197	-0.0025187486
126	0xb99df2e8	-0.00030126353
127	0xba50cb1e	-0.0007964837
128	0xba91978d	-0.0011107788
129	0xba227f13	-0.0006198745
130	0xba675557	-0.00088246673
131	0xba938c8c	-0.0011257096
132	0xba8eb236	-0.0010886851
133	0xbaca3a36	-0.0015428725
134	0xbaeea53b	-0.0018207202
135	0x3b57c757	0.0032925212
136	0x3b647942	0.0034862314
137	0x3b79e62f	0.0038131585
138	0x3b162cfd	0.0022914999
139	0x3b11596b	0.0022178541
140	0x3b2ef0d2	0.0026693833
141	0x3942f138	0.00018591143
142	0xb92f2016	-0.00016701253
143	0x3ab18304	0.0013543074
144	0xbaffa50f	-0.0019504147
145	0xbacbbd4d	-0.0015544087
146	0xba805353	-0.0009790458
147	0xbb4c693c	-0.0031190654
148	0xbb418c1c	-0.0029532975
149	0xbb118b99	-0.002220845
150	0xbbae162b	-0.005312701
151	0xbbb0e8c8	-0.0053988434
152	0xbb71e2d6	-0.0036908886
153	0xbb03f635	-0.0020135764
154	0xbae8ada8	-0.0017751949
155	0xbab3bc93	-0.0013712816
156	0xbb4a5549	-0.0030873588
157	0xbb44bd08	-0.0030019898
158	0xbb21a1e8	-0.0024663154
159	0xbba9dfee	-0.005184165
160	0xbbae2f5e	-0.005315705
161	0xbb78ac95	-0.0037944664
162	0x3985c626	0.0002551537
163	0x37e2dfc7	2.7045504e-05
164	0xb8ca4802	-9.645523e-05
165	0x397efd86	0.00024317772
166	0xb97bfaf9	-0.0002403072
167	0xba446422	-0.00074917276
168	0xb9a5a0b6	-0.0003159099
169	0xba8dac69	-0.0010808829
170	0xbafa35a0	-0.0019089468
171	0xb7ac9f30	-2.0578125e-05
172	0xb886c050	-6.425439e-05
173	0xb8761327	-5.8668807e-05
174	0xb94da05d	-0.00019610063
175	0xba10c7d3	-0.000552294
176	0xba6f8f2c	-0.0009138461
177	0xba5261f6	-0.00080254616
178	0xbac78af7	-0.001522391
179	0xbb13b0d8	-0.0022535827
180	0xba60c797	-0.0008574663
181	0xba8253bd	-0.0009943169
182	0xba861ee5	-0.0010232596
183	0xba361ace	-0.0006946743
184	0xba9c42bf	-0.0011921747
185	0xbad64363	-0.0016346987
186	0xba8dc370	-0.0010815691
187	0xbaf2157a	-0.0018469535
188	0xbb317ca1	-0.0027082341
189	0x3b12127e	0.0022288854
190	0x3ace2385	0.0015727138
191	0x3ae7de00	0.0017690063
192	0x3b9c47a1	0.004769281
193	0x3b883295	0.0041564205
194	0x3b723e4b	0.00369634
195	0x3bd75a54	0.0065720472
196	0x3ba8e9f9	0.005154845
197	0x3b8368b1	0.004010283
198	0xbbae9f74	-0.005329067
199	0xbbc2315f	-0.0059262956
200	0xbbbe8d04	-0.00581515
201	0xbb454488	-0.0030100662
202	0xbb6cfd0e	-0.0036161575
203	0xbb84dccb	-0.004054641
204	0xbaa8c63c	-0.0012876461
205	0xbb2ff831	-0.0026850814
206	0xbb773f56	-0.003772696
207	0xbb66bf2b	-0.003520916
208	0xbb98b7fc	-0.0046606045
209	0xbb9c08b4	-0.0047617797
210	0xbaac5912	-0.0013149104
211	0xbb216813	-0.0024628683
212	0xbb49d7ef	-0.0030798872
213	0x3986c4ff	0.00025705245
214	0xbad61001	-0.0016331674
215	0xbb3bad44	-0.002863721
216	0xbb816e38	-0.0039499067
217	0xbb42787d	-0.0029673867
218	0xbb02b7da	-0.001994601
219	0xbadf67dd	-0.0017044503
220	0xbacd20f9	-0.0015650085
221	0xba76e773	-0.0009418644
222	0xbb8227c2	-0.0039720247
223	0xbb5a926d	-0.0033351437
224	0xbab64872	-0.0013907088
225	0x3b024d76	0.0019882596
226	0x3b20a7e3	0.002451413
227	0x3b41947c	0.0029537966
228	0x3b8d4142	0.004310758
229	0x3b8246b1	0.003975712
230	0x3b7e83d8	0.003883591
231	0x3b07a83a	0.0020699636
232	0x3b0d1571	0.0021527673
233	0x3b585ca0	0.0033014193
234	0x3b4978e3	0.003074222
235	0x3b49b3ba	0.0030777291
236	0x3b390381	0.0028230848
237	0x3bba3ff4	0.0056838933
238	0x3b9e1801	0.004824639
239	0x3b86a11d	0.0041085617
240	0x3b7a2289	0.0038167557
241	0x3b610b77	0.003433911
242	0x3b801988	0.0039092936
243	0xbb44bc34	-0.0030019404
244	0xbac43c43	-0.0014971573
245	0x3a83970b	0.0010039521
246	0xbb12783a	-0.0022349493
247	0xbb14cb38	-0.0022704136
248	0xb9d7dccb	-0.000411725
249	0xbab8becc	-0.0014094948
250	0xbb41b344	-0.0029556314
251	0xbb0bd747	-0.0021338032
252	0xbc181aa1	-0.009283693
253	0xbc02e1e1	-0.007988424
254	0xbbb6c9d6	-0.00557826
255	0xbc09d749	-0.008413144
