Lab5/model_10_0.001.pth (torch, 378966 bytes, 54 tensors)

layer1.0.weight f4 [16, 3, 3, 3]
0	0xbb98f0ce	-0.004667378
1	0x3e1922b8	0.1495465
2	0xbd15a96a	-0.03653852
3	0xbcc4d191	-0.02402571
4	0x3d073bbc	0.03301595
5	0xbd7997d9	-0.06093583
6	0x3d0d053e	0.034428827
7	0x3dfa7ff8	0.12231439
8	0xbe21d681	-0.15804483
9	0xbe419fd6	-0.18908629
10	0xbddb873c	-0.10719153
11	0xbe485a16	-0.19565615
12	0xbd7c92ba	-0.061663367
13	0x3d8c788d	0.06858931
14	0xbd441f33	-0.047881316
15	0x3daadd34	0.083429724
16	0xbd50030f	-0.050784167
17	0x3cbfd0e4	0.023415036
18	0x3d9d8de2	0.076930776
19	0x3d95c532	0.07313003
20	0xbcf94f6e	-0.030433383
21	0xbdb8b9aa	-0.090197876
22	0x3e066c5a	0.1312727
23	0x3e19dc3d	0.1502542
24	0x3e4c47b6	0.1994923
25	0xbda91806	-0.08256535
26	0xbe32112e	-0.17389366
27	0x3dd07cef	0.10180079
28	0xbdbaedf5	-0.09127418
29	0x3b0845a9	0.0020793474
30	0xbe3402ac	-0.17579144
31	0x3e4ed35f	0.20197819
32	0xbd928509	-0.07154281
33	0x3e17eb94	0.1483596
34	0x3cdef0bd	0.027214402
35	0x3d104e69	0.035231028
36	0xbe8c59cf	-0.2741227
37	0xbe299f13	-0.16564588
38	0x3dff0ddd	0.12453816
39	0xbc60a86c	-0.01371203
40	0xbdd3426e	-0.10315405
41	0xbe46b1d9	-0.19403781
42	0x3b769259	0.003762385
43	0xbe489d10	-0.19591165
44	0xbe5065ad	-0.20351286
45	0x3e1be0d8	0.1522249
46	0xbd281763	-0.04103793
47	0x3e24942d	0.1607215
48	0xbd024a86	-0.031809352
49	0x3db2694a	0.087114885
50	0x3d84c0c5	0.0648208
51	0x3dcd4591	0.10023034
52	0xb9c0db7f	-0.0003678463
53	0xbdf88786	-0.12135224
54	0x3e483888	0.19552815
55	0x3c4876e9	0.012235382
56	0x3d9f4b81	0.07778073
57	0x3e323a03	0.17404942
58	0x3e3462ff	0.17615889
59	0xbbfd0432	-0.0077214474
60	0x3e726dce	0.236747
61	0xbdf19be7	-0.11797314
62	0xbbb32ad1	-0.0054677506
63	0xbd50df00	-0.05099392
64	0xbe380814	-0.17971832
65	0x3d9fa1db	0.07794543
66	0xbc0fe2e9	-0.008782127
67	0xbd5b1169	-0.0534834
68	0x3da03c2f	0.07823979
69	0x3d6975fa	0.056997277
70	0x3cda3ddf	0.02664083
71	0xbe372af5	-0.1788748
72	0x3e0aa737	0.1354035
73	0x3e2f8b9f	0.17143105
74	0x3e1bb5de	0.15206096
75	0xbdafd71c	-0.08585951
76	0x3e0ddad4	0.13853008
77	0x3e05030b	0.12989442
78	0x3cb08884	0.02154947
79	0x3e2f4ffc	0.17120355
80	0x3ce24663	0.027621454
81	0xbe1cca26	-0.15311489
82	0x3ddfd247	0.10928779
83	0xbd12d818	-0.035850614
84	0xbe20eb4c	-0.15714759
85	0x3de6c7e7	0.11268597
86	0x3e2e7384	0.17036253
87	0x3dca3d94	0.09875026
88	0xbe2fe3a6	-0.17176685
89	0xbd5f4682	-0.0545106
90	0x3da83382	0.08212949
91	0xbdc23464	-0.09482649
92	0xbdf2f092	-0.118622914
93	0x3d2191a8	0.03944555
94	0xbce6c8f3	-0.028171992
95	0xbe53d71e	-0.2068753
96	0xbda2df2f	-0.07952725
97	0xbdc9b7c8	-0.098495066
98	0xbe586686	-0.2113286
99	0xbc00a5a7	-0.007851995
100	0xbc4fbb0e	-0.012678875
101	0xbd9f2a12	-0.07771696
102	0x3dba9250	0.09109938
103	0xbd492a73	-0.04911275
104	0x3d157c36	0.03649541
105	0xbd0be812	-0.034156866
106	0xbda7e1fa	-0.081973985
107	0x3de27469	0.1105736
108	0xbc10c93e	-0.008837042
109	0xbd14fb0d	-0.036372233
110	0xbe2f0989	-0.17093481
111	0x3cc4005f	0.023925958
112	0x3d8e6faf	0.06954896
113	0x3d6fff1a	0.058592893
114	0xbe22d622	-0.15901998
115	0xbd8fea7e	-0.07027148
116	0xbe5542fe	-0.20826337
117	0xbe66d9dd	-0.22544046
118	0x3c7d1a23	0.015448126
119	0xbdb6e501	-0.08930398
120	0xbe09355f	-0.13399266
121	0x3e1318bc	0.14364904
122	0x3deaef6e	0.11471449
123	0xbe43b841	-0.19113256
124	0xbc014ad1	-0.007891373
125	0xbe8a1c3b	-0.26974663
126	0x3e2d1508	0.16902554
127	0xbdb2bb4e	-0.08727132
128	0x3bf90816	0.007599841
129	0xbe18c422	-0.14918569
130	0x3d924296	0.071416065
131	0xbd7408c6	-0.05957868
132	0xbe2d685e	-0.16934344
133	0xbe4e4fcc	-0.20147628
134	0x3e1c51cd	0.1526558
135	0xbe0aec3c	-0.13566679
136	0x3e7a4689	0.2444097
137	0x3dbefabd	0.09325168
138	0x3e28f7db	0.165008
139	0x3dfd1161	0.123568304
140	0xbd572e88	-0.05253461
141	0xbe058896	-0.13040385
142	0x3e268578	0.16261852
143	0x3e200ff3	0.15631084
144	0xbe2fef86	-0.17181215
145	0x3b9321f9	0.004490134
146	0x3de06273	0.10956278
147	0xbdf1c1ce	-0.118045434
148	0x3e0bfe88	0.13671315
149	0xbda39d41	-0.07988978
150	0x3d140b60	0.03614366
151	0x3e31e6fd	0.17373271
152	0xbdb3859f	-0.087657206
153	0x3bea1013	0.0071430295
154	0x3c1cf78e	0.009580506
155	0xbcfe76f9	-0.03106259
156	0x3b1c1174	0.0023814114
157	0xbc369c68	-0.011145689
158	0x3db31484	0.087441474
159	0xbe2b5995	-0.16733392
160	0x3dd0e51a	0.10199948
161	0x3dd93656	0.10606067
162	0xbc181f2f	-0.0092847785
163	0xbdefd24e	-0.11710034
164	0x3ad45b01	0.0016201438
165	0xbce8908c	-0.028389238
166	0x3cb05ade	0.021527704
167	0x3e09f2ec	0.13471574
168	0xbdb35a9f	-0.08757519
169	0x3dc1ce8c	0.09463224
170	0xbe3fe06f	-0.18737958
171	0x3d900b05	0.07033352
172	0x3e1e9775	0.15487464
173	0xbe389b2a	-0.1802794
174	0x3e0f8ccb	0.14018552
175	0x3e14a495	0.14515908
176	0xbe33e491	-0.1756766
177	0xbd8ead41	-0.06966639
178	0x3e2ed8fe	0.17074963
179	0x3e5ee0f8	0.21765506
180	0xbe4ba3dc	-0.19886726
181	0xbe25c26d	-0.16187449
182	0xbdfb58cf	-0.12272798
183	0xbdd63715	-0.10459725
184	0x3e1c7d67	0.15282212
185	0x3cd4b305	0.02596427
186	0xbe08af72	-0.13348177
187	0x3e22211f	0.15832947
188	0x3d9ac2d4	0.07556692
189	0xbda315e6	-0.07963161
190	0x3e1a444e	0.15065119
191	0x3e1a11d6	0.15045866
192	0xbdd8ab05	-0.105794944
193	0x3dccbc44	0.09996846
194	0xbdf586e1	-0.11988617
195	0xbda6e38c	-0.0814887
196	0xbe084153	-0.13306169
197	0x3dc312c4	0.09525064
198	0xbe342de5	-0.17595632
199	0xbe705793	-0.23470907
200	0xbe88e33c	-0.26735866
201	0xbd532705	-0.051550884
202	0xbb3efeee	-0.002914365
203	0xbd345372	-0.044024892
204	0xbe91b92d	-0.2846159
205	0xbe753873	-0.23947315
206	0x3c49cce2	0.012316914
207	0x3e028ff7	0.1275023
208	0xbdd34753	-0.103163384
209	0xbe006a9f	-0.12540673
210	0x3dd9fb0c	0.106435865
211	0xbdd58685	-0.10426048
212	0x3cf21940	0.029553056
213	0x3dfd97f7	0.123825006
214	0xbd50c1f3	-0.050966214
215	0xbdb5a178	-0.08868688
216	0x3d967091	0.07345689
217	0x3c3de4dd	0.01159021
218	0x3e4cbed4	0.1999467
219	0x3d80497d	0.06264017
220	0x3e2015c8	0.15633309
221	0x3b35c15c	0.002773366
222	0x3d2086cd	0.039191056
223	0xbd7ae56c	-0.06125395
224	0x3e0c1af5	0.13682158
225	0xbe2f5eb0	-0.17125964
226	0xbe1d1eda	-0.153438
227	0x3cff76bf	0.031184552
228	0xbdea1acf	-0.114308946
229	0xbdb507b3	-0.08839359
230	0xbd14488d	-0.036202002
231	0x3c1becd4	0.009516913
232	0xbe7e108d	-0.24811001
233	0x3dc1f9cc	0.09471473
234	0x3ddc3b44	0.107534915
235	0x3bd29c5e	0.006427332
236	0xbdda0c85	-0.10646919
237	0x3e17e0e2	0.1483188
238	0x3b51e6fb	0.0032028544
239	0x3e1fa419	0.15589942
240	0x3e497cdf	0.19676541
241	0x3d602772	0.054725118
242	0x3d02f4c0	0.031971693
243	0x3de7bdec	0.113155216
244	0x3d0a31ef	0.033739027
245	0x3d99c2a5	0.075078286
246	0x3dfd37e5	0.12364177
247	0xbd4fcfef	-0.05073541
248	0xbde8cafd	-0.11366842
249	0xbd96b6ea	-0.07359107
250	0xbe26c312	-0.16285351
251	0x3de3d767	0.11125069
252	0x3e458cea	0.19292036
253	0x3b25606e	0.0025234479
254	0x3e04ce2e	0.12969276
255	0x3de9b769	0.11411936

layer1.0.bias f4 [16]
0	0xbb901891	-0.00439746
1	0xbdc3c572	-0.09559144
2	0x3dab3de5	0.08361415
3	0xbd5d1b13	-0.053980898
4	0xba423384	-0.0007408189
5	0xbd7a49c2	-0.061105497
6	0xbd05e789	-0.032691512
7	0x3e152d21	0.14567997
8	0xbcac0e52	-0.021002922
9	0xbdfd6b5c	-0.12373993
10	0xbdef8139	-0.11694569
11	0xbe0519d1	-0.1299813
12	0xbd52c88a	-0.05146078
13	0x3e139328	0.14411604
14	0x3e379a63	0.17929988
15	0x3dc591e4	0.09646967

layer1.1.weight f4 [16]
0	0x3f7093e1	0.93975645
1	0x3f7e9874	0.99451375
2	0x3f77e057	0.9682669
3	0x3f72cb76	0.94841707
4	0x3f84ac25	1.0365034
5	0x3f7a92f8	0.97880507
6	0x3f85db67	1.0457581
7	0x3f8286a1	1.0197335
8	0x3f753269	0.95780045
9	0x3f8cd43c	1.1002269
10	0x3f68527f	0.9075088
11	0x3f8d48f2	1.1037886
12	0x3f7acc91	0.97968394
13	0x3f715b88	0.9428029
14	0x3f7095d6	0.9397863
15	0x3f6c97b3	0.92418975

layer1.1.bias f4 [16]
0	0x3d703f71	0.058654252
1	0xbe01b4a2	-0.12666562
2	0xbd94fd1c	-0.07274839
3	0xbdf78921	-0.12086702
4	0xbd8cba97	-0.06871527
5	0xbd4374a7	-0.04771867
6	0x3dbe0ad4	0.09279409
7	0xbd616730	-0.055030048
8	0xbdad7cdd	-0.084710814
9	0x3c1a0f78	0.009403102
10	0xbd0a3098	-0.03373775
11	0x3ceb68b4	0.02873645
12	0xbd818a81	-0.06325246
13	0xbd8d9527	-0.06913214
14	0xbdfb6f51	-0.12277091
15	0xbe069da6	-0.13146076

layer1.1.running_mean f4 [16]
0	0xbddb434f	-0.107061975
1	0xbeb6c290	-0.35695314
2	0x3f368bed	0.7130726
3	0xbeee14fc	-0.46500385
4	0xbf331d1d	-0.699663
5	0x3ea39a7d	0.31953803
6	0xbc96735c	-0.018365555
7	0xbf0b2884	-0.54358697
8	0x3e5bf7da	0.21481267
9	0xbe594018	-0.21215856
10	0xbed5e958	-0.4177959
11	0xbdeffb12	-0.1171781
12	0x3e072131	0.13196255
13	0x3f2871b8	0.6579852
14	0x3e82010f	0.25391433
15	0xbee4308c	-0.44568288

layer1.1.running_var f4 [16]
0	0x3b4d63f8	0.0031340104
1	0x3c8aaae3	0.016927188
2	0x3df8611b	0.121278964
3	0x3d282f3a	0.041060664
4	0x3df5fc18	0.12010974
5	0x3d11e6a1	0.035620335
6	0x3b159d3d	0.0022829317
7	0x3df3a138	0.118959844
8	0x3cc176e4	0.023616262
9	0x3b726eed	0.0036992386
10	0x3ca13509	0.01967861
11	0x3a9a6aa3	0.0011781048
12	0x3c7d8e65	0.015475844
13	0x3db89dee	0.09014498
14	0x3c455749	0.012044736
15	0x3d80a03b	0.062805615

layer2.0.weight f4 [32, 16, 3, 3]
0	0xbd038b0f	-0.03211504
1	0xbca7dd61	-0.020491304
2	0xbd7e3186	-0.062058948
3	0x3c1e1349	0.009648153
4	0xbdc299f6	-0.09502022
5	0xbd9b1efa	-0.07574268
6	0x3d99603d	0.07489059
7	0xbac6bd38	-0.0015162593
8	0x3d220d31	0.03956336
9	0x3d9374e3	0.07200029
10	0x3d7dbc36	0.06194707
11	0x3abb4f3f	0.0014290585
12	0xbccbf398	-0.024896428
13	0xbd1df962	-0.038567908
14	0xbda4ba77	-0.08043378
15	0x3b4d5e50	0.0031336732
16	0x3d634d96	0.055493914
17	0xbd8adf53	-0.06780877
18	0x3d7f4502	0.06232167
19	0x3dc99a3b	0.0984387
20	0x3dd032ee	0.10165964
21	0xbbc3b843	-0.0059728934
22	0x3d6136b9	0.05498383
23	0x3d8f7b25	0.0700591
24	0x3c4177b6	0.0118083265
25	0x3e0c1427	0.13679563
26	0x3df9fe4f	0.12206709
27	0x3c770448	0.015076704
28	0x3cffcf38	0.03122674
29	0x3b618852	0.0034413529
30	0x3dd4f6c5	0.1039863
31	0xbd2c0c98	-0.042004198
32	0x3dd83047	0.10556083
33	0xbd0e084a	-0.034675874
34	0xbd5b1735	-0.05348893
35	0x3da55399	0.080725856
36	0x3e18454c	0.14870185
37	0x3d721991	0.059106413
38	0x3bf219bc	0.0073883217
39	0x3d0df50a	0.034657516
40	0x3d28caad	0.04120891
41	0x3db4f471	0.08835686
42	0x3d1a12c8	0.037615567
43	0x3d9fe1fb	0.07806774
44	0x3da497a1	0.080367334
45	0xbc9def4f	-0.01927915
46	0x3d0eedd4	0.03489478
47	0x3dc5236b	0.09625896
48	0x3bf9738f	0.0076126526
49	0x3d2eb02b	0.042648476
50	0xbc9e7c49	-0.019346373
51	0x3d97de17	0.07415407
52	0x3cf638d5	0.030056396
53	0x3c993fd5	0.018707195
54	0xbca14fa7	-0.019691302
55	0xbd053c9c	-0.032528505
56	0xbd3d93ce	-0.046283536
57	0xbd939b1d	-0.0720732
58	0x3c1b79b0	0.009489462
59	0xbd4bee43	-0.04978777
60	0x3d6f8283	0.058474075
61	0x3de5dd28	0.11223823
62	0x3d86b9ac	0.06578383
63	0x3c0a0714	0.008424539
64	0xbcc6629f	-0.024216948
65	0x3d577376	0.052600347
66	0x3b2dc4f7	0.0026515105
67	0x3cffad99	0.031210708
68	0xbb9c1530	-0.004763268
69	0x3da79348	0.081823885
70	0x3d7f12a3	0.062273633
71	0xbd659f62	-0.056060202
72	0xbd2c3d1d	-0.04205047
73	0xbbe625a2	-0.007023529
74	0x3c9e7e38	0.019347295
75	0x3c8f5f8c	0.017501615
76	0x3e003a56	0.12522253
77	0x3db80d30	0.0898689
78	0x3df0617c	0.11737344
79	0x3dcb4542	0.09925319
80	0x3d72ef2b	0.05931012
81	0xbe14fe8f	-0.14550231
82	0xbdd900c2	-0.10595848
83	0xbd7abf32	-0.061217494
84	0xbd2b4812	-0.04181678
85	0xbdbc6509	-0.091989584
86	0xbdd0f0c6	-0.10202174
87	0xbe01d54e	-0.12679026
88	0xbce65087	-0.02811457
89	0xbd60ea83	-0.054911148
90	0x3d5610b6	0.05226203
91	0xbd3d31a5	-0.046189923
92	0x3d199070	0.037491262
93	0xbc882a9b	-0.016621878
94	0xbd884042	-0.06652881
95	0x3b133a1b	0.0022465053
96	0xbd552230	-0.052034557
97	0x3dbae9a4	0.09126595
98	0xbd35aef5	-0.044356305
99	0xbdbcfe44	-0.09228185
100	0xbc3b4f21	-0.01143244
101	0xbe0534c0	-0.13008404
102	0x3d98b4be	0.07456349
103	0x3d552af4	0.052042916
104	0xbaee3551	-0.0018173849
105	0x3dfc6e9c	0.123257846
106	0x3e277b2e	0.16355583
107	0x3d3a884e	0.045540147
108	0x3bbfb12e	0.005849979
109	0xbd530de7	-0.05152693
110	0x3d56cb86	0.05244019
111	0xbc5b2d99	-0.013377571
112	0xbd322601	-0.043493275
113	0x3c0e7b2b	0.008696358
114	0x3d84c030	0.06481969
115	0x3ca80a3e	0.020512696
116	0x3cc354f3	0.023844218
117	0xbd09a7f8	-0.033607453
118	0x3d91936f	0.07108199
119	0x3d9b438a	0.075812414
120	0x3dcd0d94	0.100123554
121	0xbd10ba7c	-0.035334095
122	0x3d95f8a3	0.07322814
123	0x3db22c1a	0.08699818
124	0x3cc55fce	0.024093535
125	0x3b7bc3a5	0.0038416174
126	0x3cad3545	0.021143565
127	0xbdd90f80	-0.105986595
128	0x3d387794	0.045035914
129	0xbda0f79b	-0.07859727
130	0x3d2f65ac	0.04282157
131	0xbc1c1bde	-0.009528128
132	0x3d9e6325	0.07733754
133	0x3d923700	0.07139397
134	0xbcbaa095	-0.02278165
135	0x3d85cd74	0.06533328
136	0x3ce35c69	0.027754026
137	0xbd16be11	-0.036802355
138	0xbc901f79	-0.017593132
139	0x3a6d461a	0.00090512785
140	0xbcece088	-0.028915659
141	0x3d6b080e	0.05738073
142	0xbd1ed492	-0.03877694
143	0xbd4431ad	-0.047898937
144	0xbd79fa66	-0.061029814
145	0x3d188cce	0.037243657
146	0xbd8431f1	-0.06454838
147	0x3d1b4ea3	0.03791679
148	0xbb43e7ae	-0.002989273
149	0xbc50a385	-0.012734299
150	0xbc36b895	-0.011152406
151	0xbd2d319a	-0.04228363
152	0xbd1a8849	-0.037727628
153	0xbddb3229	-0.10702927
154	0xbd94d136	-0.07266466
155	0x3c30ca02	0.01079035
156	0x3d3522af	0.04422253
157	0xbcaadedd	-0.020858223
158	0xbc080e14	-0.008304138
159	0xbdc66a25	-0.09688214
160	0xbd862a74	-0.06551066
161	0x3d78aca6	0.060711525
162	0xbd809aee	-0.062795505
163	0xbd34814a	-0.044068612
164	0xbd9f3630	-0.07774007
165	0xbdcd8c31	-0.10036505
166	0xbce1557d	-0.027506584
167	0x3a29c636	0.0006476374
168	0x3caa5dbf	0.020796655
169	0xbd231d19	-0.03982267
170	0x3c127c4a	0.008940766
171	0xbc0d73c8	-0.008633561
172	0x3b749ad2	0.0037323725
173	0x3d955fa2	0.07293631
174	0x3c83e976	0.016102534
175	0xbd513a2c	-0.051080868
176	0xbd3947fd	-0.04523467
177	0xbc6fc26e	-0.014633758
178	0x3d6d6d07	0.057965305
179	0x3d32a119	0.043610666
180	0xbdd0a89c	-0.1018841
181	0xbc59639c	-0.013268378
182	0xbd1e5960	-0.038659453
183	0xbd4a4df7	-0.04939076
184	0x3ce4179b	0.027843287
185	0xbd807c69	-0.06273729
186	0xbd71a524	-0.05899538
187	0x3cb95d43	0.022627478
188	0x3cf77567	0.030207349
189	0x3ddc1354	0.10745874
190	0x3dbd735e	0.0925052
191	0x3cba0759	0.022708582
192	0x3d92b51a	0.07163449
193	0xbda07ae4	-0.078359395
194	0x3d8a26cd	0.06745682
195	0xbd45c786	-0.048285984
196	0x3d768147	0.060181882
197	0xbd4784ae	-0.048710518
198	0x3db6d5ce	0.08927499
199	0xbd56157e	-0.05226659
200	0x3db2fc0b	0.0873948
201	0xbd3d7506	-0.04625418
202	0x3d715612	0.058919974
203	0x3dedbeeb	0.1160868
204	0x3db313f4	0.0874404
205	0x3dded840	0.1088109
206	0xbd4803d5	-0.04883178
207	0xbda9a8c4	-0.082841426
208	0x3b86d357	0.004114549
209	0xbd813c13	-0.063102864
210	0xbd84d437	-0.06485789
211	0x3d8f18a3	0.06987121
212	0xbdd8a20b	-0.10577782
213	0xbaf9112e	-0.0019002312
214	0xbdbe0314	-0.09277931
215	0xbdb37e6b	-0.08764347
216	0xbccbf5d9	-0.024897503
217	0xbcc4a942	-0.02400649
218	0x3c01f89a	0.007932806
219	0xbd869a3e	-0.06572388
220	0xbd3f2c5e	-0.04667317
221	0x3d46a209	0.048494373
222	0xbb74fceb	-0.0037382196
223	0xbdc7f4a7	-0.097634606
224	0xbd8866c5	-0.06660227
225	0xbcdb40c9	-0.02676429
226	0x3db00d3f	0.085962765
227	0x3dd34cbc	0.1031737
228	0x3d83cdac	0.06435713
229	0x3e122e0f	0.14275382
230	0x3d3e49a7	0.04645696
231	0x3d94b617	0.072612934
232	0xbd9ac959	-0.07557935
233	0x3cbd685e	0.023121055
234	0x3d69c149	0.057069097
235	0xbca3d443	-0.019998675
236	0x3d43cd70	0.047803342
237	0xbd25ceb6	-0.040480338
238	0xbd8a758b	-0.06760701
239	0xbd94112a	-0.07229836
240	0x3d82e123	0.06390598
241	0xbda50933	-0.08058395
242	0xbb8ff1b6	-0.004392828
243	0x3cd50903	0.026005274
244	0x3dc1bd90	0.09459984
245	0xbcaf740e	-0.021417644
246	0x3d932ba9	0.07186062
247	0x3d937782	0.07200529
248	0x3d5f5b16	0.054530226
249	0x3d7d667e	0.061865322
250	0x3d9485f8	0.07252115
251	0x3d6c4589	0.0576835
252	0xbdb1b7a7	-0.08677607
253	0xbd9fbdfc	-0.077999085
254	0x3b2760d3	0.002553989
255	0xbd631aaf	-0.05544537

layer2.0.bias f4 [32]
0	0x3d1792f9	0.0370054
1	0xbd8960c4	-0.0670791
2	0xbd1afdde	-0.037839763
3	0x3cb75ae6	0.022382211
4	0xbb94aca2	-0.004537181
5	0xbd81099b	-0.0630066
6	0x3cac387c	0.021023028
7	0x3d7178ba	0.058953024
8	0xbd8840a1	-0.06652952
9	0x3c066e9f	0.008205085
10	0xbcc80a83	-0.024419075
11	0xbd597c55	-0.053097088
12	0xbd8845df	-0.06653952
13	0x3d7c342b	0.06157319
14	0x3d96d6bd	0.07365177
15	0x3d44f1e4	0.048082247
16	0x3cb3c1b9	0.02194296
17	0x3d80052f	0.06250989
18	0xbd492953	-0.049111675
19	0xbd0df762	-0.03465975
20	0xbc32d6ab	-0.010915439
21	0xbceb2fa2	-0.028709237
22	0x3cbc1d07	0.02296306
23	0x3d6626d9	0.05618939
24	0x3be92bd1	0.007115819
25	0x3d16732f	0.03673094
26	0x3d3ddc62	0.04635275
27	0xbd50eec4	-0.051008955
28	0x3d9b6920	0.075884104
29	0x3d1c9424	0.038227215
30	0xbd4a4593	-0.049382757
31	0x3c854748	0.016269341

layer2.1.weight f4 [32]
0	0x3f73e673	0.9527351
1	0x3f7f36ec	0.9969318
2	0x3f8141c0	1.009819
3	0x3f6542ec	0.8955524
4	0x3f7cc133	0.987323
5	0x3f81ba8e	1.0135057
6	0x3f771eb3	0.9653122
7	0x3f681102	0.9065095
8	0x3f73e8d6	0.95277154
9	0x3f8cd21e	1.1001623
10	0x3f7d199c	0.988672
11	0x3f8638c5	1.0486075
12	0x3f6ed884	0.93299127
13	0x3f6c3548	0.922688
14	0x3f78af0d	0.97142106
15	0x3f810528	1.0079699
16	0x3f7acdd1	0.979703
17	0x3f731dcd	0.9496735
18	0x3f87fd0e	1.0624101
19	0x3f720e83	0.94553393
20	0x3f69ae59	0.9128166
21	0x3f6b9ed0	0.92039204
22	0x3f82924f	1.02009
23	0x3f898ba5	1.0745741
24	0x3f6b6a46	0.91959035
25	0x3f82b9b6	1.0212924
26	0x3f8341cc	1.0254455
27	0x3f7c6cf0	0.98603725
28	0x3f81a96c	1.0129828
29	0x3f87539c	1.057239
30	0x3f8983d3	1.0743355
31	0x3f803b3b	1.0018076

layer2.1.bias f4 [32]
0	0xbdfa195c	-0.12211868
1	0x3b8f45eb	0.0043723485
2	0x3d068d4d	0.0328496
3	0xbdafef93	-0.08590617
4	0x3cc54662	0.024081413
5	0xbe3b90cc	-0.18316954
6	0xbb96e037	-0.004604365
7	0xbd33677c	-0.043799862
8	0xbd16fac1	-0.03686023
9	0xbd7b5068	-0.06135598
10	0xbe14894d	-0.14505501
11	0xbd07ab54	-0.033122376
12	0xbd3c3cc5	-0.04595639
13	0xbd91f1ad	-0.07126174
14	0xbd4cf121	-0.050034646
15	0xbd6db18d	-0.058030654
16	0xbd8f7262	-0.07004239
17	0xbd20e4f3	-0.039280843
18	0xbd665ff4	-0.05624385
19	0xbb57a8e7	-0.003290707
20	0xbccb034a	-0.024781842
21	0xbd860bc9	-0.065452166
22	0x3d35c586	0.044377826
23	0x3dba9bb3	0.091117285
24	0xbd810254	-0.06299272
25	0xbd8e3dcc	-0.069453806
26	0xbd6aecbc	-0.057354674
27	0xbde8ef28	-0.113737404
28	0x3c1a32c6	0.009411519
29	0xbda32ad2	-0.07967152
30	0xbd86cbce	-0.065818414
31	0xbdcc0d04	-0.0996342

layer2.1.running_mean f4 [32]
0	0x3f4fdc25	0.8119529
1	0xbe1efb22	-0.15525487
2	0xbfc82114	-1.5635095
3	0xbf31be9b	-0.69431466
4	0xbff2ff0e	-1.8984087
5	0xbd15b5d4	-0.036550358
6	0xbe7e8bea	-0.2485806
7	0xbf209f96	-0.6274351
8	0xbdff6241	-0.12469912
9	0x3fb0f6b9	1.3825294
10	0x3f285019	0.6574722
11	0xbf220e81	-0.6330338
12	0x3d68f133	0.05687065
13	0xbf31d3a7	-0.6946358
14	0x3ef8b522	0.48575693
15	0xc017e93e	-2.373611
16	0xbe7d2227	-0.2472006
17	0xbeb0d1be	-0.3453502
18	0x40089b65	2.1344845
19	0xbf4bd6e5	-0.7962478
20	0xbf8c31dd	-1.0952717
21	0x3f3398cb	0.7015502
22	0xbf952a1d	-1.1653477
23	0xc01140f7	-2.2695901
24	0xbf3aafc3	-0.7292444
25	0x3ef52628	0.47880673
26	0xbe9a822a	-0.30177432
27	0xbf226644	-0.63437295
28	0xbfda48bf	-1.705345
29	0xbec47484	-0.38370144
30	0xbf89440c	-1.0723891
31	0xbedae92c	-0.4275602

layer2.1.running_var f4 [32]
0	0x3f9cad72	1.2240431
1	0x3f0e8e75	0.5568612
2	0x3f55ca45	0.83511764
3	0x3faca337	1.3487309
4	0x3f88260b	1.063661
5	0x3f920525	1.140782
6	0x3fa073aa	1.2535298
7	0x3f5ac4d2	0.85456574
8	0x3f735a69	0.9505983
9	0x404cd01b	3.2002017
10	0x405e4bae	3.4733691
11	0x3fc6dfab	1.5537008
12	0x3e63c847	0.22244368
13	0x3fe279ed	1.7693459
14	0x3f08cf54	0.5344136
15	0x3fd9b789	1.7009135
16	0x3ec3c721	0.3823786
17	0x3f93e1ac	1.1553245
18	0x3fd31511	1.6490804
19	0x3fc3dd1e	1.5301855
20	0x3f882f0b	1.0639356
21	0x3fe147fc	1.7600093
22	0x3fe716a9	1.805379
23	0x400d62fe	2.209167
24	0x3ef4f562	0.47843462
25	0x40326497	2.7873895
26	0x3f082318	0.5317855
27	0x3efc8a2c	0.49324167
28	0x3fc3627a	1.5264428
29	0x3ef3c4d6	0.4761111
30	0x3fb2b01b	1.3959993
31	0x3f819ca1	1.0125924

layer3.0.weight f4 [64, 32, 3, 3]
0	0xbd0bd081	-0.03413439
1	0xbc77f17d	-0.015133259
2	0xbc78baba	-0.015181238
3	0xbd895bb3	-0.06706943
4	0xbd80feb1	-0.062985785
5	0xbd938fd8	-0.072051704
6	0xbdb21fe8	-0.08697492
7	0xbdf7e62a	-0.12104447
8	0xbd3e3f19	-0.046446893
9	0xbcaa33d2	-0.020776663
10	0xbcee92f4	-0.029122807
11	0x3c0fe578	0.008782737
12	0xbbf2a21c	-0.007404579
13	0x3cfe78d6	0.031063478
14	0xbac6f6fc	-0.0015179808
15	0xbb38203b	-0.0028095383
16	0x3d235bcb	0.039882462
17	0xbba4af04	-0.0050257463
18	0xbd2d5735	-0.042319495
19	0xbca6bc0d	-0.020353341
20	0xbca2a2f7	-0.019853098
21	0xbd3a8593	-0.045537543
22	0xbd91b732	-0.0711502
23	0xbd0c83b0	-0.034305274
24	0x3b80b3bc	0.003927676
25	0xbda6b31d	-0.08139632
26	0xbd05c39c	-0.03265725
27	0xbdab633e	-0.08368538
28	0xbd8a798c	-0.067614645
29	0xbd4d1665	-0.050070185
30	0x3d1be3cf	0.038059052
31	0xba48290b	-0.00076355104
32	0xbcac83de	-0.021058973
33	0xbc44b74e	-0.012006594
34	0xbd103860	-0.035210013
35	0x3ad26ace	0.0016053559
36	0xbd3d2b0d	-0.046183635
37	0xbc80ade6	-0.015707921
38	0x3d0c38c6	0.03423383
39	0xbd83d785	-0.064375915
40	0xbd6565a8	-0.05600515
41	0xbce707a7	-0.028201891
42	0xbd91eba5	-0.07125024
43	0xbdc2170b	-0.09477051
44	0x3a3e49c3	0.0007258916
45	0xbc468df5	-0.012118806
46	0xbc97f7a9	-0.01855071
47	0xbd2450be	-0.040116064
48	0xbcbf6236	-0.02336226
49	0xbda1cbc5	-0.07900194
50	0x3cde30bc	0.027122848
51	0x3cd2545e	0.025674995
52	0xbd7cecda	-0.061749317
53	0xbbfb41a3	-0.0076677366
54	0xbc82ea28	-0.015980795
55	0xbd1a706f	-0.03770488
56	0xbd2f7e67	-0.042845156
57	0xbc0dab85	-0.0086468505
58	0x3c09780b	0.008390437
59	0xbd1493a8	-0.03627363
60	0xbd837aae	-0.06419884
61	0xbd7794f4	-0.060444787
62	0xbd52f4c3	-0.051502954
63	0xba0b7457	-0.0005319765
64	0x3d3d4e7f	0.046217438
65	0xbd4c4b5e	-0.049876563
66	0xbcb7623d	-0.02238571
67	0xbd200061	-0.03906286
68	0x3addc1d6	0.001691873
69	0x3ba09e5f	0.004901692
70	0xbd2a812b	-0.04162709
71	0xbb8b9815	-0.004260073
72	0xbd69b6b7	-0.057059016
73	0xbcef49d7	-0.029210014
74	0xbc1910d5	-0.009342392
75	0x3c8c8980	0.017155409
76	0x3d22d719	0.039755914
77	0x3d3245a5	0.04352345
78	0xbcf4ca59	-0.029881643
79	0xbcac7ace	-0.021054652
80	0x3cd53069	0.02602406
81	0xbc6ac7e8	-0.014329888
82	0xbd026d05	-0.03184225
83	0xbd5d9f9a	-0.054107286
84	0xbdd1ab32	-0.10237731
85	0xbddf9fa5	-0.10919122
86	0xbd7fc173	-0.062440347
87	0xbda6f382	-0.08151914
88	0xbdde4b5f	-0.1085422
89	0xbd938056	-0.072022125
90	0x3cc14101	0.023590567
91	0x3cf15db5	0.029463628
92	0x3d919273	0.07108011
93	0xbc904fe1	-0.017616214
94	0xbd06ced0	-0.032912076
95	0xbda2c668	-0.07947999
96	0xbbe45b56	-0.006968896
97	0xbd7a42b6	-0.061098777
98	0x3cbe958d	0.02326467
99	0x3d9c0a20	0.07619119
100	0x3d6e9e42	0.058256395
101	0x3c82906e	0.01593801
102	0xbcd624f5	-0.02614067
103	0x3d26e685	0.040747184
104	0xbca9af5b	-0.020713499
105	0x3c82d6c6	0.015971553
106	0x3d85b7c0	0.06529188
107	0x3a47b8e7	0.00076188
108	0xbd9aea4a	-0.07564218
109	0xbd835492	-0.06412615
110	0x3d3b9d13	0.045804095
111	0xbcceda5a	-0.025250603
112	0xbd911212	-0.07083525
113	0x3c3db661	0.011579127
114	0xbd313d4c	-0.043271348
115	0xbda51d97	-0.080622844
116	0xbd992091	-0.07476915
117	0xbcc53b27	-0.024076058
118	0xbd5516da	-0.052023746
119	0x3cd624e9	0.026140647
120	0xbd12f548	-0.03587845
121	0x3c308101	0.010772944
122	0x3bc99f77	0.006153043
123	0xbd8a3264	-0.067478925
124	0xbd9f051b	-0.07764646
125	0xbd4aa1fe	-0.049470894
126	0xbd29d19c	-0.041459665
127	0xbd2c8a5f	-0.04212415
128	0xba1c4f4b	-0.00059627433
129	0xbd0a1e41	-0.03372026
130	0xbd07ebc4	-0.033183828
131	0xbd3bd8a7	-0.045860913
132	0x3c65cae8	0.014025427
133	0x3ca0a06d	0.019607747
134	0xbd07525a	-0.03303752
135	0x3d2e28d5	0.04251941
136	0xbb9c2773	-0.004765445
137	0x3c47b637	0.0121894395
138	0x3cc1e42c	0.023668371
139	0xbd79ed6b	-0.061017435
140	0xbd7e6409	-0.06210712
141	0xbd6341dd	-0.055482734
142	0xbccbdcdb	-0.024885586
143	0xbd2ab737	-0.041678634
144	0x3bb1c129	0.005424638
145	0x3dc52810	0.09626782
146	0xbc756b34	-0.0149791725
147	0xbd4771ce	-0.048692517
148	0x3d64ca9d	0.05585729
149	0xbca5f08e	-0.020256307
150	0xbd57c1b0	-0.05267495
151	0x3d88b9f5	0.066760935
152	0xbd2b6915	-0.04184826
153	0x3bc07ce3	0.0058742627
154	0x3d6d0f3c	0.057875857
155	0x3c1e557e	0.009663938
156	0x3ce62eeb	0.028098544
157	0x3c2505c3	0.0100721745
158	0xbd4ca8e8	-0.04996577
159	0x3d449d5a	0.048001625
160	0x3d7b7643	0.06139208
161	0x3d223ea6	0.039610527
162	0x3bdcfdc4	0.0067441184
163	0xbd718560	-0.058965087
164	0xbd458406	-0.04822161
165	0xbda131f0	-0.07870853
166	0xbdef5fdb	-0.11688205
167	0xbdc21164	-0.09475973
168	0xbc8c05b4	-0.017092563
169	0xbd9c3add	-0.07628415
170	0xbd0b9486	-0.03407719
171	0xbb18b2ba	-0.0023299889
172	0x3d80e2e4	0.06293276
173	0x3d911c08	0.07085425
174	0xbc5f92cb	-0.013645838
175	0x3cefe66a	0.029284675
176	0xbc0b9978	-0.0085204765
177	0x3d7a3de8	0.061094195
178	0x3ddce49a	0.1078579
179	0x3c51e318	0.012810491
180	0x3cad8bc3	0.021184808
181	0xbc877858	-0.016536877
182	0x3cb14426	0.021638941
183	0x3cfc94db	0.030832699
184	0x3cad0a30	0.021123022
185	0xbc66e5c4	-0.014092866
186	0xbbcb741b	-0.006208909
187	0xbc8cb3bc	-0.017175548
188	0x3d367b68	0.044551283
189	0x3bdb332c	0.00668945
190	0x3c37af1f	0.011211186
191	0xbc451ded	-0.012031061
192	0xbd589387	-0.052875068
193	0xbcacd5db	-0.021098068
194	0x3bddaf0d	0.0067652524
195	0xbbb617ce	-0.005557037
196	0xbcc72fd1	-0.024314793
197	0x3bfd1ce0	0.0077243894
198	0xbc594a18	-0.013262294
199	0x3c9595e4	0.01825995
200	0xbd8ead0d	-0.069666006
201	0xbd57e8b3	-0.052712154
202	0xbca2718e	-0.019829538
203	0xbc068110	-0.008209482
204	0xbdc3bf30	-0.095579505
205	0xbdaa19a7	-0.08305674
206	0xbd94f83c	-0.072739094
207	0x3d37bb2e	0.044856243
208	0xbc9afe54	-0.018920101
209	0xbd92efd3	-0.07174649
210	0xbd23db9d	-0.04000436
211	0xbb90c336	-0.004417802
212	0xbd4ec563	-0.05048121
213	0xbcfd51ce	-0.030922797
214	0xbd3dcbe6	-0.04633703
215	0x3b9638be	0.004584401
216	0x3d5b71eb	0.053575438
217	0x3d38b71e	0.04509651
218	0x3d40e238	0.04709074
219	0xbc8bf4bc	-0.017084472
220	0xb99b73a0	-0.0002965005
221	0x3d822de8	0.06356412
222	0x3c2c65e8	0.010522343
223	0xbc8a064d	-0.016848708
224	0xbd3087ed	-0.04309838
225	0x3cbc2f56	0.02297179
226	0xbcc9b11f	-0.02462059
227	0xbd374768	-0.044745833
228	0x3c4c2617	0.012460253
229	0xbe05175f	-0.12997197
230	0x3d0f3789	0.03496507
231	0x3b515b35	0.0031945233
232	0xbd6c2315	-0.057650644
233	0xbd323e13	-0.04351623
234	0x3dd2fa17	0.10301607
235	0x3dde2285	0.10846428
236	0x3d58decc	0.05294685
237	0x3d7c075c	0.061530456
238	0x3dd3a2bc	0.103337735
239	0x3cbf6575	0.023363808
240	0xbb2c7f68	-0.0026321057
241	0x3cbcb214	0.023034133
242	0x3c95a3c0	0.018266559
243	0x3d07785c	0.033073768
244	0x3df68c85	0.12038521
245	0x3db43fd9	0.088012405
246	0x3c8d5f0b	0.017257234
247	0x3d95895c	0.0730159
248	0x3bbc47d0	0.0057458654
249	0x3d736be3	0.05942906
250	0x3d69e335	0.057101447
251	0x3d8ad8a2	0.06779601
252	0xbd3cc670	-0.046087682
253	0x3b3f9c44	0.0029237429
254	0x3d31dd3a	0.04342387
255	0xbcb162f3	-0.021653628

layer3.0.bias f4 [64]
0	0xbd4590fc	-0.04823397
1	0x3d4a1284	0.049334064
2	0x3d680507	0.05664542
3	0xbd649f2d	-0.055815864
4	0x3c3ca8a8	0.01151482
5	0x3d1e7477	0.03868529
6	0xbd3f9e5a	-0.046781875
7	0xbd6c42fc	-0.05768107
8	0x3cf63d0f	0.030058412
9	0xbc0e12c0	-0.008671463
10	0xbc2cb555	-0.01054128
11	0xbcc26b3f	-0.02373278
12	0xbd298567	-0.041386988
13	0xbc114c7d	-0.008868334
14	0x3d71a0ae	0.058991127
15	0x3c6698b4	0.014074493
16	0x3d066b4c	0.03281717
17	0xbc1e8b1e	-0.009676723
18	0x3d2e918d	0.042619277
19	0xbd0fbc36	-0.0350916
20	0xbd022778	-0.03177592
21	0x3ab5eba8	0.0013879435
22	0x3a589f4a	0.0008263482
23	0x3d55c2a0	0.052187562
24	0x3b8949ba	0.004189697
25	0x3c9c475c	0.019076996
26	0xbd2ce252	-0.042208023
27	0x3d2df26f	0.04246753
28	0x3d43c435	0.04779454
29	0x3ccaee5b	0.02477186
30	0xbd5058cd	-0.050865937
31	0x3c6fac1c	0.014628436
32	0xbc14e725	-0.009088312
33	0xbd5bd33f	-0.053668257
34	0xbd395f11	-0.045256678
35	0x3d622ae4	0.055216685
36	0x3ced141f	0.028940259
37	0xbcde4147	-0.027130736
38	0x3c9a6421	0.018846573
39	0xbcf84b8c	-0.030309461
40	0x3d216ce4	0.039410487
41	0xbcfcd1c5	-0.030861745
42	0x3d28fc93	0.0412565
43	0xbb9f90fd	-0.004869579
44	0xbd4f7653	-0.050649952
45	0x3b863198	0.0040952675
46	0x3c5430b3	0.012951064
47	0xbcdf879e	-0.027286347
48	0xbd4fe356	-0.050753914
49	0x3c98d453	0.018655932
50	0xbd2b9c85	-0.041897316
51	0xbd2192a9	-0.039446507
52	0xbd5a9fa4	-0.0533749
53	0x3cf8f989	0.030392425
54	0x3a3d3c39	0.00072187517
55	0xbb2fdc24	-0.0026834095
56	0x3d092754	0.03348477
57	0x3cc227a7	0.023700548
58	0xba3271c9	-0.00068071164
59	0x3c8d7e07	0.017272009
60	0x3c2a9546	0.010411566
61	0xbd5c52e9	-0.053790007
62	0xbbe8305e	-0.007085844
63	0x3d056152	0.032563515

layer3.1.weight f4 [64]
0	0x3f840e84	1.031693
1	0x3f80bc7f	1.0057524
2	0x3f7f113e	0.99635684
3	0x3f824447	1.0177087
4	0x3f82e8cd	1.0227295
5	0x3f8a37d1	1.0798284
6	0x3f80420f	1.002016
7	0x3f80e268	1.0069094
8	0x3f826bc7	1.0189141
9	0x3f8122ba	1.0088723
10	0x3f7315eb	0.9495532
11	0x3f86eaf1	1.0540448
12	0x3f6db999	0.92861325
13	0x3f800c87	1.0003823
14	0x3f83e41c	1.0303988
15	0x3f7fd984	0.9994128
16	0x3f802817	1.0012234
17	0x3f81d944	1.0144429
18	0x3f7a28f5	0.97718745
19	0x3f790477	0.9727244
20	0x3f7c1757	0.98473114
21	0x3f808a69	1.004224
22	0x3f6f8f4c	0.9357803
23	0x3f805c72	1.0028212
24	0x3f87e7d1	1.061762
25	0x3f73b1eb	0.95193356
26	0x3f815094	1.0102715
27	0x3f81320e	1.00934
28	0x3f7af8a3	0.9803564
29	0x3f82c0dc	1.0215106
30	0x3f741751	0.9534808
31	0x3f83f5d4	1.0309396
32	0x3f82559d	1.0182377
33	0x3f69cc44	0.9132731
34	0x3f73f347	0.95293087
35	0x3f8355e1	1.0260583
36	0x3f749f48	0.95555544
37	0x3f8060ef	1.0029582
38	0x3f7f53bf	0.9973716
39	0x3f814a68	1.0100832
40	0x3f732264	0.9497435
41	0x3f7f82af	0.9980878
42	0x3f7ad63f	0.97983164
43	0x3f7afdb6	0.9804338
44	0x3f8435bf	1.0328902
45	0x3f7f0dbe	0.99630344
46	0x3f80c108	1.0058908
47	0x3f846124	1.0342145
48	0x3f81cda9	1.0140887
49	0x3f6bcc2a	0.92108405
50	0x3f7011f2	0.9377738
51	0x3f84978a	1.0358746
52	0x3f7997f6	0.974975
53	0x3f79d4fb	0.9759061
54	0x3f85b257	1.044505
55	0x3f805a69	1.0027591
56	0x3f731691	0.9495631
57	0x3f8505fe	1.0392454
58	0x3f84649d	1.0343205
59	0x3f81bc69	1.0135623
60	0x3f84e98b	1.0383772
61	0x3f7c84f2	0.9864036
62	0x3f795e73	0.97409743
63	0x3f82046e	1.0157602

layer3.1.bias f4 [64]
0	0xbd03872f	-0.032111343
1	0xbda61b50	-0.08110678
2	0xbd376efc	-0.044783577
3	0xbcdcefe2	-0.026969854
4	0xbb5e79cb	-0.0033947106
5	0xbde78a9c	-0.113057345
6	0xba7e11fb	-0.00096920104
7	0xbd56df70	-0.05245918
8	0xbc83bdfd	-0.016081804
9	0xbd0464cd	-0.032322694
10	0xbd6d2ce5	-0.057904143
11	0xbda0edfa	-0.078578904
12	0xbde14d9c	-0.11001131
13	0xbd2fdee6	-0.042937182
14	0xbc8a7db5	-0.016905645
15	0xbccd2fdd	-0.025047237
16	0xbc91bbba	-0.01778971
17	0xbd262d36	-0.04057046
18	0xbdde4da3	-0.10854652
19	0xbdbd4e21	-0.092434175
20	0xbd50e3c2	-0.050998457
21	0xbbad971f	-0.005297556
22	0xbd84e82c	-0.06489596
23	0xbdb90050	-0.09033263
24	0xbcf81bc2	-0.030286673
25	0xbde4b5ac	-0.11167464
26	0xbd0333bc	-0.03203176
27	0xbd09bf8e	-0.033629946
28	0xbcd8f5cc	-0.026484393
29	0xbcad4e1d	-0.021155411
30	0xbd1c7644	-0.038198724
31	0xbcd08b59	-0.025457071
32	0xbd2a9b8d	-0.04165225
33	0xbdd7c90e	-0.10536395
34	0xbda82288	-0.08209711
35	0xbd3d69e8	-0.04624358
36	0xbd904aad	-0.07045493
37	0xbc7cff3e	-0.015441714
38	0xbcc59807	-0.024120344
39	0xbca4abb1	-0.0201014
40	0xbda4643b	-0.0802693
41	0xbd7467bb	-0.059669238
42	0xbcc560e7	-0.024094058
43	0xbcac65c8	-0.021044627
44	0xbd8304b6	-0.06397383
45	0xbcb65020	-0.022255003
46	0xbd520666	-0.051275633
47	0xbd97c72e	-0.074110374
48	0xbd1741a2	-0.036927827
49	0xbdc543c5	-0.09632067
50	0xbdec6ed9	-0.1154458
51	0xbd7e0ce0	-0.062023997
52	0xbd207168	-0.039170653
53	0xbca4c9ff	-0.02011585
54	0x3b3c04e2	0.0028689434
55	0xbca722de	-0.020402368
56	0xbd9667f8	-0.07344049
57	0xbd63a905	-0.05558111
58	0xbd86616a	-0.06561549
59	0xbb30778f	-0.0026926731
60	0xbcef1caa	-0.029188473
61	0xbda5fb1e	-0.081045374
62	0xbcbb5b61	-0.022870721
63	0xbce38859	-0.027774977

layer3.1.running_mean f4 [64]
0	0xbfb13e02	-1.3847048
1	0x3f8bfd91	1.0936757
2	0xbf72d706	-0.9485935
3	0xbef4056b	-0.47660384
4	0xbfc94d06	-1.5726631
5	0xbecfcf22	-0.40587717
6	0xbfdb339d	-1.7125126
7	0x40205e85	2.505769
8	0xbfbd6941	-1.4797746
9	0xbf9f4b63	-1.2444881
10	0xbf5eaecf	-0.86985487
11	0x3fdc0c6b	1.719129
12	0x4002137a	2.0324388
13	0x3ee31ec7	0.4435942
14	0xbf03f341	-0.5154305
15	0xbfcc7a34	-1.5974793
16	0xbf9d107a	-1.2270653
17	0xbed51504	-0.41617596
18	0x3da76a55	0.08174578
19	0x401a483a	2.4106584
20	0xbfa44060	-1.2832146
21	0xbe201a08	-0.1563493
22	0xbf718332	-0.94340813
23	0x403a05d3	2.9066055
24	0x403c689f	2.9438856
25	0x3f831d38	1.0243292
26	0xc0027d1a	-2.0388856
27	0x3f2dac82	0.6784135
28	0xbf02381e	-0.5086688
29	0xbf1fd2ff	-0.6243133
30	0xbf8676db	-1.0505022
31	0xbfc8070d	-1.5627152
32	0x3f644427	0.8916649
33	0x3e29c04e	0.16577265
34	0xbe7348c2	-0.23758224
35	0x40381f3e	2.8769069
36	0xbe9f0d75	-0.31064954
37	0xbe8682f8	-0.26271796
38	0x3e0949e9	0.134071
39	0xbfecf444	-1.8512044
40	0x40466c87	3.100374
41	0xbf8c389d	-1.0954777
42	0x3f8a3c65	1.0799681
43	0x3e220c0a	0.15824905
44	0x40304b22	2.7545857
45	0xbfaf926f	-1.3716563
46	0xbf02a974	-0.51039815
47	0xbf16ba5a	-0.588781
48	0xbef1daa0	-0.4723711
49	0xbe0310ab	-0.12799327
50	0xbdf05ae5	-0.11736087
51	0x3ff5e20b	1.9209608
52	0xbf5b04e6	-0.8555435
53	0xbfa9ab02	-1.3255312
54	0xbf6a66e5	-0.91563255
55	0xbfb515ce	-1.4147279
56	0xbfa0b672	-1.2555678
57	0x400c0aed	2.1881669
58	0x3f6b9ef6	0.9203943
59	0xbf8e6088	-1.1123209
60	0x3e297ed6	0.1655229
61	0x3f746cb6	0.9547838
62	0x3c40c6f4	0.011766184
63	0x3e5dc595	0.21657403

layer3.1.running_var f4 [64]
0	0x3fedf87c	1.8591456
1	0x3fa24dc9	1.2679988
2	0x3ff55ad2	1.9168341
3	0x4017a890	2.3696632
4	0x3ffc8426	1.9727829
5	0x3fd6ebc0	1.6790695
6	0x4035155f	2.8294294
7	0x3f9ba5aa	1.2159932
8	0x3ff2e712	1.8976767
9	0x4066d1b9	3.6065505
10	0x4063d009	3.5595725
11	0x3fa7231b	1.3057588
12	0x3f5cb3ac	0.8621166
13	0x3fc3d1b0	1.5298367
14	0x4000e231	2.0138056
15	0x40132cb7	2.2996042
16	0x3fe436ae	1.7829187
17	0x400e20ea	2.220759
18	0x4003ecee	2.061336
19	0x4031ef1e	2.7802196
20	0x404e1a67	3.2203615
21	0x3fd4fbf1	1.6639386
22	0x3fa5bb4f	1.2947787
23	0x3fa9d83c	1.3269114
24	0x3f8e1490	1.1100025
25	0x3f49b755	0.7879537
26	0x40131983	2.298432
27	0x3feee6e9	1.8664218
28	0x3f9c2585	1.219895
29	0x401cc957	2.4497888
30	0x403255d2	2.786488
31	0x4065f3cd	3.5930054
32	0x3fbb0a02	1.4612429
33	0x3fd28d0c	1.6449294
34	0x4046db28	3.1071262
35	0x3f89df9d	1.0771366
36	0x40b05e6b	5.5115256
37	0x4001d574	2.0286531
38	0x3fef432f	1.8692378
39	0x405dff99	3.4687254
40	0x3fa30ca6	1.2738235
41	0x401f4958	2.4888515
42	0x3ff8aff1	1.9428693
43	0x3fad29d5	1.3528391
44	0x3fa5c7ff	1.2951659
45	0x40484436	3.1291633
46	0x3ff43b93	1.9080681
47	0x403e1b03	2.9703987
48	0x3f8a3711	1.0798055
49	0x4011801b	2.273444
50	0x4009916a	2.1495004
51	0x3fe25477	1.7682027
52	0x3fefc081	1.8730623
53	0x3fe65a82	1.7996371
54	0x401007e2	2.2504811
55	0x4091ef89	4.56049
56	0x3fc5300e	1.540529
57	0x3f7833b5	0.969539
58	0x3fe4457c	1.7833705
59	0x40329c3a	2.7907853
60	0x4008c28f	2.136875
61	0x4000822d	2.0079453
62	0x401e4613	2.473027
63	0x401cfcf5	2.4529393

fc1.weight f4 [10, 576]
0	0x3c4005be	0.011720119
1	0xba95eb9a	-0.0011438013
2	0x3c6f310b	0.014599095
3	0xbd0bd6aa	-0.034140266
4	0xbbdd84d6	-0.00676022
5	0xbc08daf9	-0.008352988
6	0xbca2c977	-0.019871457
7	0xbd04dd2c	-0.03243749
8	0xbd2846aa	-0.041083016
9	0x3c8feb62	0.017568294
10	0xbc5c9280	-0.013462663
11	0x3cab5c98	0.020918176
12	0xbc0aa72b	-0.0084627075
13	0xbd164d9c	-0.036695108
14	0x3c05ded7	0.008170805
15	0x3b286ade	0.0025698463
16	0x3ce61fc2	0.028091315
17	0xbd12f55f	-0.035878535
18	0x3c8e9aac	0.017407738
19	0x3c90aae1	0.017659606
20	0xbc65dcd9	-0.014029705
21	0xbd1cff1f	-0.03832924
22	0xbd201c71	-0.039089624
23	0xbd106582	-0.035253055
24	0xbd014f0f	-0.031569537
25	0xbbc918fc	-0.0061370116
26	0x3c2b1762	0.010442587
27	0xbc87b6a0	-0.016566575
28	0xbd09bd20	-0.03362763
29	0x3cde740e	0.027154949
30	0xbcde7844	-0.027156956
31	0x3c7c3a11	0.0153947035
32	0x3c97de44	0.018538602
33	0xbc7e8e91	-0.01553692
34	0x3c46a5ad	0.012124461
35	0xbc4fb33f	-0.012677013
36	0x3d106004	0.035247818
37	0xbc4ebd0f	-0.012618317
38	0x3b4394fa	0.0029843436
39	0x3cf33282	0.02968717
40	0xbd15aee2	-0.036543734
41	0xbcbd6b3a	-0.023122419
42	0x3cb41308	0.021981731
43	0x3caafab8	0.020871505
44	0xbd3eff8c	-0.046630427
45	0x3bedcd14	0.0072571132
46	0xbd34bc0f	-0.04412466
47	0xbc41e526	-0.011834418
48	0xbd1f9eb4	-0.03896971
49	0xbcdb4be3	-0.026769584
50	0xbd213e92	-0.039366312
51	0x3c3066e9	0.010766723
52	0x3c9cccb0	0.019140571
53	0xbd1394d4	-0.036030605
54	0x3c223ab1	0.009901688
55	0xbd2dd812	-0.04244239
56	0xbd06c269	-0.032900248
57	0x3c5af8b5	0.01336496
58	0x3d0b2657	0.03397211
59	0xbcfd7ead	-0.030944193
60	0x3c2d3326	0.010571277
61	0xbd3cf8db	-0.046135765
62	0xbc3baade	-0.011454312
63	0x3c4ad55c	0.01237997
64	0x3cef61f8	0.02922152
65	0xbc649980	-0.013952613
66	0xbd351992	-0.04421384
67	0xbd005b07	-0.03133681
68	0xbcba0576	-0.022707682
69	0x3ca42799	0.020038413
70	0x3c6a0123	0.014282498
71	0x3d02144c	0.031757638
72	0xbcfe559f	-0.031046687
73	0xbcfd4830	-0.03091821
74	0xbce0364a	-0.027369637
75	0x3bfed8e8	0.007777322
76	0x3cd60c04	0.026128776
77	0x3b85bdcd	0.004081464
78	0x3ca276de	0.01983207
79	0x3bbf4b97	0.0058378684
80	0xbca4db97	-0.02012424
81	0x3c795d9e	0.015220074
82	0xb9d5e2ab	-0.00040795407
83	0xbb405a00	-0.002935052
84	0x3ac9fbb6	0.0015410099
85	0x3b4ba9ab	0.0031076472
86	0xbc8102d1	-0.015748413
87	0xbb39e26b	-0.0028363715
88	0xbbc08ac0	-0.0058759153
89	0xbd2884d3	-0.041142296
90	0xbc347fcd	-0.011016798
91	0xba471e00	-0.0007595718
92	0xbc505290	-0.012714997
93	0x3cecf456	0.028925102
94	0xbc9b4ff0	-0.018959016
95	0xbcc4b747	-0.024013175
96	0xbbb1c372	-0.00542491
97	0x3c82b2db	0.015954426
98	0xbd3a5e30	-0.04549998
99	0xbc6108a2	-0.013734968
100	0xbd3494cb	-0.044087213
101	0xbcc566fc	-0.024096958
102	0x3ce6bf37	0.02816735
103	0xbd16d865	-0.036827464
104	0x3c0eb772	0.008710729
105	0xbd02294f	-0.031777676
106	0xbcd0b951	-0.02547899
107	0x3ca5b347	0.020227088
108	0xbbdcd1d0	-0.006738879
109	0xbba4718f	-0.00501842
110	0x3c1d07ae	0.0095843505
111	0xbd03d743	-0.03218771
112	0xbc7ca33b	-0.015419777
113	0xbcbc7518	-0.023005053
114	0xbd02b3a5	-0.031909604
115	0x3d21901e	0.03944408
116	0x3b036c6b	0.0020053636
117	0xbd11ad22	-0.035565503
118	0xbcb9533b	-0.022622695
119	0xbbc864a0	-0.006115511
120	0xbd2ecb87	-0.042674568
121	0xbcf6917f	-0.030098675
122	0xbb8158b3	-0.0039473413
123	0xb9038687	-0.00012543249
124	0xbbee5fe4	-0.0072746146
125	0xbbc610de	-0.006044491
126	0x3bef6e4f	0.007306851
127	0xbc310ab6	-0.010805776
128	0x3cc4c4ff	0.024019716
129	0xbd32ecc7	-0.04368284
130	0x3c657a29	0.014006176
131	0xbcc7c8ac	-0.02438768
132	0x3c297bf7	0.010344497
133	0x3b2b6cc9	0.002615737
134	0x3cc01264	0.02344627
135	0xbad4d0a0	-0.0016236492
136	0xbb71b5c6	-0.0036882027
137	0xbc399cc4	-0.01132888
138	0xbd0a60e0	-0.033783793
139	0xbc71533b	-0.014729316
140	0x3c1fa59a	0.009744072
141	0x3c853775	0.016261796
142	0xbce958af	-0.02848467
143	0xbd2fd4ac	-0.04292743
144	0xbb1eb0f1	-0.0024214352
145	0xbc73bd66	-0.014876699
146	0x3c119106	0.008884674
147	0xbbd8a04b	-0.0066109053
148	0xbd045363	-0.032306086
149	0x3cbe987d	0.023266071
150	0x3d060400	0.03271866
151	0x3cd38657	0.025820894
152	0xbd352c5f	-0.04423177
153	0x3c3b9739	0.0114496285
154	0xbc90faf7	-0.017697794
155	0xbc00ab31	-0.007853315
156	0x3cbe673f	0.023242591
157	0x3c42d3bc	0.011891302
158	0xbcc3a431	-0.023882004
159	0xbbcd868a	-0.006272142
160	0x3c85a4a0	0.01631385
161	0xbcbd5e47	-0.023116244
162	0xbc8c71cd	-0.017144108
163	0x3cf77e50	0.030211598
164	0x3cc05b33	0.023480987
165	0xbcd4ef10	-0.0259929
166	0x3cf712cf	0.030160336
167	0xbcdfe1c3	-0.027329331
168	0xbca86d29	-0.020559864
169	0xbc336e19	-0.010951542
170	0x3a8cea87	0.0010751047
171	0x3ba9189f	0.0051604058
172	0x3c27fbc6	0.010252899
173	0xbc94c107	-0.018158449
174	0xbca443e1	-0.020051898
175	0xbd378b56	-0.044810615
176	0xbca23f2c	-0.019805513
177	0xbd3e32b0	-0.046435058
178	0xbcf92c9e	-0.030416783
179	0x3cbc22d5	0.022965828
180	0x3b2a7901	0.0026012065
181	0x3b06385b	0.0020480368
182	0xbd35e49b	-0.04440747
183	0xbbe41a53	-0.006961146
184	0x3c5f527b	0.013630505
185	0xbd2640d4	-0.04058917
186	0xbc9dd996	-0.019268792
187	0x3c9a3a9f	0.01882678
188	0xbca2b8d0	-0.019863516
189	0xbb3c4230	-0.0028725974
190	0xbcf00921	-0.029301228
191	0xbc0e7880	-0.008695722
192	0x3d1073d3	0.03526671
193	0xbcc1a7c7	-0.023639573
194	0xbce3901c	-0.027778678
195	0x3c837a86	0.016049635
196	0xba2414b3	-0.0006259188
197	0x3bf541b1	0.0074846377
198	0xbcd7f007	-0.026359571
199	0x3bcd27eb	0.006260862
200	0xbd06dcea	-0.032925524
201	0x3a1e2557	0.0006032786
202	0xbd0aa990	-0.033853114
203	0x3d139ed2	0.036040135
204	0xbd1471e5	-0.03624143
205	0x3d0225d3	0.031774353
206	0x3c292f59	0.01032623
207	0x3d0219e8	0.031762987
208	0xbd257315	-0.040392954
209	0xbc0b1026	-0.008487737
210	0x3b8b4b7f	0.004250943
211	0xbceeeb3b	-0.029164901
212	0x3c9667ab	0.01835998
213	0xbcaaa4fd	-0.020830626
214	0xbc93e77c	-0.018054716
215	0xbc577896	-0.0131513085
216	0xbceecdb5	-0.029150823
217	0x3c04d05f	0.00810632
218	0x3cf331f3	0.029686904
219	0xbd2c0602	-0.041997917
220	0xbd03ffaa	-0.032226242
221	0x3becad1f	0.007222786
222	0xbc1c857a	-0.009553308
223	0xbd0ae5d4	-0.033910587
224	0xbb356f1e	-0.002768464
225	0x3cb5ce45	0.022193084
226	0x3ce79f0a	0.028274078
227	0x3cffd146	0.031227719
228	0x3b4dbf79	0.0031394644
229	0x3ca5d1f2	0.020241711
230	0xbcd917e8	-0.026500657
231	0x38fa5962	0.00011937578
232	0xbcc71b9c	-0.024305157
233	0x3caac1aa	0.0208443
234	0xbce407cf	-0.027835755
235	0xbbb21e6b	-0.005435755
236	0xbd1e2425	-0.03860869
237	0xbc40dc13	-0.01177122
238	0x37fdb556	3.0244391e-05
239	0x3c1fbe5c	0.009749975
240	0xbccbe723	-0.024890488
241	0x3c079176	0.008274427
242	0xbc5c1b36	-0.013434222
243	0xba034bf4	-0.00050085713
244	0x3c13bfaf	0.009017869
245	0xbd1c9b37	-0.038233962
246	0x3a837212	0.0010028502
247	0x3cb4a48f	0.022051124
248	0xbca49921	-0.020092549
249	0x3ca5d4ca	0.020243067
250	0xbc45ba3c	-0.0120683275
251	0x3b8fe248	0.0043909885
252	0x3b4752d6	0.0030414364
253	0x3c899d0b	0.016798517
254	0x3cf37226	0.029717516
255	0x3d10ea4a	0.035379685

fc1.bias f4 [10]
0	0xbcaef4cd	-0.021356964
1	0x3c56fb74	0.0131214745
2	0x3cb0f434	0.02160082
3	0xbc9b9cc9	-0.01899566
4	0xbd2928d1	-0.04129869
5	0xbc4f7ce9	-0.012664058
6	0x3ad41ba2	0.0016182552
7	0x3bfaf01c	0.007658018
8	0xbd2d02d1	-0.042239014
9	0x3d962266	0.0733078

fc2.weight f4 [2, 10]
0	0xbe60be60	-0.21947622
1	0xbdc88790	-0.097914815
2	0x3d5c8822	0.053840764
3	0x3dd58be8	0.104270756
4	0xbddebcd7	-0.10875862
5	0xbe6bfd52	-0.23045853
6	0xbd4318c3	-0.047631036
7	0x3e11d045	0.14239605
8	0xbe91123b	-0.2833422
9	0x3e8b67fa	0.27227765
10	0x3dc33c29	0.09532959
11	0x3e4d2596	0.20033869
12	0xbea528ab	-0.3225759
13	0x3de63794	0.112410694
14	0x3c4069e9	0.011744001
15	0x3e4916c0	0.19637585
16	0x3e619bee	0.22032139
17	0x3d4f756b	0.050649088
18	0x3e82e9f1	0.25569108
19	0x3e319cab	0.1734492

fc2.bias f4 [2]
0	0xbef04b31	-0.46932366
1	0x3ecd0656	0.40043896

exp_avg f4 [16, 3, 3, 3]
0	0x3ba01d7b	0.004886327
1	0x3b8dbda2	0.0043255845
2	0x3b74e0d4	0.0037365453
3	0x3bc5106f	0.006013922
4	0x3b9988f2	0.0046855146
5	0x3b6278b7	0.0034556815
6	0x3be6141c	0.00702144
7	0x3bb1bf13	0.005424389
8	0x3b627690	0.0034555532
9	0x3b8e697f	0.004346072
10	0x3b5b83a3	0.003349521
11	0x3affb79e	0.0019509678
12	0x3bc35e01	0.005962134
13	0x3b8b715b	0.0042554564
14	0x3b1a6afa	0.0023562298
15	0x3bf4cafa	0.0074704858
16	0x3bb2eefe	0.005460619
17	0x3b40bd24	0.0029409612
18	0xbbdbfdc8	-0.0067136027
19	0xbc011916	-0.007879516
20	0xbc15e636	-0.009149125
21	0xbba07020	-0.004896179
22	0xbbdb0537	-0.0066839713
23	0xbc0d16d5	-0.008611401
24	0xbb5f9179	-0.0034113808
25	0xbbb2ac2b	-0.005452653
26	0xbc036442	-0.008019509
27	0x3a7c85d8	0.00096329814
28	0x3a1bb143	0.0005939195
29	0x3a88e6f5	0.0010444807
30	0x3a88808e	0.0010414289
31	0x3a124783	0.0005580114
32	0x3a4a35f4	0.0007713728
33	0x3a933f75	0.0011234122
34	0x39f0a9f6	0.00045902998
35	0x38cdd840	9.8154414e-05
36	0x3b83ad4b	0.004018461
37	0x3b754b89	0.0037429056
38	0x3b8eeadb	0.004361493
39	0x3b8bd218	0.0042669885
40	0x3b7c8fd7	0.0038537884
41	0x3b8eb7a7	0.004355389
42	0x3b94455e	0.004524871
43	0x3b84be2c	0.0040509906
44	0x3b822292	0.0039714063
45	0x3bec7406	0.0072159795
46	0x3be7a2e9	0.007068981
47	0x3bfadd84	0.0076558013
48	0x3bfde828	0.0077486224
49	0x3bf4974c	0.007464325
50	0x3c005e71	0.007835017
51	0x3c05219e	0.008125691
52	0x3bfc4d2b	0.007699629
53	0x3bf5a4a3	0.007496433
54	0x3b0df064	0.0021658177
55	0x3b15bea5	0.0022849229
56	0x3b05ac5e	0.0020396928
57	0x3b050dd2	0.0020302427
58	0x3b0f74af	0.0021889617
59	0x3b091412	0.0020916504
60	0x3adc9725	0.0016829713
61	0x3ae7c8a3	0.0017683696
62	0x3ae8ce1b	0.001776162
63	0xb9211f26	-0.0001536576
64	0xb7bafdd8	-2.2291133e-05
65	0xb9f10063	-0.0004596739
66	0xb944a859	-0.00018754731
67	0xb865a34a	-5.474993e-05
68	0xb9b41669	-0.00034348972
69	0xba0e717f	-0.00054337824
70	0xb9f54d34	-0.00046787562
71	0xba289419	-0.00064307597
72	0xbadc49aa	-0.0016806622
73	0xbad3f40c	-0.0016170754
74	0xbb0afab7	-0.0021206567
75	0xbae671fd	-0.0017581579
76	0xbadd5492	-0.0016886166
77	0xbb06b053	-0.0020551875
78	0xbb0d05db	-0.0021518383
79	0xbb0d4843	-0.0021557964
80	0xbb1bfeaa	-0.0023802915
81	0x3bb40380	0.0054935813
82	0x3b9f7c3a	0.004867104
83	0x3b9fbffc	0.0048751812
84	0x3baea22a	0.00532939
85	0x3b94f56c	0.004545858
86	0x3b947aac	0.004531225
87	0x3ba3868a	0.0049904035
88	0x3b8d55f9	0.0043132273
89	0x3b92a00c	0.0044746455
90	0x39dfd4a9	0.0004269232
91	0xb9b9658b	-0.00035361605
92	0xb99f58cc	-0.00030393002
93	0x39a3910b	0.00031197848
94	0xba233657	-0.0006226054
95	0xba191782	-0.000583999
96	0x38e77d03	0.000110382236
97	0xba38da44	-0.0007051567
98	0xba0018e6	-0.00048865227
99	0x39b4d95b	0.00034494218
100	0xb99be920	-0.00029737595
101	0xb95c4c2a	-0.00021009208
102	0x39821bee	0.00024816341
103	0xba0b47d1	-0.00053131307
104	0xb9f06565	-0.00045851912
105	0xb82fc2ed	-4.190479e-05
106	0xba3f19a1	-0.0007289891
107	0xba07690a	-0.00051654933
108	0x3b74b6bf	0.003734037
109	0x3b652aa0	0.0034968033
110	0x3b6c1862	0.0036025275
111	0x3b6ab6d3	0.0035814538
112	0x3b63811e	0.003471441
113	0x3b703e5d	0.0036658265
114	0x3b531930	0.0032211058
115	0x3b556f25	0.0032567468
116	0x3b697412	0.0035622162
117	0xbaba0fc1	-0.0014195369
118	0xbae0f338	-0.0017162329
119	0xbac2cfd7	-0.0014862966
120	0xbacf27e5	-0.0015804736
121	0xbae21662	-0.0017249102
122	0xbaba8b5b	-0.0014232205
123	0xbaf26db2	-0.0018495827
124	0xbaf386cf	-0.0018579605
125	0xbabd0c76	-0.0014423269
126	0xbaf97947	-0.0019033336
127	0xbb0b73b0	-0.0021278672
128	0xbb01b1d3	-0.001978983
129	0xbb030520	-0.0019992068
130	0xbb0a1101	-0.0021067264
131	0xbaf986a2	-0.0019037316
132	0xbb192f29	-0.0023374057
133	0xbb180400	-0.0023195744
134	0xbb053e39	-0.0020331277
135	0x3a19e59f	0.0005870703
136	0x3a62ea30	0.00086561125
137	0x3a94a03e	0.001133926
138	0x3a31f710	0.00067888293
139	0x3a8694bd	0.0010267716
140	0x3aa42328	0.0012522684
141	0x3962a968	0.00021616148
142	0x3a11992f	0.0005554137
143	0x3a780504	0.00094611966
144	0xbbe41e5a	-0.006961626
145	0xbbd1f5d2	-0.006407478
146	0xbbc5f029	-0.006040592
147	0xbbdc3c31	-0.0067210426
148	0xbbc85d3f	-0.0061146314
149	0xbbbe5034	-0.005807901
150	0xbbe9b15c	-0.0071317386
151	0xbbd5a7ff	-0.006520271
152	0xbbc7bd91	-0.006095596
153	0xbc47ff1a	-0.012206817
154	0xbc40e86b	-0.011774163
155	0xbc3c37a9	-0.01148788
156	0xbc45fbcd	-0.01208396
157	0xbc3e82b4	-0.011627842
158	0xbc3ae88d	-0.0114079835
159	0xbc4e413f	-0.012588798
160	0xbc477d09	-0.012175807
161	0xbc41a180	-0.01181829
162	0xbc05360e	-0.008130563
163	0xbbb4dcf0	-0.005519502
164	0xba0f5247	-0.00054672774
165	0xbc2e5991	-0.0106414715
166	0xbc1df7f2	-0.009641634
167	0xbbcb134d	-0.006197369
168	0xbc41a9cd	-0.011820269
169	0xbc46e559	-0.012139642
170	0xbc218dbf	-0.009860455
171	0xbadeed9a	-0.0017008067
172	0x3909f913	0.00013158126
173	0x3b979f88	0.004627172
174	0xbba7aa82	-0.0051167617
175	0xbba21cb1	-0.004947268
176	0xbaf4bfef	-0.0018672923
177	0xbbee7333	-0.0072769164
178	0xbc0b37ae	-0.008497162
179	0xbbdbb53c	-0.0067049544
180	0xbc1c8574	-0.009553302
181	0xbbe4172f	-0.0069607715
182	0xbb107e9a	-0.0022048117
183	0xbc5177cc	-0.012784909
184	0xbc4163b7	-0.011803559
185	0xbc093861	-0.008375258
186	0xbc752bc7	-0.014964051
187	0xbc7c99b9	-0.01541751
188	0xbc562eb9	-0.013072663
189	0x3b90b5e1	0.004416213
190	0x3b6a27eb	0.003572936
191	0x3b51ec24	0.003203162
192	0x3b883efd	0.0041578994
193	0x3b577318	0.0032874998
194	0x3b490119	0.003067082
195	0x3b7c1c67	0.0038469078
196	0x3b5037ad	0.0031771467
197	0x3b50d1de	0.0031863372
198	0x3a55e957	0.00081600755
199	0xb9154ca1	-0.00014238294
200	0xb9e1d99f	-0.00043077485
201	0x3a1b3be6	0.00059217063
202	0xb9c3cc76	-0.00037345634
203	0xba000684	-0.00048837834
204	0x39c81c83	0.00038168216
205	0xb9bfe3d5	-0.00036600107
206	0xb9842b28	-0.00025209156
207	0x3b2292c3	0.0024806715
208	0x3acc0858	0.0015566451
209	0x3a9cc9d7	0.0011962008
210	0x3b18a65e	0.0023292522
211	0x3ab56a3d	0.0013840866
212	0x3a98c677	0.0011655827
213	0x3b08d3de	0.0020878236
214	0x3aad6910	0.0013230164
215	0x3aab717e	0.0013080088
216	0x3b279822	0.0025572856
217	0x3b37d23a	0.0028048889
218	0x3b501e15	0.0031756212
219	0x3b3b6ad3	0.0028597608
220	0x3b5541c5	0.0032540422
221	0x3b746ab0	0.0037295036
222	0x3b153b28	0.0022770856
223	0x3b2feb69	0.0026843196
224	0x3b658ac7	0.0035025345
225	0xbbc32fd7	-0.0059566307
226	0xbbbc31c0	-0.0057432353
227	0xbbb9c74f	-0.0056695114
228	0xbbaa694f	-0.005200542
229	0xbba04cac	-0.0048919525
230	0xbb99be44	-0.004691871
231	0xbbb41ae5	-0.00549637
232	0xbba8f231	-0.0051558246
233	0xbb974936	-0.0046168817
234	0xbc3b6b27	-0.011439121
235	0xbc3d0bb5	-0.011538436
236	0xbc41022c	-0.011780303
237	0xbc2ee2d4	-0.010674197
238	0xbc2efb0e	-0.010679973
239	0xbc31efe5	-0.010860418
240	0xbc32cbbb	-0.010912831
241	0xbc3300fd	-0.010925529
242	0xbc302f07	-0.0107534
243	0xbcc35c01	-0.023847582
244	0xbcc76b00	-0.024343014
245	0xbcd0b798	-0.02547817
246	0xbcbbbf30	-0.022918314
247	0xbcb48a6a	-0.022038657
248	0xbcccb9da	-0.024990965
249	0xbcaaca60	-0.020848453
250	0xbcab62a2	-0.020921055
251	0xbcda253c	-0.026629083
252	0x3d3068c4	0.043068662
253	0x3d2ffbb6	0.04296466
254	0x3d2b4fb0	0.041824043
255	0x3d350b42	0.04420019
