Lab5/model_50_0.01.pth (torch, 378889 bytes, 54 tensors)

layer1.0.weight f4 [16, 3, 3, 3]
000000 dc 46 c6 3d 26 18 50 3b 8d 60 96 3d eb 57 9c bd
       0.09681484 0.0031752675 0.07342634 -0.076339565
000010 24 7c 17 bd 79 e0 8b bc 17 ea cb bd 68 42 82 3e
       -0.036983624 -0.01707481 -0.099567585 0.2544129
000020 3f 60 28 bc a0 fa 0b bd ad 4a 42 3e 04 52 0c bd
       -0.010276853 -0.03417456 0.18973799 -0.034257904
000030 38 20 ae bd ec e6 7a 3e 6e 85 1f 3e f8 82 20 3e
       -0.08502239 0.24502152 0.15578243 0.1567496
000040 78 5a 6d bd 0a bf 4e 3e ed 4a b4 3d f1 2e e3 3d
       -0.057947606 0.20190063 0.088033535 0.11092938
000050 47 10 32 3e 22 de 7c 3e 1c 4d 9f bc 38 73 ab 3d
       0.17389022 0.24694112 -0.019445948 0.083715856
000060 51 85 a2 3d 59 8e 2c 3e 42 3f f3 3d b4 45 47 3d
       0.07935584 0.16851176 0.118773 0.04865046
000070 0d 65 10 3e 85 b2 1d be 7e 7b 8c bd 1f 80 02 3e
       0.14101048 -0.15400131 -0.06859492 0.12744187
000080 3b 85 51 be 28 ec 14 3d 34 fb a5 bd a0 42 8b 3c
       -0.2046098 0.03635803 -0.08104554 0.016999543
000090 10 c2 3e be a1 c3 2b 3d 25 ca 52 be 7d 44 1b 3e
       -0.18628716 0.041934613 -0.20584925 0.15162845
0000a0 a4 d1 21 be 99 32 8a be 3b d0 e5 bd 29 92 5f 3c
       -0.15802628 -0.26991728 -0.112213574 0.013645687
0000b0 5b 93 71 3d 4b 1f 86 be cd 8d 88 be 53 d5 4c be
       0.05897842 -0.2619575 -0.26670685 -0.20003252
0000c0 36 c6 21 bd 92 50 87 3d b4 24 ea 3b 13 df be bc
       -0.03949567 0.066071644 0.0071454886 -0.02329973
0000d0 c5 64 82 bc 88 bb b8 3b 32 24 56 3e 4b fb 83 bd
       -0.015917191 0.00563759 0.20912245 -0.06444415
0000e0 e5 f4 d8 bc 03 4c 3e bd c5 83 d3 3d 97 67 31 3e
       -0.026483962 -0.04645921 0.103278674 0.17324673
0000f0 e5 81 44 3d 95 aa 07 bd 0f d7 d1 3c a6 e6 05 3e
       0.04797544 -0.033121664 0.025615243 0.13076267
000100 e7 ad 7d 3e 0a e4 c9 bd 90 0a c6 bd a0 9e b7 3d
       0.2477337 -0.09857948 -0.096699834 0.08965802
000110 07 ee f5 3d 65 f3 c2 bd a7 f7 ea bd 1e 60 4d 3e
       0.12008291 -0.0951908 -0.11473017 0.20056197
000120 06 51 88 3d d0 50 46 3e f8 16 56 bd 5e 63 33 3e
       0.06656079 0.19366765 -0.052268 0.17518374
000130 92 83 06 bc ee 41 8c 3d 1a 5f 02 3d f6 d7 7b 3e
       -0.00821008 0.068485126 0.031828977 0.24594101
000140 d1 6f ca 3d f2 cb 58 be b9 18 87 bd 46 37 ac bd
       0.098846085 -0.21171549 -0.06596512 -0.0840898
000150 3d 76 13 be 4c 4b 43 bd 2b 4f bb 3d 30 2f 5b bd
       -0.14400573 -0.04767923 0.091459595 -0.0535118
000160 54 f8 c4 3c d6 e7 51 be 6d 90 29 3e ea 57 12 3d
       0.024044193 -0.20498595 0.16559 0.035728373
000170 97 5e d5 3d e8 58 1f 3e 2c f6 0e 3e c0 73 c3 3d
       0.10418432 0.15561259 0.13961095 0.09543562
000180 f3 21 0f be c9 46 13 3e a2 9b ce bc 6f 2a 41 be
       -0.13977794 0.14382471 -0.025220696 -0.18863843
000190 b8 41 d5 bd 28 2a b4 bd ce bc 3c be 53 14 f2 bd
       -0.104129255 -0.08797103 -0.18431398 -0.11820283
0001a0 87 33 19 be b3 dd 89 3d 32 91 ec 3c 11 b4 2e 3d
       -0.14961062 0.06731739 0.028877828 0.042652193
0001b0 e9 3a 10 3d 8c aa 96 bd ed 9b ef bd 54 7a 92 bd
       0.03521243 -0.07356748 -0.11699662 -0.071522385
0001c0 c7 b7 48 be f1 22 54 be 75 28 1a bd 70 d7 fd 3d
       -0.19601355 -0.20716454 -0.03763624 0.12394607
0001d0 1d 31 60 be 09 88 c4 bd d3 a7 f5 3c 39 90 18 3d
       -0.21893735 -0.09596259 0.029987251 0.037246916
0001e0 6b 17 06 3e 62 cb 51 3d 8a 25 49 3d 77 57 f1 bd
       0.13094871 0.05121935 0.049108066 -0.11784261
0001f0 ae 77 f8 3d fe ec 1c be 3d 05 fe bd 71 b6 ee bc
       0.12132202 -0.1532478 -0.12403343 -0.02913973
000200 0c 78 3d be a9 05 28 bd af 7e 7f be be 6e 26 be
       -0.18502825 -0.041021023 -0.2495067 -0.16253182
000210 b9 02 22 3d 41 1f 16 be e5 d5 63 3d bc 76 47 3e
       0.039553378 -0.1466036 0.055623908 0.19478887
000220 62 46 58 bd 59 b1 a2 bd 88 b6 12 3d 0f 72 88 3d
       -0.052801497 -0.07943983 0.035818607 0.0666238
000230 7e 4e 0d 3a 14 0d ef 3d 02 7f 9b 3d 75 20 9c 3d
       0.00053904194 0.11672416 0.07592584 0.07623378
000240 d8 4d 4a 3e d8 ba 4f bd 8c 55 f4 bc 8c 6f 01 3d
       0.19756258 -0.050715297 -0.029825948 0.03160052
000250 ed 40 2b 3d b3 52 42 3e 89 3e a5 3d 7d 52 c1 3d
       0.041809965 0.1897686 0.08068568 0.094395615
000260 fe 8e 21 bd 3f d4 65 3e 3d 97 83 3e 05 59 8e 3d
       -0.03944301 0.22444247 0.25701323 0.06950573
000270 15 99 36 bd 27 d3 4f 3e a6 6a 0f bb 5f 5c 97 3d
       -0.044579584 0.20295392 -0.0021883636 0.07390665
000280 0f 2e 54 bd fe 6d 6f 3e d9 86 92 bb 9e 0d a2 bc
       -0.051801737 0.23381802 -0.0044716415 -0.019781884
000290 20 ef 6c 3e 71 44 0a 3e b7 2a e5 3d f4 c8 90 3d
       0.23138094 0.13502671 0.11189788 0.07069579
0002a0 95 ac 28 3e f9 a3 34 3d b6 69 19 be 80 a2 f7 bc
       0.16472085 0.04410169 -0.14981732 -0.030228853
0002b0 3c 73 5a 3d 54 94 1a 3d 64 da 56 be 1c 57 0b 3d
       0.053332552 0.037739113 -0.20981747 0.03401862
0002c0 9c 22 88 3c 1a 10 cb bd c0 29 27 bc ea 06 00 3e
       0.016618066 -0.099151805 -0.010202825 0.12502638
0002d0 9e d8 d0 3b 28 0b 09 bd d0 8d 83 3d 25 1b e2 bd
       0.006373479 -0.033457905 0.06423533 -0.11040334
0002e0 e3 ab 4b bb fe 3d 24 be dd 57 34 be 3b 30 6c be
       -0.0031077794 -0.16039273 -0.17611642 -0.23065273
0002f0 ec 9f c5 3d 89 97 d3 bd 1a 29 9b bd 87 31 82 3a
       0.09649643 -0.103316374 -0.07576199 0.0009932973
000300 ef 91 dc bd d4 d4 ec bd 3c 4b 88 be 27 78 56 be
       -0.10770022 -0.11564031 -0.266199 -0.20944272
000310 b7 65 0e be 96 97 2f 3d 6d 69 51 be dd f0 36 bd
       -0.13905989 0.042869173 -0.20450373 -0.0446633
000320 3d 53 2f be dd 14 f7 3d ca 24 f4 3c 04 e6 9c bd
       -0.17121597 0.12064526 0.029802699 -0.076610595
000330 c1 7f 0f bd 08 51 1d 3b 09 83 4f 3b d2 91 c2 bd
       -0.035033945 0.0024004597 0.0031663796 -0.09500469
000340 bc d4 0e 3e a8 3f d8 bd fd 3d 97 ba 3e 3d f8 3d
       0.13948339 -0.105590165 -0.001153886 0.12121056
000350 a1 89 ed 3d a9 24 02 3d 6b 1a ac 3c e4 d8 5e 3c
       0.11598516 0.031773243 0.02100869 0.013601515
000360 35 45 f1 bd 3a e4 59 3e 29 52 aa bd 04 15 41 3d
       -0.11780778 0.21278468 -0.08316452 0.047139183
000370 da b3 09 3e e4 02 4e 3e 35 da 85 3d 51 08 50 3b
       0.13447514 0.2011829 0.0653576 0.0031743238
000380 92 f7 28 3e 15 fc cb 3d cb 6e 64 bc 0a 98 b8 bd
       0.1650069 0.0996019 -0.013942431 -0.09013374
000390 2d 98 0c 3e cd 3e 0c 3e 1d bd 71 3d a5 85 37 3d
       0.13729925 0.13695832 0.059018243 0.044805188
0003a0 f4 ff ce 3d cb dd 69 3d a5 a1 11 bc a9 77 58 3e
       0.10107413 0.057096284 -0.008888637 0.21139397
0003b0 6d d4 78 bd 02 8c 47 bd c1 f6 07 bd 42 1b a8 3d
       -0.06074946 -0.048717506 -0.033194307 0.08208324
0003c0 aa 67 6d 3e 67 64 20 3e 39 31 70 3e bd 8b eb 3d
       0.23184076 0.156633 0.23456277 0.11501262
0003d0 9e 9d 1a be 0a f1 2f be de 82 42 be 29 ac c2 3d
       -0.15099189 -0.17181793 -0.18995234 0.09505493
0003e0 2f 62 c6 bc 31 e4 3d be e8 3e d1 bd 6c 5d 8e 3c
       -0.02421674 -0.1854408 -0.102170765 0.017378531
0003f0 16 de a0 3d 5e 6b b1 bc 57 4e 74 3d 96 01 8f 3a
       0.078548595 -0.021657642 0.059645023 0.0010910507

layer1.0.bias f4 [16]
000000 81 c0 21 3d 2c d2 ed bc 6c dd 41 3e 27 33 b9 3c
       0.039490227 -0.029030882 0.18932122 0.0226074
000010 91 69 3b be 9f dd 88 bd 89 d9 52 be 29 22 e9 3d
       -0.18301989 -0.06682896 -0.20590796 0.11383469
000020 73 4c da bd 56 c3 a7 bd 1f 62 0b be d5 43 d1 bd
       -0.10659113 -0.08191554 -0.13611649 -0.10218016
000030 1e 5e 9e 3c 26 73 df bd 48 58 36 3e 80 6e dd bd
       0.019331988 -0.10910635 0.17807114 -0.10812092

layer1.1.weight f4 [16]
000000 f5 65 7d 3f 52 92 78 3f cf f8 83 3f ae 30 70 3f
       0.989837 0.9709827 1.0310305 0.9382428
000010 c3 d4 7e 3f bb e1 80 3f 92 c1 66 3f d6 8b 86 3f
       0.995434 1.0068887 0.90139115 1.0511425
000020 42 ec 74 3f 0e 3b 86 3f f0 bf 88 3f d3 c3 8a 3f
       0.95673 1.0486772 1.0683575 1.0841011
000030 13 70 7e 3f 19 b7 73 3f 20 65 70 3f 5f 1b 82 3f
       0.9938976 0.9520126 0.93904305 1.0164603

layer1.1.bias f4 [16]
000000 a6 2d ad bd 57 c2 13 bd 88 be 95 3d c2 cf 8e bd
       -0.084559724 -0.03607401 0.073117316 -0.069732204
000010 51 fe ea bc a5 bf b0 3c 2d 70 57 3d c9 56 02 bd
       -0.02868572 0.021575758 0.052597214 -0.031821046
000020 6a ba f5 bc 27 5a 1f bd cd c4 be 3d f5 0a 66 3d
       -0.029996116 -0.038904335 0.093148805 0.056162793
000030 ca 38 c6 3d 88 24 a0 bd 09 30 b0 bd 24 79 13 3c
       0.096788004 -0.07819468 -0.08602912 0.00900105

layer1.1.running_mean f4 [16]
000000 eb 5d 6e 3f 72 b1 3a bf f0 c0 6b 3f 61 f3 96 be
       0.9311206 -0.7292701 0.92091274 -0.29482558
000010 78 95 68 bf c4 2b 50 3f 7e 04 16 be 2d b0 02 bf
       -0.9085307 0.8131678 -0.14650151 -0.5105007
000020 ce e6 4e 3f c7 fb 1e bf 82 84 1d 3f b9 8d 98 bf
       0.8082093 -0.6210293 0.61530316 -1.191825
000030 c9 51 60 bf 77 a6 34 3f 1a 30 29 3d 80 d6 b0 be
       -0.87624794 0.70566505 0.04130564 -0.3453865

layer1.1.running_var f4 [16]
000000 25 02 77 3e 04 83 13 3e d8 07 1f 3e 49 4a 1c 3d
       0.24121912 0.14405447 0.15530336 0.03815678
000010 33 0c 19 3e 27 db 64 3e b3 00 28 3c 7b 64 aa 3d
       0.1494606 0.22349225 0.010254073 0.083199464
000020 07 5c 65 3e a2 5d b2 3d 7a 18 fa 3d 05 dd 88 3e
       0.22398387 0.08709265 0.122117 0.26731125
000030 1d 19 47 3e a8 38 28 3e d5 36 33 3c 08 27 ff 3c
       0.19443174 0.16427863 0.010938366 0.031146541

layer2.0.weight f4 [32, 16, 3, 3]
000000 53 50 c8 3b 06 f2 02 bd 5f bf 79 3d f5 c3 4f 3b
       0.006113091 -0.031969093 0.06097352 0.0031702493
000010 65 4e 9e bc 6f 40 00 be 1c f2 91 bd 1d f3 20 3c
       -0.01932449 -0.1252458 -0.07126257 0.009823588
000020 2a 67 d2 bd 52 47 10 3e 8c 9e 07 3d ce c7 4e 3d
       -0.10273583 0.14089707 0.033110186 0.050483517
000030 cc 30 4a 3c 5a 2e 07 3d de 48 11 3d f4 6e c9 3d
       0.012340736 0.03300319 0.035469882 0.09835616
000040 48 eb aa 3d e0 11 25 3c 0b a8 b4 3d 9f 51 b2 3d
       0.083456576 0.0100750625 0.08821114 0.08706974
000050 19 9c 83 bd 45 68 3b bd a1 8d 67 3d a9 cd fe 39
       -0.06426258 -0.045753736 0.056531552 0.00048599884
000060 d3 0f 21 be b8 48 39 bd 88 d5 fe bd fb 7e 57 3c
       -0.15728693 -0.045235366 -0.124430716 0.013152833
000070 88 85 20 3d ae f9 4f bd 94 66 a3 bc 92 e8 bd bc
       0.039189845 -0.050775222 -0.019946374 -0.023182187
000080 03 00 9b bb 6d 5f f9 3a ad c6 5d 3d 51 ed 2f 3e
       -0.004730226 0.0019025631 0.05414455 0.17180373
000090 8d db 88 3d fd 6b 8f 3d 5e 4a 28 3e e3 ae e2 3d
       0.06682501 0.07003019 0.16434619 0.11068513
0000a0 ac 05 a2 3d 96 27 18 3e 1e 05 1f 3e c4 99 d7 3d
       0.07911238 0.14858851 0.15529296 0.10527375
0000b0 74 22 15 3e 95 3d 8d 3d d4 ce ee bd 5e d4 8e bd
       0.14563924 0.068965115 -0.11660543 -0.069740996
0000c0 a5 e8 d6 3d 65 88 b9 bd cb ad c0 3c 1d 91 4a bd
       0.10493592 -0.09059218 0.023520371 -0.049454797
0000d0 a1 f8 bc bd 4a 7c 51 3d 6d fe c3 bd b9 89 db bc
       -0.0922711 0.051143922 -0.09570012 -0.02679907
0000e0 da 2e 41 bd 3a e7 ef bd 04 33 c3 bb 41 82 24 ba
       -0.04716382 -0.11714025 -0.0059570093 -0.0006275513
0000f0 f8 ed 99 bc 78 99 1b be 5f b9 07 bc 3c 9b 05 3d
       -0.01879023 -0.15195262 -0.008283942 0.032618746
000100 88 62 cb 3d 2b 2e 5a 3d e7 4f d5 3d dc 9a fb 3c
       0.09930903 0.053266685 0.10415631 0.030713491
000110 87 7a b2 3d 32 6d c7 3d e9 c8 d2 3d 97 84 12 3e
       0.087147765 0.09737624 0.10292227 0.14308392
000120 98 03 db 3c c6 b6 70 bc fe d8 b7 3d b8 6f 71 3d
       0.026735112 -0.014692014 0.08976935 0.058944434
000130 0b b8 34 3d 76 54 ba 3c 02 bf 6e bd 1f 78 54 3d
       0.04412083 0.022745352 -0.058287628 0.05187237
000140 2a da 3c ba 36 77 b3 3c 0f cc 06 be 46 98 64 bd
       -0.000720414 0.02190743 -0.1316378 -0.05580928
000150 f9 3c f6 bd 5a 6a a6 bd 2f 20 9d bd f6 c3 be bd
       -0.12023348 -0.08125754 -0.07672154 -0.0931472
000160 15 30 cd bc 9e dd bb bd ce 26 90 3d 24 4e ad 3d
       -0.025047341 -0.091731295 0.070386514 0.0846217
000170 eb 4d 2f bb 0f 68 f9 3d 99 90 3b 3d a4 7e 60 3d
       -0.0026749324 0.12178051 0.045792196 0.054808274
000180 0e 5a 61 3d 01 4c 33 3d ba ed 07 3e e7 51 a6 3d
       0.055017523 0.043773655 0.13274279 0.081210904
000190 de 6c 65 3d 40 79 11 3e e6 86 19 3e 54 56 f0 3d
       0.056012027 0.1420641 0.14992866 0.11735216
0001a0 61 6b 05 3d 4a f0 84 3d a0 0d 83 3d c9 a3 08 3e
       0.032573108 0.06491144 0.06399083 0.13343729
0001b0 b4 f6 2b 3c bc fa f9 3d c0 15 f3 3d 82 ea a5 3d
       0.01049583 0.12206027 0.11869383 0.081013694
0001c0 e6 62 bd 3d 9d 86 e5 bc ea 09 60 3c d3 c7 96 3c
       0.09247379 -0.02801829 0.013674239 0.01840583
0001d0 9c 71 b6 3d a0 3c 06 be 83 b9 b1 bd 40 02 44 bd
       0.08908388 -0.13109064 -0.08677962 -0.04785371
0001e0 d0 e4 46 bb e6 d3 b2 bd bf 2b 20 be 02 0b 31 bd
       -0.0030348785 -0.08731823 -0.15641688 -0.04322339
0001f0 f1 ea 4d bd e5 44 83 bd 4f cd 17 be 05 45 22 be
       -0.050272886 -0.06409625 -0.14824413 -0.15846641
000200 5a c7 99 bd 47 76 c9 bd 87 c2 29 be a2 8e 0c bd
       -0.075087264 -0.09837013 -0.16578113 -0.034315713
000210 f3 08 c4 bd 29 6a 10 bd d1 75 b6 bd 16 b7 50 bc
       -0.095720194 -0.035257492 -0.089091904 -0.012738964
000220 6c ec f6 3c 80 4a de 3d e1 5c b2 3c 16 b4 48 3d
       0.030142032 0.108540535 0.021772804 0.04899987
000230 93 6a 77 3d 2d 6a 98 3d f1 9b 9f 3d f5 1b 3a 3d
       0.06040437 0.074421264 0.07793415 0.04543682
000240 06 87 93 bd 55 43 2d 3d b3 e3 aa 3c be ba 71 3c
       -0.07203488 0.04230054 0.020860529 0.014753995
000250 ac d0 07 3d 10 17 52 bd 12 3f c9 bb 2e d3 ea bc
       0.03315799 -0.051291525 -0.006141552 -0.028665151
000260 cd 00 c8 bd 64 e4 cf bd c8 c3 1c bd 86 5d b5 bc
       -0.09765778 -0.10150984 -0.03827265 -0.022139322
000270 df ac fa bc 78 50 bf bd 84 c7 1b bd a8 7c 61 3c
       -0.03060001 -0.0934152 -0.03803207 0.0137626305
000280 4f a7 00 be 48 1b a4 bd 2b 54 e0 bd 1e ec 2d bd
       -0.12563823 -0.08013016 -0.10953554 -0.042461507
000290 78 4d 94 bd 91 32 f7 bd a3 a5 07 be 48 69 b4 bd
       -0.072413385 -0.12070192 -0.13246779 -0.08809143
0002a0 ca 34 be bd 6d ce 15 bd 55 82 53 bd 08 98 e8 3c
       -0.092874125 -0.036573816 -0.051637966 0.028392807
0002b0 58 fb ae bd c2 8b 33 bd 01 66 a6 bd 79 ae 0a 3d
       -0.08544034 -0.043834455 -0.081249245 0.033857796
0002c0 d8 41 14 bd 7e c1 08 3b 4f 63 8e 3c 37 b1 55 bd
       -0.036195606 0.0020867283 0.017381338 -0.05217096
0002d0 88 fd 08 bd 37 0f 4b 3c 12 b8 b3 bd 2e d8 52 bd
       -0.03344491 0.012393764 -0.08775343 -0.051475696
0002e0 4e c0 2b bd 9e 7d 39 bd a5 47 95 bd 72 47 fa bd
       -0.041931443 -0.045285814 -0.07289056 -0.12220658
0002f0 38 97 9b bd 3e b2 47 bd 11 0a 0f 3c cd b1 44 bd
       -0.07597202 -0.04875397 0.008730427 -0.048021127
000300 32 a6 a8 bd 67 a5 e7 bd bf 0e aa bd b5 12 61 3c
       -0.08234824 -0.11310845 -0.08303594 0.01373737
000310 12 5b 81 bc 67 65 2b 3d a7 c0 a9 3d e2 2c bb 3d
       -0.015790496 0.04184475 0.08288699 0.0913942
000320 c4 17 ca 3c f5 b8 6f b9 dc 8c 9e bc 6d f4 a1 3d
       0.024669535 -0.00022861718 -0.019354276 0.07907949
000330 a5 56 b6 3c 33 69 53 3d f4 e2 e5 3d 41 e6 fb bb
       0.022258112 0.051613998 0.112249285 -0.0076873605
000340 eb e3 e7 3c 5d 20 5e bd 39 39 49 b9 72 51 92 bd
       0.028306922 -0.054230083 -0.00019190171 -0.07144441
000350 f7 25 8f bc 57 22 cb bd 99 0d 93 3c 3e 5b 25 bd
       -0.017474158 -0.09918659 0.01795082 -0.04037022
000360 8e f7 68 bd 21 09 ba bd 33 53 04 be ee 75 81 bc
       -0.05687671 -0.090837725 -0.12922363 -0.015803304
000370 4b b3 e5 bd 69 c5 7b bd 27 c9 9f bd a9 7a fc bd
       -0.11215838 -0.061467562 -0.07802039 -0.12328083
000380 6b d7 bd bc 30 cb ff 3c 7f d5 db 3c 9c bf 51 3d
       -0.023174008 0.031224817 0.026835201 0.051208124
000390 f5 1b 14 3d 63 f0 a9 3d 1f 5a 7e 3d d9 8b 34 3d
       0.036159474 0.08297803 0.062097665 0.04407868
0003a0 a3 4f d0 3d 51 80 52 3d 69 a7 c1 3d 39 48 fb 3d
       0.101714395 0.051391903 0.09455759 0.12269635
0003b0 df e6 bb 3d 59 0c 61 3d a2 89 fb 3c b1 16 6e bd
       0.091748945 0.054943416 0.030705277 -0.05812711
0003c0 50 e3 a9 3d 0b df 40 3d 1f 83 75 3d be e3 47 bd
       0.082953095 0.04708771 0.0599395 -0.048801176
0003d0 d8 ab 41 bc df 2f 13 bb be 27 81 3c 3d 9c a8 bd
       -0.011820756 -0.0022458953 0.01576602 -0.08232925
0003e0 f4 ce cd bd ce f1 92 bd d8 df 60 bd e8 e5 57 3c
       -0.10049239 -0.07175027 -0.054900974 0.0131773725
0003f0 f5 bc 0e 3d 70 94 cb bd d8 20 d8 bd 28 7a f6 bd
       0.034848172 -0.099404216 -0.105531394 -0.12035018

layer2.0.bias f4 [32]
000000 00 91 fd 3c 74 34 9d bb 6c be 78 bd f6 42 8a 3c
       0.03095293 -0.0047975127 -0.060728475 0.016877633
000010 1d 9d 5b 3d 59 28 c8 3d 5f 72 82 bd 3f a9 ed bb
       0.05361663 0.09773321 -0.06369471 -0.0072528417
000020 de c2 d0 bc bf c6 93 3a 20 7e 98 bd 7e 8f 06 3d
       -0.025483545 0.0011274441 -0.074459314 0.03285169
000030 96 fa 5f bd 59 4a 53 3c ed f6 32 bc db 05 4c bd
       -0.054682337 0.012896144 -0.0109231295 -0.04981027
000040 9e a0 d4 3c 25 42 85 bc 84 aa 5b bd af 18 a3 bc
       0.025955494 -0.016266892 -0.053629413 -0.019909231
000050 95 11 82 bc 31 3e 97 bc ef b7 66 bc 69 70 37 3d
       -0.015877524 -0.018462272 -0.014081939 0.044784937
000060 12 5c 86 bd 59 b2 c3 3d 61 8c 42 3c cb 8d 0e bc
       -0.0656053 0.095555015 0.011874289 -0.008700798
000070 60 19 81 3d 6f e6 16 3c 3e a9 a1 3b 0d 0e b9 3d
       0.06303668 0.009210213 0.0049335053 0.09035883

layer2.1.weight f4 [32]
000000 59 ee 73 3f c5 a6 7f 3f 26 ea 88 3f 80 c9 6a 3f
       0.95285565 0.99863845 1.0696456 0.91713715
000010 25 f2 85 3f 4a 68 78 3f 39 2a 87 3f 98 57 7f 3f
       1.0464522 0.9703413 1.055976 0.9974303
000020 a7 37 7e 3f ab 4c 85 3f 73 bc 6f 3f e7 82 76 3f
       0.9930367 1.0414022 0.93646926 0.9629349
000030 43 39 88 3f 47 16 8a 3f b7 00 7d 3f c0 93 69 3f
       1.0642475 1.0788049 0.98829216 0.91241074
000040 b1 4b 8a 3f bb 9d 68 3f 3b 04 6f 3f 57 ee 67 3f
       1.0804349 0.9086568 0.9336583 0.9059805
000050 d0 d3 6c 3f 61 88 71 3f 36 0e 6f 3f ac bc 8b 3f
       0.925107 0.9434872 0.9338106 1.0916953
000060 7f 81 76 3f 85 e1 75 3f df 56 74 3f 85 1a 6c 3f
       0.96291345 0.9604724 0.95445055 0.92227966
000070 69 9d 6e 3f 76 c6 6a 3f 0d fc 7b 3f 75 a2 85 3f
       0.9320894 0.9170908 0.98431474 1.0440203

layer2.1.bias f4 [32]
000000 bb 0a a1 bd b3 27 d8 bc 73 9b 86 3d dc 04 c8 3d
       -0.07863375 -0.026386118 0.06572618 0.09766552
000010 53 5f 1e 3d 5b 42 93 bd 51 b3 2f 3d c2 6c af 3c
       0.038665127 -0.07190391 0.04289562 0.021414164
000020 a5 65 67 3c 5f 07 2d 3c 58 12 74 bd 06 a7 db 3c
       0.014123355 0.010560839 -0.059587806 0.026813041
000030 af ac a8 3d 81 d4 d7 3c 07 68 bb bd df 46 a8 3b
       0.08236062 0.026346447 -0.09150701 0.0051354016
000040 f0 0c 8f 3d 5e 78 8a 3c 36 53 40 bd 07 0f 82 3d
       0.069848895 0.016903099 -0.046954356 0.063505225
000050 e4 60 06 3d ed 54 79 bd ab 73 fb bb 49 96 aa 3d
       0.032807246 -0.060872007 -0.007673701 0.08329446
000060 fa 89 80 3d 57 89 36 bd b1 6e b5 3c 54 0a 84 3c
       0.06276317 -0.04456457 0.022147508 0.016118206
000070 3e ad 5f bc e5 e5 c3 bd 1c 51 84 bc 4b 68 2f 3d
       -0.013652144 -0.09565333 -0.016151957 0.04282407

layer2.1.running_mean f4 [32]
000000 37 10 90 3f a1 71 7c bf f1 65 e4 3f d9 9f 2e be
       1.1254948 -0.98610884 1.784361 -0.17053165
000010 ed 52 a1 3f 3a ac 32 3f f2 42 c7 3f 66 c9 70 bf
       1.2603432 0.69794047 1.5567305 -0.9405731
000020 ff a7 ad 3f 5d 37 d3 bf 9c 51 0a 3e 2c 29 6c be
       1.3566893 -1.650127 0.13507694 -0.23062581
000030 a3 22 3d 3f 8c c3 95 bf 1b be 7d bc 5f 0d 31 bf
       0.73880976 -1.1700301 -0.015487219 -0.6916103
000040 61 c3 68 3f ea 07 ab bf 55 64 84 3e 5a 51 fb 3e
       0.90923125 -1.336179 0.25857797 0.49085504
000050 ae 15 c6 bf 27 39 1d 40 be ec 17 bf 2d 3c fa 3f
       -1.5475366 2.4566133 -0.59345615 1.9549614
000060 1c 28 25 bf 12 c0 ff bf e4 95 ca bd 88 37 49 bf
       -0.6451433 -1.998049 -0.098918706 -0.7860036
000070 73 af 3d 3f 14 25 68 bf 3e 45 eb bf fe f1 08 3e
       0.7409584 -0.90681577 -1.8380506 0.13373563

layer2.1.running_var f4 [32]
000000 d9 5a 7c 40 1a d2 6b 3f df e3 82 3f e3 36 8d 3f
       3.943045 0.92117465 1.0225791 1.1032375
000010 5f f9 5e 3f c4 28 42 40 d1 f5 c9 40 c6 67 23 40
       0.8709926 3.0337381 6.311257 2.5532088
000020 8e 4f 7b 40 76 d9 8c 3f 7e f7 d2 40 e6 b2 49 40
       3.9267306 1.1003864 6.5927114 3.151544
000030 40 ca 9a 40 5b 3e a5 3f 36 9a 69 3f 02 b6 60 40
       4.8371887 1.2909654 0.9125093 3.5111089
000040 f9 d8 81 40 08 72 0e 40 17 1c a7 3f e8 95 85 40
       4.057736 2.22571 1.3055447 4.174549
000050 db 84 7f 40 b0 11 0c 40 3b d6 7a 3f 78 67 59 3f
       3.9924839 2.1885796 0.9798314 0.84923506
000060 74 ce cf 3f 32 b0 b8 40 11 68 c9 40 cf 5d 83 3f
       1.623488 5.771508 6.2939534 1.0263003
000070 ea 38 7c 3f eb 3b b9 40 1d 22 df 3f 8e 28 07 40
       0.98524344 5.788564 1.7432286 2.1118503

layer3.0.weight f4 [64, 32, 3, 3]
000000 db 28 a7 3d ab 2d 75 3d 50 36 04 3e ea a6 11 bd
       0.081620894 0.059858005 0.12911344 -0.035559572
000010 24 d1 e6 bb fc a2 09 bc 04 7e 16 3d 6b d4 5b 3d
       -0.0070439745 -0.008400675 0.03674127 0.053669374
000020 19 86 b4 3d 67 aa b7 bc 8b 70 02 be 1d 74 b3 bd
       0.088146396 -0.022420121 -0.12738244 -0.08762381
000030 26 35 05 be b3 7e b4 bd 3a 97 a5 bd 86 da bf bd
       -0.13008556 -0.088132285 -0.08085485 -0.09367852
000040 b7 e6 a1 bd af 15 7f bd 3b 6f 3a bd 1f 69 8a bc
       -0.079053335 -0.06227654 -0.045516234 -0.016895829
000050 5e 2a 4a bd 9c e9 82 bd 2b 81 65 3c 48 0f f6 bd
       -0.04935681 -0.06392214 0.014007847 -0.120146334
000060 e2 7b 9f bd 03 f1 4a bd 9c 62 98 bd ed da 8f 3d
       -0.07787301 -0.049546253 -0.07440683 0.07024179
000070 f9 93 d3 3d 49 d4 20 3d c8 90 e7 3c cf 9c 5e 3d
       0.10330958 0.03926495 0.02826728 0.054348763
000080 4b 35 c3 3d 7f be c1 3d d6 25 d7 3d d3 9d 14 3c
       0.09531649 0.09460162 0.105052635 0.009070831
000090 41 7f c9 bd b6 11 5b bd f2 14 74 bd d8 b2 a1 bd
       -0.09838725 -0.053483687 -0.059590288 -0.0789544
0000a0 8d 6b 7d bc 0c 83 c3 bd 76 6d 39 bd b3 43 f0 bd
       -0.015467537 -0.095464796 -0.045270406 -0.117316626
0000b0 19 8c 20 bd b0 f4 92 3d f1 ef 58 3d 86 17 f6 3d
       -0.039196108 0.07175577 0.0529632 0.120162055
0000c0 c7 eb 91 bb 15 25 95 bc 46 1f e0 3d 10 d4 9d 3d
       -0.0044531557 -0.018206159 0.10943465 0.07706463
0000d0 65 24 58 3c 76 e8 8f 3d 92 db e1 3d 35 d2 82 3d
       0.013192271 0.0702676 0.11028208 0.0638775
0000e0 44 69 ac 3d d5 9c d4 3d 4a 3a 90 3c ad 8b dc 3c
       0.08418515 0.10381476 0.01760592 0.026922071
0000f0 79 42 32 3d 3a 77 c3 3d f5 d4 c9 3d 3f 46 23 bd
       0.043520425 0.09544225 0.098550715 -0.039861914
000100 c9 7b 9b bc e7 a0 31 bd 13 b6 53 bd 22 8e 55 bd
       -0.018979924 -0.04336634 -0.05168731 -0.0521375
000110 8c 35 9b bd 1c 4f b7 bd 86 a2 38 bd 72 55 81 bd
       -0.07578573 -0.08950636 -0.04507687 -0.063151255
000120 5f b2 99 3d 2f b0 97 3d c8 5b e6 3d 4c 7f 59 3d
       0.07504725 0.07406651 0.11247975 0.053099915
000130 70 6d c8 3d db 0f d4 3d 9d 61 30 3d 9e 61 a1 3d
       0.097864985 0.10354587 0.04306184 0.07879947
000140 30 5f 49 3c bf 9d 85 3d b2 7f 7a 3d 01 8d c5 3d
       0.012290761 0.06524228 0.061156936 0.09646035
000150 eb e7 4a 3d 8f 01 e8 bc cb d0 b5 3d 39 85 01 3e
       0.04953758 -0.028321056 0.08877715 0.12648477
000160 fe 60 a7 3d f1 97 82 3d 3c 21 ae 3c 92 79 5b 3d
       0.08172797 0.06376637 0.021256082 0.053582735
000170 7b c4 ce 3d 0d f2 c7 3d 3e 1b 26 3d 20 59 f7 3d
       0.100960694 0.097629644 0.040553324 0.12077546
000180 1b 66 3a 3d 95 a9 b8 3c aa 33 eb 3d 51 0e 29 bd
       0.04550753 0.0225418 0.114844635 -0.04127342
000190 ee fe 82 3c a0 18 ca 3c c6 52 6d bd de 5a 28 bd
       0.0159907 0.024669945 -0.057940267 -0.041102283
0001a0 03 cf 62 bd 0a a0 06 be 8c 0c b7 bd 1b 8c a7 bd
       -0.055373203 -0.13146988 -0.0893794 -0.0818102
0001b0 69 c5 04 be 2b bb 17 bd cc ff e2 bd ff 84 d1 bc
       -0.12965931 -0.03704373 -0.11083946 -0.025576113
0001c0 c3 2e c7 bd eb cb 8a bd c0 5d 94 bd 36 42 91 bd
       -0.09725716 -0.067771755 -0.07244444 -0.07092707
0001d0 59 a3 03 bd 72 f8 4b 3c 4b c5 e8 3d 87 f3 b8 3d
       -0.032138202 0.012449371 0.11365756 0.09030824
0001e0 6e 08 0a 3d 50 c4 e3 bc 8b 39 0a 3e 9b 76 1c 3d
       0.033699445 -0.02780357 0.13498513 0.03819905
0001f0 0f 18 01 3d 86 a4 2d 3d b3 cf e7 bd ca cf af bb
       0.031517085 0.04239323 -0.11318912 -0.0053653466
000200 ef a0 62 bd 9e e6 a9 bd 5b 10 eb bc 43 8b ba 3c
       -0.05532926 -0.0829594 -0.028694322 0.022771483
000210 ee 8e f2 bd ca c0 cd bd b4 47 26 3d 86 1e 15 bd
       -0.11843668 -0.10046537 0.040595725 -0.036406063
000220 a7 c0 60 3d cd 01 f0 bd e2 73 a6 bc a5 dd 0f bd
       0.054871228 -0.117190935 -0.02031893 -0.035123486
000230 bf 20 63 bd 48 91 16 bd 60 5f f4 bc db 82 09 be
       -0.05545115 -0.036759645 -0.029830635 -0.13428824
000240 6b f7 17 bd 91 0e 89 bc 23 c5 b0 bd 70 30 ef bd
       -0.03710119 -0.016730579 -0.08631351 -0.116791606
000250 d4 7f e4 bd 5c 56 79 bd 11 ac a4 bd 8b e7 00 be
       -0.11157194 -0.060873374 -0.080406316 -0.12588327
000260 ae c7 93 bd 09 23 ca bd 5d 5f a5 3d eb 20 23 3d
       -0.0721582 -0.09869964 0.0807483 0.039826315
000270 ca 7f 81 bd 93 97 8f bd d3 68 28 bd 1c 90 8e bd
       -0.06323202 -0.07011332 -0.041115593 -0.069610804
000280 e6 36 04 be cb 24 aa bc 75 41 bc bd 71 a9 c5 bb
       -0.12911567 -0.020769497 -0.091921724 -0.006032162
000290 e5 d7 34 bd 82 c0 8c bd 50 8b 1c 3d 7b 5d 5e 3b
       -0.044151206 -0.068726555 0.038218796 0.003393023
0002a0 ab fa fc ba 8e 0a 1d bc ba 0e a0 bd 89 a2 67 39
       -0.0019300779 -0.009585036 -0.07815309 0.00022090426
0002b0 ff 26 65 3d 85 1e 34 bd 8b 55 2f bc 1f ef a2 3c
       0.055945393 -0.04397442 -0.010701547 0.019889412
0002c0 2a b7 c8 3b 8e 93 15 bd 47 ec 2c 3d 24 26 71 bc
       0.0061253505 -0.036517672 0.04221752 -0.014718566
0002d0 a3 b2 0b be 5c 1a 60 bd d6 ec a1 bd 49 83 4a bd
       -0.13642363 -0.05471264 -0.07906501 -0.04944161
0002e0 f7 36 54 bd 49 44 94 bd 69 b8 05 be 3f da 89 bc
       -0.05181023 -0.07239587 -0.13058628 -0.0168277
0002f0 af 59 f4 bd 70 2e e7 bc 22 b9 78 bc b2 d7 bd 3c
       -0.11931168 -0.028220385 -0.015180858 0.02317414
000300 59 1c f0 bc f5 d4 96 3d 71 b3 f7 bc 38 71 94 bc
       -0.029310392 0.07364837 -0.030236932 -0.018120393
000310 f3 ee b4 bd 83 91 9c bd f2 c9 c5 bd da b8 82 bd
       -0.088346384 -0.07644942 -0.09657659 -0.06382914
000320 6b 4e c6 bd 98 76 9b bd 0d 41 83 bd 82 47 0d bd
       -0.09682926 -0.07590979 -0.06408892 -0.034492023
000330 17 f4 8d bd 6b cd ef bd 50 26 e0 bd 5d c6 4c bd
       -0.06931322 -0.11709102 -0.109448075 -0.04999386
000340 78 62 61 bd db 44 a6 bc 47 f4 a6 bd 89 f1 84 bc
       -0.055025548 -0.020296505 -0.08152061 -0.016228454
000350 45 c5 55 bc b3 29 81 3c 86 ca 5a bd 27 16 a5 bd
       -0.013047521 0.015766954 -0.053415798 -0.08060866
000360 66 21 43 bd 96 c2 99 bd ac b7 6a bd be 8b 3f bd
       -0.047639273 -0.075078174 -0.05730407 -0.046764128
000370 65 72 c5 bd 25 9a ef bd 2a 09 03 be 95 06 13 be
       -0.0964096 -0.116993226 -0.12796465 -0.1435798
000380 ef aa 49 3c 77 3d 99 bd cb b3 b4 3c 76 70 c5 3d
       0.01230882 -0.074824266 0.022058388 0.09640591
000390 b6 fc 04 be 54 82 6b bc 9d fc 50 bd da 7d 15 be
       -0.12987027 -0.014374334 -0.05102216 -0.1459879
0003a0 de a8 16 be d8 2e 33 bd 07 b1 05 bd 08 84 fb bc
       -0.14712855 -0.043745846 -0.03263953 -0.030702606
0003b0 fa b9 b1 bd 8f 6f 32 bd 6d 05 d1 bd 56 52 c5 bd
       -0.0867805 -0.04356342 -0.10206113 -0.09634845
0003c0 b4 66 fb bc 30 1b ed bd 64 93 f8 bd 7a 7a 79 3d
       -0.030688621 -0.11577451 -0.121374875 0.06090782
0003d0 ed 86 f9 bc 7a c7 9f bc 30 95 9d 3d ce 32 84 bd
       -0.030459845 -0.019504298 0.07694471 -0.06455003
0003e0 04 79 ee bb c4 82 99 3d e9 7f d5 3c b2 e8 85 3d
       -0.00727761 0.07495645 0.026061969 0.06538524
0003f0 97 25 cd 3d 2c 16 ae 3d b9 03 6e 3d be bf 77 3d
       0.10016935 0.08500323 0.05810902 0.060485594

layer3.0.bias f4 [64]
000000 0a 3d 44 bc 47 dc 70 bc 62 b3 a6 bb d4 ff 3c 3a
       -0.0119774435 -0.014700956 -0.005087302 0.0007209752
000010 23 43 78 3d b3 1f 87 3d a8 e6 14 3c 9c 62 18 3d
       0.0606109 0.06597843 0.009088196 0.037203416
000020 bd 69 b9 3b 6d e2 44 3c af 86 6f 3d 62 c2 01 3d
       0.005658357 0.012016875 0.058478054 0.03167952
000030 36 99 9f 3c 99 a1 88 bd d2 10 bf 3c 4c 0f 8c bb
       0.019482236 -0.06671447 0.02332345 -0.0042742845
000040 11 5d 6c 3d 30 78 b1 b7 e5 28 81 3d 82 3d b3 3c
       0.057705943 -2.1156011e-05 0.06306628 0.021879915
000050 dc c2 ae 3c 39 99 11 bd 03 aa 91 3c ab 5b 81 bd
       0.02133315 -0.035546515 0.017781263 -0.063163124
000060 bc 15 6a bd e7 cc 27 bd 48 52 45 bd ef 01 4f 3d
       -0.057149634 -0.040966894 -0.048174173 0.050538953
000070 b2 63 2d 3d c9 b9 74 bd b9 1d 5b 3d 85 11 4f bd
       0.042331405 -0.05974749 0.053495143 -0.050553817
000080 79 85 f0 ba 9b 86 b6 3c ae a0 82 3d a6 5c 67 3d
       -0.0018350325 0.022280982 0.063783035 0.05648484
000090 37 95 7a bc 08 fc 0f 3c d8 28 da 3c dc 30 57 bd
       -0.015294365 0.008788116 0.026630804 -0.05253683
0000a0 5f d7 fa 3c 53 0b 46 b9 18 81 b0 3c 0a 96 00 bd
       0.030620275 -0.0001888697 0.021545932 -0.03139309
0000b0 16 e2 81 3d 7f 54 ad bc e9 b7 0c 3d 86 d5 3b bc
       0.063419506 -0.021158455 0.034355078 -0.011464482
0000c0 09 80 3d 3c d0 6d 52 3c 62 0d 42 bd 55 09 db 3c
       0.0115661705 0.012843564 -0.047376044 0.026737848
0000d0 0f 74 0d 3a d5 ef f0 bc 75 b0 e8 bc 6a be 55 3d
       0.0005396017 -0.029411236 -0.028404454 0.052183546
0000e0 0b a2 32 bd 1b 90 56 3c cc f9 67 3d 39 e6 9e 3c
       -0.043611567 0.013095881 0.05663471 0.019396888
0000f0 5e 4f 45 bd 5e f1 3b bc b2 8c 4a bc 9c 39 47 bd
       -0.048171394 -0.011471121 -0.012362646 -0.048638925

layer3.1.weight f4 [64]
000000 c6 f8 6c 3f 82 ae 73 3f d3 db 69 3f 22 c1 69 3f
       0.925671 0.9518815 0.9135105 0.9131032
000010 74 cd 6b 3f 91 76 69 3f 06 24 73 3f bd 2a 6d 3f
       0.9211037 0.9119654 0.9497684 0.9264334
000020 1b 34 69 3f d4 49 77 3f 06 bd 75 3f 0f 96 7a 3f
       0.9109513 0.9659703 0.9599155 0.9788522
000030 ca 83 73 3f dc 50 78 3f 69 18 73 3f 86 d6 76 3f
       0.9512297 0.9699838 0.9495912 0.96421087
000040 f9 15 79 3f bc 37 73 3f ae 6c 6b 3f c5 d9 74 3f
       0.9729915 0.9500692 0.9196271 0.9564479
000050 29 74 6c 3f 7e a4 69 3f fb 0d 6e 3f a9 ea 6b 3f
       0.92364746 0.9126662 0.9299008 0.9215494
000060 44 23 79 3f 25 72 72 3f 1d a3 69 3f e4 52 75 3f
       0.97319436 0.9470542 0.91264516 0.95829606
000070 f1 74 71 3f 54 4d 79 3f b8 35 69 3f 23 05 75 3f
       0.94319063 0.9738362 0.91097593 0.95710963
000080 cf 80 6d 3f 67 b5 6a 3f b6 66 6e 3f 7b 4d 6c 3f
       0.9277467 0.9168305 0.93125474 0.92305726
000090 1d 2b 6b 3f 32 8b 69 3f 3c 52 75 3f d8 25 74 3f
       0.9186266 0.9122802 0.95828605 0.95370245
0000a0 f2 67 74 3f 5b f5 69 3f 96 4e 7a 3f 35 cd 73 3f
       0.9547111 0.9139001 0.9777616 0.95234996
0000b0 c0 6b 6d 3f 64 4c 6b 3f 28 7f 7e 3f f2 30 6c 3f
       0.9274254 0.9191344 0.99412775 0.92262185
0000c0 1d b7 75 3f cb 67 6e 3f 08 c8 73 3f 8b f8 73 3f
       0.95982534 0.93127126 0.952271 0.9530112
0000d0 86 e8 6a 3f 82 70 6a 3f b5 a8 6c 3f 8e c3 72 3f
       0.9176105 0.91577923 0.92444927 0.9482964
0000e0 8c a0 72 3f f0 85 79 3f e8 1a 6e 3f 03 a6 6c 3f
       0.94776225 0.9747 0.93009806 0.92440814
0000f0 e0 98 77 3f 30 fe 79 3f 84 f7 76 3f f8 16 69 3f
       0.96717644 0.97653484 0.9647143 0.9105067

layer3.1.bias f4 [64]
000000 6b 46 69 bd 00 3e 94 bd ab ab ac bd 78 0e ab bd
       -0.05695192 -0.07238388 -0.084311806 -0.08352369
000010 33 fa 95 bd a5 17 b1 bd 2b cf 51 bd 3b 1a 91 bd
       -0.07323112 -0.08647088 -0.05122296 -0.07085081
000020 d3 9b b2 bd ff 9a 1a bd 2e 15 2d bd 24 6f 05 bd
       -0.08721127 -0.037745472 -0.042256527 -0.032576695
000030 02 3d 51 bd 85 c6 03 bd a9 cd 94 bd 83 08 26 bd
       -0.051083572 -0.032171745 -0.07265789 -0.04053546
000040 d2 7e 41 bd 4f 1a 51 bd d9 a9 94 bd 51 9e 2b bd
       -0.047240086 -0.05105048 -0.07258958 -0.04189903
000050 d6 80 97 bd d3 6e b1 bd 7d 84 9e bd b2 d3 9a bd
       -0.073976204 -0.08663716 -0.07740114 -0.07559909
000060 89 15 10 bd af 9b 5e bd 66 b8 ae bd eb a9 35 bd
       -0.035176788 -0.05434769 -0.08531265 -0.0443515
000070 3c d7 5b bd cc 5c 0e bd 20 3e b8 bd d0 44 44 bd
       -0.05367206 -0.034756467 -0.089962244 -0.047917187
000080 eb 63 93 bd 65 ab a3 bd 1e 5c 8e bd d6 c2 46 bd
       -0.07196792 -0.07991675 -0.06951164 -0.048525654
000090 26 14 9e bd 14 be a9 bd 27 19 2c bd 12 03 3f bd
       -0.07718687 -0.08288208 -0.042016175 -0.046633787
0000a0 b0 a8 41 bd 6a 9e aa bd 28 e9 ff bc 24 bb 8e bd
       -0.047280014 -0.08330996 -0.031239107 -0.06969288
0000b0 4a 2a 9b bd 52 bf 9d bd b8 ce d4 bc b1 bb a0 bd
       -0.075764254 -0.07702507 -0.025977477 -0.07848299
0000c0 6f 0d 90 bd 28 50 0d bd d4 4a 95 bd 89 84 2e bd
       -0.07033812 -0.03450027 -0.07289663 -0.042606864
0000d0 fc d0 ac bd 85 d6 48 bd ae 0b 9a bd f5 55 4f bd
       -0.08438298 -0.049032707 -0.07521759 -0.050619084
0000e0 18 6f 3f bd 8d 44 f5 bc 77 d2 96 bd d1 f5 99 bd
       -0.046736807 -0.029939914 -0.07364362 -0.07517589
0000f0 bc 86 00 bd a0 60 8f bc ed d3 13 bd 37 3b aa bd
       -0.031378493 -0.01750213 -0.03609078 -0.083120756

layer3.1.running_mean f4 [64]
000000 a3 50 3c c0 ae fe 78 c0 77 4a a6 be 9b d9 18 c0
       -2.9424217 -3.8905444 -0.32478687 -2.3882816
000010 dd 21 ae 40 8a f7 0d c0 e4 10 80 3f 58 87 00 c0
       5.4416337 -2.2182336 1.0005155 -2.0082607
000020 c6 ba 2c c0 55 22 6e 40 e7 cc 9e 40 36 1f 84 40
       -2.6988997 3.7208455 4.9625125 4.12881
000030 2b c9 41 c0 77 f5 9a 40 9f 2a 83 c0 10 3a c5 3e
       -3.0279033 4.842464 -4.098953 0.3852086
000040 98 40 15 40 82 e5 e1 bf e3 62 cc bf ec 28 9b bf
       2.3320675 -1.7648165 -1.5967678 -1.2121863
000050 53 3e 0a 40 61 b6 c7 c0 4d 5f a5 bd cc 80 f3 bf
       2.160054 -6.241013 -0.08074818 -1.9023681
000060 74 49 2b c0 40 12 a9 3f f1 0a 1f be 9f bf 11 40
       -2.6763582 1.3208694 -0.15531518 2.2773206
000070 61 93 e1 be 5a c5 b4 3f 2e c4 87 c0 61 84 22 bf
       -0.44057754 1.4122727 -4.2426977 -0.63483244
000080 65 66 cd 3f 76 f8 97 c0 33 ad c6 bf 62 df 28 40
       1.6046873 -4.7490797 -1.5521606 2.6386342
000090 c6 e6 8b c0 8f 7b 75 c0 ef 5a c6 3f 75 3d f3 3f
       -4.3719206 -3.8356664 1.5496501 1.900313
0000a0 22 37 d6 be f4 a1 3a be c0 8c f2 bf 82 09 96 bf
       -0.41838938 -0.18225843 -1.8949203 -1.1721652
0000b0 84 9a 60 bf 1d 5b 6e 3f eb 4e 33 40 e8 19 2a c0
       -0.8773577 0.9310778 2.8016918 -2.6578312
0000c0 f1 db 39 bf 4f 4d b8 3f 9e a8 38 3f cd 7d 07 40
       -0.7260123 1.4398593 0.7213229 2.1170533
0000d0 6a b5 41 40 b3 cf 9b 40 c9 e8 c4 be f7 6b e4 40
       3.0266976 4.869104 -0.3845885 7.1381793
0000e0 ea e4 9f bd 52 62 80 3f 44 74 64 bd 6e 86 b7 3e
       -0.07807334 1.0030005 -0.055774942 0.3584475
0000f0 a1 5e 9d 3f d8 57 11 40 49 5e 7a 3f af a4 d9 3e
       1.2294503 2.2709866 0.9780012 0.42508456

layer3.1.running_var f4 [64]
000000 2b 8a 5e 41 f6 d0 4d 41 a0 d9 22 41 5b d7 41 41
       13.908732 12.863516 10.178131 12.115077
000010 f0 01 53 40 2a 7e 80 40 cb 53 34 40 68 9f 9d 3f
       3.2969933 4.015401 2.8176143 1.2314272
000020 18 e3 d0 40 2f 90 3e 41 0d 72 6e 40 70 36 b1 40
       6.5277214 11.910201 3.725711 5.537895
000030 3a 4f bf 40 40 f1 9a 40 30 01 b0 3f dc 9c a8 40
       5.978421 4.8419495 1.3750362 5.269148
000040 97 28 0a 40 96 01 26 40 46 e7 6a 40 e0 b2 b1 3f
       2.1587274 2.5938468 3.6703658 1.3882713
000050 f0 e3 ba 3f c2 98 2e 41 03 e8 68 41 64 14 3d 41
       1.4600811 10.912294 14.5566435 11.817478
000060 71 3e 9a 40 cf 82 71 41 08 0d db 40 bb a7 ef 40
       4.8201222 15.094436 6.8453407 7.489225
000070 8c d3 e5 3f 86 55 6d 40 3a 43 2e 41 c1 9b e6 40
       1.7955184 3.708345 10.891413 7.206513
000080 4f a1 d9 3f 9f e3 a8 40 7e 15 6e 40 cf ac 1c 40
       1.7002352 5.277786 3.7200618 2.4480474
000090 7e 2d 1e 41 dd d9 98 40 ac a6 e1 40 c3 78 97 40
       9.8861065 4.7765946 7.0515957 4.7334914
0000a0 26 20 ee 40 59 28 b0 3f 7c d4 6a 40 f9 bd 88 40
       7.4414244 1.3762313 3.669219 4.27319
0000b0 66 27 29 41 36 40 8c 3f 32 e4 b0 40 f6 ba 76 41
       10.572119 1.0957096 5.527856 15.420645
0000c0 a8 b0 d7 40 fa cd 1d 41 13 72 44 41 e1 ed ad 40
       6.7403145 9.862787 12.27785 5.435288
0000d0 01 db b9 40 53 5d ad 40 3b c0 f0 40 0e 67 27 41
       5.807984 5.417642 7.5234656 10.46266
0000e0 d6 75 73 41 3a 82 79 40 44 ba 86 41 2e 62 17 41
       15.216269 3.8985734 16.84095 9.46147
0000f0 14 b6 02 41 e4 2b da 40 9c be df 3f 4e ea 99 40
       8.169453 6.8178577 1.7480044 4.8098516

fc1.weight f4 [10, 576]
000000 14 cd e4 bc 25 69 b5 bd a2 16 0d bd 45 8d a2 bd
       -0.02792982 -0.08857945 -0.034445412 -0.07937101
000010 5a 56 56 bd 43 49 f1 bc b7 c9 a6 bc 6c 84 1c bd
       -0.052328445 -0.02945388 -0.020359857 -0.038212225
000020 51 d8 9d bd 34 ea 3f bd 8d 9e a4 bd 22 30 2b bc
       -0.07707275 -0.046854213 -0.08038054 -0.0104484875
000030 d3 3d a1 bd 60 73 ed bc 54 7c 0b bd 9a fc b2 bc
       -0.0787312 -0.02898568 -0.034054115 -0.021848965
000040 23 3c 13 bd 67 55 4f bd 50 21 02 3b 87 ba 60 bd
       -0.035946023 -0.050618555 0.0019856282 -0.054865386
000050 ed 12 48 bd 74 44 55 bb c7 79 1d bc 88 a9 81 bd
       -0.048846174 -0.0032542022 -0.0096115535 -0.06331164
000060 c4 ed d0 bc 1c 66 38 bd 95 46 65 bd b7 36 ad bd
       -0.025504 -0.045019254 -0.055975515 -0.08457702
000070 a9 84 79 bd 9c 4a 90 bd 3d 19 83 bd 7a 4b 6a bd
       -0.06091753 -0.070454806 -0.06401298 -0.057200886
000080 70 53 72 bd 06 d5 ab bd 24 10 e1 bc ae 0d 24 bd
       -0.059161603 -0.0839024 -0.027473517 -0.04005211
000090 c4 15 6d bd 3f 58 92 bd 6e 25 87 bd d6 a6 68 bd
       -0.057882085 -0.07145738 -0.06598936 -0.056799732
0000a0 1c 5a 9a bd 51 16 a2 bd 1a 61 8b bc 94 a1 91 bd
       -0.07536718 -0.07914413 -0.017014075 -0.07110897
0000b0 73 15 da bb b5 ca 77 bd 91 67 7f bd f4 95 6a bd
       -0.006655389 -0.06049605 -0.062354628 -0.057271913
0000c0 36 76 92 bd ac 23 03 bd a7 97 bb bd 12 03 ac bd
       -0.07151453 -0.03201644 -0.09159785 -0.08399023
0000d0 1f fd 9e bc ef 2b 8c bd 57 d1 3e bc cf 0f 57 bd
       -0.019407807 -0.06844317 -0.01164659 -0.05250531
0000e0 91 12 5d bd 42 5c 52 bd c6 0a ad bc ae 05 27 bd
       -0.053972784 -0.051357515 -0.021123301 -0.0407769
0000f0 cd 13 80 bc af 6b c6 bc 04 4d 57 bb de b9 29 bd
       -0.015634442 -0.02422127 -0.0032852301 -0.041437022
000100 46 cc 89 bd 2a f1 85 bc 60 81 a8 bd 3c e0 a6 bd
       -0.06728415 -0.016350348 -0.08227801 -0.08148238
000110 30 3c 86 bd 77 0a 3d bd e2 e0 dc bc a4 e9 a6 bd
       -0.065544486 -0.04615256 -0.026962701 -0.08150032
000120 19 44 ae bc 10 bd a1 bd 82 86 72 bd 0c 96 48 bd
       -0.021272706 -0.07897389 -0.059210308 -0.04897122
000130 92 60 d0 bc 1a 68 79 bc d8 19 86 bd 43 5f d5 bc
       -0.025436673 -0.015222574 -0.06547898 -0.0260464
000140 ee f8 3d bd 69 79 44 bd 9c 65 0c bd 3f d1 0f bd
       -0.046379976 -0.04796735 -0.03427659 -0.035111662
000150 e4 79 b5 bd 4d 23 55 bd 10 5b 89 bd 96 92 95 bd
       -0.088611394 -0.05203562 -0.06706822 -0.0730335
000160 f5 de 21 bd 31 23 5c 3a bb 52 9b bc ec 95 77 bd
       -0.03951927 0.0008397578 -0.018960347 -0.06044571
000170 e8 da 10 bc 08 8b 6d bd 14 7c 6d bd 40 8a fa bc
       -0.008841254 -0.05799392 -0.05797966 -0.0305835
000180 47 ae 7f bd d6 f5 79 bd 69 17 a4 bb cb 05 f0 bb
       -0.062422063 -0.061025463 -0.0050076735 -0.0073249093
000190 1a 87 8a bd cb d5 9c 3b b2 83 9f bd 71 e1 7c bc
       -0.0676405 0.0047862283 -0.07788791 -0.015434609
0001a0 cd 8d 0c bd 9a d8 34 bd 8c de e9 bc 1a b4 be bc
       -0.03431492 -0.04415188 -0.028548501 -0.023279238
0001b0 c3 8a cc bc f0 e1 9e bc ca 30 c9 bc bd 11 5c bd
       -0.02496851 -0.019394845 -0.024559397 -0.053727854
0001c0 0f 03 9d bd 82 1f d9 bc da 4a 7a bd d4 aa c9 bc
       -0.07666599 -0.026504282 -0.06110654 -0.02461759
0001d0 d0 f7 54 bc 9b 08 6d bd 53 de 8c bd 16 8d 32 bd
       -0.012998536 -0.057869535 -0.068783425 -0.04359158
0001e0 73 48 a4 bd 69 65 86 bd d9 bb 9b bd 9b b3 2e bd
       -0.08021631 -0.06562311 -0.076041885 -0.042651754
0001f0 a3 86 08 bb 35 d5 29 bd 3d 2d b8 bc cd 66 93 bd
       -0.0020832203 -0.041463096 -0.022482509 -0.07197342
000200 ab 68 1a bd 01 b1 cd bd fe 3b 85 bd 37 df da bd
       -0.037697475 -0.100435264 -0.06505583 -0.10687106
000210 81 76 9c bd c9 d7 af bd 04 f3 0a bd a6 d9 56 bd
       -0.0763979 -0.085860796 -0.033923164 -0.05245366
000220 52 89 44 bd 57 94 e7 3b a7 9b f5 bb fd df 5b bd
       -0.04798252 0.007067244 -0.007495362 -0.05368041
000230 e2 75 5f bd 78 c8 3d bd f8 52 99 bd b3 20 38 bd
       -0.05455578 -0.04633376 -0.07486528 -0.04495306
000240 e8 5c a8 ba bb d3 44 bd ca 6b 94 bd 90 fe 77 bc
       -0.0012845071 -0.048053484 -0.07247122 -0.015136376
000250 df a8 87 bd b0 f9 97 bd 6d 8c 9b bd 90 21 af bd
       -0.066240065 -0.07420671 -0.075951435 -0.085513234
000260 d7 32 11 bd 8f 38 78 bc 9a 32 94 bd 50 3a f3 bc
       -0.035448875 -0.015150203 -0.07236214 -0.029690892
000270 cf b0 4a bd 96 e5 18 bd de d8 2d bd 18 84 83 bc
       -0.049485024 -0.037328325 -0.04244315 -0.016054198
000280 8a ee 93 bd 96 e4 35 bd d3 49 74 bd 40 94 3e bd
       -0.07223232 -0.04440745 -0.059640717 -0.0465281
000290 6f 57 77 bb 88 89 00 bd 07 14 aa bc cf f4 8f bd
       -0.0037741323 -0.03138116 -0.020761503 -0.070291154
0002a0 07 30 9e bc 4a 8c ee bc b8 d5 a8 bd e0 e6 63 bd
       -0.01931001 -0.02911963 -0.082438886 -0.0556401
0002b0 b5 dc 60 bc 54 7d 46 bd 67 73 1f bc ad 44 99 bd
       -0.013724496 -0.048459366 -0.009732104 -0.07483802
0002c0 c4 85 f9 ba a2 3c e0 bc d7 30 4b bd 57 ed bb bc
       -0.0019037058 -0.027372662 -0.049607124 -0.02294032
0002d0 4e 10 5a bd ac e6 6b bd b1 62 34 bd 0f 14 1e bd
       -0.053238206 -0.057593033 -0.044039432 -0.038593348
0002e0 af 66 a2 bc bf ec 8e bd 5f 37 b2 bd 87 f8 49 bc
       -0.019824354 -0.069787495 -0.087019674 -0.01232732
0002f0 33 ee 44 bd e9 4e 4f bd cc 7b 8b bd 59 c1 27 bd
       -0.048078727 -0.050612364 -0.06810722 -0.040955875
000300 8d 6f 12 ba 7b 2c 29 bc 0b 41 d7 bc 4b 9d 26 bd
       -0.00055860804 -0.010325546 -0.026276132 -0.04067735
000310 20 75 51 bb a5 e3 d7 bc 56 5c bc bd 87 53 96 bd
       -0.003196068 -0.026353667 -0.09197299 -0.0734015
000320 33 1d dd bd 33 52 99 bd f0 47 10 bd 70 d1 9a bd
       -0.10796585 -0.074863814 -0.035224855 -0.07559478
000330 f8 90 6e bd 40 4d c3 bc 15 62 bd bd 5e 23 8b bc
       -0.05824372 -0.023840547 -0.09247223 -0.016984638
000340 a2 9f d2 bc 16 f6 81 bd 29 5f 3e bd a2 b6 24 bc
       -0.025710884 -0.06345765 -0.04647747 -0.010053309
000350 98 a6 59 bd fa 67 6e bd 2f 42 bc bc 74 d2 54 bd
       -0.05313739 -0.05820463 -0.022980778 -0.051958516
000360 86 e4 90 bd 8c 9d 12 bd f8 4d 88 bd 4e c9 b9 bd
       -0.070748374 -0.03579478 -0.06655496 -0.09071599
000370 be bb 90 bd e1 3b ad bd 05 38 ba bd 46 d7 b0 bc
       -0.07067059 -0.084586866 -0.09092716 -0.021587025
000380 e5 73 14 bd 7e 22 c3 bd 70 00 94 bd 7c 0d 16 bd
       -0.03624334 -0.09528063 -0.07226646 -0.036633953
000390 0b 6d 81 bd 84 f7 96 bc f7 0d 43 bd 6d c1 c1 bc
       -0.063196264 -0.018428572 -0.04762074 -0.023651803
0003a0 42 5b 5f bd f7 e6 9a bc 1f 50 bc bc 06 c2 86 bd
       -0.05453039 -0.01890896 -0.022987423 -0.06579976
0003b0 c3 2f 80 bd 9e 99 0d bd 7d e8 5b bc 02 b1 04 bd
       -0.0625911 -0.03457033 -0.013422129 -0.03239537
0003c0 bb c8 14 bd 51 d3 10 bd d6 3b 82 bc ce ba 9f bd
       -0.036324244 -0.035357777 -0.015897673 -0.07799302
0003d0 af a8 21 bc 6c 8d 69 bd d4 31 aa bd 63 10 69 bd
       -0.009866877 -0.057019636 -0.08310285 -0.056900393
0003e0 a3 9a 84 bc 24 4e 85 bb 60 b2 0e bd 53 ec 6b bc
       -0.016187018 -0.004068153 -0.03483808 -0.014399606
0003f0 c4 66 b1 bd 04 82 06 bd 35 2a 83 bd 75 f0 38 bd
       -0.08662179 -0.032838836 -0.06404535 -0.045151193

fc1.bias f4 [10]
000000 52 66 6a bd e3 86 d9 bc da a9 51 bd d6 e0 b5 bd
       -0.057226487 -0.026553577 -0.051187374 -0.08880775
000010 99 33 6c bd de a7 8a bd c6 69 b7 bd b3 cf 1b bd
       -0.057666395 -0.067702994 -0.089557216 -0.038039874
000020 9e e4 aa bd 2a 22 dc bc
       -0.083443865 -0.02687176

fc2.weight f4 [2, 10]
000000 9a 3d 6d 3e 2e 86 a0 bd f1 55 a1 3d e5 d8 82 be
       0.2316803 -0.07838093 0.0787772 -0.25556102
000010 52 2f c4 3b 05 f4 64 3e b8 43 cc 3d ca 9b 53 bd
       0.0059870863 0.22358711 0.09973854 -0.051662244
000020 55 98 be bd 9f f6 0d 3d f4 24 1d 3e d4 57 e4 bd
       -0.09306399 0.034659024 0.15346128 -0.111495644
000030 a9 67 6e be 72 65 4a be 65 1e 0d 3e ee f2 8a bd
       -0.2328173 -0.19765261 0.13781126 -0.067846164
000040 fa 1a 91 bd 8e e3 29 bd 28 b2 0a be 03 49 08 3e
       -0.070852235 -0.04147678 -0.13544524 0.13309102

fc2.bias f4 [2]
000000 35 27 51 3e 26 6d 2f 3e
       0.20425113 0.1713148
