Lab5/model_25_0.0001.pth (torch, 379043 bytes, 54 tensors)

layer1.0.weight f4 [16, 3, 3, 3]
-0.15535682 0.07154716 -0.16890088 0.08480593 -0.1701269 -0.124292895 0.17588903 0.16816878
0.08396466 0.020162527 0.13697416 0.122638814 0.0030690439 -0.0787925 -0.01453674 0.016578037
0.0021608898 -0.018467583 -0.08432728 0.042510763 -0.16831394 0.035552453 0.18514462 0.11636858
-0.12887836 0.026083805 0.15815811 -0.18939 0.13372047 0.14664002 0.028461533 -0.025289925
0.1720911 0.17408921 0.03156183 0.12986471 -0.083782375 0.13412124 0.17139038 -0.14703918
-0.12919809 -0.045060072 0.06468538 0.16974817 -0.09327681 -0.17570083 -0.14919314 0.12810758
-0.019693715 0.034988824 0.1207014 0.12602298 0.012594086 0.13303125 0.15459554 0.12759008
0.102017954 0.08227549 -0.18441287 0.1300818 -0.18700118 -0.036844242 0.06503023 0.100298576
0.13683738 -0.17487483 0.078255124 0.16782033 -0.006495068 -0.13748553 0.07941757 0.030168278
0.063767746 -0.18165135 -0.17863372 -0.18862145 -0.0068232263 0.12015454 -0.15658231 -0.049183965
-0.034467343 0.05964398 -0.0070342286 -0.16992494 0.14477237 -0.05917665 0.0014816063 -0.090907246
0.13119012 0.11027415 0.014719463 0.13150537 -0.09949849 -0.1576062 -0.12963569 -0.19760638
0.13928123 -0.035642527 0.14422612 0.0032500927 -0.04119271 -0.025666006 0.07779169 0.015398006
0.0037199955 0.0039864373 0.14022838 -0.084493004 0.17264037 0.13197963 -0.12151836 -0.18272729
0.074174635 0.009673188 -0.02773965 0.18008369 0.02087282 -0.17674161 -0.052988064 0.12489908
-0.05823881 -0.15790568 0.09262906 0.16278565 0.15079717 -0.068525605 0.16025406 0.16140229
0.023798397 0.11766514 0.12171709 0.038601752 0.1176959 -0.15058634 -0.054293077 -0.04427869
-0.12291183 0.15138383 -0.037986547 -0.10896662 0.011441385 -0.08369139 -0.09325228 0.1736973
-0.022835495 -0.19666874 -0.0339294 0.051748168 -0.123908624 -0.18835588 -0.010998901 0.09840322
-0.12647416 -0.051713366 -0.16986015 -0.047642615 -0.014418393 -0.06636217 -0.064282335 0.083443016
0.07233241 -0.06295084 -0.0143674305 -0.111664414 0.06458003 0.06454774 0.08512573 0.1251478
-0.004119968 -0.16107708 0.17319651 -0.14227565 -0.14854032 -0.10120334 -0.11045305 0.09504859
-0.063581154 -0.049902543 -0.13679379 0.15935326 0.1914516 -0.042168707 0.12371124 -0.18798156
-0.11787211 0.038895212 -0.12719704 -0.039822746 0.047937658 -0.03954336 0.13232815 0.105308436
0.12993616 -0.071215674 -0.1645459 0.07152358 0.005798019 -0.0033337984 0.02416425 -0.12059625
-0.02665436 -0.117945395 0.03355299 0.11238743 -0.022021944 -0.17748927 -0.11598304 0.10328879
-0.1414074 -0.005322357 -0.14570108 0.18703759 0.0396267 0.14890398 0.19085364 -0.17911443
0.0033467892 0.048357833 0.07008615 -0.018390222 0.023994727 -0.062916405 0.16550493 0.05875975
0.01029111 -0.15007164 -0.07652491 0.05261863 -0.08237288 -0.06758846 -0.117684774 0.03750507
0.003928789 0.14031917 0.03355251 -0.16631165 -0.034508333 -0.0720129 -0.07553396 -0.16566673
-0.10235216 -0.03283541 -0.19879682 -0.1730886 -0.12249799 -0.15464985 -0.17714849 -0.06229123
-0.102552764 0.15375791 -0.08877449 0.13457529 0.13681881 -0.02167702 0.17415991 0.02817003
00000000: dc15 1fbe 5187 923d 5af4 2cbe bbae ad3d
00000010: bf35 2ebe 468d febd 411c 343e 7034 2c3e
00000020: aaf5 ab3d e22b a53c f442 0c3e 0f2a fb3d
00000030: 0322 493b f65d a1bd 822b 6ebc aace 873c
00000040: b79d 0d3b 5449 97bc c8b3 acbd c41f 2e3d
00000050: 7d5a 2cbe 739f 113d 8d96 3d3e a652 ee3d
00000060: b0f8 03be b4ad d53c 33f4 213e 74ef 41be
00000070: 05ee 083e cd28 163e 2928 e93c d12c cfbc
00000080: a638 303e 7144 323e fa46 013d 41fb 043e
00000090: 1896 abbd 1457 093e f680 2f3e 7091 16be
000000a0: 814c 04be e990 38bd c579 843d 77d2 2d3e
000000b0: ea07 bfbd ebea 33be 16c6 18be a22e 033e
000000c0: b754 a1bc 7150 0f3d 4c32 f73d 2b0c 013e
000000d0: 6d57 4e3c 5839 083e 4b4e 1e3e f9a6 023e
000000e0: caee d03d 0d80 a83d bad6 3cbe 2a34 053e
000000f0: 3d7d 3fbe fde9 16bd 922e 853d 5769 cd3d
00000100: 191f 0c3e 6312 33be 3944 a03d 18d9 2b3e
00000110: 94d4 d4bb 02c9 0cbe aea5 a23d 7723 f73c
00000120: aa98 823d d002 3abe c2eb 36be fb25 41be
00000130: 5f95 dfbb 9513 f63d 1d57 20be 2075 49bd
00000140: a12d 0dbd 3f4d 743d 637f e6bb ce00 2ebe
00000150: 353f 143e 3763 72bd 7532 c23a 942d babd
00000160: b456 063e 6ad7 e13d e729 713c 58a9 063e
00000170: ddc5 cbbd 8563 21be 38bf 04be 5459 4abe
00000180: bd9f 0e3e e6fd 11bd 03b0 133e 82ff 543b
00000190: b0b9 28bd 8441 d2bc 4051 9f3d eb47 7c3c
000001a0: 2bcb 733b a9a0 823b 0798 0f3e ab0a adbd
000001b0: a3c8 303e ab25 073e 9ede f8bd dd1c 3bbe
000001c0: dfe8 973d 4b7c 1e3c 433e e3bc dc67 383e
000001d0: 7afd aa3c c1fb 34be 030a 59bd 17cb ff3d
000001e0: d28b 6ebd 07b2 21be 4eb4 bd3d 48b1 263e
000001f0: 936a 1a3e 2757 8cbd a419 243e a446 253e
00000200: dbf4 c23c 6cfa f03d cf46 f93d df1c 1e3d
00000210: 8c0a f13d 4e33 1abe 6b62 5ebd 925d 35bd
00000220: 33b9 fbbd 5d04 1b3e c897 1bbd e429 dfbd
00000230: a674 3b3c 6466 abbd 0dfb bebd b4dd 313e
00000240: 8111 bbbc 8863 49be 8ef9 0abd e3f5 533d
00000250: cec3 fdbd 5de0 40be bc34 34bc a187 c93d
00000260: 7182 01be 65d1 53bd d2ef 2dbe e724 43bd
00000270: 203b 6cbc e4e8 87bd 75a6 83bd 2ce4 aa3d
00000280: 0423 943d 5fec 80bd 5f65 6bbc 50b0 e4bd
00000290: 8942 843d 9b31 843d 6656 ae3d bf26 003e
000002a0: cc00 87bb 64f1 24be 6d5a 313e b5b0 11be
000002b0: f41a 18be b243 cfbd 3535 e2bd d6a8 c23d
000002c0: d636 82bd 9c66 4cbd ac13 0cbe 802d 233e
000002d0: e30b 443e 18b9 2cbd 525c fd3d 3d7e 40be
000002e0: ef66 f1bd 9650 1f3d f13f 02be 2d1d 23bd
000002f0: 475a 443d 38f8 21bd 0881 073e f3ab d73d
00000300: fc0d 053e 86d9 91bd b87e 28be f47a 923d
00000310: 4ffd bd3b db7b 5abb 1bf4 c53c 2bfb f6bd
00000320: 3f5a dabc 5b8d f1bd dc6e 093d 622b e63d
00000330: 5d67 b4bc bfbf 35be 8488 edbd 1389 d33d
00000340: 1acd 10be 2b67 aebb aa32 15be c886 3f3e
00000350: 9b4f 223d 497a 183e 236f 433e c669 37be
00000360: ce55 5b3b dd12 463d 5489 8f3d 17a7 96bc
00000370: 9790 c43c 51da 80bd 207a 293e 10ae 703d
00000380: 0b9c 283c 61ac 19be 18b9 9cbd a286 573d
00000390: 1db3 a8bd d26b 8abd b704 f1bd eb9e 193d
000003a0: 12bd 803b d4af 0f3e 5b6e 093d 9a4d 2abe
000003b0: 9c58 0dbd 807b 93bd 8cb1 9abd 8aa4 29be
000003c0: 029e d1bd 6c7e 06bd 6591 4bbe 233e 31be
000003d0: 3ae0 fabd 885c 1ebe 6a66 35be 1725 7fbd
000003e0: 2f07 d2bd b772 1d3e 66cf b5bd 1bce 093e
000003f0: 3b1a 0c3e 0194 b1bc fa56 323e d6c4 e63c

layer1.0.bias f4 [16]
-0.061491627 -0.022380807 -0.092380956 0.07291683 0.033693075 0.10399392 -0.15910552 0.045673735
-0.045165066 0.008387604 0.06494659 0.025608057 0.19003372 0.114384465 0.0075108665 -0.06555438
00000000: a5de 7bbd f457 b7bc 3a32 bdbd 6b55 953d
00000010: c001 0a3d c4fa d43d 8fec 22be 6214 3b3d
00000020: 01ff 38bd 296c 093c b802 853d fdc7 d13c
00000030: 3398 423e 6742 ea3d b71d f63b 6041 86bd

layer1.1.weight f4 [16]
0.9991614 1.0013001 0.98695683 1.0052905 0.99363244 1.0032777 0.9999549 1.0068035
0.9993827 1.0012312 0.99371195 0.9985951 0.9970185 1.0080924 0.9993674 1.0051239
00000000: 0bc9 7f3f 9a2a 803f 34a9 7c3f 5cad 803f
00000010: b25e 7e3f 676b 803f 0bfd 7f3f f0de 803f
00000020: 8bd7 7f3f 5828 803f e863 7e3f eea3 7f3f
00000030: 9b3c 7f3f 2c09 813f 8bd6 7f3f e6a7 803f

layer1.1.bias f4 [16]
-7.640543e-05 0.0029506767 -0.010693899 0.008134058 -0.0044836127 0.0030507182 -0.005721775 0.013177407
-0.0025146308 0.0015022573 0.0019128415 0.0056636874 -0.0027415145 0.019217102 -0.0008885366 0.0061796596
00000000: da3b a0b8 2460 413b 7735 2fbc b644 053c
00000010: 45eb 92bb 8fee 473b ba7d bbbb 0de6 573c
00000020: 81cc 24bb 64e7 c43a 4fb8 fa3a 7496 b93b
00000030: fbaa 33bb 2f6d 9d3c afec 68ba be7e ca3b

layer1.1.running_mean f4 [16]
0.08703925 0.41027912 -0.06064751 0.08192297 0.39474067 -0.38400128 -0.33200616 0.009138396
-0.3361407 -0.10898805 0.28161937 0.26100323 0.68656987 0.12101621 0.09210495 0.3695797
00000000: a241 b23d 1b10 d23e 8669 78bd 3bc7 a73d
00000010: 731b ca3e d19b c4be b6fc a9be 36b9 153c
00000020: a21a acbe 2035 dfbd 6a30 903e 37a2 853e
00000030: 0bc3 2f3f 59d7 f73d 85a1 bc3d 8d39 bd3e

layer1.1.running_var f4 [16]
0.0075462735 0.04675711 0.0074753286 0.0007945998 0.041587293 0.0644808 0.011315012 0.0013356722
0.04634315 0.0057128584 0.010077082 0.026776796 0.07931533 0.00033359014 0.0066521624 0.046373677
00000000: bb46 f73b 6284 3f3d 9af3 f43b b14c 503a
00000010: 7057 2a3d 820e 843d 9a62 393c b911 af3a
00000020: 51d2 3d3d ee32 bb3b 581a 253c 035b db3c
00000030: 1370 a23d b6e5 ae39 62fa d93b 53f2 3d3d

layer2.0.weight f4 [32, 16, 3, 3]
-0.07733355 -0.075328745 0.022043591 0.019177485 -0.07301149 -0.006386346 -0.038158484 -0.0005057787
-0.016403232 -0.0742969 0.020864442 0.06258689 0.029857755 0.021827001 -0.07983642 -0.070624866
-0.03581736 -0.0024911293 -0.0011065797 -0.058454506 0.03815787 -0.077665545 0.012815082 -0.045659583
-0.07802851 0.038496748 -0.037084337 0.061590582 -0.060669187 -0.062874444 -0.00027425095 -0.065539956
0.048326798 -0.06914627 -0.027047494 0.006422098 0.05784363 0.010112458 -0.003096936 0.031420767
-0.08304621 0.022872198 0.06920012 -0.059617724 0.015729794 -0.06902207 0.015460559 -0.04730949
-0.06303187 -0.012230526 0.053304475 0.0067792777 0.0039654463 -0.063549355 -0.06095005 -0.018445546
0.046151172 0.07102264 -0.04861007 0.042495158 -0.07235786 -0.052889 -0.0054638726 -0.018867077
-0.03950524 -0.03632163 -0.07062933 -0.072972946 -0.0733118 -0.030439653 -0.07478255 0.028301787
-0.06837458 0.06698044 0.015331471 -0.041473903 -0.00045784784 -0.023208752 -0.0114261815 0.08154809
-0.019220982 0.05167478 0.024472123 -0.058819037 -0.017626226 -0.011654477 -0.06640113 0.065780886
-0.037029315 -0.070580944 0.020918116 0.031865813 -0.025580525 0.05261113 0.008406525 0.03400947
0.044990487 -0.07646244 -0.056621343 -0.0006014349 -0.060630772 -0.03630436 -0.040505365 -0.038262777
-0.042621948 0.07688072 0.0063757556 0.029437592 0.07912853 -0.076853946 0.013792257 0.06632702
0.01601661 -0.014558451 -0.0843176 0.032795556 -0.008115033 -0.013964929 -0.048499197 0.054439105
-0.04936554 -0.03739445 0.0026227946 0.0076620914 -0.0045099137 0.06322317 -0.027207749 0.07168054
0.052821077 -0.06677139 -0.011698367 -0.063870214 0.0054332907 -0.07762155 -0.010776657 0.03015305
-0.00200215 -0.075640656 -0.04031005 0.03404836 0.055089332 0.041933786 0.0066253277 0.028968442
0.07640477 0.047640834 0.0028709946 -0.06175052 0.04617975 -0.006241149 -0.04431394 -0.075388096
0.05030192 0.034916494 -0.011026086 0.051185314 -0.07281824 0.05763578 -0.010422785 -0.022040192
-0.027996631 0.05026103 0.008409846 -0.02511295 0.067497976 0.032489005 -0.038359657 0.004553893
0.05305363 0.026750067 -0.062048946 0.033938598 -0.07926414 -0.016692298 -0.058330014 0.042130027
0.058447026 -0.03267443 -0.02101045 -0.07152091 -0.023365153 -0.06473332 0.0076458333 -0.06178618
0.06488486 0.05082793 0.061974484 0.032730576 0.05654886 0.08062164 -0.040699895 0.02510549
0.020439694 -0.06190845 -0.038740434 0.062005013 -0.0025229335 -0.014550479 0.03275656 0.06798739
-0.040440913 -0.0054298453 0.08071815 -0.037406668 0.0040020817 0.059490398 0.06709795 0.04082428
0.062737636 -0.019412009 -0.018136075 0.054350637 0.08745195 -0.044597257 0.018963188 0.07964539
-0.044907533 0.019057387 -0.032059494 0.010422608 0.04616812 0.051236644 0.021766692 -0.009857869
-0.0384991 0.030407611 -0.08451193 0.041979704 -0.023797918 -0.05896039 -0.059405353 0.021832118
0.007450934 0.058476344 0.020438898 0.0063925358 0.008979197 0.056166958 -0.014728105 0.011228418
0.017372215 0.06962811 -0.054691 0.016027689 -0.005764372 -0.023921791 0.005903771 -0.07592028
0.048155498 -0.032747023 -0.011366769 -0.04783566 -0.020502897 0.009013799 0.02304948 0.0029356487
00000000: 0d61 9ebd f545 9abd c394 b43c 1a1a 9d3c
00000010: 0c87 95bd 8e44 d1bb 124c 1cbd 3c96 04ba
00000020: 1260 86bc f928 98bd e8eb aa3c 8e2d 803d
00000030: 4098 f43c 8ace b23c 4781 a3bd c5a3 90bd
00000040: 39b5 12bd 3742 23bb a70a 91ba fe6d 6fbd
00000050: 6d4b 1c3d 1d0f 9fbd 5af6 513c 8b05 3bbd
00000060: 69cd 9fbd c4ae 1d3d bfe5 17bd 6846 7c3d
00000070: 4180 78bd 51c4 80bd 57c9 8fb9 d039 86bd
00000080: 52f2 453d 8f9c 8dbd b592 ddbc 7670 d23b
00000090: 71ed 6c3d b9ae 253c f7f5 4abb 10b3 003d
000000a0: 2214 aabd 7a5e bb3c cbb8 8d3d b731 74bd
000000b0: c5db 803c 715b 8dbd 494e 7d3c 99c7 41bd
000000c0: da16 81bd 8b62 48bc cb55 5a3d b424 de3b
000000d0: 93f0 813b 2a26 82bd c2a6 79bd 1d1b 97bc
000000e0: 0309 3d3d 5174 913d 5a1b 47bd 670f 2e3d
000000f0: 5c30 94bd 23a2 58bd 490a b3bb 218f 9abc
00000100: 3fd0 21bd fdc5 14bd 1ca6 90bd d772 95bd
00000110: 7f24 96bd 945c f9bc 9827 99bd 26d9 e73c
00000120: f907 8cbd 0a2d 893d da30 7b3c 8ae0 29bd
00000130: 4c0b f0b9 4820 bebc e134 3bbc af02 a73d
00000140: 5275 9dbc efa8 533d c379 c83c 3bec 70bd
00000150: e064 90bc 6bf2 3ebc 51fd 87bd 21b8 863d
00000160: 0dac 17bd be8c 90bd 785c ab3c ba85 023d
00000170: 408e d1bc c57e 573d 85bb 093c 844d 0b3d
00000180: f247 383d 5798 9cbd c8eb 67bd 9da9 1dba
00000190: f957 78bd e1b3 14bd f4e8 25bd 6eb9 1cbd
000001a0: 5a94 2ebd a473 9d3d b7eb d03b 1b27 f13c
000001b0: 240e a23d 9a65 9dbd ebf8 613c 76d6 873d
000001c0: 4435 833c 9286 6ebc b5ae acbd a254 063d
000001d0: eaf4 04bc 28cd 64bc 18a7 46bd 8afb 5e3d
000001e0: 8533 4abd ec2a 19bd 31e3 2b3b 4812 fb3b
000001f0: e6c7 93bb 267b 813d c9e2 debc 3fcd 923d
00000200: ea5a 583d 70bf 88bd 82aa 3fbc 63ce 82bd
00000210: bf09 b23b 0cf8 9ebd 9390 30bc 8703 f73c
00000220: 8136 03bb 7de9 9abd 271c 25bd 4b76 0b3d
00000230: 5aa5 613d c3c2 2b3d 4719 d93b 3a4f ed3c
00000240: 1b7a 9c3d 0923 433d 4c27 3c3b 1dee 7cbd
00000250: fa26 3d3d 8d82 ccbb 8982 35bd 1365 9abd
00000260: 6309 4e3d 9904 0f3d c2a6 34bc b1a7 513d
00000270: bb21 95bd 7f13 6c3d 54c4 2abc a28d b4bc
00000280: 3159 e5bc 83de 4d3d 73c9 093c acb9 cdbc
00000290: 613c 8a3d 3113 053d 041f 1dbd d338 953b
000002a0: c34e 593d f522 db3c 0927 7ebd 3303 0b3d
000002b0: 3d55 a2bd 49be 88bc 74eb 6ebd 8990 2c3d
000002c0: 2666 6f3d a0d5 05bd 1b1e acbc 8e79 92bd
000002d0: 4768 bfbc e792 84bd e689 fa3b 8113 7dbd
000002e0: 5ae2 843d f330 503d f5d8 7d3d 7f10 063d
000002f0: c79f 673d f51c a53d efb4 26bd 07aa cd3c
00000300: 2571 a73c b793 7dbd 4aae 1ebd f8f8 7d3d
00000310: cd57 25bb 2265 6ebc be2b 063d f93c 8b3d
00000320: 5fa5 25bd d8ec b1bb 8f4f a53d bc37 19bd
00000330: e523 833b 34ac 733d a66a 893d 5c37 273d
00000340: 977c 803d ef05 9fbc 1b92 94bc c69e 5e3d
00000350: 021a b33d 9dab 36bd b058 9b3c 1f1d a33d
00000360: f6f0 37bd 3d1e 9c3c d150 03bd 96c3 2a3c
00000370: c81a 3d3d 84dd 513d 1050 b23c e682 21bc
00000380: 3bb1 1dbd 6219 f93c 9714 adbd e9f2 2b3d
00000390: daf3 c2bc 7380 71bd 0753 73bd 45d9 b23c
000003a0: f726 f43b e484 6f3d 7a6f a73c 7a78 d13b
000003b0: 7b1d 133c 530f 663d 264e 71bc 66f7 373c
000003c0: 2d50 8e3c 2f99 8e3d ac03 60bd 804c 833c
000003d0: 0fe3 bcbb a2f7 c3bc 6c74 c13b 177c 9bbd
000003e0: b33e 453d be21 06bd af3b 3abc 53ef 43bd
000003f0: b1f5 a7bc 9dae 133c 43d2 bc3c 0364 403b

layer2.0.bias f4 [32]
0.01404512 0.076847605 0.08038276 0.0709354 -0.035641078 0.043197732 0.031816795 -0.040520016
0.061076574 0.069060355 0.05432557 0.015938867 0.021829592 -0.060088027 0.051441416 -0.05648159
-0.06227416 -0.03610231 0.07500127 -0.051890176 0.045945544 -0.023516474 0.07643694 -0.0024372458
-0.0025877433 -0.013997252 0.0035962516 -0.027397754 0.057602018 -0.026812049 0.042136777 -0.075615324
00000000: 811d 663c 4762 9d3d b79f a43d 9446 913d
00000010: 61fc 11bd 1bf0 303d 5452 023d 51f8 25bd
00000020: 6e2b 7a3d 846f 8d3d 7d84 5e3d 3a92 823c
00000030: f9d3 b23c dd1e 76bd 3cb4 523d 3d59 67bd
00000040: 3113 7fbd 04e0 13bd 449a 993d cb8a 54bd
00000050: 6531 3c3d 9fa5 c0bc f88a 9c3d 33ba 1fbb
00000060: 2197 29bb bb54 65bc 17af 6b3b 4171 e0bc
00000070: 18f0 6b3d f1a4 dbbc 9d97 2c3d 35dc 9abd

layer2.1.weight f4 [32]
1.0069265 0.99489254 1.0034955 0.9988756 0.9909466 0.99638474 0.9970211 1.0097083
1.0079993 0.99050355 0.9929617 0.994978 1.0080763 0.9881534 1.0029621 0.9997722
0.9944832 1.000404 1.000192 1.0037818 1.0040617 0.99872285 1.0028548 1.0098736
1.0007823 0.99595183 0.9988532 0.9990395 1.0004153 0.99700284 0.9979928 1.0037811
00000000: f8e2 803f 47b1 7e3f 8a72 803f 50b6 7f3f
00000010: adae 7d3f 1213 7f3f c63c 7f3f 1f3e 813f
00000020: 1f06 813f a491 7d3f bd32 7e3f e1b6 7e3f
00000030: a508 813f 9ff7 7c3f 1061 803f 12f1 7f3f
00000040: 7396 7e3f 3d0d 803f 4b06 803f ec7b 803f
00000050: 1885 803f 4dac 7f3f 8c5d 803f 8a43 813f
00000060: a219 803f b3f6 7e3f d8b4 7f3f 0dc1 7f3f
00000070: 9c0d 803f 943b 7f3f 757c 7f3f e67b 803f

layer2.1.bias f4 [32]
0.00096214854 -0.005119609 0.0036453218 -0.0032106086 -0.0014573971 -0.0069005126 0.0019025456 0.011575023
-0.0021612318 -0.003057545 -0.0035335124 9.337997e-05 0.0019071598 -0.0066503007 0.00024276317 -0.0022303688
-0.0012719299 -0.0012049696 0.004211247 0.00978033 -0.0030531788 0.00046918765 -0.0026451827 -0.003123586
-0.0017538681 0.007249847 0.0051293694 0.0034642708 0.0004989586 -0.0018748549 0.0028784354 0.0033692303
00000000: b238 7c3a 65c2 a7bb 5ae6 6e3b 1369 52bb
00000010: 2206 bfba b21d e2bb d65e f93a 2aa5 3d3c
00000020: 74a3 0dbb 1861 48bb 8092 67bb fdd4 c338
00000030: aaf9 f93a c4ea d9bb 3e8e 7e39 612b 12bb
00000040: e3b6 a6ba 12f0 9dba 80fe 893b ad3d 203c
00000050: d717 48bb 4dfd f539 cd5a 2dbb 14b5 4cbb
00000060: 0ce2 e5ba 2090 ed3b 4514 a83b d208 633b
00000070: 8bcc 023a b1bd f5ba 22a4 3c3b 4ece 5c3b

layer2.1.running_mean f4 [32]
-0.7833904 0.32215393 0.11888259 -0.31227213 0.07255059 0.0988799 -0.3857798 -0.3132353
-0.06525218 -0.016837038 -0.099283755 -0.1315234 -0.6956721 -0.30457795 0.044957444 0.07166825
-0.20241849 0.43652403 -0.13227062 -0.11376715 -0.46394703 -0.03562257 0.7314733 -0.26961425
-0.10187998 0.04957766 -0.15774138 -0.0099158045 -0.37246656 -0.23478016 0.8322574 -0.22347626
00000000: 468c 48bf 5cf1 a43e b778 f33d 22e2 9fbe
00000010: 6795 943d 8c81 ca3d ee84 c5be 6160 a0be
00000020: efa2 85bd d4ed 89bc 4855 cbbd 12ae 06be
00000030: 9117 32bf a4f1 9bbe 4c25 383d cec6 923d
00000040: cb46 4fbe 1480 df3e f371 07be c0fe e8bd
00000050: 778a edbe f9e8 11bd d641 3b3f e10a 8abe
00000060: 73a6 d0bd f211 4b3d f586 21be e675 22bc
00000070: f0b3 bebe 366a 70be d20e 553f f6d6 64be

layer2.1.running_var f4 [32]
0.12690653 0.06933345 0.49005336 0.10629672 0.42596132 0.08349334 0.122813694 0.07299069
0.09733301 0.18755294 0.09527857 0.103667684 0.24317491 0.19595094 0.12644894 0.17620608
0.14368235 0.10477046 0.10481558 0.053280745 0.068000756 0.16851845 0.16123717 0.082959905
0.18288395 0.06051304 0.12791522 0.19942974 0.073474154 0.12332611 0.47109938 0.41177356
00000000: c9f3 013e b2fe 8d3d 46e8 fa3e 18b2 d93d
00000010: 9a17 da3e 8efe aa3d bf85 fb3d 257c 953d
00000020: 8756 c73d e10d 403e 6921 c33d b94f d43d
00000030: d802 793e 5da7 483e d57b 013e 5e6f 343e
00000040: 7721 133e e591 d63d 8da9 d63d e93c 5a3d
00000050: fb43 8b3d 1a90 2c3e 5b1b 253e e2e6 a93d
00000060: ee45 3b3e 85dc 773d 35fc 023e 4f37 4c3e
00000070: 9e79 963d 6692 fc3d f033 f13e fcd3 d23e

layer3.0.weight f4 [64, 32, 3, 3]
-0.049406525 0.02119797 0.054466434 -0.009368057 0.02469761 0.011677226 0.03685152 -0.022184094
0.0038497641 0.031796597 -0.02406329 0.02559954 0.019557474 -0.026485682 0.035131868 0.056443255
0.061265312 -0.027058188 -0.018773645 0.028755527 0.0026261366 0.0375458 0.012413236 0.0057349545
-0.044728488 0.022847794 -0.030762034 0.047714505 0.04638606 -0.0262115 -0.054351065 0.060082935
-0.04736824 -0.003857915 0.00023674603 0.042182703 0.057105523 0.054855835 -0.027306663 0.0020203055
-0.023785869 0.0049335044 -0.0051963925 -0.046475153 0.0049450826 0.016478527 -0.00951066 0.008814856
-0.014554854 0.0036225829 -0.009586651 -0.048315678 0.014455799 -0.003124214 -0.056053165 -0.045090336
0.058099944 -0.04123955 -0.014092613 0.04039975 0.04118629 0.0030617137 0.014807798 0.016567657
-0.0168557 -0.0034177662 -0.036981173 0.048983652 0.03214987 0.044368718 0.04764408 0.05663108
-0.054507412 -0.05584433 -0.01949015 -0.035268515 -0.05633578 0.014742466 0.053906042 0.004582233
0.0055000233 0.049674552 0.044793557 0.05104968 0.018476173 -0.010469557 -0.03826066 0.0034905737
-0.029332066 0.02910434 0.021662984 0.00087242475 0.051615946 -0.03236009 -0.002776664 -0.039291266
0.05701464 0.012400127 0.013416003 0.028470937 0.04030488 -0.0027454891 0.02405986 -0.0061357464
0.025954919 -0.002667314 -0.029009735 -0.0058839507 -0.0334713 -0.026974885 0.031401955 -0.061442304
-0.040310837 -0.00952011 0.008631139 0.040131718 0.0036391364 0.0034630764 -0.03865829 0.052502494
0.04785832 0.0032299885 0.023134168 -0.032046594 0.01914286 0.039818708 0.055112857 -0.005743213
-0.056739833 0.041638035 0.013639957 0.0073628426 -0.029013602 0.023892103 0.008727708 0.03391373
0.03184052 0.043435927 -0.016305756 -0.019872002 -0.027928444 -0.025877165 0.014457775 -0.052552737
0.013315659 0.04189149 -0.055829324 -0.047368567 0.01660711 0.0016713435 -0.00049336744 -0.03249876
-0.058889262 -0.0012345954 0.060495853 0.03852877 0.019510664 0.04210809 -0.021876162 -0.030090965
-0.054390095 0.057629287 0.05571004 -0.05244626 0.0005449254 -0.0076949676 -0.048715796 0.0024541782
0.024347702 -0.04461166 -0.0065013845 -0.047187675 0.012984883 0.015394344 0.009815098 0.036084462
-0.017763495 0.002183675 -0.020856436 -0.0534192 0.033535868 -0.02344125 -0.037159745 0.034637086
-0.024469675 -0.030384889 -0.018835424 0.044249836 0.021239841 0.051489722 0.012109849 -0.018767945
-0.021256851 0.005856004 0.05279792 -0.0036239608 -0.0023792249 -0.04593819 -0.024315173 -0.053151757
0.024316505 0.05146607 0.032322865 0.031840313 0.04973784 0.061607033 0.04990267 0.048714027
-0.027422072 -0.056185406 0.043685727 0.031522542 -0.026269607 -0.017022338 -0.003872139 0.029949354
0.05932591 -0.0531402 -0.057548363 -0.043265756 -0.025449466 0.012182334 -0.03711311 -0.030534266
0.053515173 0.053485386 0.037467122 -0.030189462 -0.043200813 -0.009309653 0.042321894 -0.038654346
-0.002678486 -0.00033333438 0.00037783885 -0.0024253833 -0.006921205 0.04032708 -0.0082866335 0.017846989
-0.010168882 -0.0072530815 0.050138257 0.05004544 -0.03396895 0.028427437 0.04121567 0.03398668
-0.03397012 -0.055425286 0.004814653 0.025143972 0.046270713 0.019876093 -0.0065794215 -0.06580146
00000000: 7f5e 4abd 5da7 ad3c 3218 5f3d 7b7c 19bc
00000010: a452 ca3c d651 3f3c 9ff1 163d 6bbb b5bc
00000020: 534c 7c3b 263d 023d 6020 c5bc 20b6 d13c
00000030: ff36 a03c 80f8 d8bc 6fe6 0f3d 0b31 673d
00000040: 56f1 7a3d 22a9 ddbc 30cb 99bc b690 eb3c
00000050: 431b 2c3b a0c9 193d e360 4b3c 49ec bb3b
00000060: 3835 37bd 4c2b bb3c a900 fcbc 4970 433d
00000070: 4fff 3d3d 80b9 d6bc 399f 5ebd 8619 763d
00000080: 3305 42bd 13d5 7cbb 073f 7839 c5c7 2c3d
00000090: 7be7 693d 83b0 603d 39b2 dfbc 1a67 043b
000000a0: 95da c2bc 3ca9 a13b 8046 aabb bb5c 3ebd
000000b0: 5c0a a23b fafd 863c 99d2 1bbc 306c 103c
000000c0: 7b77 6ebc db68 6d3b 5411 1dbc a9e6 45bd
000000d0: 04d8 6c3c 9dbf 4cbb 0198 65bd a5b0 38bd
000000e0: 35fa 6d3d cdea 28bd b4e4 66bc 357a 253d
000000f0: f5b2 283d 08a7 483b 689c 723c e5b8 873c
00000100: f714 8abc 9afc 5fbb 9279 17bd 15a3 483d
00000110: 95af 033d f9bb 353d 7026 433d fef5 673d
00000120: 2a43 5fbd 06bd 64bd cfa9 9fbc b875 10bd
00000130: 59c0 66bd 628a 713c 95cc 5c3d 8e26 963b
00000140: 8a39 b43b 8b77 4b3d 7379 373d 7819 513d
00000150: 585b 973c 8188 2bbc 36b7 1cbd 1cc2 643b
00000160: cd49 f0bc 3a6c ee3c 9276 b13c 6fb3 643a
00000170: 3e6b 533d 048c 04bd b1f8 35bb e1ef 20bd
00000180: 2f88 693d e729 4b3c ccce 5b3c e23b e93c
00000190: bb16 253d aaed 33bb 2f19 c53c 5f0e c9bb
000001a0: 699f d43c 1ace 2ebb d3a5 edbc 28ce c0bb
000001b0: 3419 09bd 6ffa dcbc 569f 003d edaa 7bbd
000001c0: fa1c 25bd 3cfa 1bbc 9f69 0d3c 2861 243d
000001d0: 947e 6e3b c8f4 623b 2858 1ebd db0c 573d
000001e0: 1607 443d 37ae 533b de83 bd3c 4a43 03bd
000001f0: 7dd1 9c3c f118 233d 05be 613d 9031 bcbb
00000200: 0768 68bd a58c 2a3d 207a 5f3c 0044 f13b
00000210: efad edbc 5fb9 c33c a9fe 0e3c 20e9 0a3d
00000220: 356b 023d dfe9 313d a693 85bc 9cca a2bc
00000230: 31ca e4bc 59fc d3bc 4ee0 6c3c 8a41 57bd
00000240: ec29 5a3c 6996 2b3d 4aad 64bd 8b05 42bd
00000250: a20b 883c fb10 db3a 5455 01ba 6b1d 05bd
00000260: de35 71bd 26d2 a1ba 80ca 773d 58d0 1d3d
00000270: d4d4 9f3c 8879 2c3d a335 b3bc 5481 f6bc
00000280: 26c8 5ebd b00c 6c3d 3630 643d e4d1 56bd
00000290: 53d9 0e3a 1126 fcbb 378a 47bd 47d6 203b
000002a0: d574 c73c b7ba 36bd 9109 d5bb dd47 41bd
000002b0: 8cbe 543c 8f38 7c3c 81cf 203c 4dcd 133d
000002c0: c084 91bc fd1b 0f3b 1edb aabc 17ce 5abd
000002d0: e85c 093d dd07 c0bc d134 18bd 9edf 0d3d
000002e0: a174 c8bc bbe9 f8bc bf4c 9abc 513f 353d
000002f0: 2dff ad3c e3e6 523d 6368 463c 3cbf 99bc
00000300: d922 aebc b9e3 bf3b a242 583d f97f 6dbb
00000310: c5ec 1bbb af29 3cbd 9d30 c7bc a8b5 59bd
00000320: 6833 c73c 16ce 523d fb64 043d fd6a 023d
00000330: e8b9 4b3d a857 7c3d be66 4c3d 5c88 473d
00000340: 41a4 e0bc ab22 66bd ceef 323d c81d 013d
00000350: 5c33 d7bc 6e72 8bbc b6c3 7dbb 5958 f53c
00000360: baff 723d 8aa9 59bd d5b7 6bbd 6f37 31bd
00000370: 667b d0bc 6a98 473c eb03 18bd ff22 fabc
00000380: ba32 5b3d 7e13 5b3d 2077 193d e44f f7bc
00000390: 56f3 30bd 8487 18bc b959 2d3d 0554 1ebd
000003a0: 8a89 2fbb 62c3 aeb9 ac18 c639 2ef3 1ebb
000003b0: 47cb e2bb 022e 253d a9c4 07bc d933 923c
000003c0: 629b 26bc 42ab edbb c65d 4d3d 73fc 4c3d
000003d0: 0723 0bbd a8e0 e83c c3d1 283d 9e35 0b3d
000003e0: 4124 0bbd a005 63bd 3dc4 9d3b bbfa cd3c
000003f0: 5c86 3d3d 30d3 a23c 3098 d7bb eac2 86bd

layer3.0.bias f4 [64]
-0.015545143 0.003035892 -0.04010426 -0.012891415 0.000921186 -0.035601124 -0.017970938 -0.036152374
0.017739953 0.01250411 -0.026900895 0.02030105 0.012797357 -0.011537309 -0.04771301 -0.053366866
-0.030799475 0.02536996 -0.029033193 -0.043761928 -0.02081206 0.050905213 -0.022552062 -0.013699173
-0.0398132 0.0035482014 -0.0050983564 0.026890652 0.013141747 0.031373344 -0.007889976 -0.008257636
0.04940732 -0.033485174 -0.0066364347 -0.008086583 -0.0068527306 0.041837238 -0.04912252 -0.042681485
-0.021631196 -0.025198977 -0.034877636 0.022627445 -0.055529628 -0.032557692 0.03845101 0.020642204
-0.056918092 -0.03552242 -0.010258933 -0.016452856 0.05865597 -0.051042788 -0.03333904 -0.046162475
-0.055438783 -0.01991183 0.013761346 -0.034855943 0.023695502 -0.04751556 -0.030386098 -0.03715692
00000000: 0eb1 7ebc d1f5 463b 5d44 24bd 8336 53bc
00000010: bf7b 713a 7cd2 11bd ca37 93bc 8314 14bd
00000020: 6153 913c 0ade 4c3c 445f dcbc 634e a63c
00000030: 01ac 513c fb06 3dbc b86e 43bd 3797 5abd
00000040: 2e4f fcbc aad4 cf3c 05d7 edbc b53f 33bd
00000050: 0e7e aabc fc81 503d 1abf b8bc 7f72 60bc
00000060: 2a13 23bd f188 683b 1d10 a7bb c949 dc3c
00000070: 7b50 573c 5681 003d f544 01bc 094b 07bc
00000080: 545f 4a3d c027 09bd 7376 d9bb 967d 04bc
00000090: df8c e0bb 865d 2b3d b234 49bd c8d2 2ebd
000000a0: e833 b1bc 166e cebc dadb 0ebd 315d b93c
000000b0: 0973 63bd 375b 05bd ce7e 1d3d d719 a93c
000000c0: f222 69bd f57f 11bd 1515 28bc 24c8 86bc
000000d0: 3e41 703d 3e12 51bd 848e 08bd dd14 3dbd
000000e0: c713 63bd 221e a3bc 4577 613c 1bc5 0ebd
000000f0: 121d c23c ad9f 42bd 44ec f8bc db31 18bd

layer3.1.weight f4 [64]
1.0034351 1.0071557 1.0078884 1.0027075 1.0088127 1.0018138 1.0065717 1.0116036
1.0030245 1.0040761 0.9919569 1.0020175 1.005031 0.998914 0.99951833 1.0044643
1.0047123 1.0009838 1.0102375 1.0136329 1.0062298 1.004406 1.0005931 1.0036442
0.9959716 1.0035186 1.0041991 1.0033429 0.9994446 1.0026969 1.0119973 1.0039027
1.0059701 0.9972007 1.0079223 1.003107 0.99837714 1.0004116 1.0021377 0.9982887
1.0130918 0.9982258 1.0048475 1.0064175 1.0090387 1.0057263 1.0078084 0.995872
0.99687344 1.0022341 1.0011338 1.00439 1.0035914 1.0003589 1.0124559 0.99991065
0.9988669 1.0003089 0.9971471 0.99983853 1.0053457 0.9951122 1.0057675 0.9964537
00000000: 9070 803f 7aea 803f 7d02 813f b858 803f
00000010: c620 813f 6f3b 803f 57d7 803f 3a7c 813f
00000020: 1b63 803f 9185 803f e3f0 7d3f 1c42 803f
00000030: dba4 803f d4b8 7f3f 6fe0 7f3f 4992 803f
00000040: 6a9a 803f 3d20 803f 764f 813f b9be 813f
00000050: 23cc 803f 6090 803f 6f13 803f 6a77 803f
00000060: fff7 7e3f 4c73 803f 9989 803f 8a6d 803f
00000070: 9adb 7f3f 5f58 803f 2189 813f e27f 803f
00000080: a1c3 803f 8c48 7f3f 9903 813f cf65 803f
00000090: a595 7f3f 7d0d 803f 0c46 803f d98f 7f3f
000000a0: feac 813f ba8b 7f3f d89e 803f 4ad2 803f
000000b0: 2e28 813f a4bb 803f deff 803f 78f1 7e3f
000000c0: 1933 7f3f 3549 803f 2725 803f da8f 803f
000000d0: af75 803f c30b 803f 2898 813f 25fa 7f3f
000000e0: beb5 7f3f 1f0a 803f 0845 7f3f 6bf5 7f3f
000000f0: 2baf 803f acbf 7e3f fdbc 803f 9717 7f3f

layer3.1.bias f4 [64]
0.00092075684 0.0066649215 0.008988417 -0.00043607675 0.001736864 0.0012692441 0.0051423055 0.0019230865
-0.0032931678 -0.0031107743 -0.0063406196 0.0045303176 0.0031604064 0.0014166468 -0.00045611066 0.0016973474
-0.0011138384 0.0047351746 0.011689196 0.009235317 0.00025917147 -0.0020062374 -4.0825475e-05 0.0002494415
-0.0019260771 0.00073105766 0.00020784681 -0.002388819 -0.004091183 0.0011357785 0.006677429 0.0018693804
0.009612928 -0.004369696 0.005029622 0.00017128546 0.0014185056 0.0011831872 0.004323571 -0.0033042824
0.0050139255 0.0019532344 0.007855466 0.00426845 0.0008767434 0.003618025 0.0067089857 -0.0018570841
-0.006347379 0.00076962897 0.0039593563 0.00079967885 -0.0007133891 -0.0035375357 0.0032456524 -0.003999954
-0.000298581 -0.002909364 -0.0016808417 0.001483359 0.0037655232 -0.003862345 -0.0031475143 -0.00285612
00000000: f25e 713a 6a65 da3b 2744 133c 3ba1 e4b9
00000010: 7ca7 e33a c45c a63a c980 a83b 1310 fc3a
00000020: 30d2 57bb 22de 4bbb f9c4 cfbb 0f73 943b
00000030: d21e 4f3b c7ae b93a 2322 efb9 8779 de3a
00000040: 37fe 91ba 8629 9b3b 0b84 3f3c ba4f 173c
00000050: 68e1 8739 147b 03bb 053c 2bb8 79c7 8239
00000060: 6c74 fcba 73a4 3f3a 74f1 5939 bb8d 1cbb
00000070: 550f 86bb 67de 943a 56ce da3b ff05 f53a
00000080: 8b7f 1d3c ab2f 8fbb 87cf a43b 179b 3339
00000090: 26ed b93a 2d15 9b3a beac 8d3b a98c 58bb
000000a0: db4b a43b d601 003b 36b4 003c 5bde 8b3b
000000b0: 41d5 653a 631c 6d3b 0dd7 db3b 6769 f3ba
000000c0: adfd cfbb edc0 493a 7dbd 813b 8aa1 513a
000000d0: bb02 3bba 00d6 67bb 03b5 543b 0c12 83bb
000000e0: dd8a 9cb9 07ab 3ebb b04f dcba 456d c23a
000000f0: ffc6 763b 651f 7dbb 8746 4ebb be2d 3bbb

layer3.1.running_mean f4 [64]
0.29533708 -0.5903805 -0.28958818 0.37022597 0.40726057 0.1802493 -0.0079080835 -0.50821954
0.045303248 0.86790586 0.19715197 -0.045872387 -0.2500926 -0.71216 -0.32730225 -0.54982466
0.6822599 0.13327128 -0.2349665 -0.376187 0.2599666 0.36127427 -0.9494973 0.5415647
0.21944775 0.52274954 -0.26212245 -0.05453944 -0.36056823 -0.19333588 -0.46702766 0.704523
-0.11822464 -0.0415616 0.13143305 -0.2612804 -0.07642509 0.772073 -0.22236072 0.07476958
-0.5335534 -0.0016452015 -0.3042227 0.29310542 0.14188348 0.1988888 0.1906946 -0.58380437
0.11461382 0.22381604 0.9416074 -0.23461872 0.17279951 0.36003953 -0.22668576 -0.3061095
0.3338191 -0.24474297 -0.22847915 0.12791961 -0.12899786 -0.089193486 0.5798582 -0.5392627
00000000: 6c36 973e 2d23 17bf e744 94be 428e bd3e
00000010: 7584 d03e 4693 383e e890 01bc ad1a 02bf
00000020: e68f 393d 142f 5e3f 35e2 493e afe4 3bbd
00000030: 230c 80be 1e50 36bf 2994 a7be 4fc1 0cbf
00000040: 96a8 2e3f 4478 083e 0f9b 70be 959b c0be
00000050: 581a 853e f1f8 b83e 4112 73bf fca3 0a3f
00000060: e9b6 603e ead2 053f ea34 86be bf64 5fbd
00000070: 669c b8be d7f9 45be 401e efbe 9f5b 343f
00000080: c31f f2bd 7f3c 2abd 6396 063e 8bc6 85be
00000090: c284 9cbd 93a6 453f 87b2 63be cb20 993d
000000a0: f596 08bf cda3 d7ba 14c3 9bbe ea11 963e
000000b0: e749 113e 81a9 4b3e 7245 433e 3474 15bf
000000c0: a7ba ea3d 0830 653e 2f0d 713f e43f 70be
000000d0: 5bf2 303e 1a57 b83e 5020 68be 62ba 9cbe
000000e0: 56ea aa3e e79d 7abe 70f6 69be 5cfd 023e
000000f0: 0418 04be 13ab b6bd 9671 143f 1f0d 0abf

layer3.1.running_var f4 [64]
0.17747971 0.15246256 0.12332842 0.26190802 0.16382827 0.114815824 0.11298413 0.17394584
0.11487211 0.12465941 0.1253448 0.14228484 0.17107314 0.16950305 0.15103698 0.1279876
0.13647209 0.09899851 0.13813631 0.11072698 0.105679445 0.112137884 0.14964038 0.11725405
0.12901022 0.11400218 0.13011774 0.13229714 0.16665652 0.11466176 0.14562568 0.17901473
0.13223271 0.14303437 0.09940748 0.08420715 0.19189438 0.22023289 0.13562799 0.25660715
0.17534015 0.13445029 0.15207116 0.07818737 0.15148748 0.17454696 0.27556774 0.13570975
0.15507168 0.15940855 0.23108384 0.22699066 0.11014033 0.09760623 0.15567899 0.23854423
0.21291487 0.13228299 0.12409333 0.27239627 0.113466114 0.19203043 0.14352868 0.10563011
00000000: 3ebd 353e 251f 1c3e 9c93 fc3d cf18 863e
00000010: 99c2 273e 8f24 eb3d 3964 e73d dc1e 323e
00000020: 1242 eb3d 6f4d ff3d 635a 003e 1eb3 113e
00000030: cc2d 2f3e 3592 2d3e 70a9 1a3e 2e0f 033e
00000040: 57bf 0b3e bbbf ca3d 9b73 0d3e d4c4 e23d
00000050: 776e d83d 8ca8 e53d 543b 193e e422 f03d
00000060: 411b 043e fa79 e93d 963d 053e e778 073e
00000070: 02a8 2a3e c9d3 ea3d e61e 153e a34f 373e
00000080: 0368 073e 9a77 123e 2696 cb3d cc74 ac3d
00000090: f67f 443e bb84 613e 10e2 0a3e 0362 833e
000000a0: 5e8c 333e 56ad 093e 8bb8 1b3e b320 a03d
000000b0: 891f 1b3e 70bc 323e 3717 8d3e 7ff7 0a3e
000000c0: 1ccb 1e3e ff3b 233e 3ea1 6c3e 3d70 683e
000000d0: 4191 e13d c6e5 c73d 506a 1f3e f044 743e
000000e0: 5b06 5a3e 3175 073e a524 fe3d 8677 8b3e
000000f0: ec60 e83d a0a3 443e 2ff9 123e 9954 d83d

fc1.weight f4 [10, 576]
-0.0023858773 -0.015786678 -0.0164838 0.039848864 -0.04927439 -0.006003482 0.026307028 0.016093122
0.035217848 0.038202465 0.0072087785 0.038550265 0.009712981 -0.01633282 0.044150762 0.04898283
0.034488205 -0.026042204 -0.01239574 -0.036719512 -0.0013336166 0.035217952 0.02665534 0.03426244
-0.025516 -0.018170716 0.02033417 -0.019031733 -0.009074635 0.014978485 0.023074938 0.010968166
-0.027325809 0.016448077 -0.028385375 0.026796885 -0.015462195 -0.016104624 -0.04056088 -0.04788718
-0.02629982 -0.047043443 0.0022278307 0.01224471 0.014282448 -0.0025522085 0.010997015 -0.03154727
-0.03713689 -0.0054811877 -0.005757121 -0.0026153438 -0.028900653 -0.010887297 0.032141667 -0.027199404
-0.028788606 0.010157717 -0.009208606 0.02649926 0.0005697968 -0.02254312 0.034199268 0.048596494
0.0077971094 0.042806916 0.00766679 0.043487206 0.037689693 0.038325448 -0.004597596 0.046483967
0.032261137 0.028805608 -0.0355568 0.021856587 0.017238906 -0.04094934 -0.021272674 0.029826764
0.014527566 -0.0075965743 -0.023532934 -0.007461536 0.020089876 -0.011751782 0.021227455 0.007982486
-0.030696828 -0.025391843 -0.015453596 0.010478167 0.025021926 0.01146275 -0.029283028 -0.026742144
-0.015578429 -0.028384814 -0.0068049817 -0.018147439 0.022638246 0.04142076 -0.032857638 0.03768081
-0.015696246 -0.0034534577 -0.029081373 0.032321624 -0.021068033 0.012319973 -0.0027829842 0.00056645507
0.0041697132 -0.017083889 0.00078420585 0.041480202 0.0015873034 -0.012187596 -0.006702259 0.039787117
-0.013737119 -0.01144977 0.0065516895 0.017342273 -0.018624624 -0.03087136 -0.029637845 0.0425105
-0.021197952 0.045641772 0.00556124 0.020914081 -0.022285402 0.026549049 -0.019347267 -0.008693774
0.018533662 0.004407646 -0.005747615 -0.0074746185 0.033603754 0.01580326 -0.008807295 -0.00353484
0.0068997047 0.033035263 -0.0121306935 0.014948845 -0.0063850316 -0.012029989 0.02606528 -0.007935807
-0.014240641 0.014332856 -0.035666417 0.018089846 0.03384861 -0.01900622 0.040450845 -0.0016817574
0.0018533799 0.04082583 0.036155183 -0.017389342 0.017558169 -0.035460413 -0.04028824 0.037547193
0.012284264 0.0035637964 0.048247453 0.019036626 0.007944916 -0.013240358 0.013732173 0.010994719
0.042790808 -0.018190263 0.031741034 -0.026353044 -0.012279696 0.01475592 0.026470779 -0.024170525
-0.03449706 -0.0027879025 -0.03203326 -0.018403439 -0.053341713 -0.022544352 -0.031040717 -0.019974401
-0.0023539648 0.011681026 0.027590483 -0.03599563 0.0061915484 -0.055993114 0.036567274 0.02183834
0.043139298 0.0035906537 0.014571024 0.013986575 0.012404263 -0.011376883 -0.03817616 0.0047218525
0.01059313 -0.009602978 -0.009733379 -0.035379734 0.0049303956 -0.030483276 0.015123934 -0.037676748
0.006261134 0.011584581 -0.004863973 -0.03692211 -0.024833642 0.024688436 0.018646665 -0.0011602835
0.0149182975 0.016562888 0.04319505 -0.019511694 0.008600729 0.015383583 0.014292127 -0.03520296
-0.046889715 -0.047197044 -0.013458538 0.030406909 0.012524703 0.028598424 -0.018810254 -0.009817195
0.011995542 0.005714191 -0.047074217 0.019135594 -0.031280227 -0.014945136 -0.02030231 -0.007980331
0.008493184 0.045617934 0.008529253 0.017386148 0.0053591076 0.028973697 0.02402114 0.017314
00000000: 615c 1cbb 1053 81bc 0909 87bc 9038 233d
00000010: f1d3 49bd dbb8 c4bb d681 d73c b9d5 833c
00000020: 9740 103d 307a 1c3d 9e37 ec3b e2e6 1d3d
00000030: 3223 1f3c 68cc 85bc 6ed7 343d 38a2 483d
00000040: 8143 0d3d 7656 d5bc 8017 4bbc 3367 16bd
00000050: bfcc aeba b340 103d 4d5c da3c c656 0c3d
00000060: ee06 d1bc c1da 94bc d893 a63c 70e8 9bbc
00000070: c7ad 14bc 5268 753c a707 bd3c d3b3 333c
00000080: 60da dfbc 1ebe 863c 7288 e8bc 2485 db3c
00000090: 2555 7dbc d8ed 83bc 2a23 26bd 5925 44bd
000000a0: b872 d7bc a0b0 40bd cc00 123b 099e 483c
000000b0: ee00 6a3c f442 27bb d32c 343c b637 01bd
000000c0: da1c 18bd 899b b3bb 3ba6 bcbb 3066 2bbb
000000d0: 10c1 ecbc a260 32bc fba6 033d 49d1 debc
000000e0: 15d6 ebbc 8e6c 263c b1df 16bc fa14 d93c
000000f0: 6a5e 153a 59ac b8bc 8814 0c3d 1e0d 473d
00000100: e57e ff3b 4e56 2f3d b239 fb3b a41f 323d
00000110: 8260 1a3d 25fb 1c3d 6ea7 96bb f965 3e3d
00000120: 4124 043d bdf9 eb3c 02a4 11bd 960c b33c
00000130: 9b38 8d3c 7fba 27bd 0844 aebc 4257 f43c
00000140: 0705 6e3c afec f8bb 24c8 c0bc e77f f4bb
00000150: 8693 a43c 8c8a 40bc 33e5 ad3c f9c8 023c
00000160: ea77 fbbc 8e02 d0bc 1431 7dbc 9eac 2b3c
00000170: c8fa cc3c 42ce 3b3c f6e2 efbc 5712 dbbc
00000180: ab3c 7fbc 4587 e8bc 53fc debb f0a9 94bc
00000190: d873 b93c d1a8 293d bb95 06bd 3157 1a3d
000001a0: 6a95 80bc 6853 62bb 0f3c eebc ae63 043d
000001b0: de96 acbc b6d9 493c ba62 36bb 287e 143a
000001c0: 17a2 883b 83f3 8bbc 2a93 4d3a 25e7 293d
000001d0: 100d d03a 7cae 47bc a09e dbbb d1f7 223d
000001e0: a711 61bc d197 3bbc 8eaf d63b 6211 8e3c
000001f0: ab92 98bc efe5 fcbc 11cb f2bc 7d1f 2e3d
00000200: 54a7 adbc def2 3a3d 103b b63b 0254 ab3c
00000210: e08f b6bc 647d d93c 297e 9ebc 5570 0ebc
00000220: e8d3 973c 046e 903b 7d56 bcbb a5ed f4bb
00000230: 17a4 093d d775 813c 794c 10bc c6a8 67bb
00000240: eb16 e23b fc4f 073d d1bf 46bc 00ec 743c
00000250: 8739 d1bb 6e19 45bc db86 d53c 3005 02bc
00000260: 9451 69bc 5bd4 6a3c f316 12bd 2831 943c
00000270: d7a4 0a3d efb2 9bbc c9af 253d 6a6e dcba
00000280: 1ced f23a fc38 273d 7517 143d 1874 8ebc
00000290: 26d6 8f3c f03e 11bd 4805 25bd 16cb 193d
000002a0: f043 493c 958e 693b 1f9f 453d b3f2 9b3c
000002b0: 652b 023c 16ee 58bc e8fc 603c 3223 343c
000002c0: 6a45 2f3d bf03 95bc e302 023d 57e2 d7bc
000002d0: c730 49bc d0c2 713c 3fd9 d83c 4401 c6bc
000002e0: ca4c 0dbd 3eb5 36bb 4f35 03bd cfc2 96bc
000002f0: d77c 5abd efae b8bc 1a49 febc 5ba1 a3bc
00000300: fa44 1abb c661 3f3c 7005 e23c 2770 13bd
00000310: 79e2 ca3b 0959 65bd 91c7 153d 52e6 b23c
00000320: d5b2 303d 2c51 6b3b 4ebb 6e3c f327 653c
00000330: 403b 4b3c 1b66 3abc 9b5e 1cbd c5b9 9a3b
00000340: cf8e 2d3c cf55 1dbc c078 1fbc 57ea 10bd
00000350: 288f a13b 10b8 f9bc 60ca 773c ef52 1abd
00000360: 332a cd3b 41cd 3d3c f661 9fbb a33b 17bd
00000370: ec6f cbbc 673f ca3c e4c0 983c a714 98ba
00000380: e06b 743c e5ae 873c 4bed 303d fdd6 9fbc
00000390: 12ea 0c3c 6c0b 7c3c 8729 6a3c fb30 10bd
000003a0: 6e0f 40bd b051 41bd 3381 5cbc e917 f93c
000003b0: 6934 4d3c 3e47 ea3c f617 9abc 4dd8 20bc
000003c0: f388 443c 1c3e bb3b e5d0 40bd 40c2 9c3c
000003d0: b21f 00bd 72dc 74bc 0851 a6bc efbf 02bc
000003e0: ff26 0b3c dfd9 3a3d 48be 0b3c 656d 8e3c
000003f0: 749b af3b 3f5a ed3c fbc7 c43c 17d6 8d3c

fc1.bias f4 [10]
0.035600226 0.02046934 -0.030897828 0.018619362 0.007272176 0.03564831 -0.009274199 -0.040076315
-0.0019892228 -0.015618585
00000000: 8bd1 113d 51af a73c 711d fdbc a287 983c
00000010: 6f4b ee3b f603 123d cff2 17bc 1027 24bd
00000020: 9f5d 02bb 18e5 7fbc

fc2.weight f4 [2, 10]
0.25700632 0.18293417 -0.02786398 0.31291285 -0.21876824 -0.16958751 -0.307044 0.06601553
0.10071806 -0.19326536 0.23549351 -0.12457543 0.24469374 -0.05430797 0.10771723 -0.18881993
-0.26087657 0.11198118 -0.08401872 0.30626395
00000000: 5596 833e 1853 3b3e 0043 e4bc 1d36 a03e
00000010: c804 60be 59a8 2dbe df34 9dbe 2633 873d
00000020: 4545 ce3d 5be7 45be 3625 713e 6721 ffbd
00000030: ff90 7a3e 0972 5ebd da9a dc3d 035a 41be
00000040: 9d91 85be 6456 e53d 0212 acbd a1ce 9c3e

fc2.bias f4 [2]
-0.102824524 -0.2417869
00000000: aa95 d2bd fc96 77be

exp_avg f4 [16, 3, 3, 3]
0.007922163 0.007275779 0.007312802 0.006754741 0.0061688134 0.0059020445 0.006402309 0.005077386
0.0046823383 0.004549545 0.004265613 0.0046834825 0.0029469845 0.0027694877 0.0027463196 0.0023535772
0.0011755934 0.0009839528 0.0009795377 0.0010294454 0.0014816917 0.00012830779 0.00043523937 0.00041841387
0.00021649472 -0.0004445585 -0.0006028149 -0.00015907167 -0.0015369641 -0.0013941843 -0.00019868097 -0.0011192834
-0.0008622241 -0.00013079875 -0.00065758766 3.229276e-05 -0.00010116302 -0.0014780291 -0.0014893529 -0.00017205405
-0.0011797836 -0.0010478725 -0.00018631213 -0.0007736695 -0.00018317685 0.0046965578 0.0033318994 0.003333199
0.004626731 0.0037095512 0.0038785844 0.004596051 0.0040811864 0.0047690077 -0.017734863 -0.016819559
-0.014618182 -0.01668692 -0.015621289 -0.013205308 -0.016351957 -0.014875647 -0.012522786 -0.010540656
-0.010095451 -0.00833903 -0.009172163 -0.008681371 -0.0068054064 -0.008472709 -0.0074683675 -0.0057992516
-0.011853731 -0.01152368 -0.010011018 -0.010385273 -0.010040443 -0.008414344 -0.009810581 -0.0091018835
-0.007764546 -0.06337834 -0.056081925 -0.052259427 -0.06269109 -0.058462724 -0.052999593 -0.06487984
-0.06267417 -0.05791428 -0.08394837 -0.07562366 -0.07051608 -0.083311826 -0.07828309 -0.0722151
-0.08560577 -0.083402954 -0.077400275 -0.03884408 -0.028675742 -0.019597093 -0.04029723 -0.033809047
-0.02331881 -0.04423012 -0.039502665 -0.029965166 -0.002869129 -0.0037955828 -0.003849431 -0.0034326434
-0.004453904 -0.004940324 -0.0038167054 -0.004604668 -0.0050023645 -0.0005971734 -0.0013619079 -0.00126662
-0.0012831469 -0.0020945822 -0.0024554431 -0.0017754105 -0.0023716306 -0.0026616226 0.0029476897 0.0022486383
0.0021502858 0.002068365 0.0012948479 0.0007657345 0.0013128527 0.0006824653 0.00031816674 0.0010347258
0.0004534018 0.00010565169 0.0022470832 0.0014967552 0.0010292989 0.0020910383 0.0016902314 0.0011659964
0.00152276 0.00077415403 0.00033259462 0.0028027687 0.0018871565 0.0013537691 0.002858392 0.0021893596
0.0015457269 -0.0023027742 -0.0028689075 -0.0032355748 -0.00092383916 -0.0016539538 -0.0021789032 -0.0007719478
-0.0012215083 -0.0018951779 -0.0043317648 -0.0005949059 0.0015788398 -0.0037161587 -0.00069837755 0.0016666617
-0.003530495 -0.0013250195 0.0012452306 0.0012656411 0.004401424 0.0063670236 0.0016854386 0.00420006
0.006648289 0.0017503997 0.0037880614 0.0064174826 -0.0018692019 0.0010913569 0.0023708255 -0.0017615592
0.0005876709 0.0022340994 -0.0019567653 -0.00047924145 0.0015465983 -0.006326268 -0.008580738 -0.013850473
-0.006575159 -0.006858159 -0.009386937 -0.0044198288 -0.0016294708 -0.002386967 0.007266999 0.00432502
-0.0018988441 0.0074918997 0.0062610987 0.0026001509 0.00921708 0.010964401 0.009156913 0.021104526
0.016540453 0.01011088 0.021746052 0.019153284 0.015027348 0.024524603 0.024604274 0.022956254
-0.0007970111 -0.0014365109 -0.0016969983 -0.000742072 -0.0018585185 -0.0023446803 -0.00079099735 -0.0016488425
-0.0017190248 0.0036969995 0.0031172817 0.0030112094 0.0036507954 0.0025346489 0.002281562 0.0034822365
0.002688429 0.0028537249 -0.0010692088 -0.0014047761 -0.0012428134 -0.0009123058 -0.0017910055 -0.0017510453
-0.0010991725 -0.0015680144 -0.0011472867 -0.014279291 -0.020987535 -0.023261392 -0.016823389 -0.02155248
-0.023474287 -0.01858196 -0.021305075 -0.022571687 -0.024663426 -0.030969104 -0.033387408 -0.027027093
00000000: f6cb 013c a869 ee3b 3ba0 ef3b e056 dd3b
00000010: c223 ca3b f065 c13b 76ca d13b 3360 a63b
00000020: 4d6e 993b 5914 953b 8ec6 8b3b e677 993b
00000030: 3222 413b 4b80 353b 99fb 333b 793e 1a3b
00000040: 5e16 9a3a faf7 803a d563 803a 75ee 863a
00000050: 5335 c23a 5c8a 0639 d730 e439 8f5e db39
00000060: dc02 6339 a213 e9b9 3906 1eba 7acc 26b9
00000070: f573 c9ba 10bd b6ba 0455 50b9 ebb4 92ba
00000080: e106 62ba 0627 09b9 f661 2cba 1672 0738
00000090: 7c27 d4b8 6dba c1ba 6436 c3ba 6869 34b9
000000a0: f8a2 9aba c458 89ba c85c 43b9 15d0 4aba
000000b0: 2913 40b9 95e5 993b ff5b 5a3b cd71 5a3b
000000c0: d59b 973b f11b 733b d92f 7e3b 789a 963b
000000d0: 79bb 853b 5645 9c3b b448 91bc 2cc9 89bc
000000e0: 1981 6fbc 02b3 88bc 6ff0 7fbc 135b 58bc
000000f0: 8af4 85bc fcb8 73bc 5f2c 4dbc b7b2 2cbc
00000100: 6467 25bc 6da0 08bc d746 16bc 4f3c 0ebc
00000110: e3ff debb 1ed1 0abc 35b9 f4bb a607 bebb
00000120: 2736 42bc d1cd 3cbc 4105 24bc fe26 2abc
00000130: ac80 24bc 51dc 09bc 8fbc 20bc 1120 15bc
00000140: bc6d febb 81cc 81bd 29b6 65bd fb0d 56bd
00000150: 3064 80bd 9c76 6fbd 1a16 59bd b9df 84bd
00000160: 515b 80bd 8637 6dbd 1fed abbd 94e0 9abd
00000170: bc6a 90bd 649f aabd e252 a0bd 83e5 93bd
00000180: 1452 afbd 2bcf aabd 0984 9ebd f81a 1fbd
00000190: 64e9 eabc 158a a0bc b50e 25bd 5b7b 0abd
000001a0: 1707 bfbc a42a 35bd 8ccd 21bd 8279 f5bc
000001b0: ff07 3cbb 50bf 78bb bc46 7cbb 33f6 60bb
000001c0: 0ef2 91bb 71e2 a1bb b121 7abb c1e2 96bb
000001d0: e0ea a3bb a18b 1cba 0c82 b2ba b704 a6ba
000001e0: 442f a8ba 4245 09bb 80eb 20bb e4b4 e8ba
000001f0: 5c6d 1bbb 9e6e 2ebb 072e 413b e45d 133b
00000200: cfeb 0c3b 688d 073b e3b7 a93a 93bb 483a
00000210: 0714 ac3a 79e7 323a 9ecf a639 a39f 873a
00000220: 8fb6 ed39 5291 dd38 cd43 133b c52e c43a
00000230: 8ae9 863a cd09 093b c18a dd3a 59d4 983a
00000240: 5997 c73a 99f0 4a3a 1860 ae39 a8ae 373b
00000250: 775a f73a f470 b13a dc53 3b3b 5c7b 0f3b
00000260: fd99 ca3a 24ea 16bb 4804 3cbb f00b 54bb
00000270: cc2d 72ba 7bc9 d8ba eecb 0ebb 8a5c 4aba
00000280: 041b a0ba 9e67 f8ba 7af1 8dbb 76f3 1bba
00000290: 13f1 ce3a cc8a 73bb 5313 37ba e373 da3a
000002a0: e15f 67bb 47ac adba 0137 a33a dee3 a53a
000002b0: d239 903b 77a2 d03b efe9 dc3a a8a0 893b
000002c0: e4d9 d93b ab6d e53a 2041 783b bf49 d23b
000002d0: 0200 f5ba dc0b 8f3a da5f 1b3b 1ee4 e6ba
000002e0: ed0d 1a3a f869 123b 133d 00bb b342 fbb9
000002f0: 3ab7 ca3a 954c cfbb 3996 0cbc 18ed 62bc
00000300: 6e74 d7bb 68ba e0bb abcb 19bc 36d4 90bb
00000310: f893 d5ba a96e 1cbb 0220 ee3b e6b8 8d3b
00000320: a3e2 f8ba 9c7e f53b e729 cd3b 4b67 2a3b
00000330: 3c03 173c 08a4 333c e006 163c 66e3 ac3c
00000340: d87f 873c 1ba8 253c c724 b23c 59e7 9c3c
00000350: 4435 763c d2e7 c83c e78e c93c c10e bc3c
00000360: 82ee 50ba 4f49 bcba d06d deba 9c87 42ba
00000370: 8899 f3ba 35a9 19bb ef5a 4fba f91d d8ba
00000380: e750 e1ba 5c49 723b 4f4b 4c3b b657 453b
00000390: 2f42 6f3b 5a1c 263b 4286 153b 3c36 643b
000003a0: 5b30 303b 8f05 3b3b b224 8cba 7720 b8ba
000003b0: e6e5 a2ba ce27 6fba 2cc0 eaba 5583 e5ba
000003c0: 1c12 90ba d585 cdba 8e60 96ba b0f3 69bc
000003d0: 0dee abbc ad8e bebc 34d1 89bc d48e b0bc
000003e0: 264d c0bc 3239 98bc fb87 aebc 42e8 b8bc
000003f0: f40a cabc ebb2 fdbc 3cc1 08bd ec67 ddbc
